checkpoints/biped_balance.pt (torch, 86947 bytes, 8 tensors)

log_std f4 [6]
000000 4d 85 5c c0 8c cd 54 c0 26 3f 5a c0 4e 5f 5d c0
       -3.445636 -3.3250456 -3.4101043 -3.458942
000010 c1 d4 58 c0 38 03 5d c0
       -3.3879855 -3.4533215

body.0.weight f4 [128, 25]
000000 fb 25 86 3c 34 fe db 3d 2a df 00 be 2c af 29 be
       0.016375532 0.10741845 -0.1258513 -0.16570729
000010 00 76 38 3e c3 a2 a6 3e a8 5f cf 3c f3 ed c4 be
       0.18013763 0.32546052 0.025314167 -0.3846279
000020 f3 18 4e bf 84 db b9 bd b3 55 b4 3e 74 28 c3 3e
       -0.8050682 -0.090750724 0.35221633 0.381168
000030 a4 2c 41 bf 9d 9d ff bd dd ad 63 be 49 8b 6f 3d
       -0.7545874 -0.12481234 -0.22234292 0.058482442
000040 9b b4 be be c6 41 88 be 28 ab 33 3e e2 cc c2 3e
       -0.37247166 -0.2661268 0.1754576 0.38046938
000050 3b 3e ec 3d fb 94 27 3d 63 c0 df 3d c3 fe 70 bc
       0.11535307 0.040913563 0.10925367 -0.014709177
000060 ae dd 93 3c ab f1 37 be ec 88 49 bd 20 55 8c bd
       0.018050041 -0.17963283 -0.049202845 -0.06852174
000070 94 46 f5 bd 92 25 6c 3e 01 9e e0 3d aa 01 bd bd
       -0.11976352 0.23061207 0.10967637 -0.09228833
000080 c1 34 48 be 28 07 0e bf 62 1a dc 3e 1e 3a a9 3f
       -0.19551374 -0.5547967 0.42988878 1.3220861
000090 04 f2 63 bf 0f d7 d6 be da 65 31 be 06 8c 8e be
       -0.8904116 -0.41960952 -0.1732401 -0.27841204
0000a0 56 74 65 be bf 33 3f 3e 26 8e 71 be 1d 4d 2e be
       -0.2240766 0.18672083 -0.23589382 -0.17021604
0000b0 36 9b 98 be 31 3e 13 be 93 6d 05 be 71 bf 46 bd
       -0.29805917 -0.14379193 -0.1303008 -0.048522417
0000c0 64 37 45 be 1d e3 93 be af e3 da 3e 12 47 01 3d
       -0.19259411 -0.2888421 0.42751834 0.03156192
0000d0 c9 f4 97 3e d0 1f 1d 3d f4 0b 5b bf df 95 d8 bc
       0.29678944 0.038360417 -0.85565114 -0.026438652
0000e0 94 aa e2 3d 33 41 0c 3d 50 80 37 3e e5 0a 0c bf
       0.110676914 0.034241866 0.17920041 -0.54704124
0000f0 e4 7c dd 3e 77 48 52 3e a4 ea 59 3f 23 cf 81 3e
       0.43259346 0.20535456 0.8512366 0.25353345
000100 f7 19 90 3e d6 12 a1 be 68 59 dc 3d e5 e7 86 3e
       0.2814481 -0.31459683 0.107592404 0.26348796
000110 70 41 2c 3e bd 73 47 be 3e c9 47 be 71 4c 1d be
       0.16821837 -0.19477744 -0.19510362 -0.15361191
000120 fb 6a 63 be a8 66 06 be a2 9a 13 3e 2d 57 3f 3d
       -0.22208779 -0.13125098 0.14414456 0.046713997
000130 d7 e5 9e bd 7d ff 51 bd 12 13 b2 3d 69 39 0f bf
       -0.07758682 -0.051269043 0.086950436 -0.55946976
000140 5e ed 40 be b4 36 cf 3d 44 eb a9 3e 09 a4 24 3e
       -0.18840548 0.10117856 0.33187306 0.160782
000150 b7 01 0b bf 21 9a 16 bf 99 f7 62 3f d6 67 a3 3f
       -0.5429949 -0.5882893 0.88659054 1.2766063
000160 f3 b1 27 3e 8f 8b 92 3d 20 12 98 3d bd e3 d4 3c
       0.16376476 0.07155525 0.07425332 0.0259875
000170 5b 6e 12 3e df cf 6c bb cf b0 98 3d ad 6b 48 be
       0.1429991 -0.0036134643 0.074555986 -0.19572325
000180 58 b2 8d be 99 f2 0a 3e 26 24 76 3d f3 36 9e bd
       -0.27675128 0.13569106 0.060093068 -0.077253245
000190 22 a3 77 3d aa 80 a1 3e 08 8e 92 3d d0 25 0c be
       0.06045831 0.31543475 0.071559966 -0.136863
0001a0 a5 f4 34 be 91 ed 05 3f df b7 18 3e 46 cf 13 3f
       -0.1767145 0.5231562 0.14913891 0.5773815
0001b0 9e 9e 7e bd 9b 3c 33 bf 32 1b 82 bf 7b 4f 7c bd
       -0.062162988 -0.7001435 -1.0164549 -0.061599236
0001c0 57 96 4f 3f 57 ac b2 bc 48 28 cf 3c f5 99 f2 3d
       0.81088775 -0.021810694 0.025287762 0.11845771
0001d0 f8 5c 36 3d 26 dc 6c bd df 22 ac 3e 25 96 02 3e
       0.044522256 -0.057827137 0.33620355 0.12752588
0001e0 25 e9 51 3e dc 89 6d be 93 d9 c0 be 39 3e a3 bd
       0.20499094 -0.2319712 -0.37665996 -0.079708524
0001f0 1c 6e 03 3e 9d b7 8f 3e 85 20 db bd 58 ea 11 bd
       0.12834972 0.28069773 -0.10699562 -0.03562388
000200 20 53 12 3e ea 99 42 bd 54 33 34 bd b9 84 29 3e
       0.14289522 -0.047510065 -0.043994263 0.16554536
000210 f7 b7 cc be 23 ba 6b 3c ce e4 a9 bf bf 6d 39 bf
       -0.39984104 0.01438764 -1.3272951 -0.72433084
000220 c7 11 39 3f e0 22 21 3e 85 c8 5d 3d 9c 59 3a be
       0.7229275 0.1573596 0.05414631 -0.18198246
000230 16 e6 1d be 3a 7b 19 3e b9 97 64 3e 1f e5 ff bb
       -0.15419802 0.14988413 0.22323503 -0.007809296
000240 06 2d e8 3d 2f f4 fb bc 5e c9 2f 3e d6 36 d5 bd
       0.113367125 -0.030756084 0.17166659 -0.1041085
000250 ca 72 12 3e 08 de 97 3e 7d fd 94 bd ab 7e 88 bd
       0.14301601 0.29661584 -0.072749116 -0.06664785
000260 f5 b0 25 3e fe 6c 8a 3c cf ca e9 3d 85 37 6a 3c
       0.16180785 0.016897675 0.11415636 0.014295463
000270 73 9c c4 3d 38 4a c8 be 85 80 00 bf d6 9f 63 3f
       0.09600153 -0.39119124 -0.50196105 0.88915765
000280 cc 91 36 3f e4 08 27 3f e4 93 0b bf ff 41 8a 3e
       0.7131622 0.6524794 -0.5452254 0.27003476
000290 24 cb 08 3e 49 37 b2 3d d5 08 df 3d 00 95 7c 3d
       0.13358742 0.08701951 0.108903565 0.061665535
0002a0 0d 10 0e be 41 43 83 3d e8 70 5b 3e 7c 5b b1 3d
       -0.1387331 0.06409312 0.21429789 0.086600274
0002b0 d3 de 23 be 5e ea 22 3f db b1 84 be 03 78 18 be
       -0.1600297 0.63638866 -0.25916943 -0.14889531
0002c0 a0 5e 86 be 46 d2 d7 3d 4f bc 66 bd b2 7f 96 3e
       -0.26244068 0.10538153 -0.05633193 0.293943
0002d0 ee 15 2a 3e 31 24 7a 3c c3 b0 99 bf 59 6e 91 be
       0.16609928 0.015267418 -1.2007068 -0.284045
0002e0 05 73 3c 3f 42 c2 0a 3f 88 73 0d 3e aa 5f e2 be
       0.73613006 0.54202664 0.13813603 -0.4421361
0002f0 3d f3 ba bb b5 5c 62 3e 57 e2 a5 bc 91 1e 6b bc
       -0.005705266 0.22105677 -0.020249529 -0.014350549
000300 04 d3 1d 3f a9 40 ec be fb 58 b6 3e a7 c9 30 bf
       0.6165011 -0.46143082 0.35614762 -0.690577
000310 83 67 a6 bd 84 ef a9 be c1 a2 0a 3f 27 04 84 bd
       -0.08125212 -0.33190548 0.5415459 -0.064461045
000320 f4 38 b5 3d f9 ea 29 3e 56 14 db 3d 38 cb 86 bc
       0.088487536 0.16593541 0.10697238 -0.016454324
000330 dd ee af 3d d8 18 d6 bb a9 3b 34 bd 76 3f ff 3e
       0.085904814 -0.0065337233 -0.04400221 0.49853104
000340 a2 20 19 be b3 4f 68 3e 41 57 1a 3f d1 4b 21 bf
       -0.14953855 0.22686653 0.6028939 -0.6300631
000350 6d 92 50 3e 02 1a ae 3d 63 6c b6 3d ff 9c cd 3c
       0.20368357 0.08501054 0.08907392 0.025099276
000360 5d 9a 6e 3e 78 41 0e 3e d2 e6 43 be cd f5 9d bd
       0.23301072 0.13892162 -0.1913102 -0.077128984
000370 02 ee 35 3e a9 16 ae be 23 4f de 3d 10 7c 17 be
       0.17766574 -0.34001663 0.10854938 -0.1479342
000380 62 a2 ee bd d8 72 c0 3e 6c f4 63 be e1 aa a2 3d
       -0.11652066 0.3758762 -0.22261208 0.07942749
000390 c9 3e 8d 3e b6 6c 2c be 77 55 83 3d 4b 89 6a 3e
       0.27586964 -0.16838345 0.064127855 0.22903936
0003a0 63 a8 bb bd 1d b5 24 be ea 2a 39 bd 6c 91 f0 3e
       -0.091629766 -0.16084714 -0.04520694 0.46985948
0003b0 99 5e 71 3f 9e 24 c5 3e 09 b1 35 3f ff 16 bb 3b
       0.9428497 0.385045 0.7097326 0.0057095285
0003c0 22 30 6c 3e 39 e7 96 3e 7a f8 ba be f1 bd a3 bd
       0.23065236 0.29473284 -0.36517698 -0.07995213
0003d0 85 1d 0a bd 37 ab 1d 3e 0e 73 a8 be d8 70 8b bd
       -0.03371956 0.15397345 -0.3290028 -0.068086326
0003e0 c0 12 3e be 56 44 04 3e 1c 97 b1 3d cd 7a a5 be
       -0.1856184 0.12916693 0.086714 -0.32320252
0003f0 14 bb fd 3c 47 a5 d5 bd 76 c4 48 be 4a a2 33 bf
       0.030972995 -0.10431915 -0.19606194 -0.7016951

body.0.bias f4 [128]
000000 95 47 91 bb 99 40 a8 bd 3f 36 90 3e 4e 71 80 bc
       -0.004433582 -0.08215446 0.28166386 -0.015679028
000010 21 8b 8c bc 34 fe e0 3d 39 fe 19 3e b3 5d 10 3e
       -0.017156186 0.109859854 0.15038384 0.14098243
000020 e0 ef e8 3d 9b 77 81 3e f6 d5 c4 3d f0 57 27 be
       0.113738775 0.25286564 0.09611122 -0.16342139
000030 9a 3a 9d bb f0 e8 83 be 80 2b 19 3d 1e db 6b be
       -0.0047982456 -0.25763655 0.037395 -0.23032805
000040 be e7 c1 bc ca 90 52 3e ab d1 30 3e 76 90 57 3d
       -0.023670074 0.20563045 0.17267482 0.052628003
000050 1e 5c b6 be 0f 04 29 3d 09 da a8 3e 81 34 1a 3e
       -0.35617155 0.041263636 0.32978848 0.15059091
000060 03 e4 e7 bd 5f 32 7b 3e c5 3d a3 bd 14 9f bf bd
       -0.11322787 0.24530934 -0.07970766 -0.093565136
000070 cc 14 be be d8 cd d7 bd a5 dc 04 be 0e 96 f9 3d
       -0.37125242 -0.105373085 -0.12974794 0.12186824
000080 53 6c 71 be 71 2d 2a 3e aa 8e 99 be 6d 8a 81 be
       -0.23576479 0.16618897 -0.29991657 -0.25300923
000090 66 60 92 3e 83 c0 b8 be 57 d1 34 be 79 af 42 bd
       0.2858917 -0.36084375 -0.17657982 -0.047530625
0000a0 54 37 4b be b3 09 ae be 4b 4c 73 3e c7 81 97 3e
       -0.19845325 -0.33991775 0.23759572 0.295912
0000b0 61 8b 03 be 48 99 ea bd 0a c0 df bd e5 cf 71 3e
       -0.12846138 -0.11455017 -0.109253004 0.23614462
0000c0 1f 92 69 be f8 8c 8f 3e 81 e3 11 be 9d 8f 67 be
       -0.22809647 0.28037238 -0.14246942 -0.22613378
0000d0 0c bc 3f be fa 35 52 bd 5a 67 35 3e e9 c4 5c 3e
       -0.18724078 -0.051321007 0.17715207 0.2155949
0000e0 bf 4e ee be 85 be d5 3d 6a 66 8a bd 28 87 93 38
       -0.46544454 0.10436729 -0.06757815 7.034681e-05
0000f0 b2 d4 8b bd 33 44 55 be ba f9 a9 3c a1 e5 20 be
       -0.06827678 -0.20826797 0.020748962 -0.15712596
000100 90 6e a6 be 3a 26 8e 3e d7 86 a0 be 17 d4 81 be
       -0.32506227 0.2776354 -0.31352875 -0.25357124
000110 09 89 dc be cf 9e de 3e 18 a3 fb 3e 0b a4 8c bd
       -0.430733 0.43480536 0.49147868 -0.06867226
000120 22 c1 6b be b7 2d 54 3e 02 b2 40 bd 9b 93 34 3e
       -0.23022893 0.20720564 -0.04704476 0.17634432
000130 5a 72 1b be 09 19 af bd f4 48 78 be f2 d5 06 bf
       -0.1518034 -0.08549697 -0.2424658 -0.52670205
000140 f2 72 ca be f9 df 88 3d 62 57 90 3d e0 4f de 3d
       -0.3954082 0.066833444 0.07047917 0.10855079
000150 eb 7a 29 be 1b 99 0d be 0a 52 60 3e 60 df b3 3e
       -0.16550796 -0.13827936 0.21906295 0.3513136
000160 3f 02 32 3e d0 01 f4 3d 12 ec a5 3e 37 fa e9 3d
       0.1738367 0.11914408 0.3240667 0.11424678
000170 44 a0 bf be 02 f0 a2 bd 8d 85 e2 3d 08 5e f1 3d
       -0.3742696 -0.07955934 0.11060629 0.11785513
000180 3e 3e 8b 3e 4d 67 08 3e e6 34 0a 3d 3a 41 5f bd
       0.27195925 0.13320656 0.033741854 -0.054505564
000190 20 1f 24 3e 7d 05 42 bd e1 5c ad 3d e8 30 bf 3c
       0.16027498 -0.047368515 0.08464981 0.02333875
0001a0 b0 b9 2d 3d ac bb bd be b5 61 8a 3e cf 64 f0 3e
       0.042413414 -0.37057245 0.2702767 0.4695191
0001b0 85 39 8a be ff d6 7f 3e 46 72 e8 bd 7e c0 18 3e
       -0.2699701 0.24984358 -0.11349921 0.1491718
0001c0 1b aa cd bc cd 1d 1e be ce 22 03 3e 4e ef cb bd
       -0.025105527 -0.15441056 0.12806246 -0.09957753
0001d0 ae 3a 97 be 96 5c 11 be 8c e5 4c bd 2e 74 31 be
       -0.29536957 -0.14195475 -0.0500236 -0.17329475
0001e0 f6 3b 81 bd a8 26 f1 be 8c e1 44 3d d3 d2 fa bd
       -0.06310265 -0.47099805 0.04806666 -0.12247243
0001f0 00 0c 02 be 61 6c 02 3e a6 ec 2b 3d 31 a0 2b be
       -0.1269989 0.12736656 0.041973732 -0.16760327

body.2.weight f4 [128, 128]
000000 37 5a 4d bf 11 e1 42 bd bd 8d 6c 3e e8 e7 91 3e
       -0.8021578 -0.04757792 0.23100944 0.28497243
000010 19 81 2b 3e af 0e 70 be bc 2a c4 be 38 a1 1a bd
       0.16748466 -0.23443101 -0.38313854 -0.037751406
000020 cd 3d 39 3e 5e 05 84 bd 59 9b 07 3e 7f f0 36 3e
       0.18089981 -0.06446336 0.13242854 0.1786518
000030 8d 76 d1 bd d7 d1 9f be 68 e3 63 bd d8 99 cf be
       -0.1022769 -0.31214783 -0.055636793 -0.4054706
000040 de 6f b4 bd ea 52 ce bb ce 81 2f bf e6 31 a8 3e
       -0.088103995 -0.006296505 -0.6855744 0.3285057
000050 44 53 91 be 38 8a 7b 3e 23 ed a0 3e 2c 18 d4 3e
       -0.2838384 0.24564445 0.3143092 0.41424692
000060 ad a9 a3 bd 15 bf 5d 3e ee c4 a7 be 06 7f 87 3e
       -0.079913475 0.21654923 -0.32767433 0.264641
000070 fd da 19 be 2d 86 be 3d 7c f9 55 bd c0 cf 4d 3d
       -0.15024944 0.09302936 -0.05223988 0.050246954
000080 2e c7 94 be fa 95 15 bf fe 37 33 3e 1a f1 a6 bd
       -0.29058212 -0.5843197 0.17501828 -0.08151455
000090 c2 bc 11 3e b4 03 27 be b4 7b 0f bd eb d9 68 3e
       0.14232162 -0.16310006 -0.035030082 0.22739379
0000a0 a3 f0 63 be 01 d7 8f bc a6 50 54 3d 95 00 c9 3d
       -0.22259764 -0.017558577 0.051834725 0.09814564
0000b0 2c bb 39 bc f2 41 6e 3d 0a 50 b0 be 63 f3 a7 3d
       -0.011336129 0.05816836 -0.34436065 0.08200719
0000c0 93 c9 e3 be fd 3e d9 3d db 3f bc 3d a1 36 39 bd
       -0.44489726 0.10607717 0.09191867 -0.045218114
0000d0 a9 57 18 3e d9 f0 11 3c 95 2c c3 bd d5 9a 20 bd
       0.1487719 0.00890752 -0.09529988 -0.03921016
0000e0 ee a3 17 bc 34 2d 31 3e f6 d1 2e 3e 8f 94 52 3e
       -0.0092553925 0.173024 0.17072281 0.20564483
0000f0 e8 4d 2c 3c 43 3f 84 3e 09 83 f9 bc d2 5d 67 be
       0.010516621 0.25829515 -0.03045799 -0.22594383
000100 5a c2 da bc 4a cc 17 3e a0 d8 9d be 35 80 89 bd
       -0.026704002 0.14824024 -0.30829334 -0.06713907
000110 ec 4a c9 bc ef 8c 91 3d f2 1c 34 3e 27 3c eb 3c
       -0.024571858 0.07106959 0.17589167 0.028715206
000120 cd 16 e2 bd 4d c1 60 3e bf cd be 3e 94 f6 ee 3d
       -0.11039505 0.21948738 0.37266347 0.11668125
000130 ac 1c 77 be d3 90 3b 3e 13 fa e4 be 4a 3c ea be
       -0.24132031 0.18316965 -0.4472204 -0.45749122
000140 e2 1e 32 be 42 77 c9 be a6 23 0d 3e a5 16 72 3d
       -0.17394593 -0.393488 0.1378313 0.059103627
000150 07 f5 a3 bd 46 7c d0 be 65 88 6e be 1e be 6b be
       -0.0800572 -0.40719813 -0.23294218 -0.23021743
000160 31 7b 70 3b 26 55 b1 bd 31 2b 89 be dd f4 29 3e
       0.0036694522 -0.08658819 -0.26790765 0.16597314
000170 ad bf 33 3e c1 72 88 3e 0b 06 9f bd 4e 6f 36 bd
       0.17553587 0.2665005 -0.077648245 -0.044539742
000180 44 31 2d 3e 1b b7 20 be f0 13 d3 3e cc e6 ea bd
       0.16913325 -0.15694849 0.4122615 -0.11469802
000190 42 79 cc 3e bf d8 b9 be 0c 0c f5 3d d8 52 09 3d
       0.39936262 -0.36298177 0.119651884 0.03352627
0001a0 c7 5e c7 3d b7 a6 6d be 80 08 16 be 44 61 a1 bd
       0.09734874 -0.23208128 -0.1465168 -0.0787988
0001b0 0e 24 8b bc 06 d3 b3 bd 8c 9a 25 be cb 8c 07 bd
       -0.016984966 -0.08780484 -0.16172236 -0.033093255
0001c0 ae 8e da be eb b5 b8 bd c8 f1 87 bd 08 cc 7d be
       -0.4268698 -0.09019073 -0.06637913 -0.24784863
0001d0 a2 4e 95 3d 3f 1c a0 3d 38 8c 75 be 61 f9 42 be
       0.07290389 0.078178875 -0.2397927 -0.19040443
0001e0 48 0e cc bd c9 f2 75 3e af 7f 72 be 38 cb 4f be
       -0.099636614 0.24018396 -0.2368152 -0.20292366
0001f0 74 d4 82 be f9 87 17 3e 04 17 a1 bd 71 b7 1d bc
       -0.25552714 0.14797963 -0.07865718 -0.009626255
000200 76 90 7b be 3a 39 fe be eb 54 8a 3e f9 d8 1b 3e
       -0.24566826 -0.49653035 0.27017912 0.15219487
000210 86 aa 33 3e 4f b5 8a 3f 60 54 1d bf 46 08 b7 bd
       0.17545518 1.0836581 -0.6145687 -0.08937125
000220 63 b5 62 be fc 64 7a bc 05 f9 dc 3e d4 1f fd 3d
       -0.22139506 -0.015282866 0.43158737 0.12359586
000230 8b 29 8e be 34 33 e3 bd 41 88 8c be 04 2b 02 bf
       -0.2776607 -0.110937506 -0.27447703 -0.50846887
000240 34 c5 6d bd 2c 23 6e bd fe 0c 8d be 60 14 35 3f
       -0.058049396 -0.05813901 -0.27548975 0.70734215
000250 0e c8 01 be 88 10 70 3b 6b bb 95 3e a2 7f a4 3e
       -0.12673971 0.0036630947 0.2924455 0.32128626
000260 0d c0 cc 3c c6 a5 92 3d 7c 90 04 bf e1 66 53 be
       0.02499392 0.07160525 -0.51782966 -0.20644714
000270 58 3d 97 3d 16 5e da 3d 95 7c 4b 3e 65 7a a7 be
       0.07384747 0.10662477 0.19871743 -0.32710567
000280 ca 37 26 bf 92 2e 80 bf e6 9e 89 3e 0d c7 d9 be
       -0.6492888 -1.0014212 0.26879042 -0.42534676
000290 4d be bb 3b 32 c7 45 be f2 d7 97 be 52 fe a1 3e
       0.0057294727 -0.19314268 -0.2965694 0.31639344
0002a0 fd 24 13 be 53 46 01 3e ee 08 ad 3b 70 22 5a 3e
       -0.14369579 0.12624483 0.0052806055 0.213022
0002b0 bd f6 93 bd 87 8c c8 3d 2a f6 f1 be b8 41 fe bc
       -0.07224796 0.097924285 -0.4725812 -0.031037197
0002c0 4c 48 0e be e5 4a ff bc ee ec 09 3e 29 61 ba bd
       -0.13894767 -0.031163642 0.13469288 -0.09100563
0002d0 28 a0 4d 3e 32 69 96 3e 85 13 ab 3e de bd 0f 3d
       0.20080626 0.29377133 0.3341333 0.03509318
0002e0 3a fd 10 be d5 0a 81 be c3 50 45 3f 9f 0b e1 3e
       -0.14159098 -0.25203577 0.7707636 0.4395418
0002f0 27 76 1d 3e 06 8c 2b 3f 1c 44 2f be eb 97 32 bf
       0.15377103 0.67010534 -0.17115825 -0.6976306
000300 63 5a 8c 3d 6a 4f 85 be ca 26 40 3e 3f 70 c3 bd
       0.068531774 -0.2603715 0.18764797 -0.095428936
000310 63 fe a7 3b 03 95 10 3e 2e af 26 3c 39 82 45 b9
       0.005126761 0.14119343 0.010173602 -0.00018835896
000320 c8 24 40 be 2e 2c 87 3e d5 c7 1a 3e 2b 92 c4 bc
       -0.18764031 0.26400894 0.15115292 -0.02399548
000330 ab 66 ef be 3c bc 1d bf 34 2b 17 3e a1 db 1c bf
       -0.46758017 -0.6161535 0.14762574 -0.6127263
000340 29 60 5a be 9e f8 cf be ae 73 9c 3d 69 70 c6 be
       -0.21325745 -0.40619367 0.07639252 -0.38757637
000350 c9 25 a9 3d 94 a3 9c 3d 42 ef fd bd fd 36 ed be
       0.0825916 0.076483876 -0.123991504 -0.46331015
000360 e5 d4 55 be e5 45 a4 3e df fe 47 be 36 4a 8c 3e
       -0.20881994 0.32084575 -0.1953082 0.27400368
000370 86 9d 4d be 55 12 0b 3f b6 6c 51 be b8 9e 60 3d
       -0.20079622 0.5432485 -0.20451626 0.054838866
000380 6c 08 35 3f 66 d4 47 bd 68 a9 90 3c 28 9d 50 be
       0.70715976 -0.048786543 0.017658904 -0.2037245
000390 9b f5 1d 3f 33 96 f3 be 59 63 fc 3e 88 84 54 be
       0.6170289 -0.4757553 0.49294546 -0.20753682
0003a0 87 e9 10 3c 12 84 97 be 28 06 5a 3d 63 48 a0 3d
       0.00884474 -0.2959295 0.053228527 0.07826307
0003b0 3c 22 af 3c f0 51 3d be 3d 51 e0 be 8f 85 a7 bd
       0.021378629 -0.18488288 -0.4381198 -0.08179771
0003c0 8a 6f a1 be 39 fc 9e be 85 d7 01 3e 59 6d c6 3d
       -0.3153041 -0.31051806 0.1267987 0.09688825
0003d0 38 ea 61 3d ae ca 44 3e e4 a5 c6 be 18 26 1f 3d
       0.05515501 0.19217941 -0.3879844 0.03885469
0003e0 c4 02 cf 3c 7f c5 43 3e 46 42 9d be fe 0b 0c bf
       0.025269873 0.19118308 -0.30714625 -0.547058
0003f0 5b b4 96 be 36 af 91 3e ed 27 24 3d c9 ad 26 3e
       -0.29434475 0.28453988 0.04007714 0.16277231

body.2.bias f4 [128]
000000 28 15 b5 3d 77 a1 08 3e 2c ab b8 bd 50 09 9a bd
       0.08841926 0.13342844 -0.090170234 -0.075213075
000010 7b 76 b4 bd dc bf 5e be f0 da 4f 3e 2a 79 7d be
       -0.08811661 -0.21752876 0.20298362 -0.24753252
000020 40 27 3f 3e 8f 2e 17 bd ee fd 40 be 62 67 4b be
       0.18667316 -0.036909636 -0.18846866 -0.19863656
000030 a3 2c b5 bd 08 5e af 3e f5 04 76 3d 14 17 7c 3b
       -0.088464044 0.34251428 0.06006332 0.0038465904
000040 c5 78 b1 3d 35 6a 90 3d a7 70 8b be e4 1c 7e 3d
       0.08665613 0.070515074 -0.27234384 0.06203927
000050 81 b4 f9 3d 9f cf 0f bd 0d 65 c4 bc a1 40 2a 3e
       0.121926315 -0.035110112 -0.023973966 0.16626216
000060 b0 e9 35 be 3b 02 1f bd fd 18 3c 3c ec 94 af bd
       -0.17764926 -0.038820487 0.011480567 -0.085733265
000070 e9 64 c0 bc 2a 9c 48 be bf 94 14 3e 10 31 20 3e
       -0.023485618 -0.19590822 0.14509867 0.15643716
000080 a7 c6 54 be 16 60 f2 bd a6 db a7 3d dc 58 07 be
       -0.20778905 -0.11834733 0.081961915 -0.13217491
000090 84 ef 44 be 45 51 52 be c0 db 27 3e b8 bc 5a 3d
       -0.19231993 -0.20538814 0.16392422 0.053402632
0000a0 6a 95 92 bc 55 0f 67 3e d8 47 04 be d0 65 cc 3d
       -0.017893512 0.22564442 -0.12918031 0.09980357
0000b0 20 1c 73 be d4 0f 25 3e af fc 33 be 7f c3 37 be
       -0.23741198 0.16119319 -0.1757686 -0.1794567
0000c0 06 e7 85 bc 48 d7 e5 3d d7 0c 01 3e 7b 36 38 bd
       -0.016345512 0.11222702 0.12602554 -0.04497383
0000d0 91 b6 58 3e 44 0a 09 3e c0 1c 8a bd 75 20 e7 bd
       0.21163394 0.13382822 -0.06743765 -0.112854876
0000e0 63 7e b0 3d ef 6f c9 3d a4 b3 a6 bd 3c 7f 84 bd
       0.08617856 0.09835803 -0.081397325 -0.064695805
0000f0 aa fd 9d 3d 54 22 7f be 1e c7 ae 3d 92 aa 4a bd
       0.07714398 -0.24915439 0.08534072 -0.049479075
000100 b2 b7 c5 3d e4 8c 03 3e 72 a1 b8 bd f1 e6 17 3e
       0.09654178 0.12846714 -0.09015168 0.14834191
000110 bf 2f 89 be 57 a3 15 be 22 6c a9 bd fe d4 5c 3d
       -0.2679424 -0.1461309 -0.08272578 0.053914063
000120 92 f5 03 3e 6e 71 72 bd bf 4e 66 bd 3d fe 0a be
       0.12886646 -0.059190206 -0.056227442 -0.13573547
000130 1d 77 4a be 61 31 85 bb ca 81 b5 3e 83 de 7d 3d
       -0.19772 -0.0040647243 0.35450584 0.06197978
000140 a7 37 bb 3d be fe 4d be bf 65 3c 3e ec a4 45 bd
       0.09141474 -0.20116708 0.18398188 -0.048252985
000150 31 b2 81 be 9c bf d8 3c 8b 43 cb 3d 44 c8 c9 3d
       -0.25331262 0.026458554 0.09924992 0.09852651
000160 61 bc 57 3d 2f b9 10 3e ab 3d 5f 3d ce 37 82 be
       0.052669886 0.14133142 0.05450217 -0.254332
000170 1b 88 52 be 15 b4 49 be 29 42 ea bd bc 60 84 3d
       -0.20559733 -0.19697602 -0.114384 0.06463763
000180 da e4 0f be 94 80 13 be 77 cc 27 be 13 21 57 3e
       -0.14052144 -0.14404517 -0.16386591 0.2100871
000190 0e 57 4c bd 86 84 ff 3d cb 47 f9 bd e5 88 fd bd
       -0.04988771 0.12476449 -0.121718965 -0.12379626
0001a0 a3 59 f2 3d df d2 14 3e a6 7d 1b 3d b1 c3 d1 3d
       0.11833503 0.14533566 0.037961625 0.10242403
0001b0 00 95 ad 3c 78 52 5d bd 82 75 30 be 96 53 9e be
       0.021189213 -0.054033726 -0.17232326 -0.30923146
0001c0 60 22 49 3e 8f 52 a3 bd 87 ee 89 bd 57 28 82 bd
       0.1964202 -0.07974731 -0.067349486 -0.063553505
0001d0 4c cd 4e 3e 7d b1 13 3d 74 94 38 3d a6 91 8a be
       0.20195502 0.036057938 0.04506345 -0.27064246
0001e0 f9 05 ba 3d 9d 7f 4a be c4 3c 2d bd 35 c7 1b 3d
       0.090831704 -0.19775243 -0.04229428 0.038031776
0001f0 ea 9f 8f bc 5b 50 30 3b 21 95 77 3c ed 7e 9d be
       -0.017532308 0.0026903364 0.015111239 -0.307609

mean_head.weight f4 [6, 128]
000000 eb 93 75 3e 77 06 26 3e bd 47 82 3d a9 1e d6 bd
       0.23982207 0.16213404 0.06361339 -0.10455067
000010 fa 1f 84 3e 4f 8c 6c be bf ac 0d 3e fe 5f a9 bd
       0.25805646 -0.23100398 0.13835429 -0.08270262
000020 4a 2c bb 3d 15 0e 9a 3d 60 45 d8 3c a8 6a 01 3e
       0.09139307 0.07522217 0.026400268 0.12638342
000030 9d 4e 25 be 82 96 7d be a1 a1 51 3e 53 69 34 be
       -0.1614327 -0.24764445 0.20471813 -0.17618303
000040 56 ad 82 3e 18 4b 28 be 04 d7 8b 3e a2 75 ce be
       0.2552287 -0.16434896 0.2731248 -0.40324122
000050 fe 5a 9d 3d 43 d5 b9 3e 33 bc a5 3e 1c 2c 50 be
       0.07683371 0.36295518 0.32370147 -0.20329326
000060 73 a2 2b bf e6 c2 11 be b4 a0 40 3e 2f b1 fa 3e
       -0.6704475 -0.14234504 0.18811303 0.48963305
000070 b6 b7 70 be e4 dc 8e 3e e3 1a 8b be 90 17 21 bf
       -0.2350758 0.279029 -0.2716895 -0.6292658
000080 46 4e 99 3d bc a8 b3 3c af 8d 9e 3e bf ce 39 3c
       0.074856326 0.021931045 0.3096747 0.011340796
000090 c7 fc 01 be 55 ee 0c be 32 41 93 be 5d e2 aa 3e
       -0.12694083 -0.13762791 -0.28760678 0.33375826
0000a0 7d 9e 83 bd 52 f3 5c be 68 81 23 bf f5 9c c5 3d
       -0.064267136 -0.21577194 -0.63869333 0.09649078
0000b0 0f f9 58 be a8 5e 7f 3d 0b 2f 9e be 5e 2b 36 3e
       -0.21188758 0.06234613 -0.30895266 0.17789981
0000c0 2e 48 00 be 13 f0 a3 be 5b ae dc 3c ed 0b 2b be
       -0.12527534 -0.320191 0.026938608 -0.16703768
0000d0 64 83 f6 bd f0 bb 15 bf 97 13 0e bf dd 31 94 bd
       -0.120367795 -0.58489895 -0.5549864 -0.07236073
0000e0 ac 15 1b 3e 43 9b df 3e 7a 30 c8 3e 56 d9 87 bf
       0.15144986 0.43673143 0.39099485 -1.0613201
0000f0 6d bf 34 bf 9a 96 0a 3f 81 82 b2 3e 38 e7 18 bf
       -0.7060459 0.5413605 0.34865192 -0.5972781
000100 38 25 48 bd 83 74 04 bf f4 d0 53 3f 48 24 98 bd
       -0.04886362 -0.5174028 0.8274071 -0.07428795
000110 0b 8b 9c be f5 40 84 3d d6 7e 3f 3e 4e fd 3f 3e
       -0.3057483 0.06457702 0.18700728 0.18748972
000120 be 19 4c 3e 86 19 10 3e 72 0b cd be 59 1e cb 3e
       0.19931695 0.14072236 -0.40047795 0.3967159
000130 37 c9 37 be 43 9b 3a 3e ec bb 96 3e 81 ac 74 be
       -0.17947851 0.1822329 0.29440248 -0.2389393
000140 f2 8e 36 bd 26 1b 0d bf 45 a0 53 3d 4d 60 aa 3e
       -0.044569917 -0.5511955 0.051666517 0.33276597
000150 13 7e dd 3e 5e 4d e3 be 0f 86 76 3e fd 81 13 3f
       0.4326025 -0.44394964 0.24074577 0.5762022
000160 b3 5a 2b 3f fb bc 50 3d 9a e1 93 bd c8 c2 96 bc
       0.6693527 0.050961476 -0.072207645 -0.018403426
000170 f3 0d 00 3e fd 54 d4 bd c7 2b 0f bf 50 d2 29 bd
       0.12505321 -0.10367773 -0.55926174 -0.041460335
000180 c5 59 98 3e bd b3 b1 3e 54 19 10 3f 5e d3 11 be
       0.2975599 0.34707442 0.5628865 -0.14240786
000190 19 e5 82 be 1f 60 a7 be 23 3c 1a 3e 3f ba 85 bd
       -0.25565413 -0.32690522 0.15062003 -0.06529664
0001a0 8e 34 ef 3d cc 2e 52 be fc a5 3a be 1a 62 20 bf
       0.11679946 -0.20525664 -0.1822738 -0.6264969
0001b0 b6 da 36 bf f3 a1 1c 3e fb 56 89 3e fa fb 1e 3f
       -0.71427476 0.15296154 0.26824173 0.62103236
0001c0 b1 37 ba bd e5 56 3f 3c 51 b7 a4 3e 98 07 b0 be
       -0.090926535 0.011678432 0.3217111 -0.34380794
0001d0 f6 79 8c be 3c 8b 15 bd 01 f7 53 3e 7c 2a c5 3e
       -0.274368 -0.036509737 0.20699693 0.38508976
0001e0 03 9f 94 3e e6 e7 25 bd 81 bb 50 3e 3a e3 3e be
       0.29027566 -0.04050436 0.20384027 -0.18641368
0001f0 f3 28 9e bd 5e 80 3f bd 97 9e af be d0 8c 8b 3e
       -0.07722654 -0.04675328 -0.34300682 0.2725587
000200 db 96 33 bf c2 7e 21 bf fc 18 2a 3e 32 4a 0f bf
       -0.7015206 -0.6308404 0.16611093 -0.5597259
000210 1e 2b a5 be 0f ab f7 3e 9a 78 e0 3e af cc be be
       -0.32259458 0.48372695 0.43842012 -0.37265536
000220 77 35 fa be d7 fe ed 3e 47 ae 8c be 66 08 ce be
       -0.48868915 0.4648349 -0.27476713 -0.40240782
000230 79 f7 88 3e b2 ab fe 3e f3 70 b9 be 76 b8 f0 3e
       0.26751307 0.49740368 -0.36218986 0.47015733
000240 26 61 1c 3f 3b 2e 94 3e 9d 59 e3 be 0d 11 13 3f
       0.61085737 0.2894152 -0.44404307 0.5744789
000250 cb f2 a7 be 4c 94 a5 3e 58 24 bb be f8 36 92 3e
       -0.32802424 0.32339704 -0.36551166 0.28557563
000260 d5 f0 d0 3d 20 18 08 3f d7 3b 18 bf f8 67 c5 be
       0.10202185 0.5316181 -0.5946631 -0.38555884
000270 c7 77 b5 3e 81 5a ce 3e bc 62 08 3f 59 30 71 3e
       0.35442945 0.40303424 0.53275657 0.235536
000280 f9 e9 ce be 25 1a c1 3e 7f bf d0 be bc e0 b6 be
       -0.40412882 0.3771526 -0.407711 -0.35718334
000290 55 2a 15 3f 30 ad 00 bf 0a c4 e2 3e 45 a3 a6 be
       0.5826772 -0.50264263 0.4429019 -0.3254644
0002a0 39 b3 98 3e 25 ac c0 3e b7 ee df 3e d9 ba 24 bf
       0.29824236 0.37631336 0.43736812 -0.64347607
0002b0 5b ed 21 3f 9d 00 c2 3e bd 79 ff 3e bd 7e c4 be
       0.632528 0.37891093 0.49897566 -0.38377944
0002c0 4d 32 da 3e 1d 00 ab 3e ed ff 6e 3e 31 85 1d 3f
       0.426165 0.33398524 0.23339815 0.6153136
0002d0 a3 bf ca 3e 4c bc 29 be b4 ce 0c bf a1 3d c1 3e
       0.39599332 -0.16575736 -0.55002904 0.37742332
0002e0 18 4c bb 3e 81 33 20 3f 90 f9 08 3f 5c ef 74 bd
       0.36581492 0.6257859 0.535058 -0.059798583
0002f0 af 9b a7 3e 00 a5 4e be 12 91 b4 3e e1 c5 de 3e
       0.32735965 -0.2018013 0.3526693 0.43510345
000300 ef fc b2 3e 23 f8 02 3e b7 72 e2 3e 58 c9 d4 3e
       0.34958598 0.12789969 0.44228145 0.41559863
000310 77 95 bf be e0 f7 e9 be b3 40 cf be c3 23 8b be
       -0.3741872 -0.45696926 -0.4047905 -0.27175722
000320 2d 18 28 bf 46 77 0c bf d2 af da 3e 29 14 71 be
       -0.6566189 -0.54869497 0.42712265 -0.23542847
000330 92 1e 07 3f b2 91 a6 3e 61 d5 bd be df 44 f7 3e
       0.5278102 0.32533032 -0.37076858 0.48294732
000340 f3 5a 56 be 39 7e 2b 3f 1d 33 6e be 7a 6b 03 3f
       -0.20933132 0.66989475 -0.23261686 0.5133587
000350 2d b6 33 3f 3e d2 0e bf 5a 0b ac be ac db 26 be
       0.70199853 -0.55789554 -0.3360241 -0.16294736
000360 6f 6a fe 3e d6 7f ce 3e 6d e7 66 3e f6 2e c0 3e
       0.49690577 0.40331906 0.2254922 0.37535828
000370 27 cd d4 be 1b ca e8 3e b3 22 c3 3e e4 d4 d1 3e
       -0.4156277 0.45466694 0.3811241 0.40982735
000380 2d 88 ac be 34 f8 e6 bd 35 b6 fd be 4f f1 87 be
       -0.33697644 -0.1127781 -0.49553075 -0.2655129
000390 d0 30 ce 3e 71 eb c9 be 01 31 9c 3e 53 8f 46 be
       0.40271616 -0.3943744 0.30506137 -0.19390611
0003a0 2d d2 ed be d2 be 2b bf d0 b1 33 3e ae d6 f1 be
       -0.46449414 -0.67088044 0.17548299 -0.472341
0003b0 14 a6 e3 be 73 fd 22 bf 50 ce 32 bf a4 5b f9 be
       -0.44462645 -0.6366798 -0.6984606 -0.4870273
0003c0 ba 87 1a bf b1 a0 8b 3e 9b 5d a2 3e d0 b0 a4 3e
       -0.6036335 0.27271035 0.3171204 0.32166147
0003d0 d6 ac a8 3e 15 08 5f be c2 ca 0e 3f 03 dc c6 be
       0.32944363 -0.21780427 0.55778134 -0.3883973
0003e0 f0 95 fe be 97 f6 13 3f dc cb bf be d7 c6 b5 3e
       -0.49723768 0.5779814 -0.3746022 0.35503265
0003f0 23 56 9b be 53 11 83 be 22 de 0c 3f 79 9d 71 be
       -0.30339155 -0.25599155 0.5502645 -0.23595227

mean_head.bias f4 [6]
000000 88 ae df 3d fe 55 85 be b8 30 47 be c8 6b 91 bd
       0.10921961 -0.2604217 -0.19452178 -0.07100636
000010 48 2f e3 be 07 86 96 be
       -0.4437201 -0.2939913

value_head.weight f4 [1, 128]
000000 93 3b fe 3e 6e 79 93 3e 9e c9 cc be 08 74 66 be
       0.49654827 0.2880358 -0.39997572 -0.225052
000010 74 5c c9 be 25 db 08 bf 49 47 00 bd 63 8f dd be
       -0.3932835 -0.5345939 -0.031317983 -0.43273458
000020 6d f6 0f 3e 4e f2 d1 3e 96 4b ee be 89 39 99 be
       0.14058848 0.41005176 -0.46542042 -0.29926708
000030 4a bc aa 3d ed 30 02 3f a4 22 0c 3e a8 77 e4 be
       0.083366945 0.50855905 0.1368509 -0.4462254
000040 d9 df c9 3e 06 ac a9 3c 98 cf d5 be 8c e4 eb bd
       0.39428595 0.02071191 -0.41759944 -0.11518201
000050 7d 85 e7 3d 60 6e 82 be 9b 19 f6 bd b5 64 a1 3b
       0.11304758 -0.25474834 -0.120166026 0.0049253353
000060 04 69 b8 be f8 52 87 be 22 68 bf bc 8c e2 cc 3e
       -0.3601762 -0.26430488 -0.023365084 0.40016592
000070 3b d7 6e 3e f8 76 de be 69 7d cb 3e df 38 9b 3e
       0.23324291 -0.4345014 0.39744118 0.30316827
000080 d4 18 96 be d7 3d 15 bf da fc 00 3f 64 69 5c be
       -0.29315817 -0.58297485 0.5038582 -0.21524578
000090 b3 4a fe be 15 f9 e8 3c 3c 19 78 3e eb 80 58 3c
       -0.49666366 0.028439084 0.24228376 0.01321433
0000a0 6f fc 2d 3e 55 67 e3 3e 32 21 75 be a5 86 2f 3e
       0.16990827 0.44414774 -0.23938444 0.17141207
0000b0 d3 94 f1 be 07 91 d6 3e 87 0c ff be 84 bc da be
       -0.47183856 0.41907522 -0.49814245 -0.4272195
0000c0 3f ab b0 3e 6c f4 f9 3d 8d 9c 06 3f 5f 02 33 be
       0.3450565 0.12204823 0.5258263 -0.17481373
0000d0 f7 65 0c 3e 14 63 03 3f cc 0c fe be c5 bb f7 be
       0.13710772 0.51323056 -0.49619138 -0.48385444
0000e0 e9 68 b3 3e fb 22 87 3e 43 ee 25 3e 45 ca 0d bf
       0.35040978 0.26393875 0.16204171 -0.55386764
0000f0 a3 60 5f be 9b 1f a5 be c8 33 ba 3e 7d 97 d8 be
       -0.21814208 -0.32250676 0.3636763 -0.42303076
000100 cf 30 5c 3d 5b d0 b4 3e d8 dc 04 bf c1 25 e9 3e
       0.053757485 0.35315213 -0.5189948 0.45536616
000110 f3 2c a6 be 09 64 67 be 6c 18 d2 3e 7e 8d 9c 3d
       -0.3245617 -0.22596754 0.41034257 0.07644175
000120 1f 1b 97 3e 09 52 b2 be 8d 7a 64 be c2 8d ce be
       0.2951288 -0.34828213 -0.22312374 -0.40342528
000130 13 26 47 be da c7 c1 be fd e5 e3 3e 50 73 8f 3d
       -0.19448118 -0.37847787 0.44511405 0.07004416
000140 a9 cc 2e 3d f7 e5 be be 59 cf da 3e d9 0e c7 be
       0.042675648 -0.37284824 0.4273632 -0.38878515
000150 07 5b dc be c2 7f 8e 3e 58 71 64 3e 63 8b 4e be
       -0.43038198 0.27831846 0.22308862 -0.2017036
000160 58 f7 b8 be 1e 5c 4c 3e 8c a1 f9 3e 5d cc 05 bf
       -0.36126208 0.19957015 0.48756063 -0.5226496
000170 2b f9 a7 be e2 0a f2 be 1a 9c 2e be f5 cb 98 bd
       -0.32807288 -0.47273928 -0.17051736 -0.07460777
000180 ce eb 6d be 97 a8 19 be 04 69 09 be 83 c6 bf 3e
       -0.23234484 -0.15005718 -0.13418967 0.3745614
000190 1b b0 f1 3e b8 1b f8 3e fc a3 0c bf fd a0 dc be
       0.4720467 0.48458648 -0.5493772 -0.43091574
0001a0 a4 90 dc 3e 18 32 ff 3e 61 04 85 3e 05 1c 93 3e
       0.43079102 0.49842906 0.25979903 0.28732315
0001b0 99 3f a5 3d bb 41 cb be 13 8b dd be 38 cb b4 be
       0.08068771 -0.39698586 -0.43270168 -0.35311294
0001c0 43 21 fa 3e 88 a2 94 be 48 59 d5 3c f1 a8 44 be
       0.48853502 -0.29030252 0.02604355 -0.19205071
0001d0 03 4d ab 3e 64 db b0 3d b8 50 14 3e 63 fc fb be
       0.33457193 0.086355954 0.14483917 -0.49215993
0001e0 ff 05 f1 3e 8c ad aa be 9f c3 a5 be 6b 14 91 3c
       0.47074887 -0.3333553 -0.3237581 0.017709931
0001f0 48 eb 58 3e fe 07 4f be a0 15 9c be 34 58 df be
       0.21183503 -0.20217893 -0.3048525 -0.4362198
