checkpoints/biped_ppo_mp_1.pt (torch, 27284 bytes, 8 tensors)

log_std f4 [6]
000000 f1 fa 13 c0 17 bf d9 bf a9 0f ba bf e9 d0 eb bf
       -2.3121912 -1.7011441 -1.4536029 -1.8423129
000010 4c 3d fe bf 4e 74 cb bf
       -1.9862456 -1.5894868

body.0.weight f4 [64, 18]
000000 83 bc e2 3e 20 10 44 40 20 68 c6 3e b9 8a a5 3f
       0.44284448 3.0634842 0.38751316 1.293296
000010 0e 98 7c 3f a8 a0 a7 be e1 3f f3 be 1d 4f 23 3e
       0.9866952 -0.32739758 -0.47509673 0.15948148
000020 e2 12 38 be 76 37 e9 bd 6b 23 9e 3d e1 df 34 bd
       -0.17975953 -0.113875315 0.07721599 -0.04415882
000030 3f 21 39 3e cd 22 e5 3d c6 60 20 3c 8e 1b 02 3f
       0.18079089 0.11188278 0.009788698 0.50823295
000040 ef 34 6b 3e ad 87 1c bf 67 e4 91 3f 1e 1c 34 c0
       0.22969411 -0.61144525 1.1397828 -2.8142161
000050 c6 09 39 3f 7f 64 47 bf 54 b6 ab 3d 62 55 9e be
       0.7228054 -0.7788772 0.08384386 -0.30924517
000060 de 5c e2 3f 87 2b 43 3e 43 11 25 3f ba 4e 61 bb
       1.7684591 0.19059573 0.64479464 -0.00343792
000070 fa 67 18 3c 07 ae ca bc 77 4e 71 bb d2 59 ce bd
       0.009302134 -0.024741186 -0.003682045 -0.100757256
000080 26 b5 78 3b 76 d6 24 bf 9f 9d 1c c0 0d 67 73 bf
       0.003794977 -0.6438974 -2.4471204 -0.9507912
000090 d6 5c 88 3e 02 9e 82 bd 9e cb d5 bd e4 ba 85 bc
       0.26633328 -0.06377794 -0.104392275 -0.016324468
0000a0 44 c8 93 be 96 7f 6a be 42 16 72 3e 02 34 01 be
       -0.28863728 -0.22900233 0.23641303 -0.12617496
0000b0 f5 f4 93 be 1d 82 ae bd 27 ff 87 be f0 0a d8 3b
       -0.28897825 -0.08520911 -0.26561853 0.0065931007
0000c0 b1 d1 3c 3e f7 36 18 3d 1d 38 98 bd 57 dd 3a 3e
       0.18439366 0.037161794 -0.07432578 0.18248497
0000d0 20 1e 04 c0 27 ae 8b bf 40 ef ab bf 8f 80 32 bf
       -2.0643387 -1.0912522 -1.3432388 -0.69727415
0000e0 5c 51 10 be 32 f1 4e bf 4d f4 ba bf ea 64 89 3f
       -0.14093536 -0.80836785 -1.4605805 1.0733922
0000f0 96 7b e5 be c5 9a 4e bf 78 36 e4 be 89 f0 2c be
       -0.4482085 -0.8070491 -0.44572806 -0.16888632
000100 49 6f cb 3c 11 90 ef 3d 1d 15 79 3d b8 a9 6d bd
       0.024833338 0.116974 0.06081115 -0.058023185
000110 dd 15 27 bd 9c 26 f8 3d a4 e6 37 bf ef a0 04 3f
       -0.040792335 0.12116739 -0.71836305 0.51808065
000120 49 25 7d 3f bd 93 b0 3e b9 cd 17 3f 88 53 0b bd
       0.9888502 0.34487715 0.5929828 -0.03401521
000130 17 b0 5b 3d ac 9c 4c bf 48 10 7d 3f c7 9b 2a 3e
       0.05363473 -0.7992656 0.9885297 0.16660987
000140 c0 af b6 be 36 64 83 3d 7f e1 3f 3d b3 a8 71 bc
       -0.35680962 0.06415598 0.04684591 -0.014749694
000150 b5 dd c6 bb 7d 78 12 3d cb bd 42 bc 8d dd 14 3f
       -0.00606891 0.035759438 -0.0118860705 0.5815056
000160 79 91 cb be 0b 8c f6 3e a4 81 80 bf 53 01 d8 3f
       -0.39759424 0.4815372 -1.0039563 1.6875404
000170 1b 92 90 be 2d d8 d3 3e 11 2a 5b 3e 59 6b 38 be
       -0.2823647 0.41375867 0.21402766 -0.180097
000180 72 64 9b bf f3 bd 84 be 43 e7 2e bf 67 c3 b5 bc
       -1.2140028 -0.2592617 -0.6832163 -0.022187902
000190 4c 04 2b bd 76 d1 e7 bd 8a e1 95 bd 7b 36 e2 3d
       -0.041752145 -0.113192484 -0.07318409 0.110455476
0001a0 8d f8 5b 3d 8e 4f db be b4 4f 56 3f 2f bf a0 be
       0.053703833 -0.42834133 0.8371537 -0.31395862
0001b0 a1 f7 19 bf 61 03 a0 3f a2 b7 7c 3e 87 6c 13 bf
       -0.60143477 1.2501031 0.24679425 -0.57587475
0001c0 f7 c9 0e bf 97 6d 3d bf f7 79 a1 bd c4 04 2d bf
       -0.55776924 -0.73995346 -0.07884591 -0.67585397
0001d0 99 bf 70 be 2b 74 b0 bc dc 68 b0 3d 3d 08 0f 3d
       -0.23510589 -0.021539768 0.0861375 0.034919966
0001e0 dd 75 a9 3c ff e7 96 3d dd c8 34 3c 78 cc ed 3e
       0.020686084 0.073684685 0.011034218 0.4644506
0001f0 49 5a fa 3e 96 3f c6 3d 7d f3 46 3f 7b f2 97 be
       0.48897007 0.09680097 0.77715284 -0.29677185
000200 9d d9 f8 be 48 94 5e be f0 dc 52 bf 32 a7 de 3e
       -0.48603526 -0.21736252 -0.82368374 0.43486935
000210 42 a8 9f bf 25 7e d3 3e d8 99 e3 3e 68 0b d9 bc
       -1.2473223 0.41307178 0.4445331 -0.026494697
000220 50 21 96 bd b6 22 d7 bb b3 e9 6f bd bc b0 94 3c
       -0.073305726 -0.006565417 -0.058572482 0.01815068
000230 a2 2d 5a 3d ca 8b 05 bf 2d 82 c6 bd ea 8a e8 bd
       0.053266175 -0.52166426 -0.09692798 -0.11354621
000240 be 09 5e 3f b5 2a 94 3f 8f 67 20 bf 45 87 fe 3c
       0.86733615 1.1575533 -0.6265802 0.03107036
000250 e4 d9 16 bf 89 9f d4 3e 66 fc 27 3f da e7 6c bd
       -0.58926225 0.41527966 0.65619504 -0.0578383
000260 8a d8 af be 42 92 74 bb 77 b3 57 3d a1 27 27 3d
       -0.34344894 -0.0037318622 0.052661385 0.040809277
000270 7e 32 52 bd 79 41 bf bc a8 3c 40 3d 37 ff ee 3e
       -0.051317684 -0.02334665 0.046932846 0.46679088
000280 46 ce b4 3f ec 2f 7c 3e f1 19 84 bf 8b d1 d1 bf
       1.412545 0.24627656 -1.0320417 -1.6392072
000290 42 5e ea bd a5 90 fd be 48 9a 70 be 6e 4c 0d 3e
       -0.114437595 -0.49524418 -0.23496354 0.13798687
0002a0 4c e3 59 be eb b2 b4 be b5 b9 dd be ba 64 e6 3d
       -0.21278113 -0.35292754 -0.43305746 0.11249681
0002b0 25 79 8c bc fa d6 2d be 6b e5 b5 bd 02 e6 b6 bb
       -0.01714761 -0.16976538 -0.08881649 -0.0055816183
0002c0 26 5f 5d bd fb 8b 87 3f f9 57 cc 3e 2e 80 03 3e
       -0.05404582 1.0589594 0.39910868 0.12841865
0002d0 1b b8 43 3f 97 92 d9 3e 47 8b 6c bf 50 b1 5b be
       0.764528 0.42494652 -0.9240002 -0.21454358
0002e0 42 49 b4 3b f7 d4 87 be f4 5b e3 3e a7 1e 7f be
       0.005501897 -0.26529667 0.44406092 -0.24914037
0002f0 44 31 29 bf c0 31 e4 b9 53 33 28 bd 16 30 51 bc
       -0.660908 -0.00043524615 -0.04106457 -0.012767812
000300 12 c5 53 bd df ba 99 bc a8 dc b3 3b 20 75 c3 3e
       -0.051701613 -0.018765865 0.0054889508 0.38175297
000310 81 55 16 3f ad c1 23 3e 6d ab 02 bf c9 2f 12 3f
       0.5872422 0.1599185 -0.51042825 0.57104164
000320 57 d0 05 3f 24 be 48 bf ab 7b 9b 3d 06 f5 25 3f
       0.52271026 -0.7841513 0.07591947 0.64827
000330 29 1f 72 3e 3b 5b 5b 3e ad ad 53 3f 2a 88 09 bd
       0.23644699 0.2142152 0.82686883 -0.03357712
000340 4d 3a bc 3c e8 06 54 3d a4 77 83 3c d8 4d 73 3d
       0.022977019 0.0517644 0.01604826 0.05940041
000350 0b 31 e5 3c 73 fb 9d bf dd 9c 4a 3f 8d 93 a8 be
       0.027977487 -1.2342361 0.79145604 -0.32925072
000360 9f d3 28 3f 30 fe bb bd 3a c3 35 bf 28 b9 08 3f
       0.6594791 -0.09179342 -0.7100102 0.53407526
000370 7f 2b 47 3f 35 87 95 bf 3a 4b a5 3b 9b d2 c7 bc
       0.77800745 -1.1681887 0.005044368 -0.024392417
000380 1f 20 a3 3d fd a7 63 bc 36 ee 59 bd ce 8a f6 3b
       0.07965111 -0.013895032 -0.05320569 0.007523871
000390 89 1c 5d bd 77 fe 0c 3c a3 a7 bc 3c 4b d6 f1 be
       -0.05398229 0.008605591 0.023029154 -0.47233805
0003a0 2a ed 8f be 0d d0 cb 3d 92 7d 51 3f c0 3a 13 3f
       -0.2811063 0.09951792 0.8183223 0.5751152
0003b0 d6 51 d4 3d b0 55 e1 3e 35 75 c1 be 6b cc 42 bf
       0.103671715 0.44010687 -0.37784734 -0.7609317
0003c0 d6 8e 3f bf 3e d3 6d 3d 5b 1f 26 bf a1 3f 49 bd
       -0.74827325 0.058062784 -0.64891595 -0.049132947
0003d0 f7 0a 12 bd 16 9c 45 3a 17 35 2f bd 9e e3 62 bd
       -0.03565499 0.0007538212 -0.04277524 -0.055392854
0003e0 09 63 38 bd b5 45 e9 3e e1 3e 62 bd ad fa d0 be
       -0.045016322 0.45560995 -0.055235747 -0.4081625
0003f0 09 f0 4c 3e 43 ba 80 3f ee 0f 11 bf 68 77 09 bd
       0.20013441 1.0056843 -0.5666493 -0.03356114

body.0.bias f4 [64]
000000 f0 f2 41 3e 85 fc 86 3c 49 84 39 3e 1b e3 f1 3e
       0.1894033 0.016477833 0.18116869 0.4724358
000010 77 11 9f bf 25 c1 02 3f d3 75 55 bf be 09 15 3e
       -1.2427205 0.51075965 -0.8338291 0.14554498
000020 96 66 cb 3d de 4a 1a 3f dd b9 43 3f 42 d6 c5 be
       0.09931676 0.6027049 0.7645548 -0.38640028
000030 eb a2 c5 3e 83 41 9e bf cb de 48 3f 8e 1a 18 3d
       0.3860086 -1.2363743 0.78464955 0.0371347
000040 68 61 a0 bf fa 0c 11 bf 39 2c 26 bf 93 52 cd be
       -1.2529726 -0.56660426 -0.6491123 -0.40102062
000050 cc 83 e8 be 3a 25 9f bf e1 bf 02 be 4d 86 15 3f
       -0.45413053 -1.2433236 -0.12768508 0.5840805
000060 4b 76 85 be e0 27 07 be bb a0 d7 be 97 7b 98 3e
       -0.26066813 -0.13198805 -0.42114815 0.29781792
000070 a9 e6 c9 3e cc 2d 2f bf 67 7e 73 bc 9e 70 df 3e
       0.39433792 -0.68429255 -0.01486168 0.43640608
000080 0d 26 9a bf 22 4c 39 be 2a 6e 8d 3f 75 9a 10 3f
       -1.2042862 -0.18095449 1.1049244 0.5648568
000090 b0 52 46 be 44 9d f7 3e 24 4c b6 be 25 9b 17 bf
       -0.1936748 0.48362172 -0.35604966 -0.59221107
0000a0 20 7a 30 be 0b 79 35 bf 01 e7 9c be 5f b2 3f be
       -0.17234087 -0.7088782 -0.30644992 -0.18720387
0000b0 2e a9 ab bf d6 45 92 bf 63 bc 3b 3f af 73 7d 3e
       -1.3411005 -1.1427562 0.7333433 0.24751161
0000c0 26 ea 05 bb 38 98 52 bf 91 f3 6a 3d b5 07 e9 3e
       -0.0020433753 -0.8226352 0.05736119 0.45513692
0000d0 30 19 97 bd f2 ce a7 be cc b4 6f 3e 5f ad 8e be
       -0.07377851 -0.32775074 0.23408812 -0.27866647
0000e0 ca ac 90 3e 3a 9d dd 3e a0 da ef bd 1e e6 d3 be
       0.28256828 0.43284017 -0.11711621 -0.41386503
0000f0 21 80 42 3f 0d a5 cc 3d d2 89 21 3f a0 eb 8d be
       0.7597676 0.099924184 0.6310092 -0.2771883

body.2.weight f4 [64, 64]
000000 60 b5 82 3e d5 3d 75 3e af e5 b5 3c cd ea 6a be
       0.25529003 0.23949368 0.022204248 -0.22941132
000010 d6 d0 30 be 7f b5 24 be cb ea 9f be 85 8a 34 bd
       -0.17267165 -0.1608486 -0.3123382 -0.044077415
000020 08 af b0 3d 0e 1f 07 bf 6b d6 0c 3e 12 5a b2 3d
       0.086271346 -0.5278176 0.13753669 0.08708586
000030 86 e4 8e 3e 58 39 b7 3d 5f 5c d0 bd 7a 77 cb 3e
       0.27908725 0.08946484 -0.101738684 0.3973959
000040 a5 c5 a3 3d d7 46 34 3d d4 b6 22 bf b9 52 45 bd
       0.07996682 0.04401287 -0.63560224 -0.048174594
000050 20 94 7e be 3f 25 5b 3e ae 78 28 bc 59 b2 4e be
       -0.24861193 0.21400927 -0.0102826785 -0.20185222
000060 f1 38 41 be 38 4e 06 bc 51 d3 59 be 5e 0e 19 3f
       -0.18869378 -0.00819736 -0.21272017 0.5978755
000070 be 90 c9 bd dc 7e c9 bd d1 48 99 be 30 c9 bd 3e
       -0.098420605 -0.0983865 -0.29938367 0.37067556
000080 d1 27 f0 bd 5f f2 b9 be 0b ce 99 be 3a 25 2e bc
       -0.117263444 -0.36317727 -0.3004001 -0.010628993
000090 90 9d 8c 3e e1 a4 08 3f 34 0b 4c 3e d0 a5 a9 3d
       0.2746396 0.53376585 0.19926149 0.08283579
0000a0 ac 01 a6 3d f5 3c a5 bd ad d8 05 3f 32 fb c7 3d
       0.08105788 -0.08068267 0.52283746 0.097647086
0000b0 9e f9 4c 3d a4 92 7d bd 90 d2 a5 3e d9 89 31 3e
       0.05004274 -0.061907426 0.3238721 0.17337741
0000c0 c7 dc 73 3e ec 53 2d bd 03 7a 36 be 90 df b9 be
       0.23814689 -0.042316362 -0.17819981 -0.36303377
0000d0 35 06 9b 3e b4 60 8a bc f6 9e 6e 3e 07 01 73 3e
       0.30278173 -0.016891815 0.23302826 0.2373086
0000e0 32 6d 8f bd f4 44 a6 bd 73 39 ad 3d 78 51 58 3e
       -0.07003249 -0.081186205 0.08458223 0.21124828
0000f0 92 48 da bc 3e de b7 be 57 79 ca bd 1e 1b 74 3d
       -0.026645932 -0.35911745 -0.09886425 0.059596173
000100 17 34 1f be c5 39 ed bd 85 ed b0 be db 4b 95 3e
       -0.15547214 -0.11583284 -0.34556213 0.29159436
000110 d0 64 65 3e 63 66 38 3d 5e 48 2c bd c4 fe 33 be
       0.22401738 0.04501952 -0.042061202 -0.17577654
000120 5a 65 c1 3e 73 8e a2 3e c2 b2 54 3d 0e 01 c7 bc
       0.37772638 0.31749305 0.05192829 -0.024292495
000130 13 40 b1 be b3 6b 1b bd 7a 82 65 bc 77 6c 72 be
       -0.34619197 -0.037944507 -0.014008159 -0.23674189
000140 1f f8 96 3e b5 a6 1d be 6f 63 ac 3e 81 d2 28 be
       0.29486176 -0.15395625 0.33669612 -0.16486551
000150 a5 8b 7e 3d e7 49 11 3e a8 08 36 3d 5c 55 26 be
       0.062144894 0.14188348 0.04444185 -0.162435
000160 a9 d5 b3 be 7a 97 2b 3c eb 4e 00 bf d2 b6 63 be
       -0.35123947 0.010473127 -0.5012042 -0.22237709
000170 c7 b0 7a 3e 4e 80 d5 3e 73 2a 5e be d2 db 50 3d
       0.24481498 0.4169945 -0.2169588 0.050990887
000180 fa e3 79 3e 29 57 23 3e 82 97 ac 3d d3 d2 56 be
       0.24403372 0.15951218 0.08427335 -0.2097886
000190 fc 90 db 3d ac cb 9f 3d 0e e5 91 3e 52 80 26 bd
       0.10721013 0.07802519 0.28495067 -0.04064972
0001a0 2a 27 5c 3e fa 42 02 3f 7c fa a7 bd a3 73 bb 3e
       0.21499315 0.5088345 -0.08202073 0.3661166
0001b0 9d dd a5 3c 83 79 da 3e 80 60 a7 3e ba 7c 5f bd
       0.020247275 0.4267083 0.3269081 -0.054562308
0001c0 22 06 84 be 0a d7 8b be a4 15 3d be 10 68 08 bd
       -0.2578593 -0.273125 -0.18465286 -0.033302367
0001d0 05 5a 81 bd 76 06 18 be f5 22 c4 be ab df 15 3e
       -0.06315998 -0.14846215 -0.3830792 0.14636104
0001e0 15 0f 24 be ee 5f b5 3e 62 5e 0f 3e 66 0f 4c 3c
       -0.16021378 0.3542475 0.14000848 0.012454843
0001f0 9f 39 b2 be 5b 94 36 be 0c b8 05 be ab 31 dd bc
       -0.34809586 -0.1783003 -0.1305849 -0.027001223
000200 81 21 61 bf 9e dc 93 be 42 0d 8a bd 2d 68 a1 3f
       -0.8794175 -0.28879255 -0.0674081 1.2609917
000210 07 97 60 bf 66 63 d5 3e de cb 5b be 7b cd c8 be
       -0.8773045 0.41677397 -0.21464488 -0.3921927
000220 fe d1 c3 be fe a1 8d 3e 88 bf 40 3f d2 06 1a 3d
       -0.3824615 0.27662653 0.75292253 0.03760416
000230 db 94 86 3e 18 90 ae bf d3 83 fe be 0d 13 5f 3e
       0.26285443 -1.3637724 -0.4970995 0.21784611
000240 21 20 43 be 12 bd 38 3f 5e a5 15 3f f3 2b a5 be
       -0.19055225 0.721635 0.58455455 -0.32260093
000250 4d 6c b2 bd 55 90 1e bf a3 05 1b 3e 68 24 dc 3e
       -0.08712063 -0.61938983 0.15138869 0.42996526
000260 fe f8 c6 3e 72 65 b1 3e 89 7e 15 be 3d 1c 8b 3f
       0.3886184 0.3464771 -0.1459905 1.0867993
000270 5c 26 c7 be 94 bf 26 bf bd ad 4a bd 64 4f e2 bc
       -0.38896453 -0.65136075 -0.049482096 -0.027625747
000280 bb 24 91 bf 6e 9b 30 3f 3b 90 91 3f 33 1f 41 3d
       -1.1339334 0.68987167 1.1372141 0.047148895
000290 3d 31 e1 be 04 f9 16 3e c1 14 28 be 05 9b 22 3f
       -0.43982878 0.1474343 -0.16414167 0.6351779
0002a0 13 71 8b 3e 20 1c 98 bd d8 eb 0b bf c5 f5 b2 be
       0.27234706 -0.074272394 -0.54656744 -0.34953132
0002b0 61 9d 71 bf a2 08 a3 be 6c 6d 94 3f 49 ab f4 be
       -0.94380766 -0.31842524 1.1595893 -0.4778693
0002c0 67 b4 cc 3d f4 6b 2c be 83 40 ae bd 95 da 6d 3f
       0.099953465 -0.16838056 -0.085083984 0.92911655
0002d0 e9 b3 0b 3f 2d e4 20 3b 2a f3 3e bf a5 9c 0c 3e
       0.54571396 0.0024550066 -0.7458979 0.1373163
0002e0 0f a5 52 3e d5 4d ba be 21 75 59 bf 1d a5 b8 be
       0.20570777 -0.36387506 -0.8494435 -0.3606347
0002f0 72 22 98 be 22 8a 8a 3e f5 ec d8 be 2e fc c9 3e
       -0.2971378 0.27058512 -0.42368284 0.3945021
000300 e4 43 be be 10 fd d5 3d da 75 e3 3e d3 05 c6 3e
       -0.3716117 0.104486585 0.4442585 0.3867632
000310 22 81 65 bf 41 b3 36 3d a7 17 5d be c1 00 46 3f
       -0.89650166 0.044604544 -0.21591054 0.773449
000320 bf fe 37 bf 83 f1 b6 bd 57 41 fa be 10 72 c5 3e
       -0.71873087 -0.089327835 -0.48877975 0.38563585
000330 5b 14 ba 3e d1 7b 8d bf 47 05 49 be e1 6b 4e 3f
       0.36343655 -1.1053411 -0.1963092 0.8063336
000340 f4 80 36 be 87 e5 e5 3e 19 fd c9 bd 2d d9 16 be
       -0.17822629 0.44901678 -0.09862728 -0.14731283
000350 01 01 78 bf 05 3b e1 be cc 0d 06 3e f6 e9 90 3d
       -0.9687653 -0.4399034 0.130912 0.070758745
000360 a2 ca 02 3e e4 a5 56 3e 58 bd 25 bf a3 9e 8c bc
       0.12772611 0.2096172 -0.6474204 -0.017165488
000370 24 71 08 bf ca 00 6f bf b9 65 8f bf de d7 0c bf
       -0.5329764 -0.9336058 -1.1202918 -0.5501689
000380 aa ae 25 bf 67 ce 26 bd c2 98 f0 3e 27 59 e1 3e
       -0.6471964 -0.040724184 0.46991545 0.4401333
000390 7d 9a e5 bf 61 97 14 bf e2 5b d0 bd ad 9c e7 bf
       -1.7937771 -0.58043486 -0.10173775 -1.8094689
0003a0 a6 0a c3 be cf 06 99 3e 23 79 c1 be d8 cd 2a be
       -0.38094062 0.29888007 -0.37787732 -0.16680086
0003b0 16 c2 3a bf d1 0b 35 bf c0 f7 09 3f a6 1d 9a be
       -0.729524 -0.70721155 0.5389366 -0.30100745
0003c0 b0 70 3a 3e c9 39 6c bf f7 6d 1c 3f 3b bf 14 3f
       0.1820705 -0.92275673 0.61105293 0.58104295
0003d0 83 70 9b 3d 74 b3 da 3e cb d5 ba be ac 22 cb be
       0.07589819 0.42715037 -0.36491236 -0.3967489
0003e0 a4 83 88 3e 88 37 50 be d2 49 1d be fc de 2d bf
       0.26662934 -0.20333683 -0.15360191 -0.6791837
0003f0 33 d0 eb bc 8c 8e 82 be 93 bc 91 3e 3e 2f 1b 3f
       -0.0287858 -0.2549938 0.28464183 0.6061896

body.2.bias f4 [64]
000000 5d f8 cf bc fc 8f a1 3c 20 04 1a 3d 28 5c c7 3e
       -0.025386984 0.019721977 0.03760159 0.38937497
000010 38 4d 99 3e 5e cc da 3e 73 d0 43 be c9 4a 21 be
       0.29941726 0.42734045 -0.19122486 -0.15751185
000020 c9 28 52 3e 2e fd d2 bc 74 2d 0a bf 87 24 08 bc
       0.20523371 -0.025755491 -0.53975606 -0.00830949
000030 b0 31 40 bd 26 ae 0c bf f8 40 4e bd 1a fb 36 be
       -0.046922386 -0.5495323 -0.050354928 -0.17869225
000040 23 5f 0b 3e 15 3f b4 be f1 4f 1f 3e 53 7c 52 3d
       0.1361051 -0.35204378 0.15557839 0.051388096
000050 15 d2 a8 be 9c 29 81 bd 52 97 21 3f b3 0a 35 be
       -0.3297278 -0.063067645 0.6312152 -0.17679863
000060 2c 02 67 3e 9f 81 f3 be aa 0d 01 3f 32 8b 87 3e
       0.22559422 -0.4755983 0.50411475 0.26473385
000070 0f 70 f3 3d ac 99 0f 3f 9f 5e 08 3e 65 d7 da bc
       0.11886608 0.5609386 0.13317345 -0.026714036
000080 5b f2 82 3e 02 c0 17 bd ad 17 d8 bc 9e 7b 11 be
       0.25575528 -0.037048347 -0.026378477 -0.14207312
000090 d9 36 88 3e 76 52 de be 10 d8 dc be 0f 4e a2 3e
       0.26604345 -0.43422288 -0.43133593 0.3170018
0000a0 fa aa 01 bf 0c 41 1f be 57 c4 4d bd 4d 33 5a be
       -0.50651515 -0.15552157 -0.050236072 -0.21308632
0000b0 53 8b 2a be 02 24 74 3e e4 72 b7 3e c9 38 a7 be
       -0.1665471 0.23841861 0.35829842 -0.3266051
0000c0 76 e5 6e be c8 74 60 be d8 19 9e 3e f6 56 40 3e
       -0.2332972 -0.21919549 0.30879092 0.18783173
0000d0 02 88 82 3d 86 a7 08 3f de db 88 bd 30 ac 94 3e
       0.06373598 0.5338062 -0.06682561 0.2903762
0000e0 f1 2f 8d 3d 79 3f c1 3d ca 3b 4f 3d 10 63 b3 3b
       0.0689391 0.094359346 0.05059413 0.0054744557
0000f0 d8 6d f2 3d a7 65 51 3c 4e 2d a0 3e d4 6d 09 3e
       0.11837357 0.012780583 0.31284565 0.13420802

mean_head.weight f4 [6, 64]
000000 e0 45 54 be 97 d7 0e 3e ca 4b 08 3d 99 d8 86 bc
       -0.2072978 0.13949428 0.033275403 -0.016460704
000010 f8 7c 24 3e 4b 9c 78 3c 14 f9 d4 b9 9b 61 a2 3d
       0.16063297 0.015173982 -0.0004062137 0.07928773
000020 d3 f7 b7 bc e1 cf 2a 3e 8a 0c 32 bc 8c d4 90 3c
       -0.022457039 0.16680862 -0.010867247 0.017679475
000030 eb e6 ab 3d 4b 59 07 bc 7a 87 6d bd 45 55 60 3d
       0.083936535 -0.008261035 -0.05799053 0.05476882
000040 6f 3b a9 be 79 fe de bc e4 90 ae 3d e8 f7 27 3d
       -0.33053157 -0.027220951 0.085237294 0.041007906
000050 70 94 90 3c c0 9a 53 3e 20 bb 78 3d b2 17 a3 3d
       0.017648906 0.20664501 0.06072533 0.07963504
000060 64 05 5b be 02 97 47 3d d1 e6 e4 3c e3 bd 05 be
       -0.21388775 0.048727997 0.027942093 -0.13060717
000070 9d e9 1c 3d 69 d2 62 3d 68 d3 e7 bd 5c 4c e2 3c
       0.03830873 0.055376444 -0.113196194 0.027624302
000080 55 0b 77 3c 42 2d a6 bd ad 4c df bd 43 6c 0d 3e
       0.015078385 -0.08114101 -0.109032966 0.1381083
000090 19 1d 3f 3d 94 62 a3 3c 86 d8 02 3d d4 85 90 3d
       0.04665861 0.019944467 0.031944774 0.07056776
0000a0 12 16 1c bc 11 8d c1 3d 03 6a 3c 3e 4f 95 9b 3c
       -0.009526746 0.094507344 0.18399815 0.018992094
0000b0 12 30 04 3e be 70 c9 39 a5 e4 54 3b a0 ef 3b 3d
       0.12908962 0.00038421707 0.0032484916 0.04588282
0000c0 f9 ce d5 3a f7 84 bb bc e9 90 1f bd 79 93 a5 bd
       0.0016312293 -0.022890551 -0.038956556 -0.08084769
0000d0 78 6a 28 3d 72 fa da 3b c0 db 60 be bc 79 5e 3b
       0.04111716 0.0066826874 -0.21958828 0.003394707
0000e0 60 b3 29 3b 33 87 e1 3d a9 10 3c 3d b1 35 ee bd
       0.002589427 0.11012115 0.045914326 -0.116313346
0000f0 1c ff ca 3c e8 94 f4 3d 21 93 c5 3c 5e 69 13 bd
       0.024779849 0.11942464 0.024118008 -0.035989158
000100 b0 0d 12 be 47 04 88 3e 25 57 ce 3c b5 6d da ba
       -0.14263034 0.26565763 0.025188038 -0.0016664775
000110 4b 8d c3 3c 8f f7 b4 3c 7f fc 82 3d e0 2c f3 bb
       0.023871085 0.022090701 0.06395816 -0.007421121
000120 c4 ab b8 3b 7d 4c 1f 3d 64 52 71 3b d7 f8 7d bd
       0.0056357104 0.038891304 0.003682279 -0.06200489
000130 89 d7 96 3d 3a 6b 3d 3d 45 b3 07 3e 98 58 3f 3e
       0.07365329 0.046244837 0.1325198 0.1868614
000140 f6 74 85 be 0f b6 ae bc 9d c6 17 3e 8a b6 94 3d
       -0.26065797 -0.021327047 0.14821859 0.07261379
000150 4f fa c4 3c fa 3d dd 3e 0a 34 b7 3c 11 33 0a bb
       0.024045138 0.43211347 0.022363681 -0.0021087567
000160 8c b1 01 be c7 37 44 3d de 85 36 3b 22 72 a8 bd
       -0.12665385 0.047904756 0.0027850787 -0.08224894
000170 80 a6 9c bc 43 4d cf 3c 3a 12 58 bd 65 2c e4 3d
       -0.019122362 0.025305396 -0.052751757 0.1114128
000180 d9 e2 b4 bc 09 d2 c4 3c ba d2 4a be af 45 61 be
       -0.022080826 0.024025934 -0.19806948 -0.21999238
000190 03 1a fd bc 77 7d 48 bc 2e ca ec bb b5 1b 93 3d
       -0.030896192 -0.012236944 -0.00722625 0.07183019
0001a0 b1 16 18 3d 96 ee e1 bd df 09 e1 bd 75 04 12 bb
       0.037131015 -0.11031835 -0.10988211 -0.0022280489
0001b0 c1 ab c6 3d 1b c2 90 bc f4 51 f5 3c 3c 02 45 3d
       0.09700728 -0.017670682 0.029946305 0.048097834
0001c0 fa 83 9c bb 79 72 82 bc c8 7c 2e bc 97 97 0b 3a
       -0.004776475 -0.015923725 -0.010649867 0.0005325018
0001d0 e7 1b 18 bd 6f e7 c3 bc 64 d1 8f be d4 d0 c7 3b
       -0.037135985 -0.023914067 -0.2808944 0.0060978923
0001e0 05 78 42 bc a4 a5 87 3d 64 78 c2 3d 5a 4b 9a bd
       -0.011869435 0.0662339 0.09495619 -0.075339034
0001f0 cb 15 b7 3d 92 54 12 3e 8d d6 20 bd 3f ab 9f bc
       0.089397036 0.14290074 -0.03926711 -0.019490836
000200 d4 f9 a8 3d 9b 24 b0 3e 0f 30 e2 bc fb 37 7d 3b
       0.08250776 0.34402928 -0.027610807 0.0038638103
000210 aa d5 b9 3d 40 34 03 3d b6 25 25 bd 73 4c 35 bd
       0.09073956 0.03203225 -0.040319167 -0.04426236
000220 9f 92 2f bd f7 c7 83 bd 8c f9 07 bb 44 ab 0a be
       -0.04286444 -0.06434625 -0.0020748107 -0.13541895
000230 b1 c1 34 bb fb b6 ab 3b 96 38 3f 3d 20 80 10 3e
       -0.002758127 0.005240319 0.046684824 0.14111376
000240 de d1 f9 3d 84 3a 89 bc ba e4 b0 bd d1 96 be 3c
       0.12198232 -0.016751535 -0.08637376 0.023265274
000250 65 91 4c 3b 59 b0 8a bb 7c 73 be 3c ee bd 5b bd
       0.0031214592 -0.004232448 0.023248427 -0.053647928
000260 58 7c d0 3d 54 c6 98 3d 51 71 9c 3c d8 7f 46 3d
       0.10179967 0.07459703 0.019097002 0.048461765
000270 03 b7 82 3a 8c 6b 2b 3c a9 4a 17 bf a9 3a 3d 3e
       0.0009972755 0.010462653 -0.590983 0.18479408
000280 9d dc c7 bc df 55 58 be 52 12 9f 3d ce 50 9f 3d
       -0.024397189 -0.21126507 0.07767166 0.07779084
000290 7d c7 ca bc 56 0c 03 3d 69 cd bf bc 21 df ed be
       -0.024753327 0.031994186 -0.023413377 -0.46459296
0002a0 b6 4c 8b 3c 91 c6 7b be b1 87 90 be d7 da 11 3e
       0.017004352 -0.24587466 -0.28228524 0.14243637
0002b0 0c 00 32 bd 0f 97 d6 3b ea 03 cd bb 4c 5b 13 3d
       -0.043457076 0.0065487693 -0.00625657 0.03597574
0002c0 0b df df ba c7 0e d7 3c de 8c a1 bd 23 b5 8d bb
       -0.0017080022 0.026252164 -0.078881964 -0.0043245717
0002d0 57 d3 3f bc 20 7f ee 3a d2 4e 11 be 5a 2b 5a 3b
       -0.011708102 0.0018195845 -0.14190224 0.003329
0002e0 8b 5d e3 bd 64 d9 3e 3e 7a 9d 77 bd 70 86 81 bc
       -0.11101826 0.18637615 -0.060452916 -0.015811175
0002f0 1c 9e a3 bd 3e 9f a7 3d 80 a3 66 bd 8b 48 9f 3c
       -0.07989141 0.0818467 -0.05630827 0.01944377
000300 ef 78 84 be 12 6d 84 bd e0 50 32 bd 82 7c 0f 3d
       -0.25873515 -0.06466116 -0.04353416 0.03503085
000310 f4 4f 42 bd b6 43 92 bd 80 20 e8 3c 7f cb 82 3d
       -0.04743953 -0.07141821 0.02833581 0.0638647
000320 24 3a bf 3d d1 76 f2 bd 25 70 3d bd 2b 5f 95 bc
       0.09337261 -0.11839069 -0.046249527 -0.018233856
000330 13 fc e7 3c ad 00 fc 3b 41 11 fa 3d 3c 2b 12 3d
       0.02831844 0.0076905102 0.12210322 0.035685763
000340 5b d2 18 be a1 9a 90 bd c9 6a 16 3e d1 a0 5c 3e
       -0.14923994 -0.07060743 0.14689173 0.21545722
000350 f9 7e 8a 3b bd ae 0e be 47 8d 1b 3d ff 6a 8c 3d
       0.004226562 -0.13933845 0.03797653 0.068563454
000360 df 5b 08 be 3d 07 18 3d 60 0c d5 3d 1a 66 68 3e
       -0.13316296 0.037116278 0.10402751 0.22695199
000370 2d bf 81 3b a5 0a 91 3d 60 c1 35 3e 58 63 da 3d
       0.0039595575 0.070821084 0.17749548 0.106634796
000380 d7 50 13 bd 02 1a e8 3e 37 1a 61 3d ba 9c 2b 3e
       -0.035965767 0.45332342 0.05495664 0.16759005
000390 78 a8 2d 3b 8e 1f 1e bd 1b 49 b3 bb 60 7b 88 bd
       0.002649812 -0.03860431 -0.0054713613 -0.06664157
0003a0 52 12 fc 39 70 e5 41 3e 7a cc 5f bc 13 e1 8e bd
       0.00048078835 0.1893518 -0.013659591 -0.06976523
0003b0 f3 15 87 3e 04 9a af bd 11 57 56 3c 20 6d 19 3e
       0.26383933 -0.08574298 0.013082282 0.14983034
0003c0 69 83 8f bb ab 44 83 bd e1 fe 23 be 3a 09 32 be
       -0.004379679 -0.06409582 -0.16015197 -0.17386332
0003d0 e7 16 98 bd 7e 1d af 3c ce f5 cb bd 2e 83 ca 3c
       -0.07426243 0.021376368 -0.09958993 0.024720754
0003e0 04 8a f5 bd 8f 52 ed bd 4c b6 eb bd 2c 3e da 3d
       -0.11989215 -0.115880124 -0.1150938 0.106563896
0003f0 84 f3 c2 3d 1c 6d 85 bc 87 09 35 bd bf ee 86 3d
       0.09519103 -0.016287379 -0.04419854 0.06588506

mean_head.bias f4 [6]
000000 e1 f9 c5 bd 2c 06 fb 3d 2c cd 60 bd 65 60 02 be
       -0.09666801 0.122570366 -0.054883167 -0.12732084
000010 0a f0 c3 bd fa 92 04 3e
       -0.09567268 0.12946692

value_head.weight f4 [1, 64]
000000 e3 a5 b3 3e d2 31 4a be 6a c6 a8 3f 38 4c f9 bf
       0.350875 -0.19745567 1.3185551 -1.9476385
000010 b4 2b 53 bf c0 bf 7d bf 65 dc 4a c0 2a b8 8d 3f
       -0.8248856 -0.9912071 -3.1697018 1.1071827
000020 bf 2d 69 bf a2 1b 50 bf e0 d3 17 40 a4 ac e4 3f
       -0.9108543 -0.81292164 2.3723068 1.7865186
000030 b6 cc a1 3f 24 69 3e c0 be d4 dd bb 4c f4 9e 3f
       1.2640598 -2.9751673 -0.0067697456 1.2418303
000040 33 20 bd 3e 19 b5 11 c0 a0 65 4d bf a9 52 45 be
       0.3693863 -2.2766783 -0.8023319 -0.19269814
000050 e4 9a 9b c0 03 5a f8 3e 86 0d 97 bf 99 d0 b2 bf
       -4.8626575 0.48506173 -1.1801002 -1.3969909
000060 48 7d b3 bf 05 f9 54 3f 46 dc ca bf 11 4d 4d bf
       -1.4022608 0.83192474 -1.5848472 -0.8019572
000070 72 5f 1a 40 68 04 42 bf 95 54 af 3b 52 ce 84 bf
       2.4120755 -0.75787973 0.005350659 -1.0375464
000080 92 e2 89 40 63 64 0d bd 2e 57 b6 3e ba 97 29 bf
       4.3089075 -0.034519564 0.35613388 -0.6624714
000090 13 5c c4 bf ad 26 c6 3f 03 8c 08 40 a0 5a bc be
       -1.5340599 1.5480553 2.1335456 -0.3678789
0000a0 ec b7 0e 40 64 15 e6 3e 61 93 35 3e 6d f8 90 3f
       2.2299757 0.44938195 0.17732002 1.1325814
0000b0 01 a6 c6 3e fc 6c ae bf 31 af 3e c0 95 55 19 3f
       0.38798526 -1.3627009 -2.9794428 0.5989621
0000c0 19 34 32 40 e0 ba 0f 40 b1 7a 8b bf 3c 63 a7 bf
       2.7844298 2.245781 -1.0896817 -1.3077159
0000d0 21 6c 8c bf 90 4a d0 bf 27 f9 12 bf 3b 8a a5 bf
       -1.0970498 -1.6272755 -0.57411426 -1.293281
0000e0 bf 79 67 3f cd 98 64 bf e8 cf 62 bf ce a5 8d bf
       0.90420145 -0.89295655 -0.8859849 -1.1066225
0000f0 fd 32 1c 40 cc 7d 05 3f 16 8b 06 c0 b0 b5 20 40
       2.440612 0.52145076 -2.1022391 2.5110893
