checkpoints/biped_reference_rl.pt (torch, 87022 bytes, 8 tensors)

log_std f4 [6]
000000 c8 cf a0 3e d9 b6 7f 3f c8 e1 27 3f 05 7b b0 3e
       0.31408525 0.9988838 0.6557889 0.34468856
000010 1f 31 32 3f 3e f9 dc 3e
       0.696062 0.43158907

body.0.weight f4 [128, 25]
000000 f8 72 96 bd 97 a4 bd 3d 78 66 03 bf 09 cf cd be
       -0.07346147 0.09259909 -0.5132823 -0.40197018
000010 d1 3a 21 3e e8 7f 7d 3f 14 14 ac be d9 cf 0f 3e
       0.15745093 0.99023294 -0.33609068 0.14044131
000020 07 40 7e 3e d2 30 08 be cb 79 90 bf 5c 7e 8f be
       0.24829112 -0.13299873 -1.1287168 -0.28026092
000030 70 9c a1 3e 62 f7 77 be ec 6a 1b 3f ce 17 8a bd
       0.31564665 -0.24215463 0.60710025 -0.06742822
000040 d6 8d d9 3d b9 f3 ab 3d a8 d9 b2 be 2b 2a 87 3e
       0.10622756 0.08396096 -0.34931684 0.2639936
000050 95 4c 44 bd 40 75 00 3e 8a df 01 be bf 20 6b bd
       -0.047924597 0.12544727 -0.1268293 -0.057404276
000060 52 d3 09 bc ac 80 b1 be f5 34 99 be 7a 99 a0 3e
       -0.008412199 -0.3466848 -0.29923216 0.31367093
000070 57 a8 eb 3e b4 6f 94 bf 43 eb d4 be 88 b1 ec 3e
       0.4602687 -1.1596589 -0.4158574 0.46229196
000080 d2 90 d1 3e fe 72 0d 3e 8f 3d 82 bd 4a 98 4a 3f
       0.40930802 0.13813397 -0.063593976 0.79138625
000090 48 0c 1f be 4c ae 5a be d5 b4 0d be f2 a1 6e 3e
       -0.15532029 -0.21355551 -0.13838513 0.23303965
0000a0 69 08 40 3e c0 3c 91 bd 35 94 5a 3b 9d ca 82 bd
       0.18753208 -0.07091665 0.0033352498 -0.06386302
0000b0 0e 4c 9b be 08 4d f9 3e 2a 90 39 bc 69 7e a3 be
       -0.30331463 0.48691583 -0.011325875 -0.3193238
0000c0 27 ad 68 3d 87 9c 0f 3e 3b 68 11 3e 5e 69 9e 3e
       0.056805756 0.14024554 0.14199917 0.30939764
0000d0 37 91 f7 3e 89 c8 b8 3e f0 73 98 bf 0c 85 9b 3d
       0.48352978 0.36090496 -1.1910381 0.07593736
0000e0 f0 b4 7f 3e e1 3e 47 3f 93 23 7d be 92 60 d1 bd
       0.24971366 0.7783032 -0.24720602 -0.102234975
0000f0 02 98 78 be e4 e3 50 be c0 08 bb 3c a5 71 3c be
       -0.24276736 -0.20399433 0.02283132 -0.18402727
000100 89 4a 68 be 03 26 0d 3e e6 71 9e bc be 17 9f be
       -0.22684683 0.13784032 -0.01934142 -0.310728
000110 20 20 95 bd 07 d8 af 3d 31 a8 f4 3d 4a 6b a9 bd
       -0.07281518 0.08586126 0.119461425 -0.08272417
000120 f8 c3 4b be 6d 4f 07 3d 6d eb 03 be 81 6e 21 3d
       -0.19898975 0.03303473 -0.12882777 0.039412025
000130 ca cc e1 3e 42 f2 30 be e7 e1 f7 be 95 65 bb 3d
       0.44101554 -0.17279914 -0.48414537 0.091502346
000140 f0 77 7e 3f 74 16 bb be 29 3d 49 3d ae 16 83 3e
       0.9940176 -0.36540568 0.049130592 0.2560324
000150 9f 32 dd be 60 de 1f bf 44 99 5d bc d8 33 f2 bc
       -0.43202683 -0.6244869 -0.013525311 -0.029565737
000160 65 53 00 be 40 81 cb bc f1 47 11 bf fe e6 18 be
       -0.12531812 -0.024841905 -0.567504 -0.14931867
000170 bd 15 87 be f2 59 a0 be 4c 7a 8e 3d a5 ac a3 bd
       -0.26383772 -0.31318623 0.0695692 -0.07991914
000180 a3 5f 3c bb 6d 60 83 3e 01 b5 14 3e 5c 47 c6 3d
       -0.0028743527 0.25659505 0.14522173 0.096815795
000190 c2 a0 44 3e f8 53 29 3b 29 62 c0 bd 8b b6 73 bd
       0.19201949 0.0025837403 -0.093937226 -0.05950026
0001a0 d9 24 00 3f 21 b1 4b be 91 c5 da 3d 66 a1 b0 be
       0.50056225 -0.19891788 0.10682214 -0.34498137
0001b0 73 8a e7 3e bd 6e ca 3e 52 83 10 bf 06 2e a8 3e
       0.45222816 0.39537612 -0.5645038 0.32847613
0001c0 3f ae 71 3e 8f 8e 57 be 66 d2 23 be 54 44 4c 3e
       0.23601626 -0.21050476 -0.1599823 0.1994794
0001d0 90 09 ce 3b 09 82 a1 3e 28 7c 6a 3d 74 ad 2b be
       0.006287761 0.3154452 0.05724731 -0.16765386
0001e0 70 f6 55 3d b6 8b 38 be 96 76 c0 be a7 52 a4 be
       0.052236974 -0.18022045 -0.37590474 -0.3209431
0001f0 cf 96 fe bc e4 28 07 3f 90 b4 56 3f db b5 d4 3d
       -0.03107777 0.5279677 0.83869267 0.10386249
000200 2a 1d c0 bd 62 e5 1f 3f 5f cd c7 3f ac e1 77 be
       -0.093805626 0.62459385 1.5609549 -0.2420718
000210 79 31 48 3e a4 bf 01 3e 6a a6 34 3e fc c8 63 3f
       0.19550122 0.12670761 0.17641607 0.8897855
000220 53 76 f2 3e 08 cb c4 be 66 75 e6 3e 69 75 3c 3e
       0.473559 -0.3843615 0.45011443 0.18404163
000230 fd bf b8 3e e9 e5 55 3e 0d 5d a0 3d a6 46 01 3e
       0.36083975 0.20888485 0.07830248 0.12624606
000240 40 be a7 be 66 eb 0a 3f 2f e0 d4 bd 86 8c 67 be
       -0.32762337 0.5426544 -0.10394322 -0.22612199
000250 d0 a7 33 3e 19 f7 f6 bd 30 29 48 3f 42 1d d7 3e
       0.17544484 -0.12058849 0.7818785 0.4201451
000260 37 76 d9 bd 4f f4 ac 3b 69 0f 1c 3f c6 bd c4 3f
       -0.10618251 0.0052781473 0.60961014 1.5370414
000270 b8 25 2e be c4 97 9a 3e 43 91 48 bd 39 12 63 3c
       -0.17006576 0.30193913 -0.048966657 0.013859325
000280 be de 71 3e 21 aa 60 3f f2 9a a3 be a9 d6 49 3f
       0.23620126 0.87759596 -0.3195415 0.7884317
000290 7c 21 83 3e db f7 96 be 87 7b 09 3f 79 74 06 be
       0.25611484 -0.29485974 0.5370411 -0.13130368
0002a0 78 29 b8 3d 35 89 69 be c6 2d 40 3e b0 1b 0a bf
       0.089922845 -0.22806247 0.18767461 -0.539485
0002b0 70 98 da be 33 f6 c2 3d 4b ed 36 be 3e 14 7a be
       -0.42694426 0.09519615 -0.17863958 -0.24421784
0002c0 3a 11 c9 3d b7 0d 48 3d c5 bb b0 3e a9 e0 b5 bf
       0.09817739 0.048841204 0.34518257 -1.4209186
0002d0 a8 b9 ca bf f6 d7 8b 3e d0 d8 e6 bd cc d5 bc bc
       -1.5837908 0.27313203 -0.112718225 -0.023051165
0002e0 9f 12 59 3e b0 d8 87 3e ff a3 21 3e cd ae 1b be
       0.2119851 0.26532507 0.15785216 -0.152034
0002f0 14 64 3c bf 12 99 9d be cc 4f 04 3d b9 62 33 bc
       -0.7359021 -0.30780846 0.032302663 -0.01094883
000300 0a a9 8b bd 36 aa 4f be f8 36 8f be ca b5 80 be
       -0.06819351 -0.20279774 -0.27971625 -0.25138694
000310 66 97 00 3f bb 44 f4 3d bf 42 47 3e 00 ae 8b 3d
       0.50231016 0.11927172 0.19459055 0.06820297
000320 0a a8 f9 3d 9b ee fe 3e d5 d9 3e bd cc e6 94 bd
       0.12190254 0.49791417 -0.04659446 -0.072705835
000330 4a fe 48 bf fe 77 1c bc 1f 3b b7 be 9e 0f b0 bc
       -0.78513014 -0.009550093 -0.35787293 -0.021491822
000340 c0 64 01 3f 59 47 0d be 81 d7 98 3e 9a dc 97 be
       0.5054436 -0.13796748 0.29851916 -0.29660493
000350 b9 5f c3 bd 24 0b 1f be 9a bc 34 3e 9f b2 12 be
       -0.09539742 -0.15531594 0.17650071 -0.14325951
000360 8b a6 fa 3d 23 9c 84 3e 0c 32 93 3e 08 4b f2 3e
       0.12238797 0.25900373 0.2874912 0.4732287
000370 20 48 75 bc 17 3d 51 3e f7 68 7e 3e 4a cb 89 be
       -0.014970809 0.2043346 0.24844728 -0.2691291
000380 1c 4a 86 3d 33 84 fe bd 76 e4 c3 3e 16 25 b3 3e
       0.06557104 -0.12427559 0.3826024 0.34989232
000390 9f 0c be 3d 74 4a cf bd ec 94 45 3f f2 f3 b4 3e
       0.09279751 -0.10121623 0.7718036 0.35342366
0003a0 9e da 40 3e 47 b5 16 3f 88 cc 1b bf c4 13 f4 bd
       0.18833396 0.5887036 -0.60858965 -0.119178325
0003b0 99 14 b7 be da 4a 9d 3e a0 99 fd 3d f1 4a 26 3d
       -0.35757902 0.3072117 0.12382817 0.040598813
0003c0 d4 6f 2d 3d 92 69 25 3e 12 3b 36 3e 8b 8b c6 be
       0.042342976 0.16153553 0.17795971 -0.38778338
0003d0 4d 36 89 3d 97 fd b7 3e 23 f4 59 3e 9f 45 d0 bc
       0.0669981 0.3593566 0.21284537 -0.025423823
0003e0 b5 af 4c 3e 78 4c ce bd ed 67 36 bf 76 d0 e7 3d
       0.19988902 -0.10073179 -0.7125233 0.11319058
0003f0 01 bf b8 3d ea 10 c1 3e 2c ad 12 bf cd f9 ae bf
       0.09020806 0.37708217 -0.5729549 -1.3669983

body.0.bias f4 [128]
000000 08 d0 9c be 86 25 01 3e b0 11 9e 3e 0f 77 e7 bd
       -0.30627465 0.1261197 0.3087287 -0.113020055
000010 c7 1c 89 be 27 7c 63 be bd a2 09 be f2 f1 81 3e
       -0.26779768 -0.22215329 -0.13440986 0.25379902
000020 95 5f 54 be 45 f4 44 3e f5 22 67 3e 4d 78 36 3e
       -0.20739587 0.19233806 0.22571929 0.17819329
000030 36 c0 81 3e 68 d1 73 3e 12 66 38 3e 1c bb bb be
       0.25341958 0.23810351 0.18007687 -0.3666619
000040 f6 85 c4 be 22 12 0c bd ee ff 27 3e b8 a0 93 3d
       -0.38383454 -0.03419698 0.16406223 0.07208389
000050 6a f4 83 3e 91 2a 7f 3e e8 a3 18 3f 56 99 67 3e
       0.2577241 0.24918582 0.596251 0.22617087
000060 1b 9b 5f 3d 61 62 f7 bd 7d 52 0c bf cc 89 a3 bd
       0.05459128 -0.12079311 -0.5481337 -0.07985267
000070 24 da c8 3d fd 8b 8e be 66 9a b7 be 44 99 3e 3e
       0.09807232 -0.27841178 -0.35859984 0.18613154
000080 a4 34 e3 3d 97 89 28 3e 38 2e a0 be 8f 40 95 3e
       0.11094025 0.16458736 -0.31285262 0.29150817
000090 a6 83 4b 3d eb 5a 45 be 63 1d 40 be 94 a0 d6 be
       0.049686097 -0.19272964 -0.1876121 -0.41919386
0000a0 56 10 f1 3e b4 07 3e 3e d4 b6 2f be 9e 1c b8 3d
       0.47082776 0.18557626 -0.17159587 0.08989833
0000b0 82 a2 51 bd 79 d7 c7 3e 5f 2e ae 3e 26 4e 9a be
       -0.05118037 0.3903158 0.34019753 -0.30137748
0000c0 0d 34 6d 3e de 0a 67 bd 38 73 a1 3e 77 ff 80 3e
       0.23164387 -0.056406848 0.31533217 0.25194904
0000d0 f5 e6 64 3e 62 2d 0e bf 08 21 bf bd 33 b1 19 bd
       0.22353728 -0.55538 -0.09332472 -0.037522506
0000e0 98 4c ad bd 6d 86 56 3e 9c c9 6b 3e 69 3e 74 3e
       -0.08461875 0.20949717 0.23026127 0.23851933
0000f0 64 dd 27 be 18 bd 8a 3e 79 39 91 3e 0f 6b 54 3e
       -0.16393048 0.27097392 0.2836416 0.20743965
000100 00 60 e5 bd 85 55 78 be 5e 2b 4d 3e 95 f5 8b 3d
       -0.11199951 -0.24251373 0.20036075 0.068339504
000110 62 a1 5a be ff 41 ce 3d 63 87 88 bc 5a 7a aa 3e
       -0.21350625 0.100711815 -0.01666612 0.33296472
000120 af 10 0b 3e 02 55 63 3e 9b 49 04 3e ae 42 7c be
       0.13580583 0.22200397 0.12918703 -0.24634811
000130 ce 12 80 be 38 a3 11 3e c9 6f ca 3d da ba 37 3e
       -0.25014347 0.1422242 0.098846026 0.17942372
000140 96 97 c1 be a9 2c c9 be 1a 45 93 be 6a 0c 3a 3e
       -0.37810963 -0.39291885 -0.28763658 0.18168798
000150 98 c8 db be 9e 49 c1 3e 77 2d 0e 3b 47 ea b0 3d
       -0.42926478 0.37751478 0.002169458 0.08638435
000160 56 08 31 be b5 8e 33 3e 62 3f 00 3e 07 5a 90 bd
       -0.17288336 0.17534907 0.12524179 -0.07048421
000170 22 a3 23 3e 43 81 f3 be 03 d7 d7 be c7 1d 04 3e
       0.15980199 -0.47559556 -0.42156228 0.12901984
000180 4c 31 9b 3e b4 39 19 3d c7 9d f1 3e 1e 3d cb 3e
       0.30311048 0.037408546 0.47190687 0.39695066
000190 e2 ea d6 bc a8 83 9e bd 00 99 08 be 6b 41 59 3e
       -0.026235048 -0.07739955 -0.13339615 0.21216361
0001a0 89 8c 91 be 67 72 85 be 6f 9e da 3e 06 ca 01 3e
       -0.28427532 -0.26063845 0.42699 0.12674722
0001b0 ed 79 eb bc 9c 07 94 3e 2d b7 1c 3d 81 e5 b2 3c
       -0.028744662 0.28912055 0.038260628 0.021837952
0001c0 8e 84 0b bb a7 f4 e7 bd 34 ac 40 3e d2 c2 9b be
       -0.0021288726 -0.113259606 0.1881569 -0.30422074
0001d0 61 7b 3a 3e be 6e c5 be f6 4c ad 3e 56 76 e5 3e
       0.18211128 -0.38561052 0.3384778 0.44816846
0001e0 98 6b 32 3e c9 69 ae be 89 db 8f bc 15 09 84 be
       0.17423856 -0.34065083 -0.017560737 -0.2578818
0001f0 dc 38 dd 3d 1e 67 5c bd 3b 48 36 3d a4 fc 1f be
       0.10801861 -0.053809278 0.044502478 -0.15623719

body.2.weight f4 [128, 128]
000000 86 2b c7 be 69 67 a6 be f6 ec 55 3e 1e 0a 79 be
       -0.38900393 -0.3250077 0.20891175 -0.24320266
000010 ab 65 55 3e 77 5b 52 bd fb 5d bd be c4 0d d4 3e
       0.20839565 -0.05135676 -0.36985764 0.41416752
000020 8f b8 1e be 67 16 8d 3e bc ec 0e 3f 1a fd a7 3e
       -0.15500091 0.27556154 0.5582998 0.3281029
000030 cb fb 18 be f6 5b 6e 3e 50 e1 e3 bd 16 45 4f bf
       -0.14939801 0.23277268 -0.11126959 -0.8096479
000040 9c e5 09 be fc 0e 4c be eb 5a 44 be d1 ba b3 bc
       -0.13466495 -0.19927591 -0.19175307 -0.021939667
000050 71 5b f6 3d 6a 5f 59 be 24 34 32 3e 08 04 8a be
       0.1202916 -0.21227804 0.17402703 -0.269562
000060 2e 88 a3 be f1 af 31 3e 8e c8 84 be bd 56 0c be
       -0.31939834 0.17352273 -0.2593426 -0.13704963
000070 20 f9 c8 3e b3 eb eb 3b 81 47 48 be cc 6f 87 be
       0.39252567 0.0071997284 -0.19558527 -0.26452482
000080 50 eb 9b 3d 05 05 15 3d b8 e4 1e be dc 55 ac 3c
       0.07613242 0.03638174 -0.15516937 0.021037035
000090 16 56 93 be 19 fe b8 be 2e a7 ae bc 59 83 1d be
       -0.28776616 -0.3613136 -0.021319952 -0.15382136
0000a0 c6 77 8e be 4b 65 31 3e ca db 60 3e 61 14 0a bf
       -0.27825755 0.17323796 0.21958843 -0.53937346
0000b0 0c db 19 bd 9c 38 8b 3d 72 32 81 3d ab 6b 90 3d
       -0.037562415 0.06797907 0.0630845 0.07051786
0000c0 8c 1b c1 bd 9e a8 1c 3d b2 54 8a 3e 36 17 03 3e
       -0.09429082 0.038246743 0.27017742 0.12801823
0000d0 ca a3 cb 3e 18 35 b0 be ce 2e 27 be b8 74 9d be
       0.397734 -0.34415507 -0.16326448 -0.30753112
0000e0 a5 de 3c 3e dd 54 42 3e a4 16 62 bc ec 93 5f be
       0.18444307 0.18977685 -0.013799343 -0.21833771
0000f0 51 95 c3 be fe ac a1 be 5f 85 19 3d 63 36 1c 3e
       -0.38199857 -0.31577295 0.03748071 0.15255122
000100 2b e9 40 3e e4 66 fc bb 0b f4 9a 3d b0 80 87 bd
       0.18838947 -0.007702695 0.07566079 -0.06616342
000110 5a 46 36 be fe cd 95 3e 38 ae 4f 3e 09 0f a3 bb
       -0.17800274 0.29258722 0.20281303 -0.0049761576
000120 f0 91 76 3e 2f 8e 5a 3e 3c 66 44 3e 64 b7 9a b9
       0.24079108 0.21343301 0.19179624 -0.00029509806
000130 23 4b 35 bd f6 1c e0 bc 21 67 b9 3d 13 63 b9 3e
       -0.04426111 -0.02735756 0.090528734 0.362084
000140 c5 79 d6 bd 10 6a 90 be c3 ab 74 bd 03 24 e5 be
       -0.104724444 -0.2820592 -0.059734117 -0.44754037
000150 c2 a4 00 bf dd 62 6b 3e 38 f5 0d 3e c2 59 2b 3d
       -0.502514 0.22986932 0.13863075 0.041833647
000160 70 e6 f6 bd 81 0a 31 3e 40 79 b6 be 90 79 3f be
       -0.12055671 0.17289163 -0.3563938 -0.18698716
000170 bb de 88 3d cf 26 a7 bd 6a cd 8b be e5 aa 15 3d
       0.066831075 -0.08161699 -0.27305156 0.03653993
000180 40 74 43 3e 68 77 8f bc ed bb 50 3e ee cc ce 3d
       0.19087315 -0.017512992 0.20384188 0.10097681
000190 7a 95 ae 3a 0b 62 13 3e 7d 38 3c be 73 98 1a 3e
       0.0013319694 0.14392869 -0.18380924 0.15097217
0001a0 88 1b bb 3c 67 99 e2 bc 9c 3b 7e 3e 8b a0 b8 bb
       0.022840276 -0.027661039 0.24827427 -0.0056343726
0001b0 9e 99 f2 3d 78 6b 8a 3e 47 66 86 3e 3c 10 91 3e
       0.118457064 0.27035117 0.26249906 0.28332698
0001c0 3d 67 40 be 2a a5 2b 3e 17 fe e8 3e 25 69 68 3c
       -0.18789382 0.16762224 0.45506355 0.014185225
0001d0 b7 5e bc be c8 cc d7 be 94 84 1f be 47 58 5e 3d
       -0.36791012 -0.42148423 -0.15577918 0.054283407
0001e0 2a 6c 48 be 90 3a 07 be 29 88 ab 3e 76 90 ba 3c
       -0.19572511 -0.13205934 0.3350232 0.022773962
0001f0 b6 c7 60 bd ad 17 8d 3e ce bd 1f 3d 63 fe 6d be
       -0.05487796 0.27557126 0.03899937 -0.23241572
000200 a9 d1 49 be 18 3c 96 3e 1a 38 20 be ef 38 5a be
       -0.19708885 0.29342723 -0.15646401 -0.21310781
000210 f7 b3 0b bf a9 a2 e4 be c7 33 84 be d4 85 b8 3d
       -0.5457148 -0.4465535 -0.25820753 0.09009901
000220 7b b1 dd 3e 17 63 0b bc b2 00 a9 3d e0 46 1e be
       0.4329947 -0.008507512 0.08252086 -0.15456724
000230 78 3f b5 be 5f d6 f8 3d 05 a8 1b bf fd 30 2a bc
       -0.35399985 0.12150263 -0.6080325 -0.010387656
000240 6c 92 91 be 45 df 0b be 00 86 e9 bb 09 08 1a be
       -0.28432024 -0.1365939 -0.0071265697 -0.15042128
000250 37 92 17 bf c7 9f 3d bf 2f 39 81 bd 49 01 b5 be
       -0.5920748 -0.74071926 -0.06309735 -0.35352543
000260 a1 55 94 3d 8a b3 04 bf 9c 98 5b bd 41 3a 3b bd
       0.07242895 -0.51836455 -0.053612337 -0.045709852
000270 d5 af 25 3e 7b 58 a4 be 66 e4 67 3e 1f a9 b7 be
       0.16180356 -0.32098755 0.22645721 -0.35871217
000280 30 e5 70 be a4 be 9c be de 32 c7 bd 4a a1 c4 3d
       -0.23524928 -0.30614197 -0.09726499 0.09601076
000290 42 c9 f4 3c 31 c3 37 be 21 88 dd 3d ab 56 12 be
       0.029881123 -0.17945553 0.1081698 -0.14290874
0002a0 7b 01 25 3e 05 21 d8 3e 10 0f 13 3e 46 c7 1f be
       0.16113846 0.42212692 0.14361215 -0.1560336
0002b0 81 6f 0b bf bc 11 2a 3e ec 09 9f 3e a1 1a 4b be
       -0.54467016 0.16608328 0.31062257 -0.19834377
0002c0 68 67 9e 3d 03 a0 6c 3e 49 63 80 3d 03 99 48 be
       0.07734567 0.23107915 0.06268937 -0.1958962
0002d0 56 5f 3c be b2 1d 4e bd df a0 a6 be 32 cc 41 be
       -0.18395743 -0.05032129 -0.3254461 -0.1892555
0002e0 24 c5 da 3d f4 07 35 3e 05 98 3c be 5b 7d 97 3d
       0.10682133 0.17678815 -0.18417366 0.073969565
0002f0 cb 37 9a 3e 51 2f 44 be 6b 40 02 bd d8 20 8a 3c
       0.30120692 -0.19158675 -0.031799715 0.016861364
000300 8a 9e c2 3e f1 7f a0 3e bb 88 8c bd c6 7c 6b be
       0.3801158 0.31347612 -0.06862017 -0.22996816
000310 60 b7 ac bd 33 f3 c8 be 22 5e 3f 3e 3b c1 52 3e
       -0.084334135 -0.39248046 0.18688253 0.20581524
000320 77 45 cb bd cb 63 50 be 40 cd 56 be 3b e2 81 3e
       -0.09925359 -0.20350568 -0.20976734 0.25367913
000330 85 40 28 bd 0f a4 d9 be e9 d6 56 3d b7 78 8b 3e
       -0.041077156 -0.4250798 0.052451048 0.27240536
000340 0b b2 42 be 5d 5c bf 3e 95 1f 86 3e 7c 11 92 3e
       -0.1901323 0.37375155 0.2619597 0.28528965
000350 73 4d c8 bd f6 d9 27 3e 92 2a 2f be d4 b7 aa be
       -0.09780397 0.16391739 -0.17106083 -0.33343375
000360 0a e1 2d 3e ae a9 56 3d 0d 36 20 3f ca fb 58 3e
       0.16980377 0.052407913 0.62582475 0.211898
000370 74 2c 56 bb 8f 38 b9 be 1d 06 e5 be 01 1a bd 3e
       -0.0032680305 -0.36175963 -0.44731227 0.36933902
000380 72 11 75 3e 68 ce 43 bd 87 49 4c 3c 9b 74 1f 3e
       0.23932436 -0.047804266 0.012468702 0.15571825
000390 21 63 16 3f 29 cb ee 3e a3 02 a8 be 70 cc 70 be
       0.5874501 0.46639374 -0.32814512 -0.23515487
0003a0 78 9c da bd 44 d9 f2 3e 12 d8 aa 3d 27 e5 20 be
       -0.10674375 0.47431386 0.083419934 -0.15712415
0003b0 c4 48 2b be 9c 05 20 3e d8 b4 35 3e 32 32 a2 bd
       -0.16726977 0.1562714 0.17744768 -0.0791973
0003c0 df eb a9 be 00 8b e3 3c 93 7e 82 3e 13 78 c7 3e
       -0.33187768 0.027776241 0.25487193 0.38958797
0003d0 5d 26 39 be c1 ac 9b 3d 03 2b 8d 3e 11 0c ee 3d
       -0.1808104 0.076013096 0.27571878 0.11623395
0003e0 94 36 1b be 45 67 71 be a6 8f e2 3e 20 ee db bd
       -0.15157539 -0.2357455 0.4425022 -0.10738778
0003f0 49 70 86 be f1 a1 44 3f 14 b9 65 3e d0 42 93 be
       -0.26257542 0.768096 0.22433883 -0.2876191

body.2.bias f4 [128]
000000 91 e8 da 3d b7 50 05 3e 46 a6 25 3e df 46 69 be
       0.1068889 0.13019072 0.1617671 -0.22780941
000010 bc 99 cc bd 65 1e 80 bd 5e 3b 0b be 1e 80 26 be
       -0.0999026 -0.06255797 -0.13596866 -0.1625981
000020 ee 28 a4 bd 3e 06 fb 3d 1e 05 7d bd a2 28 53 3e
       -0.08015619 0.1225705 -0.06177246 0.20620969
000030 cf ab e9 3d e7 7b 67 be 24 12 38 3e 18 64 8b be
       0.11409723 -0.22605859 0.1797567 -0.27224803
000040 ea 21 ae 3e 83 f4 74 3e 00 3b 2f be b7 c5 b4 3d
       0.3401025 0.23921399 -0.1711235 0.088267736
000050 78 95 44 bd c1 ab 94 bd 53 1e 0b bd cc 88 2d bd
       -0.047994107 -0.07259322 -0.033964466 -0.042366788
000060 00 93 33 3e 44 8f c7 3d cd b2 4f 3e a9 75 27 be
       0.17536545 0.097441226 0.20283051 -0.16353478
000070 62 56 ea bd dd 97 d0 3d 36 c8 8e bc d5 a6 36 3e
       -0.114422575 0.101852156 -0.017429452 0.17837079
000080 1e 5d 0b bd 39 bb ea bd 28 95 03 bd b1 f3 76 3d
       -0.03402435 -0.11461491 -0.03212467 0.060290996
000090 f7 6f e3 bc ec 38 e2 3d 4c f3 4e 3d cf aa e3 bd
       -0.02776335 0.11046013 0.050524995 -0.111165635
0000a0 8a 82 53 3e 69 46 d7 bd e1 37 98 bd ba 04 a1 bc
       0.20655265 -0.105114765 -0.07432533 -0.019655574
0000b0 fd b4 bc bd 22 d5 92 3d 68 50 72 3e 58 18 ad 3d
       -0.09214208 0.07169558 0.23663485 0.08451909
0000c0 0f ba 2c 3d 21 d0 01 3e 0b a7 e0 3a 7b 87 8e 3d
       0.042169627 0.12677051 0.0017139626 0.069594346
0000d0 39 25 b3 bd 01 c5 0d be af 50 7f 3d 66 3b f5 3d
       -0.08747334 -0.13844682 0.062332805 0.1197422
0000e0 0f a9 62 3e 98 94 12 be fc 40 f0 3d e9 3c 3c bc
       0.22134803 -0.14314497 0.11731145 -0.0114891315
0000f0 25 26 43 bc e0 39 03 3e ec 37 b1 3c 08 ca 3f be
       -0.01191095 0.12815046 0.021633111 -0.18729413
000100 9d fa 91 3d e5 2c 8c be 5b 72 05 be 0a 9c 6e be
       0.07127879 -0.27378002 -0.13031904 -0.23301712
000110 b5 9b 4b bd d6 c9 6a 3d 25 d8 4f be fb a2 21 be
       -0.04970904 0.057321392 -0.20297296 -0.15784828
000120 7b 99 09 be 5a 86 97 3c 88 b2 61 3e 9b 58 c7 3d
       -0.13437454 0.018496681 0.2204076 0.09733697
000130 7d 63 0e be 86 2b 4a be 71 4b f9 bd 2d 6f 78 bc
       -0.1390514 -0.19743165 -0.121725924 -0.015163225
000140 d3 e9 c7 bc ab 2b 91 3c 4f 91 81 bd d1 99 13 bc
       -0.024403488 0.017721018 -0.063265435 -0.009008841
000150 82 f6 ab bd d7 ed 64 bd 6b 5e 79 3d 1a 65 01 3e
       -0.08396627 -0.055890884 0.06088106 0.12636223
000160 ab bf f8 3d 68 10 28 bd 92 77 e7 bc fb 79 95 3d
       0.12145933 -0.04103127 -0.028255258 0.072986566
000170 00 0f e8 3c 93 36 a1 3d 61 53 18 3e 55 3f a9 3b
       0.028327465 0.07871737 0.14875557 0.0051650205
000180 2a 0e 08 3d bd 73 90 3c f5 a1 97 3d f7 ae a0 bd
       0.033216633 0.017633313 0.07403938 -0.07845872
000190 83 61 92 bd c4 ef 29 3e ec b7 ef 3c b8 94 c9 3d
       -0.07147505 0.1659537 0.029262505 0.09842819
0001a0 33 61 7c 3d ec 64 98 3d 12 fd 46 3d 02 60 72 3e
       0.061616134 0.07441124 0.04858119 0.23669437
0001b0 17 78 da 3c a2 5e 82 bb 2e d4 3b be de 23 ac 3b
       0.026668591 -0.0039785663 -0.18342659 0.005253299
0001c0 96 73 6f be 92 39 34 3c 08 7d ca bd 70 7a 8b be
       -0.23383936 0.011000054 -0.09887129 -0.2724185
0001d0 de b1 48 3d 50 9e 2f 3e 63 1f f1 bd 5d 17 9f 3e
       0.048997752 0.17150235 -0.11773565 0.31072512
0001e0 59 05 95 bd 6e 88 87 3e f0 f2 f4 3d 83 f9 77 3d
       -0.072764106 0.26471275 0.11960399 0.060540687
0001f0 3e 42 8c 3e ec 82 ed 3d 3b b6 29 be 51 b0 46 bc
       0.2739429 0.11597237 -0.16573422 -0.012126998

mean_head.weight f4 [6, 128]
000000 df 04 d8 3d 65 42 cc be a5 56 5b be de 0d 51 3e
       0.10547804 -0.39894405 -0.21419771 0.20415446
000010 fd 16 47 3e 9a 24 80 be f4 87 ce bd cb 36 b1 3e
       0.19442363 -0.25027925 -0.10084525 0.34612116
000020 0b c8 52 be 62 2c 09 bd 11 83 79 3e c8 3a 94 be
       -0.20584123 -0.033489592 0.24366404 -0.28951097
000030 9a 5c ff bb e2 e8 0a 3f a4 f9 a1 3b f9 f7 19 be
       -0.0077930214 0.542616 0.0049430896 -0.15036
000040 2f c0 18 bc 0a 9b 4f be 03 3c 94 3d f8 af 46 3e
       -0.009323164 -0.20273986 0.07238009 0.19403064
000050 c1 cd da bd 64 68 92 bd a5 90 0d bd 64 c4 98 be
       -0.10683776 -0.07148817 -0.034561772 -0.29837334
000060 d0 18 02 be e7 02 1e be 9d d4 81 bd be 50 8f 3d
       -0.12704778 -0.15430795 -0.06339381 0.06997822
000070 59 c5 b6 bd db 0c 24 be 3d 52 fa 3d 46 d0 bb be
       -0.0892436 -0.16020529 0.12222717 -0.36682338
000080 1a bf 96 bd d8 cd 4d be ac fd d9 be 45 8a 82 3d
       -0.073606685 -0.20098054 -0.4257635 0.06374029
000090 fb fb f5 3e 84 7c ee bd 24 f8 2e 3e 9e 23 83 3e
       0.48043808 -0.11644843 0.17086846 0.2561311
0000a0 2f b0 83 be f8 8d cf be 3a 4a ac 3c e9 d0 f7 ba
       -0.25720355 -0.40538 0.021031488 -0.0018906865
0000b0 23 6d 9d 3e 57 a6 cf 3d c8 67 7a 3d ac 6c 95 be
       0.30747327 0.10139149 0.06113413 -0.29184473
0000c0 f4 2a 67 39 ae e8 ec 3e 52 e2 a1 3e df 4d 34 be
       0.00022045878 0.4627127 0.3161798 -0.1760783
0000d0 fe 25 ad 3d 09 29 99 3e 2a 9d 3f 3e 60 69 2b be
       0.08454512 0.2991412 0.18712297 -0.16739416
0000e0 1c 38 ac be 96 cb ff bd 71 87 f2 3d 14 fa 89 3c
       -0.33636558 -0.12490003 0.1184224 0.01684288
0000f0 84 a2 df bb 75 d1 5c be b6 c4 cf 3d 82 99 87 3e
       -0.0068247933 -0.21564277 0.101449415 0.26484305
000100 17 a7 b0 3e 48 d5 dd be 34 0b 73 3d 3a f6 4a 3c
       0.3450248 -0.43326783 0.059336856 0.012387807
000110 51 45 89 be 3d 07 5f bd a6 5a e4 3d c6 e1 dd 3e
       -0.26810697 -0.054450262 0.11150102 0.43336314
000120 a8 42 ff 3d 94 c8 52 3e 4e bf 57 3d 2c 3f 54 3e
       0.124638855 0.20584327 0.052672677 0.20727223
000130 be 2a 6e 3e aa d5 89 3e d4 5f 8a bd 3f eb 6a be
       0.23258492 0.26920825 -0.06756559 -0.22941302
000140 41 14 ce 3d 47 23 be 3d 1e 77 36 be 00 c9 4c be
       0.10062457 0.09284072 -0.17818877 -0.1999855
000150 1b 16 e4 bd 61 45 44 3e eb 41 53 3e 99 36 40 3e
       -0.11137029 0.19167091 0.20630614 0.18770827
000160 43 27 2b 3e 35 aa 2a be 9b 4e 26 3e 0b 10 b1 3d
       0.16714196 -0.16666491 0.16240923 0.08645638
000170 a6 7e 36 3d 49 a9 48 3d de d7 5b be a7 83 9f be
       0.044554375 0.048989568 -0.21469066 -0.3115513
000180 69 10 98 bd 01 df 87 3d bc 37 b1 bd 6a 59 30 bd
       -0.07425005 0.066343315 -0.086532086 -0.043054022
000190 2e a1 8b bd 87 41 0e 3e 92 67 01 be 8a 88 c4 bd
       -0.06817852 0.13892184 -0.12637165 -0.09596355
0001a0 6f 46 51 3d f8 3d 83 3e 45 54 cb be 42 a5 2c 3e
       0.05109256 0.25633216 -0.3971273 0.16859916
0001b0 59 bb 2a be 1b 7a 2a be 00 a2 35 be 4a 61 b8 bd
       -0.1667303 -0.16648142 -0.1773758 -0.090029314
0001c0 a0 23 12 3e 69 ed ad 3e d0 fa 86 3d 9e 9e 56 3d
       0.14271402 0.33970192 0.065908074 0.052397363
0001d0 a3 b1 09 bc 3a 15 00 be 70 30 e1 3e 83 1c 96 be
       -0.008404168 -0.12508097 0.43982267 -0.29318628
0001e0 c8 cf 41 3e 4c 05 46 be 85 00 8e be 6e 44 aa bc
       0.18926919 -0.19337958 -0.2773477 -0.020784583
0001f0 34 c5 50 3d 61 50 89 bd 06 ff 44 3e 56 25 85 be
       0.050969318 -0.06704784 0.19237909 -0.26005048
000200 ba 67 a4 3e 60 2c cb be 47 cc a1 be 22 57 94 be
       0.32110387 -0.39682293 -0.31601164 -0.28972727
000210 fe f3 9d be 26 27 f8 be 97 f8 9c 3e 7e 33 d1 3e
       -0.30850214 -0.48467368 0.3065841 0.40859598
000220 1c c1 86 be f8 b4 9a 3e 35 9c 83 be 3c c0 85 be
       -0.26319206 0.30216193 -0.25705114 -0.26123226
000230 3a 59 df be fe 62 7c 3e 8c 98 aa be e8 8a ee 3e
       -0.43622762 0.24647138 -0.3331951 0.46590352
000240 fe 80 17 3e 3f ea 8b 3e bc fe 2b 3e 0e f3 db be
       0.147953 0.27327153 0.16796392 -0.42958874
000250 7e ec a1 be 11 89 a2 3e eb 71 4d 3e 84 68 45 3e
       -0.31625742 0.31745198 0.20062988 0.19278151
000260 78 a1 19 3f 15 1c e7 3d de b0 55 be 60 c6 a2 be
       0.60012007 0.11284653 -0.2086825 -0.31791973
000270 0f e1 b1 3d c6 a8 12 3e fc fd 45 be 75 13 83 3e
       0.08685505 0.14322194 -0.19335169 0.25600782
000280 fe b3 36 be 68 2e 8c 3e 12 e4 99 be bc b6 a1 be
       -0.17842099 0.27379155 -0.30056816 -0.31584728
000290 05 7d 24 bd 21 81 90 be 67 c5 5f 3e 21 bb e1 3e
       -0.04015829 -0.28223518 0.21852647 0.4408808
0002a0 bb 26 9a 3e 53 98 5f 3e a0 0e d1 3e fa a4 73 be
       0.30107674 0.21835451 0.4083147 -0.23793402
0002b0 67 c7 ac be d6 b2 d7 bd 3b d1 d8 3e 28 d4 e8 be
       -0.33745882 -0.10532157 0.4234713 -0.45474362
0002c0 ab 1e 3e be e0 20 ed 3e 18 2f 15 be a5 ad 93 be
       -0.18566386 0.46314144 -0.14568746 -0.28843418
0002d0 a3 77 99 be c3 83 94 3e a5 90 0e bf 56 64 cf 3e
       -0.29974088 0.29006776 -0.5568946 0.40506238
0002e0 43 38 af 3e e5 45 90 be 39 cd 1a be 15 de 3b 3e
       0.34222612 -0.28178325 -0.15117349 0.18346436
0002f0 8b 5d 9d be 88 aa 82 be 26 29 3b be af 71 66 be
       -0.3073543 -0.2552073 -0.18277416 -0.22504304
000300 63 0d 13 3e cc 83 e4 3e 1c a9 73 3e 10 53 62 3e
       0.14360575 0.44631803 0.23794979 0.22101998
000310 39 a7 4e 3e d1 6b 86 3e 1a d0 2a 3e b1 c7 52 3e
       0.20180978 0.26254132 0.16680947 0.20583989
000320 4b 21 49 be 27 af 73 3e dd 16 f9 be a4 c2 82 3e
       -0.19641607 0.23797284 -0.48650256 0.25539124
000330 1b 3c 55 3e fb 15 c2 be 87 1c c5 3e 3e 6a 38 3e
       0.2082371 -0.37907395 0.38498327 0.18009278
000340 5d 0b 90 bd bd 62 b1 3e 4a 5d 92 be 2b b2 8b 3e
       -0.070334174 0.34645644 -0.285868 0.2728437
000350 63 4d 34 3e a0 78 b5 3d fe 36 bb be a6 c0 92 be
       0.17607646 0.08860898 -0.36565393 -0.28662604
000360 41 1b d9 be 0b 4a 39 bd 72 01 81 3e 16 5c 5b be
       -0.42403606 -0.04523663 0.25196415 -0.21421847
000370 83 dc 5f be eb cc 93 be 3a b9 07 bf f1 32 d8 3e
       -0.21861462 -0.28867278 -0.5301701 0.42226365
000380 6e 84 40 3e b0 cf 9c be 41 44 c8 3e db 68 97 3e
       0.18800518 -0.30627203 0.39114574 0.29572186
000390 9f e0 81 be 46 0f c1 3e 80 eb 10 bf 1d 70 59 3e
       -0.25366685 0.37706965 -0.56609344 0.21234174
0003a0 bb 06 98 be ca bb 96 be b3 ac 58 be ae 03 95 be
       -0.29692635 -0.29440147 -0.2115963 -0.2910437
0003b0 87 01 a7 3e f5 6b 67 be 39 51 9a be 55 ec 05 bf
       0.32618353 -0.22599776 -0.30140093 -0.5231374
0003c0 30 2e b5 3e 80 0c ad 3e 80 be ab be ad 75 de 3e
       0.353868 0.337986 -0.33543777 0.43449154
0003d0 ea 19 b2 be b5 54 6e be bf da a4 3e 17 06 08 bf
       -0.34785396 -0.232745 0.3219814 -0.5313429
0003e0 10 ed c3 3e 05 1a ab 3e 38 4a 8f 3e c2 cd 92 3e
       0.38266802 0.3341829 0.27986312 0.28672606
0003f0 65 fd bc be 3d 8f c3 3e 0f 33 9e 3e e3 c6 b0 be
       -0.36912075 0.3819522 0.3089833 -0.3452674

mean_head.bias f4 [6]
000000 f7 2c 6a be cd 17 3b be a2 0b 3e be 48 c1 91 bd
       -0.22868715 -0.18270798 -0.18559125 -0.071169436
000010 c7 e3 1f be 28 28 fe bd
       -0.15614234 -0.12410003

value_head.weight f4 [1, 128]
000000 08 41 c1 40 10 44 c2 c0 19 dc c0 c0 04 28 b6 40
       6.0391884 -6.0708084 -6.0268674 5.6923847
000010 0e 19 bc c0 5f 0c bd c0 a3 40 c1 c0 79 e3 c1 c0
       -5.8780584 -5.90776 -6.03914 -6.0590177
000020 47 83 bb c0 f1 9a a8 c0 5f ee bf 40 f4 dd ca 40
       -5.859775 -5.2689137 5.997848 6.339594
000030 2c 14 b5 c0 72 f3 c3 40 aa 2b c6 40 4d 62 ab c0
       -5.6587124 6.1234674 6.19283 -5.3557496
000040 b7 9f c9 40 0a 4e c4 40 af 9b c1 40 f7 da b8 c0
       6.3007464 6.1345263 6.0502543 -5.776729
000050 c7 a5 bf c0 5a 42 c4 c0 99 7d c3 40 10 34 bf 40
       -5.9889865 -6.1330996 6.1090817 5.9751053
000060 94 9c 8f c0 f9 41 bc c0 e2 18 b4 c0 96 0a c4 c0
       -4.4878635 -5.8830533 -5.6280375 -6.126292
000070 36 cb c0 40 b0 a8 c1 40 c7 42 c0 c0 85 d8 c2 40
       6.024806 6.0518417 -6.0081515 6.0889306
000080 12 2a c1 c0 28 2f c2 c0 3d 9f bc c0 c9 46 c0 40
       -6.0363855 -6.0682564 -5.8944383 6.008641
000090 b6 35 b9 40 d8 22 bf c0 38 2a bc 40 ee ab 8f c0
       5.7878065 -5.9730034 5.8801537 -4.4897375
0000a0 1c f0 c8 40 a3 12 c6 c0 2b 79 a2 c0 8c 9e b5 40
       6.27931 -6.189775 -5.077291 5.675604
0000b0 14 69 b9 c0 95 bf c0 c0 11 a5 a9 c0 38 01 bf c0
       -5.794077 -6.0233865 -5.3013997 -5.968899
0000c0 aa d4 c1 c0 dd 76 81 c0 26 0b c0 c0 05 45 c0 c0
       -6.05721 -4.0457597 -6.001361 -6.008425
0000d0 83 db c7 c0 6a a4 b7 40 bd 5e a6 40 30 45 b3 c0
       -6.245546 5.73882 5.1990647 -5.6021957
0000e0 dd 87 c5 40 0a 48 8d 40 05 76 be c0 01 d7 bc 40
       6.172835 4.415044 -5.9519067 5.9012456
0000f0 60 86 c0 c0 75 6f bc c0 b9 b0 bd c0 53 48 c8 c0
       -6.016403 -5.8886056 -5.9278226 -6.2588286
000100 0b 4e c2 c0 0f d2 b7 40 60 c7 bb c0 e9 92 b1 c0
       -6.0720267 5.744392 -5.868088 -5.5491834
000110 33 46 bd 40 48 9e bc c0 14 26 c9 c0 a4 13 c0 40
       5.9148192 -5.8943214 -6.285898 6.0023975
000120 a5 da c1 c0 b5 ed c8 40 e5 ad bc c0 0f 68 c5 40
       -6.05794 6.279017 -5.8962274 6.1689525
000130 7f cb b5 40 57 91 a8 40 9f 45 ba 40 98 9d bb 40
       5.681091 5.2677417 5.8209987 5.8629875
000140 18 1d c7 c0 5d c0 c1 c0 23 46 b7 c0 63 2e c3 40
       -6.2223015 -6.054732 -5.7273116 6.0994124
000150 e2 89 c1 40 1f 1d b4 40 d8 3c b8 c0 ed c5 bc 40
       6.0480814 5.628555 -5.757427 5.899161
000160 3f 92 a9 40 28 5f 88 40 b0 38 b2 c0 6b 8f bc c0
       5.2991023 4.2616158 -5.56942 -5.892507
000170 df f6 bd c0 69 7b bb 40 64 90 a0 c0 f8 08 a9 c0
       -5.9363856 5.8588147 -5.017626 -5.282345
000180 39 44 c4 40 4d 52 bf c0 da df bf 40 57 d3 c2 c0
       6.133328 -5.9787965 5.9960756 -6.0882983
000190 4f e8 c3 c0 30 b4 a8 c0 77 76 be c0 0f d0 72 40
       -6.122108 -5.2719955 -5.951961 3.793949
0001a0 c2 52 c8 40 ac 81 b0 40 0c b2 be 40 0f e8 bb 40
       6.2601023 5.515829 5.959234 5.8720775
0001b0 de cb b5 c0 16 33 a6 40 e2 65 b0 40 a9 34 bc c0
       -5.681136 5.193736 5.512437 -5.8814282
0001c0 2e 93 bd c0 80 38 c0 40 ab 05 c0 c0 98 db b9 40
       -5.9242163 6.006897 -6.000692 5.808056
0001d0 fe b4 be 40 e9 4c bc c0 7c 1a 95 c0 56 4b b5 c0
       5.959594 -5.8843884 -4.659483 -5.6654463
0001e0 0e 2a ba c0 cb 49 ba 40 54 2f c0 40 48 94 99 40
       -5.8176336 5.821508 6.0057774 4.7993507
0001f0 f9 92 bc 40 c7 20 bd 40 ed e8 bf 40 bd ff b7 40
       5.892941 5.910251 5.9971833 5.749968
