checkpoints/biped_ik_ppo_mp.pt (torch, 83905 bytes, 8 tensors)

log_std f4 [4]
000000 00 00 00 00 00 00 00 00 00 00 00 00 00 00 00 00
       0.0 0.0 0.0 0.0

body.0.weight f4 [128, 21]
000000 62 80 0f 3d c6 2d fc bd 9c dc dd bc 9d 7f 29 be
       0.035034545 -0.12313418 -0.027082734 -0.16552587
000010 32 52 b4 3c 73 3f 43 be 7c 3b 6d 3d dc a0 4d be
       0.02201185 -0.19067173 0.057918057 -0.20080894
000020 f0 61 67 bc 80 f7 55 3d 91 1c ac 3d 2c 75 17 bd
       -0.014122471 0.052237988 0.08403886 -0.03697698
000030 37 4f bb bd 29 a7 35 3d 64 5f 25 bd de 84 35 3e
       -0.091459684 0.04434887 -0.040374175 0.17726466
000040 45 d2 a4 bd d8 f5 0b 3e 7f 84 40 be 78 f7 24 3e
       -0.08047918 0.13668 -0.18800543 0.16110027
000050 51 87 ff 3d 51 94 e8 39 ed 80 44 3e 36 7c 5d bd
       0.124769814 0.00044360993 0.19189806 -0.054073535
000060 99 ca 02 be d9 24 f9 bd c6 27 b2 bd b7 c6 5a be
       -0.12772597 -0.12165231 -0.086989924 -0.21364866
000070 b0 bc da 3d 0a c0 b5 3c 9b 90 59 be 1b 0b 24 be
       0.106805205 0.022186298 -0.21246569 -0.16019861
000080 26 90 d0 3d 3a d7 f9 bb 7c 6d 59 be 8a 7c 0a 3e
       0.10183744 -0.007624534 -0.21233171 0.1352407
000090 46 aa 46 be df 80 eb 3d d6 91 a2 3d 25 4a ad bd
       -0.19400892 0.114991896 0.07937972 -0.084614076
0000a0 7f 37 10 be e6 69 53 be e4 07 ed bd 1c fb b4 bd
       -0.1408367 -0.20645866 -0.11573771 -0.08836958
0000b0 0f 84 25 be 52 90 91 bd 9c 5c 0f 3e 22 c1 2b 3e
       -0.16163658 -0.07107605 0.14000171 0.16772893
0000c0 59 5e c5 3d e9 6e 90 3d e1 fe 90 bd 22 70 17 3e
       0.09637136 0.070524044 -0.07079864 0.14788869
0000d0 0c a9 38 3e 5d a0 07 3e 1b ae f5 bd 2d 93 1a 3e
       0.18033236 0.13244767 -0.119960986 0.15095206
0000e0 2d 9a 3e 3e 85 e4 3a be 5f eb 0d 3e ab 64 0d be
       0.18613501 -0.18251236 0.13859318 -0.13807933
0000f0 bf 11 54 3e 84 df e0 bc a2 b1 20 3e c0 bb 94 3d
       0.20709895 -0.02745033 0.15692762 0.07262373
000100 9a f1 51 3e bb 30 2a 3c 02 8e ef bd cd 99 37 3e
       0.2050232 0.010387595 -0.11697008 0.17929764
000110 49 55 55 bd b8 b1 bd 3d 76 b6 3f bd 51 78 9a 3d
       -0.052083287 0.09262413 -0.046804868 0.0754248
000120 7c ab 31 bc 29 ff 3d be 8f 7d bf bc 92 ef 09 3e
       -0.010844108 -0.18554367 -0.0233753 0.13470295
000130 9b ef ae 3c 14 df 56 be b2 d8 c7 bd 6f 57 9e bd
       0.021354487 -0.20983535 -0.09758128 -0.077315204
000140 40 cc 24 be e1 8e 23 be 2f 04 26 3e c9 9c 8d bd
       -0.1609354 -0.15972473 0.16212533 -0.0691467
000150 46 27 55 3e 50 c4 5d be a0 06 75 3c df bd ac 3d
       0.20815763 -0.21656919 0.014955193 0.084346525
000160 6f 58 57 be 90 32 5d bc 6a 63 0f be 55 48 80 bd
       -0.21029828 -0.013500825 -0.14002767 -0.06263796
000170 03 fd a5 3d 37 a2 40 be 77 c8 13 be cb 77 51 3e
       0.08104899 -0.1881188 -0.1443194 0.20455854
000180 5b 45 31 be 41 d8 37 3e fb 39 47 be 6f 0b ad bd
       -0.17311613 0.17953588 -0.19455712 -0.084494464
000190 83 7e 5c 3e 50 e7 6a 3d 26 51 0c be 22 da f5 3c
       0.21532635 0.057349503 -0.1370283 0.03001124
0001a0 eb 0d 3b be b2 85 b0 3d b0 9e 47 be de ce 49 bd
       -0.18267028 0.0861925 -0.19494128 -0.04926955
0001b0 75 ba 20 bd eb 8e 44 3e 0d cf ad 3d 6e c4 0b 3e
       -0.03924032 0.19195144 0.084867574 0.1364915
0001c0 ca 9b b4 3d b7 be 76 bd 88 2c e2 3d 63 e2 5e 3d
       0.08818777 -0.060240474 0.1104365 0.054415118
0001d0 d0 53 52 3e ca 1e 39 3d 29 cb 0c be 3b e3 05 be
       0.20539784 0.04519538 -0.13749374 -0.13074963
0001e0 ba e5 43 be ec e3 28 be 94 92 28 3e b6 2b 10 3d
       -0.19130602 -0.16493195 0.16462165 0.035197936
0001f0 e8 42 48 be 0a 98 95 bd 64 05 2d be 3a e4 52 3e
       -0.19556773 -0.0730439 -0.16896588 0.20594874
000200 6e 12 20 3e 49 64 1d 3e 35 d5 9e 3d 6f 2c 03 3d
       0.1563203 0.15370287 0.0775551 0.032024797
000210 09 0b a9 bd 80 c2 d5 bd bb 53 c3 bd 4d d9 56 3e
       -0.08254058 -0.104374886 -0.09537455 0.20981331
000220 07 7e c2 3d da 25 cb bd 8e 51 18 be aa 68 d5 bd
       0.09496694 -0.09919329 -0.1487486 -0.10420354
000230 3b d5 4b be f0 0e b1 3d 7d 7a 40 3e 74 ca 86 3d
       -0.1990556 0.08645427 0.18796726 0.065815836
000240 d6 41 0f be 8e de 83 3d 8d e3 13 3e 94 a9 3b be
       -0.13989958 0.06438933 0.14442272 -0.18326408
000250 99 5c 19 3e 12 0f 03 be 3a 80 17 be 6c 86 21 3e
       0.1497673 -0.12798718 -0.14795008 0.15773934
000260 9b 1c b1 3d 50 32 78 bd d3 f3 cf bd 8f 0a 2d 3e
       0.08648034 -0.060594857 -0.10153928 0.16898559
000270 77 ea 2b 3e 24 72 b3 bd d7 1b 17 be f8 25 95 3d
       0.1678866 -0.08762005 -0.14756714 0.072826326
000280 51 13 73 bd 8f 49 f6 bd ee 1a 0d 3e f6 57 a8 bc
       -0.059344593 -0.12025749 0.13779804 -0.020549756
000290 cb 6b 42 bc 37 b7 53 bb 7d a6 5d 3d 89 c5 02 be
       -0.01186652 -0.003230525 0.054113854 -0.12770666
0002a0 3c d4 29 3d 5f dd 00 be b7 e1 6d 3d e1 33 e8 3d
       0.041462168 -0.12584446 0.058076587 0.1133802
0002b0 11 56 1f be 5c 20 ab 3d 0d 47 5c 3d 25 f2 5d be
       -0.15560175 0.083557814 0.053778697 -0.21674402
0002c0 73 d3 30 be 84 57 24 3e d4 34 56 3e 78 f6 dc 3d
       -0.17268161 0.1604901 0.2091859 0.10789198
0002d0 32 b0 f4 3d f6 44 81 bc 9d a0 45 be db 55 33 bd
       0.11947669 -0.015779953 -0.1929955 -0.04378305
0002e0 03 c9 0a 3e f1 84 0e be bc e7 23 3e 19 de 35 3e
       0.13553242 -0.139179 0.16006368 0.17760505
0002f0 e1 21 59 bd ed 54 90 3d a5 ad 9e bd 63 1a d6 bc
       -0.053010825 0.07047448 -0.07747964 -0.026135629
000300 40 1c 8e 3c 41 ae a8 3d 86 c7 17 3e 3c 26 05 3d
       0.017347455 0.08236361 0.14822206 0.032507166
000310 97 04 16 3e d7 f2 40 3e 66 66 0b bd f3 5f 46 3e
       0.14650188 0.18842636 -0.0340332 0.19372539
000320 52 86 ca bd 6b ad 08 3e 08 f9 29 be 69 b1 1d 3e
       -0.09888901 0.13347404 -0.16598904 0.15399708
000330 72 a1 12 be e3 07 e1 bc 37 b8 2a 3e 90 b0 02 3e
       -0.14319399 -0.027469581 0.16671835 0.12762666
000340 2d 79 99 3d dd de ce b7 e5 44 22 be be 53 0b be
       0.074938156 -2.4660892e-05 -0.15846594 -0.13606164
000350 c3 af d1 bd 3a 68 40 be 56 a2 34 bc 3d 00 4f 3e
       -0.10238602 -0.1878976 -0.011025032 0.20214935
000360 33 59 97 3d 9b b8 40 be 35 41 b7 3d 05 17 4b 3e
       0.0739006 -0.18820421 0.08947984 0.19833
000370 1f 6f 05 3d 83 ed 02 be 51 46 9a bd ad fe c3 3d
       0.032576676 -0.12785916 -0.07532943 0.0957006
000380 a5 46 1a be b2 c8 b2 3d 87 ac 2e be 15 85 f9 bd
       -0.15066011 0.08729686 -0.17058001 -0.121835865
000390 14 9c 1e bd 36 11 37 3e b2 6d 44 be cb 33 dc 3c
       -0.038723066 0.17877659 -0.1918247 0.026880166
0003a0 d3 40 33 bd e5 e0 39 3e aa 35 36 be 36 3a 36 3e
       -0.043762993 0.18152197 -0.17793909 0.17795643
0003b0 10 5a 4b 3e f6 a1 0b 3e 58 2f 0c be 67 e8 46 be
       0.19858575 0.13636002 -0.13689935 -0.19424592
0003c0 45 b2 07 3e b5 85 3d 3e 6a d2 da 3d 00 c8 15 be
       0.13251598 0.18508036 0.106846645 -0.14627075
0003d0 6c 97 24 bd 25 5e ce 3d a0 1e cf 3d 7c aa 44 be
       -0.04018347 0.100765504 0.10113263 -0.1920566
0003e0 2a 61 1c be e1 84 4d be be c9 94 3d d4 5d ac 3d
       -0.1527144 -0.2007022 0.07265042 0.08416334
0003f0 eb 76 c7 3d 5f d7 4c 3e f0 7f 3d bd 19 02 11 3e
       0.09739479 0.20004033 -0.04626459 0.14160956

body.0.bias f4 [128]
000000 c0 b8 05 3e 38 97 b9 3c a7 c8 32 3e f7 5c 26 be
       0.13058758 0.022655115 0.17459355 -0.16246401
000010 5c 92 31 3d 14 82 10 be d6 f5 ef bd c3 41 1a be
       0.04335247 -0.14112121 -0.11716811 -0.15064149
000020 c6 34 9f 3c 8e 98 e5 3b d1 55 62 bd 73 35 5e be
       0.019434344 0.0070067113 -0.055257622 -0.21700077
000030 75 1c d8 bd e9 cb 99 3d c9 35 02 be b9 e5 0d 3e
       -0.10552303 0.07509596 -0.1271583 0.13857163
000040 30 33 2c 3e 10 f7 2a 3e bb de 01 3e 39 3f 76 3b
       0.16816401 0.1669581 0.12682621 0.0037574305
000050 7d 05 4b be f9 30 e8 bd 2c d4 3d 3d fb 77 98 3d
       -0.19826312 -0.11337466 0.04634492 0.074447595
000060 b2 d8 4f 3e 1c e6 01 3e 11 8a 13 3e 27 8a 33 be
       0.20297506 0.12685436 0.14408137 -0.1753317
000070 f0 39 09 be 3d c7 58 bd 04 b3 08 3e 9a 33 d3 bd
       -0.13401008 -0.052924383 0.13349539 -0.103125766
000080 6c 00 5c be 83 e7 79 3d 7c 16 2b bd 2d 87 0e 3e
       -0.21484536 0.061011802 -0.04176949 0.13918753
000090 20 07 92 3c e8 a5 ac bd ea 88 18 3e fd ac d2 3d
       0.017825663 -0.084300816 0.14895979 0.10286901
0000a0 c0 a1 32 be 90 a4 46 3e 22 53 1d 3e 34 30 50 3d
       -0.17444515 0.19398713 0.15363744 0.05082722
0000b0 be 1d 4a be a8 28 00 be 77 04 85 bc 91 71 4f be
       -0.19737908 -0.12515509 -0.01623748 -0.20258166
0000c0 b4 4a a8 bd 8e b7 4f 3d 25 ed c9 bd a1 c2 e5 3d
       -0.082173735 0.05071216 -0.09859685 0.11218763
0000d0 52 83 11 bd ed a8 9d bd a5 74 25 3e 7f ef 27 3e
       -0.035525627 -0.07698236 0.16157778 0.16399954
0000e0 0e 4a 29 be 19 cd 48 bd c2 f8 a4 3d 21 04 4a 3e
       -0.16532156 -0.04902372 0.08055259 0.19728138
0000f0 3a 7d fe 3c c2 ee 3f be 9f 31 1b bc dd a8 0f 3d
       0.031065572 -0.18743423 -0.00947228 0.03507315
000100 71 5e 2a 3e ec d6 50 bd e4 4c 30 bd 7d a1 03 3e
       0.16637589 -0.050986215 -0.04304208 0.12854572
000110 2d 26 bb 39 b4 4c 14 be e8 06 d8 bd e2 8f 4a bc
       0.00035695863 -0.14482385 -0.10548192 -0.012363406
000120 f4 99 33 be 36 80 7a bd 80 7c 12 be 48 11 1d 3e
       -0.17539197 -0.061157428 -0.14305305 0.15338624
000130 89 25 86 3d d9 29 13 be 26 2e a2 bd b7 78 3c bd
       0.06550128 -0.14371432 -0.07918958 -0.04601356
000140 35 92 ef bd 93 23 fb bd a1 49 23 bd 5c e1 21 3e
       -0.11697809 -0.122626446 -0.03986514 0.15808624
000150 d6 b8 2d 3e c9 b2 19 3d 9c c7 b0 bc 44 26 f5 3d
       0.1696504 0.03752402 -0.021579556 0.11970189
000160 22 d4 26 be 26 2d 2f be 6b da 88 bd e0 52 ed 3d
       -0.1629186 -0.17107067 -0.06682285 0.11588073
000170 7b 91 9e bd 27 fc 5b 3e 55 10 05 be de 86 fa 3d
       -0.07742592 0.21482907 -0.12994511 0.12232755
000180 a8 03 a9 bd 14 c5 a1 3d 22 3e 0b 3e 51 cb 0c 3e
       -0.082526505 0.07898918 0.1359792 0.13749434
000190 4f f6 b9 bc cb f6 b2 3c 96 94 80 bc d0 da 30 be
       -0.022700457 0.021846196 -0.015695851 -0.1727097
0001a0 79 6b 1f 3e 9b e8 03 be 06 26 3c be 13 c0 87 bc
       0.15568341 -0.128817 -0.1837388 -0.01657108
0001b0 95 2f 1e 3e 31 51 f3 3d b0 2d 1b 3e c6 b4 89 3c
       0.15447839 0.118807204 0.15154147 0.016809832
0001c0 19 bc ce bd 3d ec 47 3e 8b 66 4c 3e be 7c 0c 3e
       -0.100944705 0.19523712 0.19960992 0.1371946
0001d0 65 7d 02 3e f1 a6 fb 3c ce b4 40 3e 9f b4 e1 3d
       0.12743147 0.030719252 0.18818972 0.11020779
0001e0 28 e7 c1 3d c9 e8 ae 3b 53 06 d7 bd ff e1 41 be
       0.09467918 0.0053378087 -0.10499253 -0.18933867
0001f0 c6 64 5f be 22 a2 99 bd c4 11 d3 bd cd 08 29 bd
       -0.21815786 -0.075016275 -0.10306123 -0.04126816

body.2.weight f4 [128, 128]
000000 44 3d af bd f8 aa 41 bd 14 d0 e5 bc 09 f7 84 3c
       -0.08556607 -0.04728219 -0.028053321 0.016231077
000010 4f 55 9d 3d ff 40 9a bc 57 3a b2 bd c8 d6 14 3d
       0.07682287 -0.01882982 -0.08702534 0.036337644
000020 9c 5a 1e bd 05 d7 b1 bd da bd 99 3d 5a e4 2a 3d
       -0.03866063 -0.0868359 0.075069144 0.04172168
000030 f7 99 95 bb 39 ad 98 3d e0 59 cd 3c 11 23 97 bd
       -0.004565473 0.074549146 0.02506727 -0.07379735
000040 52 d8 fe bc a6 95 01 bd 0e 00 09 3c 5b f0 8a bc
       -0.031109009 -0.031636856 0.008361829 -0.016960314
000050 94 cb 66 3d ac 5b 4e bd 68 d7 c1 bc d2 b8 93 3d
       0.05634649 -0.050380394 -0.023662284 0.07212986
000060 25 33 fa bb 7e 31 08 3c 37 35 38 bc 26 75 78 3d
       -0.0076354914 0.008312581 -0.011243156 0.060658596
000070 00 f5 b2 bd 5f 8a 26 3d a8 b4 22 bc 67 f4 2b bc
       -0.08738136 0.040659305 -0.009930767 -0.010495282
000080 58 15 82 bd 88 bd 6b bd 6a 0e a1 3d 1f d5 8e bd
       -0.06351727 -0.057553798 0.078640774 -0.069742434
000090 ee 44 ad bd c2 a2 63 3d 71 5f 9c bd 14 6b 3c 3d
       -0.08460413 0.05557514 -0.076353915 0.046000555
0000a0 72 ad 73 3d 9d 6f a0 bc ac 60 97 3d c9 3f aa 3c
       0.059491582 -0.019584471 0.073914856 0.020782368
0000b0 2d 72 74 3d 26 3c 70 3d 33 eb ec 3b da 92 1f bd
       0.0596792 0.058651112 0.0072301864 -0.038958408
0000c0 f7 11 88 3d 9e ee f6 bc db 2d 56 3c 9b 7d 6f bd
       0.066440515 -0.030143078 0.013072456 -0.058469396
0000d0 63 0e 0f bc c8 53 9e 3c 4a f4 a7 3c b7 a3 1c 3d
       -0.008731457 0.01932706 0.020502228 0.03824207
0000e0 9b 59 78 bc 79 64 9c bd 82 65 a5 bc 69 5c ca 3c
       -0.015158082 -0.07636351 -0.020190004 0.024702268
0000f0 81 a9 80 3d a5 22 07 bd 52 e4 80 3d c7 e5 c8 bc
       0.0628233 -0.032992024 0.06293549 -0.024523629
000100 b5 20 52 bd 94 30 b3 bb d0 77 eb 3c 79 44 58 3d
       -0.051300723 -0.0054684374 0.028743654 0.052799676
000110 9c 9c 66 3c a0 36 76 3d 23 25 7a bc c3 14 4c 3b
       0.0140754245 0.06011069 -0.015267643 0.0031140305
000120 32 50 e2 bc ec 61 cc bc 70 3f 90 bc 1c 8e a9 bd
       -0.02762613 -0.024949037 -0.017608374 -0.08279058
000130 0f 79 28 bd 03 c9 14 3d bf 92 89 bd 2a a7 44 bd
       -0.041131075 0.036324512 -0.06717443 -0.048010983
000140 ea 6a 12 bd b8 18 45 3d 35 2d 75 bd 71 b2 c4 3c
       -0.035746492 0.048119277 -0.059857566 0.024010869
000150 1a c5 10 3d e0 2e ff 3c 63 45 86 3d 84 e6 ac 3d
       0.03534422 0.031150281 0.06556203 0.08442405
000160 10 00 3e 3c 18 83 dc 3c 3c ec cf bc 55 0b e8 bc
       0.011596695 0.02691798 -0.0253812 -0.028325716
000170 de 72 81 3c b4 83 de 3c 90 a4 9f bb a5 90 a9 bc
       0.015801843 0.02716241 -0.0048719123 -0.020698855
000180 9a 40 76 bc 3b 59 b0 bc 28 4a d3 3c 3b ce 07 3d
       -0.015030051 -0.021526923 0.025792196 0.03315566
000190 c7 c2 3d bd ef 5b 55 3d 57 63 80 bd ca 71 67 bd
       -0.046328332 0.052089628 -0.062689476 -0.056505002
0001a0 9e 3f a4 3d 4b fa a4 bc 6b 39 33 3c b5 26 69 3b
       0.080199465 -0.02013888 0.0109389825 0.003557605
0001b0 9b 41 07 ba f3 38 49 3d ab 3a 95 3d 39 bc 22 bd
       -0.0005159617 0.049126577 0.07286581 -0.039730284
0001c0 a1 e0 bb 3c 8c 41 a3 ba 90 62 6a bd 87 c5 2e 3d
       0.02293426 -0.0012455448 -0.057222903 0.042668846
0001d0 ca b0 26 bc 09 82 cf 3c 74 72 a5 bd 17 a5 0a bc
       -0.010173986 0.02533056 -0.08078471 -0.008462212
0001e0 c5 4a a0 3d 66 eb f0 3c fb 6d a9 3d 23 07 9c 3c
       0.07826761 0.029409122 0.0827293 0.019046372
0001f0 2e b1 8b bd 90 71 c9 bc d6 50 6b 3d 87 51 90 3d
       -0.06820904 -0.024590284 0.057450138 0.070468
000200 43 e6 63 3d 0d 10 9b 3d 10 6c 94 bd 61 41 b6 3c
       0.055639517 0.07571421 -0.07247174 0.022247972
000210 34 40 ee 38 55 0c a5 bd ec 1b 69 3c 39 f1 e5 b8
       0.00011360683 -0.08058993 0.0142278485 -0.00010964502
000220 36 7e b2 3d 75 ff 8b bd c6 ef 3e 3d 46 bb 52 3d
       0.08715479 -0.06835834 0.046615385 0.05144813
000230 58 6d 62 3d c8 6a 18 bd 01 80 66 3d 80 92 ba 3b
       0.05528006 -0.03721121 0.056274418 0.0056937337
000240 d4 cb 08 3d 1f f8 d4 bc 82 4a 05 3d 09 1d 78 3d
       0.03339751 -0.02599722 0.03254176 0.060574565
000250 5d d5 88 3a ae b7 9e 3b 35 b2 b3 bd cc 6b bc 3c
       0.0010439564 0.0048436737 -0.08774225 0.02300062
000260 5e 6a 88 3d 0b 9c 8f 3d 96 45 81 bd 7d b6 1c bd
       0.06660913 0.07012185 -0.063121006 -0.038259972
000270 b9 40 4a bd 89 c2 fe 3c 5f 25 87 bd dc 82 3d bc
       -0.04937813 0.031098621 -0.06598925 -0.011566844
000280 c7 7a 9e bd 9a 0c 62 bd 79 b4 53 3d 9b 97 05 bd
       -0.07738262 -0.0551878 0.051685784 -0.032615285
000290 98 0a 2f 3b 31 cd 05 bd f2 74 8f bd 08 3b 39 3d
       0.0026709195 -0.03266639 -0.070047274 0.045222312
0002a0 b2 34 a5 3d c7 1e 27 bd 76 ed 0c 3d 6a da 38 ba
       0.080666915 -0.040800836 0.034406148 -0.0007051589
0002b0 e9 bb 80 bd a7 4d 45 bd 32 e9 86 3c ff d2 08 3d
       -0.06285841 -0.04816976 0.016468618 0.033404347
0002c0 9a 6f a6 bb 94 08 30 3c 49 3d 09 3d e2 65 97 bd
       -0.005079222 0.010744233 0.03350571 -0.073924795
0002d0 66 34 2b 3d 5d 12 02 bb ca 7a 98 bd ab d6 89 3d
       0.041798018 -0.001984737 -0.07445295 0.06730398
0002e0 0d 26 11 bd 41 d3 3a 3d a5 60 86 bd 48 a2 20 3c
       -0.03543668 0.045611624 -0.06561402 0.009804316
0002f0 62 1f 23 3d e3 08 67 bb 9d 8a 81 bd f8 a3 16 3d
       0.03982485 -0.00352531 -0.063252665 0.036777467
000300 ab 7f e5 bc 6a 14 f9 3c 9e 23 96 bd 80 44 e3 3c
       -0.028014978 0.030405242 -0.07331012 0.027742624
000310 15 fa 8a 3d 50 4a 37 3d d3 c0 86 3d 38 08 5b 3d
       0.067859806 0.044748604 0.06579747 0.053474635
000320 43 9b 27 bd b3 6f 24 3d 15 7a 3e bc a3 04 a4 3d
       -0.040919553 0.040145587 -0.011625786 0.08008697
000330 2d c0 95 bd 11 b8 68 3d 65 76 35 3d a5 30 01 bd
       -0.07312045 0.056816164 0.044302363 -0.03154053
000340 4b 73 13 3d 24 64 57 3d 22 ea c3 bc 31 e7 92 3d
       0.035998624 0.052585736 -0.023915354 0.071730025
000350 30 38 90 bd c2 85 9e 3d e1 21 2c bc 74 43 ab bd
       -0.07041967 0.07740356 -0.010506124 -0.08362475
000360 ce 13 8e bb 01 de 89 bd 71 1b 97 bd 5d bd 02 3d
       -0.004335857 -0.06731797 -0.07378281 0.031918872
000370 98 73 84 3d b3 df 0d bc 8f 8e e1 bc 97 1c 7b 3d
       0.0646736 -0.008659291 -0.027533798 0.061306562
000380 c6 b9 9e bd 34 0d 39 bd 93 22 a9 bd 46 a2 71 bd
       -0.07750277 -0.045178607 -0.08258548 -0.058992647
000390 b9 75 76 bc bb d0 86 3d 70 4a fe bc ae 2c 5b 3d
       -0.015042716 0.06582781 -0.031041354 0.053509407
0003a0 73 04 a6 bd 94 0e 25 3a e2 73 79 3d 77 67 49 bd
       -0.08106317 0.0006296423 0.06090153 -0.049170937
0003b0 e0 ab 41 3d 1d 35 fa bc a2 5c 61 3d 4e 9c fe 3b
       0.047283053 -0.030542905 0.055019982 0.007770098
0003c0 e3 29 26 3d f0 69 6d 3d bb 3a 9a 3d 78 4c 63 3d
       0.04056729 0.057962358 0.07530733 0.05549285
0003d0 64 d9 74 3d 71 b3 bb ba 36 3a 42 bd 88 51 32 3d
       0.059777632 -0.0014320445 -0.047418796 0.043534786
0003e0 d2 a3 80 bb 4b 0c 0e 3c 08 47 b2 3d 6b 4b 8d bd
       -0.003925779 0.008669923 0.087049544 -0.068991505
0003f0 5c ae aa 3d 5d f5 2d 3d d2 02 98 bd 53 92 03 bd
       0.08334038 0.042470325 -0.07422413 -0.032121968

body.2.bias f4 [128]
000000 d1 f9 bc 3c 40 e1 99 bc 10 63 fc bc 39 72 28 bd
       0.02306834 -0.018784165 -0.030808955 -0.041124556
000010 68 37 85 3d 26 2c 6a 3d 2a 05 04 3d 49 cb 71 bc
       0.065047085 0.05717101 0.032231487 -0.01475794
000020 92 4c 8c 3d da a2 64 3d a5 1d 19 3d 95 b7 09 3d
       0.06850542 0.05581937 0.037381787 0.033622343
000030 e3 ef 96 bd b7 22 a3 bd cb 33 aa 3d cb 6a 51 bd
       -0.073699735 -0.07965606 0.0831066 -0.051127236
000040 7a 0d 20 bb 80 47 b2 3b f5 a1 d9 bc ac 14 59 3d
       -0.0024422095 0.0054406524 -0.026566485 0.05299823
000050 4e 09 f8 bc e0 e6 73 3d ec da 7b bc ad 81 ae 3d
       -0.030277874 0.05954635 -0.015372019 0.085208274
000060 2f 7c ae 3d 89 9d 08 3d c8 91 73 3c ae 22 31 bd
       0.0851978 0.033353362 0.0148663 -0.043245964
000070 16 9c 2e 3d 99 75 3e bd ca ea 86 3d e0 f1 67 3b
       0.042629324 -0.04649887 0.06587751 0.0035391971
000080 ca 41 8a 3c af eb c2 3c c2 e9 04 3c 7d 70 8c 3d
       0.016877074 0.023794023 0.008112373 0.06857393
000090 51 89 b1 bd 17 29 89 bc d3 62 bc bc d6 49 05 3d
       -0.08668769 -0.016743226 -0.022996342 0.03254112
0000a0 93 6d 60 bd 72 c3 a9 3c 59 1b 32 3c b4 18 83 3d
       -0.054791998 0.020723078 0.010870778 0.06401196
0000b0 61 51 21 bc 20 01 f0 3c 8c dc d7 3c ac eb ea bc
       -0.009846062 0.029297411 0.026350282 -0.02867683
0000c0 56 8c 5b 3c 66 21 2f 3c 74 64 24 3d 09 fb a1 3d
       0.013400158 0.010689115 0.040134862 0.07909209
0000d0 41 58 96 3d a3 8e 63 bc e9 e7 76 3d 02 b4 da bc
       0.07341052 -0.013888988 0.06027976 -0.026697163
0000e0 2c 53 6a 3d 06 d2 5f bd c4 e7 a2 3c 8f 8e 89 3d
       0.057208225 -0.054643653 0.019885905 0.06716644
0000f0 53 e3 b3 3d 6b 9f 5d 3d d9 53 72 bc 34 23 39 bc
       0.08783593 0.05410711 -0.014790499 -0.011299897
000100 46 35 d3 3b fc 80 19 3d f5 0e 7d bd aa 3b 13 bd
       0.0064455597 0.037476525 -0.061781842 -0.035945572
000110 da 66 69 bd 2c ef a1 bc ef eb 7c bd 70 82 07 bd
       -0.056982853 -0.019767366 -0.06174844 -0.03308338
000120 c5 09 86 3b d2 bb 71 bd 11 bf 4b 3c b6 ae 8d 3d
       0.00409052 -0.05901701 0.0124356905 0.06918089
000130 c4 02 0c 3d 96 3b 8d bd c5 ba 71 bd 3c 0a 0a 3c
       0.034182325 -0.06896131 -0.059016008 0.008425292
000140 d1 f5 1a 3d c8 0f b0 3c 7f df 23 bc e2 75 b6 bb
       0.037832085 0.0214919 -0.010002016 -0.005568252
000150 c5 9d 14 bd 58 8c 0a 3c 56 0c 9f bd bf 29 0a 3c
       -0.036283273 0.008456312 -0.07766025 0.008432805
000160 ac f5 7b bd 8c e0 87 bd dc 3a 84 bd 04 f9 6b 3c
       -0.061513588 -0.06634626 -0.06456539 0.014402632
000170 f7 0d b3 bd ee 8b b4 bd 75 65 87 bd 80 6d 55 3d
       -0.08742898 -0.08815752 -0.06611148 0.05210638
000180 42 2e 07 bd ce b1 37 bd 35 5e 4f 3d 00 28 8a bd
       -0.0330031 -0.044847302 0.050626952 -0.06745911
000190 13 5e 95 bd ff 57 0c 3d 8f dc d1 3c d5 21 2a 3d
       -0.07293334 0.034263607 0.025617866 0.04153617
0001a0 c2 e8 b2 3d 31 e8 ba bc 62 da b0 3d 99 69 2d 3d
       0.08735801 -0.022815796 0.08635403 0.042337034
0001b0 2b 7f a0 bd 31 dd 6e bd 8c 66 b4 3d d0 cc 8d 3d
       -0.07836755 -0.058316413 0.08808622 0.069238305
0001c0 a6 28 72 3d 47 24 b3 3d e1 1c 9f 3d d0 8a d7 3b
       0.059120797 0.08747154 0.0776918 0.006577827
0001d0 1c 15 64 3d ee 67 e6 bb 11 f7 df 3c d0 76 1c 3c
       0.055684194 -0.0070314324 0.02733949 0.0095498115
0001e0 cf 09 c2 bc 8c a8 28 bd a2 84 cd bb f2 54 a1 3d
       -0.023686318 -0.041176364 -0.0062719146 0.0787753
0001f0 f4 75 99 3d 70 03 13 bd 51 6d 91 bd f3 c7 2e bc
       0.07493201 -0.03589195 -0.071009286 -0.010667789

mean_head.weight f4 [4, 128]
000000 d2 cb f9 bc 1c 27 83 bb 21 40 81 3d 02 36 a8 bc
       -0.030492697 -0.004002465 0.0631106 -0.020533565
000010 58 53 47 3d 1c ef be bb c9 b6 b5 bb 6d 9f a9 3b
       0.048663467 -0.005826844 -0.0055454713 0.0051764757
000020 93 0a 3d bd ff 0e 1d bd a5 44 22 bd 5e 2b a8 3d
       -0.046152662 -0.03834438 -0.039616246 0.08211397
000030 0e db fb 3a 49 02 1c bd 9d 7d 97 bd 77 da 04 bc
       0.0019215064 -0.038088117 -0.07397006 -0.008108727
000040 33 07 25 3c c9 91 f6 3c 7b 31 a7 bd fc 1c c3 3c
       0.010072517 0.030098813 -0.081637345 0.023817532
000050 30 f6 b0 3d 55 2d a0 3d 1e 52 75 3d 63 85 84 3d
       0.086407065 0.078211464 0.059892766 0.06470754
000060 58 33 ac 3d 6a 33 58 bc 16 69 1b bd e5 90 49 bc
       0.084082305 -0.013195852 -0.037942015 -0.012302612
000070 b5 6e 22 bd bf d5 80 bd f7 47 27 3d b9 a9 8c bd
       -0.03965636 -0.06290769 0.040840115 -0.068683095
000080 71 61 8f 3d c8 13 73 bc 79 6b 8a bd 62 03 ac bc
       0.07001007 -0.014836259 -0.0675878 -0.020997707
000090 11 b1 2c 3d c3 0e 48 3d e9 6b 9a 3c 48 12 f7 3c
       0.04216105 0.048842203 0.018850284 0.030160084
0000a0 a4 0e 80 bc 96 d2 b4 3d b1 6f 58 bd d9 2c bf bc
       -0.015631981 0.088292286 -0.052840892 -0.023336815
0000b0 0b 95 2d 3d 41 5d 04 3d d7 00 bd 3c 86 a8 f6 3c
       0.042378467 0.032315496 0.02307169 0.030109655
0000c0 df 89 83 3d c5 d3 cc bc f0 90 56 3d e0 20 b2 3b
       0.06422781 -0.025003323 0.052384317 0.005436048
0000d0 62 db 9e bd 38 7a df bc ac bd 15 bb 3c 30 fd 3a
       -0.07756688 -0.027279958 -0.002284865 0.0019316743
0000e0 db e3 f6 bb 66 cd 66 bd 94 8e 77 bd e6 26 83 bd
       -0.0075344867 -0.056348227 -0.060438707 -0.06403904
0000f0 2c 02 0c 3d 24 fe 50 bd 3a 2e 3b bd 92 73 86 bb
       0.03418176 -0.051023617 -0.045698382 -0.0041031325
000100 33 25 90 3d bb 52 1c bd 44 8d 18 bd 23 aa a6 bd
       0.07038345 -0.038164835 -0.037244096 -0.0813792
000110 79 e4 c8 bc cb 36 aa 3c 08 27 88 bd dd 4c 2b bc
       -0.024523007 0.02077808 -0.066480696 -0.010455337
000120 e6 6f 9b 3d 4c d7 6b bc 1f 3b 3f bc ed 5c 3c 3d
       0.07589702 -0.0143945925 -0.01167181 0.04598706
000130 a7 94 a3 bd 4d fd 08 3d ad f9 df 3c f5 96 e9 3c
       -0.079873376 0.03344469 0.027340734 0.028514365
000140 51 d4 7d bd 61 8a 40 3c e1 a3 a4 bd 4d a2 5b bc
       -0.06197006 0.011751742 -0.0803907 -0.013405395
000150 9f ff 9b bc 53 d7 89 3d 79 27 3c 3d f1 7a 32 bc
       -0.019042788 0.06730523 0.04593608 -0.010893569
000160 bd 49 2a bd aa 3c 9a 3d 1b ea ac 3d 36 d5 27 bd
       -0.04157423 0.07531102 0.084430896 -0.04097482
000170 2a 00 09 bd 5f 41 f7 3c d4 64 c6 3b a8 12 55 3c
       -0.033447422 0.030182539 0.0060545 0.013004936
000180 96 f1 55 bd 2f aa bf bc ff fa 36 bc b1 e0 55 3a
       -0.052232347 -0.02339658 -0.011168241 0.0008158787
000190 4a 17 d7 bc 46 23 8e 3c f3 91 22 bd 80 33 9e bd
       -0.026256222 0.017350804 -0.03968997 -0.077246666
0001a0 52 e3 93 bd 7d c5 81 3d b4 bf 4a bd f8 7e 90 3d
       -0.07221092 0.06336496 -0.04949923 0.07055467
0001b0 41 32 91 bd ac e4 33 3d 92 bd 26 3d 8f 19 0c 3d
       -0.07089663 0.04391925 0.040708132 0.034204062
0001c0 37 72 82 bd c6 30 12 bc 24 65 c1 bc c4 8b 86 3d
       -0.06369441 -0.008922761 -0.023607798 0.06569627
0001d0 14 90 8b 3d c1 90 5e bd 69 e6 2e 3d 86 f9 85 3d
       0.0681459 -0.054337267 0.042700205 0.065417334
0001e0 11 21 a0 3d 57 8e 97 bd fd 0c 60 bd ae ff b0 3d
       0.07818807 -0.07400196 -0.054699887 0.08642517
0001f0 53 ba 9b bb ab 7d f8 3c 5d 10 65 ba b0 22 47 bb
       -0.004752436 0.03033336 -0.0008738095 -0.0030385666
000200 91 4d 5e bd 63 9d a6 3d 22 ce 7a 3c 67 21 94 bd
       -0.05427319 0.08135488 0.015307935 -0.072329335
000210 4c cc 0b 3d f1 42 a2 3d fe 3f 35 3b 02 35 86 bd
       0.03413038 0.07922924 0.002765655 -0.06553079
000220 61 23 4c 3d 52 26 a2 bd ab 11 a4 3d 8e ae f6 bc
       0.049838427 -0.07917465 0.080111824 -0.030112531
000230 e3 39 87 3d 93 b5 58 3d 93 7c a7 3d ad a5 b2 3d
       0.06602838 0.052907538 0.081780575 0.087230064
000240 8e f1 95 3b 24 98 6b bd 23 1f 93 bc 75 db 80 3c
       0.0045759147 -0.05751814 -0.017959183 0.015729645
000250 93 67 4d 3d 7d 53 80 bd 2a 95 31 3d 2e 64 43 3d
       0.050147604 -0.06265924 0.043355145 0.04770296
000260 68 a6 86 bd 8d e3 3c bd 5e af 0e bc b9 9b 73 3d
       -0.06574708 -0.046115447 -0.008708803 0.05947468
000270 05 e2 1e bd 62 2e ac bc da 63 cf bc 33 9b 15 3c
       -0.038789768 -0.02101821 -0.025316168 0.009131241
000280 d6 97 38 3d 1f e0 bf bc 9f 95 a6 bd 86 24 05 3d
       0.045066677 -0.023422299 -0.08134007 0.032505535
000290 01 27 c1 3b 6b 84 65 bd 73 ab 81 3d 68 44 4d bd
       0.005894542 -0.056034487 0.063315295 -0.050114065
0002a0 f1 13 c0 3b 88 18 82 bd 08 69 41 bc c1 a2 3e 3d
       0.005861752 -0.06352335 -0.011804827 0.046541933
0002b0 a5 29 67 bd 24 a2 81 3d 62 ac c5 bc 4a de 1f bd
       -0.0564362 0.06329754 -0.02413005 -0.03903035
0002c0 08 e9 8b 3d b0 d5 1a 3d 17 8a 75 bd 79 d2 8b bd
       0.068315566 0.037801445 -0.059946146 -0.06827254
0002d0 89 b0 82 bc 17 d3 51 bd 54 8b 53 3d 91 9a 5b 3d
       -0.01595332 -0.0512267 0.051646546 0.053614203
0002e0 fb cb a9 bd e3 94 85 3d 2e 7d b0 3d ec 7e 92 3d
       -0.08290859 0.065225385 0.08617626 0.07153115
0002f0 31 44 9c 3d 69 06 82 3d 0a be 4d 3d 2d 0a 91 39
       0.07630194 0.06348879 0.050230063 0.00027664137
000300 74 c3 4b bd 43 d0 f5 3c 87 0a f2 3b 25 a6 f9 3c
       -0.049746946 0.030006533 0.007386509 0.030474732
000310 b3 51 8c bd b7 81 23 bb c3 d4 dd 3c cd ba a0 3d
       -0.068515204 -0.0024949142 0.027078992 0.078481294
000320 da b4 35 bd 16 aa 49 bc 2b e3 20 bd 7d b8 a8 bd
       -0.044361927 -0.012308618 -0.039279144 -0.08238313
000330 60 5d a3 3d 70 8f a1 3d 71 2d 89 3d 03 2d 87 bd
       0.07976794 0.07888687 0.066981204 -0.06600382
000340 7b 75 83 3d 81 25 e2 bc 4e e5 b0 3d 53 62 1f bd
       0.06418892 -0.027605774 0.086374864 -0.03891213
000350 34 f7 58 bd 8c 31 10 3d fe 96 2c 3c dd 70 91 3c
       -0.052970126 0.0352035 0.010534046 0.017754013
000360 31 4b 40 3d bb 0a 7e bd 26 06 e6 bc 69 53 99 3b
       0.046946708 -0.062021952 -0.028079104 0.0046791327
000370 39 c9 92 3d 17 57 9c bd 50 f4 03 bd 55 1c 8e bd
       0.071672864 -0.076337986 -0.032215416 -0.06938998
000380 26 2c 5f 3c b9 0f a1 3d bf 8e ad 3d f5 42 9a 3d
       0.013621366 0.07864327 0.08474492 0.07532302
000390 e7 15 49 3b 61 be 80 bc d1 a6 75 bd 58 93 e7 bc
       0.003068322 -0.01571578 -0.05997354 -0.028268501
0003a0 cb ef 60 3d 1e 99 7b 3c 8d 37 35 3d 99 39 7e 3d
       0.054916184 0.01535633 0.04424243 0.06206665
0003b0 8c b1 62 bd ce c5 5c bc ef 8f 9c bd f8 be e2 bc
       -0.055345103 -0.013474895 -0.07644641 -0.027678952
0003c0 7d cf 12 3d 04 e2 38 bc bb 33 99 3d 3e b9 9d bd
       0.035842407 -0.011284355 0.0748057 -0.07701348
0003d0 0d 2e a8 bd 49 5c 1a bd 97 c8 95 bc 4b 49 96 bd
       -0.082119085 -0.037685666 -0.018284125 -0.07338198
0003e0 38 8e eb 3c ae 10 aa bd d2 c3 5e 3d 4c a5 88 bd
       0.028754339 -0.08303963 0.054385968 -0.06672153
0003f0 84 f9 80 bd 32 72 33 bd 72 d7 5d 3d f9 01 1f bc
       -0.06297591 -0.043810077 0.054160543 -0.00970506

mean_head.bias f4 [4]
000000 2f c6 75 bc 3a 77 3f 3c 6c 16 10 3d 34 e1 d4 bc
       -0.015000864 0.011686141 0.035177633 -0.025986291

value_head.weight f4 [1, 128]
000000 f1 f1 5b 3d 57 98 3d 3c a6 0c b3 3c 3e 27 b4 3d
       0.05369753 0.011571965 0.021856617 0.08796547
000010 b8 7b 84 3d b2 e7 44 bd a7 b6 97 bd 39 d9 81 bc
       0.0646891 -0.048072524 -0.07407885 -0.01585065
000020 a2 6e 43 3d 49 96 eb bc 83 d8 06 bd 9b f8 ae bc
       0.04771293 -0.028758185 -0.032921325 -0.021358779
000030 fd 08 a5 3c b2 eb a7 3d 70 b9 ad 3c 90 4a 77 3c
       0.020145888 0.08199252 0.021206588 0.015093461
000040 2d 30 9e bd d5 aa 4e 3d 84 22 5f 3d ed bd 3d 3d
       -0.077240326 0.050455887 0.054476276 0.046323705
000050 90 27 6a 3d 32 eb 0a bd e8 3e 7d 3d 32 e6 8c 3d
       0.057166636 -0.033915706 0.06182757 0.06879844
000060 7f cc 1c 3d c3 08 5b bd b2 eb 64 3d 53 65 fb 3b
       0.03828096 -0.053475153 0.05588884 0.007671991
000070 7e 9e 8d 3d ae 27 0c 3d e1 49 57 bd 9a ce 9d bc
       0.069149956 0.03421753 -0.05256069 -0.019263554
000080 6f 5d 2b 3b c2 0d 7a 3c 97 33 2c 3d 27 15 94 3d
       0.002614822 0.015262069 0.042041387 0.07230597
000090 ab 87 7c bd 1d ac 1c bd 61 1d a6 3d 8d c1 4e bd
       -0.06165282 -0.038250078 0.08111072 -0.050477553
0000a0 38 84 72 bd bc d0 a3 bb a4 95 2d 3d 7e 1c 96 3d
       -0.059208125 -0.0049992483 0.042379037 0.07329653
0000b0 02 20 95 bd 92 45 f2 bb 07 1a e4 3b 90 b5 80 bc
       -0.07281496 -0.0073935473 0.0069611105 -0.015711576
0000c0 6d 86 46 3d e9 64 30 bd 5c 59 b3 bd 59 8f 36 3d
       0.048468042 -0.043064985 -0.08757278 0.0445703
0000d0 7a ae b5 bc 64 2e 8b bd ef 0c a5 bd 7d 8a 9f 3b
       -0.022177923 -0.06795958 -0.080591075 0.004868804
0000e0 ba 78 8f 3d 25 45 1f 3d e6 34 98 bd 58 32 e2 3c
       0.07005449 0.0388843 -0.074319646 0.027611896
0000f0 2c 88 82 bd be 9d 30 bd 9f 6a a6 3d 90 de 74 bd
       -0.06373629 -0.043119185 0.08125805 -0.059782565
000100 16 2e 94 3d d2 a8 9c bc 5b 61 a5 bc 1c 26 1b 3d
       0.07235353 -0.019123469 -0.020188024 0.03787814
000110 6f c5 3a bd c0 9f b3 bd 4d 30 29 bd 41 24 34 3d
       -0.045598444 -0.08770704 -0.04130583 0.043979887
000120 99 f6 47 3d 6d 36 39 3d b8 c6 24 bd 52 42 77 bd
       0.04881916 0.04521792 -0.040228575 -0.060365982
000130 15 23 7e bc 9c 9a e4 3c b1 a1 36 bd b3 a4 8d 3b
       -0.015511294 0.027905755 -0.044587795 0.004322612
000140 36 25 35 3c 8f 3c 9a bd 11 05 a6 3d 76 ad 03 3c
       0.011056235 -0.07531082 0.08106435 0.008036962
000150 37 d2 25 bd 5c a8 ad bd 37 eb bb bb 6e 54 9c bc
       -0.04048368 -0.084793776 -0.005734827 -0.019083228
000160 af 67 ac 3c 4f 30 38 3d 6d 28 74 bd 7e 8e 6c bd
       0.021045534 0.044967946 -0.059608866 -0.05775308
000170 0f 60 ab 3d 68 3b 6c 3d cc a4 cf 3c 84 fa 3d bd
       0.08367931 0.05767384 0.025347136 -0.04638149
000180 8c dc 51 bd 89 ac 4a 3c 39 12 21 bd bb 2a 8d 3d
       -0.05123572 0.012370237 -0.03932402 0.06892916
000190 75 1b 26 3b 61 bb ad 3c fd 6b f0 3a ca 3a 5f bd
       0.0025345956 0.021207513 0.001834273 -0.054499425
0001a0 22 d8 50 3d 6a 8b ac bd fd 95 f1 bc 38 9b bc 3c
       0.05098737 -0.084250286 -0.029490465 0.023023233
0001b0 86 a1 30 3d 38 e3 73 3d 02 03 96 3d 8f f1 9f 3d
       0.04312279 0.059542865 0.073247924 0.078097455
0001c0 2c ed 7c bd 40 fe 28 3d 62 f8 91 3b 0b 5a 31 3c
       -0.061749622 0.041258097 0.0044546584 0.010824691
0001d0 5c 49 aa bd 67 e1 3b ba dd 79 b0 bd 5f eb a1 bd
       -0.083147734 -0.00071670715 -0.086169936 -0.079062216
0001e0 ec d1 a1 bd fd c9 b4 bd e1 a2 ce 3c 9d 8d ae 3a
       -0.079013675 -0.08827589 0.025224151 0.001331735
0001f0 ef fb 25 bd db 3a c4 3c c8 69 80 3d 89 db 95 3d
       -0.040523466 0.023953846 0.06270176 0.07317264
