checkpoints/biped_v2.pt (torch, 86872 bytes, 8 tensors)

log_std f4 [6]
000000 76 73 68 3f 5d a7 3e 3f be 3c 8d 3f c6 4b 4b 3f
       0.9080118 0.74474126 1.1034162 0.79412496
000010 09 62 6a 3f 67 9a 11 3f
       0.9155584 0.56876224

body.0.weight f4 [128, 25]
000000 ec bd b6 bd dc de 37 bd 49 bf 91 3e 59 7c 62 3c
       -0.089229435 -0.04489027 0.28466251 0.013823592
000010 66 7e 0f bf f2 bd 26 bf 7d c2 52 3e 4c ea dc 3d
       -0.56052244 -0.65133584 0.20582004 0.10786876
000020 31 67 4e be 33 6f 02 bd 81 d5 54 be 0f 6b 05 3d
       -0.20156552 -0.03184433 -0.2078457 0.032572802
000030 88 4f cb 3c 9a be 7e bd 31 4f 97 be a7 59 26 3f
       0.024818197 -0.06219349 -0.29552606 0.6498055
000040 8b ea e9 bd 13 04 cc 3e 78 c1 d3 bd c9 5d 0a 3b
       -0.11421689 0.39846858 -0.103396356 0.002111303
000050 5d fe 0a be 42 b3 9e bd f9 2d f8 bd 7b 82 92 bd
       -0.13573594 -0.077490345 -0.121181436 -0.071537934
000060 f4 e6 13 3e c9 90 7d be d7 12 a5 3d bd da a5 be
       0.1444357 -0.24762262 0.08060234 -0.32393447
000070 2e 45 bc be 01 d1 b8 3f a8 69 a5 3f 97 50 89 be
       -0.3677153 1.4438783 1.2922869 -0.26819298
000080 e9 eb f2 3c b4 49 07 bf 34 6c f5 bd e2 74 c0 be
       0.029653506 -0.5284684 -0.11983529 -0.37589175
000090 ba 31 5d bd d3 d6 77 bd 08 53 48 be 8a 14 97 3e
       -0.0540025 -0.060507607 -0.19562924 0.29507858
0000a0 4c 33 1a 3f 99 e1 f8 3e f0 f5 6a 3e 2a 7c ba bd
       0.6023452 0.48609617 0.2294538 -0.09105714
0000b0 32 2a 93 3d 6f d3 df bd ac 40 12 be 6c 3a 1c be
       0.071857825 -0.10929 -0.14282483 -0.15256661
0000c0 4f ac 69 bd 03 d3 e7 3d 1e 5c 6d 3e 16 e9 75 3e
       -0.057049092 0.11319544 0.23179671 0.24014696
0000d0 b8 a0 21 3e ad fd 52 be ab a0 9f 3f bf e7 00 3f
       0.15783966 -0.20604582 1.2470907 0.50353616
0000e0 ef 7e 96 3e 40 27 06 3f b7 30 10 be ad c7 2a 3e
       0.29393718 0.5240364 -0.14081083 0.16677733
0000f0 96 c5 a9 3d 4d 9c 43 be 4f 6a 29 3d 6f c1 04 3e
       0.0828964 -0.19102593 0.04136115 0.12964414
000100 86 2c 0e 3e ba bd c3 3e c0 08 06 3f a3 ae 2b 3d
       0.13884172 0.38230687 0.523571 0.041914593
000110 58 d4 2d 3e 33 02 9b 3e ba c1 30 be 24 de e6 bd
       0.16975534 0.30275115 -0.17261401 -0.11272839
000120 16 c6 da bc 24 cc f3 38 36 fa 71 be a8 cb 87 3e
       -0.026705783 0.00011625167 -0.23630604 0.26522565
000130 9b 90 0d 3f c3 4c 17 3e 38 75 94 bb 99 df 42 be
       0.55298775 0.14775376 -0.004530575 -0.19030608
000140 f6 77 25 40 4b 1f fc bd 71 96 0b bf 18 5f 8a be
       2.5854468 -0.12310656 -0.5452643 -0.27025676
000150 37 60 5d 3d e0 bf ab 3e 3a 1f 16 be 42 15 c6 3e
       0.054046836 0.33544827 -0.1466035 0.38688093
000160 36 de 76 be 7c 99 87 be 65 08 96 bd 85 f1 48 be
       -0.24108204 -0.26484287 -0.0732582 -0.19623382
000170 96 43 75 3e f9 88 35 3e de 8f 0b be a6 29 4b bd
       0.23951563 0.17728032 -0.136291 -0.049600266
000180 df f7 a3 bd e8 10 af 3d 0c cd 77 bd fb 50 aa 3e
       -0.08006262 0.085481465 -0.060498282 0.33264908
000190 e1 c5 48 3c 13 43 83 3e 52 81 f9 3d 52 c9 0a 3e
       0.012254209 0.2563711 0.12182869 0.1355336
0001a0 7c 9d df 3c c4 5f 97 be 1a 8c 81 bc 51 f0 c8 3e
       0.027296774 -0.2956525 -0.015813876 0.39245847
0001b0 dd 67 b9 3e 44 be 04 bd 08 d1 da 3d 0e 32 d1 3d
       0.36212054 -0.032408014 0.10684401 0.10214625
0001c0 f9 3c 3c be 85 0e 28 3f fa 0c 19 3f 7e c3 26 be
       -0.18382634 0.65647155 0.59785426 -0.16285512
0001d0 27 0e 46 3e ad 85 84 bd 18 c9 6a bd ef b5 68 3d
       0.19341336 -0.06470809 -0.057320684 0.05681413
0001e0 d3 66 39 3b 03 62 84 3e 50 1a e7 3d 51 9e c8 3d
       0.0028290048 0.25856027 0.112843156 0.097958215
0001f0 86 35 25 be f9 f8 d5 3c 48 bf 8f bd e2 9f a7 3e
       -0.16133699 0.026119696 -0.07018906 0.32739168
000200 11 12 88 3e bf c9 15 3e 4a 3d 95 bf 31 ca 4a 3e
       0.26576284 0.14627741 -1.1659329 0.19803692
000210 39 86 9c 3e d0 5c eb 3d ea 0e 44 3d c0 57 6f be
       0.30571154 0.11492312 0.047865786 -0.23373318
000220 a4 de 0b 3e a7 51 a1 bd 47 ea 06 bf 25 2c 60 be
       0.1365915 -0.07876902 -0.5270123 -0.2189184
000230 54 0f a7 3e 6c fc 2e bd 44 17 9a be 9f 4c 9f be
       0.32628882 -0.042721197 -0.30095875 -0.31113145
000240 33 b1 0b 3d c7 d8 73 bd 30 1c a7 bd 05 c0 a0 3d
       0.034104537 -0.059532907 -0.08159673 0.07849125
000250 7f 8c 3b 3e 72 7c 0c 3e fe 18 b3 bc bd ed 1a be
       0.18315314 0.13719347 -0.021862503 -0.15129752
000260 0b e7 93 3e 17 40 a8 3e 7d 50 12 bf c4 62 65 bf
       0.2888721 0.32861397 -0.57154065 -0.8960383
000270 1c 74 79 3e f4 e9 cb 3d 38 e6 ed 3d 70 aa 78 3d
       0.24360698 0.099567324 0.11616176 0.060709417
000280 6a 39 42 3e 7c 16 12 3e d4 b3 82 be 42 17 bd bd
       0.18967214 0.1426639 -0.25527823 -0.09232952
000290 60 e9 59 be c8 44 2d be 81 2e a6 bd c5 be 7d be
       -0.21280432 -0.16920769 -0.08114339 -0.24779804
0002a0 35 16 da 3d 3f 31 6e bd 5e 52 bb bb 1c e5 fe 3d
       0.10648767 -0.058152433 -0.005716606 0.12446043
0002b0 1a b2 cc 3d 65 f7 de bd 93 64 57 be 51 c1 99 bc
       0.09994908 -0.108870305 -0.2103446 -0.018768938
0002c0 dc 5e 6e 3e f0 ee 48 3d b1 9c 68 3e 36 af b0 be
       0.23278373 0.049055994 0.22716023 -0.34508675
0002d0 3a c4 5b 3e d0 4a 65 3e b7 ec ab bd 5c 23 3d be
       0.21461573 0.2239182 -0.08394759 -0.1847052
0002e0 3c 9c 2a be 3c 2b 3c 3e f4 35 cc 3d 89 a2 3c bf
       -0.16661161 0.18375868 0.09971228 -0.7368551
0002f0 b6 dc 51 3f 40 34 a2 3e bd 82 bf be 06 8b f0 3e
       0.81977403 0.3168049 -0.37404433 0.46981066
000300 ad d1 f2 3c c4 0e ee 3d 61 31 cb 3d 9d cd 59 3e
       0.029640997 0.1162391 0.09921528 0.21269841
000310 f7 c6 d6 bd 48 67 c3 3e e0 e2 91 3e 4c 7a b9 be
       -0.10487168 0.38164735 0.28493404 -0.36226118
000320 89 cf e3 bc a1 bb e0 be d3 f9 c5 3d 22 93 a7 3e
       -0.027808921 -0.4389315 0.09666791 0.3272944
000330 b8 75 fe be c8 21 9d bf 3a 3e fd bc 1b 1e 8c 3e
       -0.49699187 -1.2275934 -0.030913461 0.2736672
000340 f6 5d 39 3e 02 13 36 be bb 8a 98 be a4 96 27 3e
       0.1810225 -0.17780688 -0.29793343 0.16366059
000350 b5 58 be be 56 e5 d0 3e d3 ee 85 bc 9b a5 21 bf
       -0.37177053 0.4079997 -0.016349232 -0.6314332
000360 9b de d3 3d f6 68 7e be be 06 91 3d 24 f5 c6 bd
       0.10345193 -0.24844727 0.07081364 -0.097147256
000370 16 e5 66 3e 63 5c 63 3e 53 00 02 be aa 71 36 3e
       0.22548327 0.22203211 -0.12695436 0.17816797
000380 7a 19 03 3e 8e d9 94 be de 6a 87 bd 15 f3 6c 3e
       0.12802687 -0.2907223 -0.0661218 0.23139603
000390 b4 3d 1d bd 4c 0b 20 3f 5e 1a b7 3e dc 7d 44 3e
       -0.038388923 0.6251724 0.35762304 0.19188637
0003a0 06 fe 34 3e f4 c4 43 bc f3 ca ff bc fc 6b 92 3e
       0.17675027 -0.011948813 -0.031224703 0.2859801
0003b0 cf e4 04 3f e8 b2 16 be cd f8 a1 be a8 3b 77 be
       0.51911634 -0.14716685 -0.31635132 -0.24143851
0003c0 03 08 ae 3d 96 a9 97 be 96 88 55 3d 12 67 b7 bb
       0.08497622 -0.2962157 0.05213221 -0.0055970037
0003d0 35 02 77 3b 9b fe b9 bd 4b 1a 3d bd 53 5c 7e bd
       0.0037690524 -0.09081765 -0.046167653 -0.062099766
0003e0 2e e7 f2 3d 76 11 66 3d 29 b5 9e 3e f5 d1 3e 3e
       0.118605 0.056168996 0.3099759 0.1863478
0003f0 f5 83 6f be 27 67 ec bd cd d7 d4 be a7 66 49 be
       -0.23390181 -0.11543112 -0.41570893 -0.19668065

body.0.bias f4 [128]
000000 cc 00 a4 3e b8 0a 9c be 43 80 97 bb e6 8c 04 be
       0.32031858 -0.30476928 -0.0046234443 -0.12944373
000010 a6 85 28 be df af 2b 3e 57 53 7b 3e 43 52 8b bd
       -0.16457233 0.16766308 0.2454351 -0.068027996
000020 aa 02 79 3e 23 62 31 bd 58 6a 48 3d c1 fe ce bd
       0.24317423 -0.04330648 0.048929542 -0.10107184
000030 0d 43 0c bd ff 80 6c 3e 91 eb 39 be 24 66 19 3e
       -0.034243632 0.23096083 -0.18156268 0.1498037
000040 06 4b 55 3e 02 34 86 be ef 89 91 be 7f 9f 3c bd
       0.208294 -0.26211554 -0.28425547 -0.046050545
000050 86 cb 6f be 46 d0 6f 3e 9c 63 c2 3e 75 42 8a 3e
       -0.23417482 0.23419294 0.3796662 0.27003828
000060 3d 2e 2e 3e 5f 83 c6 3d 9b 9d 49 bd a0 93 ab 3d
       0.17009826 0.09693026 -0.04922257 0.083777666
000070 30 4f 22 be f8 f3 b3 3e eb 3b 37 3e f8 9b c1 bd
       -0.1585052 0.3514707 0.1789395 -0.09453577
000080 bc 83 68 be 97 f0 22 be 06 10 8e bc 73 b0 33 be
       -0.22706503 -0.1591209 -0.017341625 -0.17547779
000090 af 45 da 3d 94 c8 b7 3e b4 48 a1 3e 3f 6e ff bd
       0.10657822 0.35895216 0.3150078 -0.124722
0000a0 44 33 47 be 6f 9a 0a be 48 7d 3d 3e 9d dc 19 be
       -0.1945315 -0.13535474 0.18504822 -0.15025564
0000b0 12 e4 0a bd e6 b1 c9 bd 4a ed c8 3d 9d 2b 4b 3e
       -0.03390891 -0.098483846 0.09810884 0.19840856
0000c0 86 3b c9 bd 78 e6 02 be eb 95 22 bd 1b 8f 2c be
       -0.09825806 -0.1278323 -0.039693754 -0.16851465
0000d0 f8 90 9f 3d d6 f9 d4 bc c7 f7 22 3e 25 0f 09 be
       0.077913225 -0.025998037 0.15914832 -0.13384683
0000e0 41 43 4b 3d e5 a8 18 be 72 62 f3 bd a1 a4 a4 3e
       0.049624685 -0.14908178 -0.11884011 0.32156852
0000f0 6c 95 1a 3d 84 fe 8e be a8 b2 e5 3d 28 a4 61 be
       0.037740156 -0.27928555 0.112157166 -0.22035277
000100 90 b8 88 be 59 97 74 3e 97 e4 d2 3d f8 50 14 be
       -0.2670331 0.2388586 0.10297506 -0.14484012
000110 33 58 83 be dd a8 35 3d 6c 3c 14 bd 1d e7 b4 3d
       -0.25653228 0.044350494 -0.036190435 0.08833144
000120 ec 74 55 be 8c 13 39 bd 69 58 21 3e 02 5e 29 bc
       -0.20845383 -0.045184657 0.15756382 -0.010337355
000130 57 ec 18 be b9 00 fe bd da 09 9b 3e 26 8c d4 b9
       -0.14933906 -0.124024816 0.30280954 -0.0004054021
000140 e9 73 13 be 81 67 cf bd fd f3 f2 bd 75 17 00 3e
       -0.14399685 -0.10127164 -0.11862943 0.12508948
000150 9c e4 ca be 04 92 82 bc ca 8c 2b 3e df 26 61 3e
       -0.3962754 -0.015938766 0.16752926 0.21987484
000160 e6 c0 f3 bd 57 f8 0b bd e8 28 0d 3e 9d 8c a5 3e
       -0.11902027 -0.034172382 0.13785136 0.32333842
000170 75 a8 91 3d c3 a5 6d 3c 8a 6f fa bd cd 15 6d be
       0.07112209 0.014504853 -0.12228306 -0.23152848
000180 4d d5 fb 3d a9 d5 31 be 17 f1 02 3e 97 4e 20 be
       0.12296543 -0.17366661 0.12787281 -0.1565498
000190 09 43 56 3e bb ef 9a 3e ae 34 ce 3c c2 fa ed bd
       0.2092401 0.30261025 0.025171604 -0.11620094
0001a0 98 f3 6b 3d ac 87 88 be 93 5a 10 3d d0 b3 23 be
       0.057605356 -0.2666601 0.03524263 -0.15986562
0001b0 30 c1 66 be 77 ae 0d be c0 ee 20 3e 83 88 87 be
       -0.22534633 -0.13836084 0.15716076 -0.26471338
0001c0 19 5d a1 be 47 53 4a be bb d1 92 3d 12 0b f3 3d
       -0.3151634 -0.1975833 0.07168909 0.11867346
0001d0 46 59 06 be 9b e2 28 bd 2b 0e 0a 3d d5 cd 8a 3a
       -0.13119993 -0.041231733 0.033704918 0.0010589907
0001e0 a1 f8 36 be fb d3 97 3e fb ff be bd a6 b1 ef bd
       -0.17868282 0.29653916 -0.09326168 -0.117038056
0001f0 4a 7f 94 bd 7a 53 46 be 8f d4 84 3e 2f 7a 92 be
       -0.07250841 -0.19367781 0.2594342 -0.28608844

body.2.weight f4 [128, 128]
000000 fc 84 fe bd 6d c5 85 3a e4 b4 b5 bc 0b cb 13 bd
       -0.124277085 0.0010205932 -0.022180982 -0.03608231
000010 27 34 09 bd 48 b2 9a bd b6 b0 8c bd 72 90 ad 3d
       -0.033497002 -0.07553536 -0.068696424 0.084748164
000020 47 4f 0c be c3 87 e8 3e 2a a1 4a be ee 18 40 3c
       -0.13702117 0.45416078 -0.19788042 0.011724694
000030 a3 32 51 bd ab d7 97 bd 3b 8d 7a be ea fa 7e 3e
       -0.05107368 -0.07414182 -0.24467938 0.24900404
000040 e4 44 f7 bc 11 db 98 3d e7 b9 9e 3d 29 bd 2e 3e
       -0.030184217 0.074636586 0.07750302 0.17064346
000050 4f 2e 31 3e 45 70 e2 3b 70 c0 7f be 88 29 ab be
       0.17302822 0.006910356 -0.24975753 -0.33430123
000060 cf 1e cc bb a7 5d 27 3e 1f 90 8e 3e cb 3d 08 be
       -0.0062292586 0.1634432 0.2784433 -0.13304822
000070 34 d5 a6 3c c3 e1 23 be d5 f2 22 be 61 ad 1c be
       0.020365335 -0.1600409 -0.15912946 -0.15300514
000080 38 8f 13 3d 75 73 a5 3e 0b 14 10 be c9 0d f8 3e
       0.036025256 0.3231465 -0.14070146 0.48448017
000090 9f 07 e0 3e c5 b1 15 bd 5e 11 0e 3d 78 d9 53 bd
       0.43755814 -0.036546487 0.03468453 -0.051721066
0000a0 11 5d 18 bd 54 45 a3 3e 78 62 a1 bd 98 92 1c 3e
       -0.03719813 0.3188883 -0.078801095 0.15290296
0000b0 60 ef 1f 3d fa 6c cb 3e 1a 95 59 3e ac 4a 50 be
       0.039046645 0.3973158 0.21248284 -0.20340985
0000c0 74 58 7d ba a2 98 91 3d c6 0d 29 3e 38 03 d4 bd
       -0.00096643646 0.071091905 0.1650916 -0.103521764
0000d0 9d 6a 41 3d 10 92 c8 bd 50 bf c8 3d 75 0d 01 be
       0.047220815 -0.09793484 0.09802115 -0.1260279
0000e0 64 8f 01 be 3e 6b c3 3d 39 47 3e 3d 50 4e 51 be
       -0.12652355 0.09541939 0.046454642 -0.2044003
0000f0 49 a2 17 3e f5 91 34 3e df 14 53 3d 60 22 1c 3e
       0.14808 0.17633803 0.051533576 0.15247488
000100 d0 34 cb 3d c2 38 0d bd fc a8 ed 3b 31 c7 14 3e
       0.099221826 -0.034477957 0.0072528105 0.1452911
000110 a7 dd 61 3e 92 24 e2 3d 68 e1 6b 3e b9 56 0f be
       0.2205721 0.110421315 0.23035204 -0.13997926
000120 70 fa 99 3d 75 9c 37 3e d3 50 35 3c c1 cb 8b be
       0.0751847 0.17930777 0.011066633 -0.2730389
000130 54 fd ef bd 76 14 9a 3e 6b 97 53 bd f2 36 03 3e
       -0.117182404 0.30093735 -0.051658075 0.12813929
000140 71 c3 83 3e 5e e5 d8 3d 4c 04 f4 3d b9 f1 73 be
       0.25735047 0.10590623 0.11914882 -0.23822679
000150 c1 04 be 3d 68 f6 2c bc f8 ee 74 be 7f 70 a0 be
       0.092782505 -0.010556795 -0.23919284 -0.31335828
000160 70 c8 be bd bb a5 c4 3d 3b f5 81 3d 85 ec a1 bc
       -0.09315574 0.09601923 0.06345602 -0.019766102
000170 11 12 8f 3e 28 0a 56 bd 5f 85 e8 bd 07 65 d6 3d
       0.2794347 -0.05225578 -0.113535635 0.10468488
000180 a2 9b 49 3e a9 ef c9 bd 08 88 33 be 77 98 2d be
       0.19688275 -0.09860165 -0.1753236 -0.16952692
000190 d9 4b b4 3e 1e 1f 08 be b2 9c a0 bd 55 8f ae 3d
       0.35214117 -0.1329312 -0.07842387 0.08523432
0001a0 df b6 4c bd 4f 6c 9f 3e f1 5b 4b be f2 6a b1 bc
       -0.049979087 0.3113732 -0.19859292 -0.02165744
0001b0 fd b6 15 3f da 0e d6 be 8f 30 47 bc a2 77 c7 3c
       0.5848234 -0.41808206 -0.012157573 0.024349038
0001c0 a6 1e cd 3d fd 6d ef bc 35 34 85 3e 36 ac 6d bd
       0.10015611 -0.029227251 0.26016393 -0.05802556
0001d0 53 3a 74 3e 80 e9 83 3e 57 fc 72 bd 25 f5 75 3d
       0.23850374 0.25764084 -0.05932268 0.06004824
0001e0 a9 2e b9 be ba 94 10 3d a5 d9 96 3e a5 68 45 be
       -0.3616841 0.035298087 0.29462925 -0.192782
0001f0 fb b4 a5 be 6f 16 4e 3e 96 e0 80 be 18 78 a1 bc
       -0.3236464 0.20125745 -0.25171345 -0.019710585
000200 58 b9 11 3e 33 db 7d be 5a a0 95 3e 76 08 42 be
       0.1423086 -0.24790649 0.292239 -0.1894854
000210 38 31 0a 3c 1d 7c 33 3e 85 ae 8b 3e 10 25 6c 3e
       0.008434586 0.17527814 0.27281585 0.23061013
000220 6f 37 2e 3b 33 4d 25 be c3 8d 58 3e 1a ea 29 3e
       0.0026583334 -0.1614273 0.21147828 0.16593209
000230 38 ba 6a 3e ea 5d 66 bd 7d 5f b6 bc ea 0a a1 bd
       0.229226 -0.056241907 -0.02226233 -0.0786341
000240 47 2f 22 3e b0 45 84 be 1c 99 7b be aa e4 ea bc
       0.15838347 -0.25834417 -0.24570125 -0.028673489
000250 70 b5 da 3c 0d df bd 3e 38 0c f8 3e 3e df 75 3d
       0.026697844 0.37084237 0.48446822 0.060027353
000260 f4 fe ae 3d 43 74 89 3e 2e b0 ed 3c cd d6 07 3e
       0.08544722 0.26846513 0.029014673 0.13265534
000270 b4 9c 2d 3e 05 b9 bf 3d a5 9f c4 bc 9b 6c 17 be
       0.16954309 0.093614615 -0.024001906 -0.14787523
000280 5c 2a b7 be 32 96 a3 be d3 aa 01 3e 3b ff 9a 3d
       -0.35774505 -0.31950527 0.1266282 0.075682126
000290 39 14 8a 3d 31 89 9d 3e 45 0f 04 3d c1 b4 8e 3d
       0.067421384 0.3076873 0.032241125 0.0696807
0002a0 73 2e 59 3e d1 c3 5b bd 7f 09 e9 3c fb f1 0a be
       0.21209125 -0.053653542 0.02844691 -0.1356887
0002b0 28 d2 6a bd 66 3a 82 be fb 7c e0 3a 60 b1 ca 3d
       -0.057329327 -0.2543518 0.0017127091 0.09897113
0002c0 1b b0 87 3e 33 06 4a 3e 7f 36 06 bd 80 dd fc bd
       0.26501545 0.19728927 -0.032766815 -0.12346935
0002d0 8a 4b 50 3e f6 e3 23 be 28 ae bc 3e c4 a4 21 3d
       0.20341316 -0.16004929 0.3685162 0.039463773
0002e0 cd d9 ba bd c0 1e 9a bc 1b 83 1e 3c 59 8c 7e 3e
       -0.091235735 -0.01881349 0.009674813 0.24858226
0002f0 44 07 aa 3c 41 a7 1f 3d 3f 19 e5 3d 50 a5 93 3d
       0.020755418 0.038977865 0.11186456 0.07209265
000300 a0 9b 4f 3d 47 3b 84 3e 33 3b 49 be 6f 62 d6 3d
       0.050685525 0.25826475 -0.19651489 0.104679935
000310 fc a8 85 be fa f7 50 be 41 f6 09 3e f2 18 eb 3d
       -0.26105487 -0.20407096 0.13472845 0.11479367
000320 83 7c 0b bd 64 04 7f be e9 6a 42 3d 8d b0 3a bd
       -0.03405429 -0.24904019 0.04746524 -0.04557853
000330 4a 17 0b be c4 b2 07 bd 05 67 6a 3e 10 3f 22 be
       -0.13583103 -0.03312947 0.22890861 -0.15844369
000340 47 ea e9 3c 7f 28 17 be 5b ed f1 be 54 14 02 3c
       0.028554095 -0.14761542 -0.472514 0.007939417
000350 25 94 4d be e2 96 ba be ef 06 2d bd b2 ac 63 3d
       -0.20076044 -0.3644324 -0.04224294 0.055584617
000360 35 c0 77 bd 2a 79 48 be 5b 08 46 3e 09 eb 7c 3e
       -0.060486037 -0.1957747 0.19339125 0.24699034
000370 a5 9e 06 3e da 3c b4 3e 1e 8c 8f be c2 88 02 3d
       0.13146456 0.35202676 -0.28036588 0.031868704
000380 03 50 80 3e 6f a5 60 be f2 d5 ad bc 7d fc 3f be
       0.25061044 -0.21938108 -0.021220181 -0.1874866
000390 81 2b 17 bd c0 5e 8e 3e 37 af c3 3e b7 6b 51 3d
       -0.036906723 0.27806664 0.38219616 0.051128116
0003a0 ce 1f fc 3d 19 20 9b 3d 35 67 cd 3d 48 21 87 bd
       0.12310754 0.075744815 0.10029451 -0.06598145
0003b0 e5 1f 2f bd e2 c4 c8 bd b9 03 50 3e 39 45 da bd
       -0.042755026 -0.098031774 0.2031392 -0.106577344
0003c0 5d 09 d1 be c7 c3 98 be fd 37 cd 3c e5 c9 33 be
       -0.40827456 -0.29836866 0.025051111 -0.17557485
0003d0 a8 a4 d3 bd 27 23 55 be 06 8e b7 3d 7d a7 f9 be
       -0.1033414 -0.20814191 0.08962636 -0.48760596
0003e0 94 b9 5c bd 50 7f 84 3e aa 2e dd bd 3a e0 68 3d
       -0.05388792 0.25878382 -0.10799916 0.056854464
0003f0 28 f7 d8 bd d5 d3 0c be da 5b 26 3e 8e 53 3b be
       -0.10594016 -0.13752683 0.16245976 -0.18293592

body.2.bias f4 [128]
000000 b4 c0 55 bc 9e 46 7f 3e 89 af e0 bd 46 99 25 3d
       -0.013046432 0.24929282 -0.10970981 0.040429376
000010 4f f7 d9 3c be 73 22 bd dc d3 0c bd 11 e1 90 3e
       0.026607184 -0.03966116 -0.034381732 0.28296712
000020 59 96 96 bd 83 26 09 3d 18 9e 68 be 67 3d b4 3d
       -0.07352895 0.033483993 -0.22716558 0.08800774
000030 82 f4 94 bd 8a e2 6f be 2e fd 3d 3d d2 b5 2f 3e
       -0.07273199 -0.23426262 0.04638403 0.17159203
000040 ee 73 5f bd d3 f5 9a bd 29 9b 2b 3c 21 bf 9f bc
       -0.05455392 -0.075664185 0.010474005 -0.019500317
000050 cb b4 10 bd 08 d4 00 3e 02 bd 3b 3d 30 b5 6c 3d
       -0.035328668 0.12580884 0.04583455 0.05778998
000060 4e e9 37 3b 1c c3 0b 3d c1 7d 56 be 1a d8 40 3d
       0.0028062644 0.034121618 -0.20946409 0.04708109
000070 21 1b 4e 3d 04 a4 85 bd b2 c3 7f 3c 1a 77 cb 3d
       0.05031884 -0.06525424 0.015610622 0.09934826
000080 09 bb a4 be b9 e9 96 3d 08 d3 2c be be 9d 5f be
       -0.32173946 0.07368798 -0.16877377 -0.21837518
000090 b6 de 32 ba ec 7c ee 3c da 0d 52 3e 52 3e 3d 3e
       -0.00068233476 0.029112302 0.20513096 0.18480805
0000a0 1b 77 ea bc fb 31 c8 bb 45 a9 05 3e ae f3 1f 3e
       -0.028621247 -0.0061094738 0.13052852 0.156203
0000b0 05 6b fd 3d 3e d3 f3 bd 02 90 92 bc f8 ab 51 bc
       0.12373928 -0.119055256 -0.017890934 -0.012797348
0000c0 c9 dc b4 bd b2 b4 2f 3d d4 78 e8 bd bb 16 7e be
       -0.08831174 0.042896934 -0.11351171 -0.24813358
0000d0 0e 87 7d bd 97 71 5c bc 7f 40 37 3c 2f 62 25 3c
       -0.061896376 -0.013454816 0.011184811 0.01009421
0000e0 dd 16 08 be 81 20 59 3c b7 d9 e1 3d 3b fd 5c bd
       -0.13289972 0.013252378 0.11027854 -0.053952437
0000f0 19 cb 70 3d dd 76 85 be 56 45 4c 3d 96 ad a3 bb
       0.05878744 -0.26067248 0.04987081 -0.0049950583
000100 96 99 3c bd 19 4f a0 3d b3 77 cd 3c 62 2c 06 be
       -0.04604491 0.07827587 0.025081491 -0.13102868
000110 2c 05 3a be 5d 4f d4 3c 48 6d 27 bd 5e 97 04 3e
       -0.18166035 0.02591675 -0.040875703 0.12948367
000120 6b 7f 50 3e 29 32 a2 bd c7 d1 f5 3d 8e fc 36 bd
       0.20361106 -0.079197235 0.120029025 -0.04467445
000130 22 cf 7f 3d 0d 04 02 3e 17 07 f1 3c 06 93 41 3e
       0.062453397 0.12696858 0.029422326 0.18903741
000140 fa 82 ae 3d 70 a8 f3 bc 16 e3 2a be 72 cb fe 3d
       0.085210755 -0.029743403 -0.16688189 0.12441148
000150 33 99 54 bc bd 44 47 bc dc 97 7c bd a2 04 8e bd
       -0.012975979 -0.012162385 -0.061668262 -0.069344774
000160 6c 02 cc bd 9b 65 ff bd fa 21 e1 bd 32 62 2e bc
       -0.099613994 -0.124705516 -0.10992809 -0.010643529
000170 d3 a4 65 3d 2b d6 8c 3c 5c 0f 9e 3d 55 11 80 bd
       0.05606539 0.017191967 0.07717773 -0.06253306
000180 77 a6 86 be 2b 7c 60 bd f5 c1 63 3e cc 43 00 3e
       -0.26298878 -0.054805916 0.22241957 0.12525862
000190 05 63 1b bd 0c 05 a1 bd b5 75 2a 3d 5e bf 57 be
       -0.03793623 -0.07862291 0.04161616 -0.21069095
0001a0 0f 54 9b bd b8 55 e1 3d a6 bb d8 3d 25 1c 7f 3d
       -0.07584392 0.11002678 0.10582666 0.0622827
0001b0 47 73 08 bd e9 7f 12 be 81 68 fc bb 6c 4c 8d 3d
       -0.033313062 -0.14306606 -0.0077028875 0.06899342
0001c0 b5 75 6b 3a 49 23 ac 3d 1a f2 f9 3d a4 e2 77 bc
       0.0008982078 0.084051676 0.1220438 -0.015129719
0001d0 2a bb d0 bc 05 fc 88 bd ab 81 40 3d cd fb 65 bc
       -0.025479872 -0.06688694 0.04699866 -0.014037085
0001e0 b7 fa 49 bd 99 70 98 bc 7a 24 39 3d dc 27 da bd
       -0.049311366 -0.018608378 0.045200802 -0.10652134
0001f0 6d 92 02 3d 6a e6 af 3d b8 d7 2a be c8 ab 1f bd
       0.031877924 0.0858887 -0.16683853 -0.038982183

mean_head.weight f4 [6, 128]
000000 38 c5 c6 bd 05 80 f2 3d bd fe b2 3c db f1 74 be
       -0.09705585 0.11840824 0.021849984 -0.23920386
000010 3c 2f 2c be 66 68 90 be c2 de 1f be ba 76 7c 3e
       -0.16814893 -0.2820465 -0.15612319 0.24654666
000020 2c a4 f0 bd 01 f2 c7 3d 78 5a e1 bc fa 7f e7 be
       -0.11750063 0.097629555 -0.02750896 -0.45214826
000030 59 d5 e6 3c f8 32 d9 bd c9 21 95 3d d3 eb 9f 3d
       0.028177904 -0.10605425 0.07281835 0.07808652
000040 d3 66 c8 bc 4f 23 b6 3c fe 52 f0 3c 37 20 b8 bd
       -0.024463093 0.022233633 0.029336449 -0.089905195
000050 ce 45 83 be 76 3c b9 3d 13 f9 ed bd 4e b1 f5 3d
       -0.25639194 0.09044735 -0.11619773 0.11996709
000060 c1 cb 7e bd f0 90 e4 3d 3b fc fb bc b9 9a 9d be
       -0.062206034 0.11160457 -0.030759921 -0.30782107
000070 e3 fc d9 3c 72 8c 31 bd 3e 2f d4 bd a4 f1 28 bd
       0.026609844 -0.04334683 -0.10360573 -0.04124607
000080 5f f4 2b be 0c ec f3 bd 0f cc 7a bd 33 88 a7 bd
       -0.16792439 -0.11910257 -0.06122976 -0.08180275
000090 ad cb 84 bd c9 09 00 3e 7d 7c 8f 3e 76 7a 38 bd
       -0.064841606 0.12503733 0.28024665 -0.045038663
0000a0 46 65 79 be 5b 18 56 bd 82 7d e1 3d 98 92 0f bd
       -0.24355039 -0.05226932 0.11010267 -0.035051912
0000b0 73 02 8e 3c ef ad 17 bd ae 27 ee bd 5c c8 dd bd
       0.017335152 -0.03703111 -0.11628662 -0.10829231
0000c0 47 40 b7 bd 62 41 64 bd 5e e7 22 bd 4a 38 1d bd
       -0.08947807 -0.055726416 -0.03977143 -0.03838376
0000d0 eb de 46 3d 67 c5 bc bd 2d 5b 3c 3e 87 1a d7 3d
       0.048552435 -0.09217339 0.18394156 0.105031066
0000e0 8d 89 45 bd c0 da a8 3d 67 02 3d bd 43 35 44 bb
       -0.04822688 0.08244848 -0.04614487 -0.0029938973
0000f0 df 47 4f be 21 6f 1b bd 5e 11 8d bd f6 cf 43 3d
       -0.2024226 -0.037947778 -0.06888078 0.04780575
000100 5e 59 05 bd 8b 2d 89 bd f7 12 75 bd 8a 62 eb bd
       -0.03255593 -0.0669814 -0.05983254 -0.11493404
000110 bc f8 43 be 58 88 31 be 13 9e 61 bd b1 b1 32 3d
       -0.19137853 -0.17337167 -0.055082392 0.04362649
000120 47 76 da 3d 5f a4 5e 3d 63 40 12 3c 8c f9 a1 3d
       0.10667091 0.054355975 0.008926484 0.079089254
000130 b6 18 e4 3d 10 0c 93 bd be 82 c4 bd 55 ab 0e 3e
       0.11137526 -0.07180035 -0.095952496 0.13932545
000140 09 93 65 3e b9 1f 09 bd 8c 8d 2c 3f 2d e1 c4 bd
       0.2241937 -0.03347752 0.67403483 -0.09613261
000150 12 ec f6 bd dd f8 c3 3d 55 a7 8c bd 9c ff 32 be
       -0.120567456 0.09568951 -0.068678536 -0.1748032
000160 79 5e a9 bd ed 1a e4 3c 9d 13 65 3e 98 60 f9 3d
       -0.08269972 0.02784487 0.22370763 0.12176627
000170 e7 e2 bb 3d 6e a3 fb bd e6 60 08 3d 14 c4 63 3d
       0.091741376 -0.12287031 0.033295535 0.055606917
000180 dd 1c fa bd d9 77 8f bc 4b 3e dd 3c 7b 54 dd 3d
       -0.122125365 -0.017513203 0.027007243 0.10807129
000190 a1 7f fb bc 8f 17 6a 3b a7 51 fd bc 3e b5 0b bd
       -0.030700507 0.0035719608 -0.030922724 -0.034108393
0001a0 e2 90 f5 3e 3b 85 e8 3c 65 80 46 3d 9a d4 8a 3e
       0.479621 0.028383842 0.04846229 0.27115327
0001b0 ef b2 aa 3d 53 83 67 3b 93 14 f8 3d f8 d4 9b be
       0.0833491 0.0035326078 0.12113299 -0.3043592
0001c0 22 87 81 3e ef 99 b9 3d c4 39 51 bc e7 86 5b 3c
       0.2529841 0.09062564 -0.01277012 0.013398862
0001d0 cc 31 09 be 90 3e 88 3e 50 c8 54 3e 1d 58 ac bd
       -0.13397902 0.2661023 0.20779538 -0.08415244
0001e0 59 b8 a0 bd 8c ee 13 3e 52 18 6c be 17 84 e3 3c
       -0.078476615 0.14446467 -0.23056152 0.027772946
0001f0 c2 47 df 3d 50 e8 5b 3d c7 98 22 be 05 8d a5 bc
       0.109023586 0.053688347 -0.15878592 -0.020208845
000200 fb f1 c9 bd 8b 16 c9 3c 22 b1 e8 3d 81 ee 21 3e
       -0.09860607 0.024546882 0.113619104 0.15813638
000210 25 21 31 be bc 91 94 3e 0b 95 ec 3d 6b 47 88 3e
       -0.172978 0.29017437 0.11551865 0.26616988
000220 1a 39 db 3d 59 f4 5d 3c 98 00 c6 3c e8 09 74 be
       0.10704251 0.013547027 0.024170205 -0.23831904
000230 80 05 81 be 32 00 72 bd 77 ae ef 3d 37 59 50 bc
       -0.2519951 -0.059082218 0.117031984 -0.012716583
000240 61 e1 39 bc 43 df f4 3d 8f 81 05 bd ab ef 54 bd
       -0.011345238 0.11956646 -0.03259426 -0.051986378
000250 5e a2 b1 bd fd 7d 73 be 32 c4 16 be 2c d9 85 bd
       -0.08673547 -0.2377853 -0.1472328 -0.06535563
000260 00 47 2f 3e 16 49 b1 bd de f0 03 be c8 0c 41 3d
       0.17116928 -0.08656518 -0.12884852 0.04713133
000270 5b b6 9d bd d1 bc 08 3e 4a a9 f7 bd ac c0 40 be
       -0.07700797 0.13353278 -0.12092836 -0.18823498
000280 4b e0 00 be 31 f8 63 3d f5 45 95 be dc a9 8d bc
       -0.12585561 0.055656616 -0.29154935 -0.01729291
000290 3c 64 0f 3e 78 31 0d 3e 45 66 46 be a5 9b a1 3d
       0.1400308 0.13788402 -0.1937495 0.07891015
0002a0 4e 1c 4d 3d 8d 73 1f 3d 5e 0b fa 3d 6a 9b 57 3e
       0.05007582 0.038928557 0.12209199 0.2105538
0002b0 d3 8c 8b 3d 4d fd e9 bd 93 4e 2c be 7e ac 31 3d
       0.068139695 -0.114252664 -0.16826849 0.043377392
0002c0 85 67 f1 3c a1 d2 24 bd 05 0a 55 be 3a ff 4c bc
       0.029468307 -0.040239934 -0.20804603 -0.012512023
0002d0 e1 eb ab be a7 63 71 3b 97 7a 22 be 3a 62 e0 bd
       -0.335784 0.003683308 -0.15867077 -0.10956235
0002e0 e0 f2 42 3e d0 78 15 3e 82 65 05 bb 36 40 32 be
       0.19037962 0.14596868 -0.0020354693 -0.17407307
0002f0 77 9d b6 bb 38 28 f7 bc 54 17 19 be fa 70 2f be
       -0.0055729705 -0.030170545 -0.14950305 -0.17132941
000300 8a 8a 42 3c b7 4f 6b 3d ba 88 a6 3d e1 a0 12 3e
       0.011873851 0.05744907 0.08131547 0.14319183
000310 f7 8e fa 3d 08 5d 8e 3c 8d 98 ea 3d 3a 2c 11 3e
       0.122343 0.017378345 0.11454878 0.14177027
000320 cd 4f d4 3d b7 8f 54 3e 4d 92 70 3d dc 88 88 3d
       0.10366783 0.20757948 0.058733273 0.06666729
000330 3f 6b 48 3b a9 01 82 3c f4 f0 14 3c c0 45 a6 3d
       0.0030581502 0.015869932 0.009090651 0.081187725
000340 0f e8 48 be e4 14 54 be 61 4e c4 3d 19 6f ce bd
       -0.19619773 -0.20711094 0.09585262 -0.10079784
000350 88 25 9b bd b2 a8 2a be c0 3a 49 3e a8 01 91 be
       -0.07575518 -0.16665915 0.19651318 -0.28321576
000360 da 0d d2 ba 8f 5c a9 bd 62 db c8 3d d1 0f 67 3d
       -0.0016025857 -0.08269607 0.09807469 0.056411568
000370 28 77 ab 3d dd 9a 09 bd 56 04 55 3c 8a 92 f4 3c
       0.083723366 -0.033594955 0.013001522 0.029855032
000380 8e 4b ce bc 68 39 11 3d 83 37 a9 3d 36 82 af be
       -0.025182512 0.035455137 0.08262541 -0.3427903
000390 57 ca 9a bd 36 3f 69 3c 48 2c 04 3b a1 e6 72 bd
       -0.075581245 0.014236262 0.0020167995 -0.059301976
0003a0 e9 5d 7c be 0b 80 a8 bd fd 8f 29 3d b7 8a 6e 3e
       -0.24645199 -0.08227547 0.041397084 0.23295103
0003b0 74 ab 87 3d a3 28 29 3d 85 9d 6c 3d 2c e7 59 bd
       0.06624499 0.04129852 0.05776741 -0.05319898
0003c0 ce 7c 17 3d a2 2a 7e bd 80 9b c5 bc 40 5f 09 3b
       0.036984257 -0.062052377 -0.024122 0.0020961314
0003d0 3c df fd 3d d3 29 89 bd a3 ac 91 bc c3 80 05 3d
       0.12396094 -0.066974305 -0.017782515 0.0325935
0003e0 d7 80 80 bd bc 02 19 be 4b f9 17 3c 7a 5f 01 bd
       -0.06274574 -0.1494245 0.009275745 -0.031585194
0003f0 7e c8 3c be 3c 07 c1 bd db 0b 53 bd 31 5c c3 ba
       -0.18435857 -0.09425208 -0.051524978 -0.0014904795

mean_head.bias f4 [6]
000000 f0 f6 36 3e 45 7e b2 3d 69 d2 15 be 8f 36 2d 3e
       0.17867637 0.0871549 -0.14631046 0.16915344
000010 9f a0 96 3b ae 23 00 be
       0.0045967842 -0.1251361

value_head.weight f4 [1, 128]
000000 60 59 d7 bf 99 50 c3 3f ef 0f e3 bf d9 dd a7 3f
       -1.682415 1.5258971 -1.7739238 1.3114578
000010 53 69 bd bf 19 61 90 3f 9e 63 d9 bf ad a6 ae bf
       -1.4797767 1.1279632 -1.6983526 -1.3644615
000020 ab 20 b2 3f b6 29 d5 bf 12 86 c8 bf c9 da d0 bf
       1.391622 -1.6653354 -1.5665915 -1.6316768
000030 7d d1 96 bf 39 fa ce bf 66 65 bb bf a0 aa ba 3f
       -1.1782681 -1.6170112 -1.4640319 1.4583321
000040 d8 7d d1 bf ce 15 d9 bf d7 dd c2 bf ae 99 d5 bf
       -1.636653 -1.6959779 -1.522395 -1.6687524
000050 e3 0c dc bf b0 b2 a9 bf a4 b6 d1 3f 90 da cf 3f
       -1.7191433 -1.3257656 1.6383862 1.6238575
000060 90 84 e3 bf 81 16 b5 bf 51 0b bd bf 14 de 87 3f
       -1.777483 -1.4147493 -1.4769078 1.0614648
000070 1b e1 c2 bf 4a da ce bf d7 40 ca bf 40 91 be bf
       -1.5224947 -1.6160367 -1.5801038 -1.4888077
000080 01 6f c4 bf ca 95 d6 3f 21 d6 8b 3f 5d 94 c6 bf
       -1.5346376 1.6764462 1.0924722 -1.5514027
000090 2b 2f 82 bf d9 d3 d2 bf 4d 4a a5 bf e2 d2 a6 3f
       -1.0170645 -1.6470901 -1.29133 1.3033106
0000a0 50 a8 ca bf 02 32 d4 3f 81 4a b8 3f 46 95 ca bf
       -1.5832615 1.6577761 1.4397737 -1.5826805
0000b0 7d 9f bd 3f 00 35 9d bf 0d 0c c9 bf f4 03 c1 3f
       1.4814297 -1.2281799 -1.5706803 1.5079331
0000c0 99 53 d1 3f cb a5 cb 3f 01 7c a0 bf 4c 21 d2 bf
       1.6353637 1.5909971 -1.2537843 -1.6416411
0000d0 93 74 8f 3f 93 f3 c4 bf 86 e3 bd bf 76 82 df 3f
       1.1207451 -1.5386833 -1.483506 1.7461689
0000e0 ef 06 a9 3f 4c 5f d9 3f cb 8c cd 3f 59 c2 c1 bf
       1.3205241 1.6982207 1.6058592 -1.5137435
0000f0 25 f1 c3 3f 28 ca c4 bf b1 fd bd bf 3b 64 a4 bf
       1.5307966 -1.5374193 -1.4843045 -1.2843088
000100 06 ab c6 bf 60 da d3 bf 88 34 af 3f c4 5a 84 bf
       -1.5520942 -1.6551018 1.3687906 -1.03402
000110 0f 1b a4 3f 8a 04 d5 bf 16 f5 df bf 98 22 a3 3f
       1.2820758 -1.664201 -1.7496669 1.2744932
000120 c9 93 b0 3f c7 b3 be 3f de 05 d2 3f fa 19 a4 3f
       1.37951 1.4898614 1.640804 1.2820427
000130 b9 3d d1 3f 62 11 a7 3f b9 a9 d4 bf cb 02 bd 3f
       1.6346961 1.305218 -1.6614295 1.4766477
000140 13 ec 80 3f 5d 4d d6 3f ab 77 c8 3f c5 aa da 3f
       1.0072044 1.6742359 1.566152 1.7083365
000150 f0 a9 86 3f 6e b9 d5 3f 65 2d 82 bf a0 bc 9b 3f
       1.0520611 1.6697214 -1.0170103 1.2166939
000160 98 ae ba bf 0c 91 a7 bf d2 31 a5 3f ec e3 ad 3f
       -1.4584532 -1.309114 1.2905829 1.3585181
000170 70 3d c7 bf 1c 24 b1 3f be 0f c7 3f 2b cf b8 3f
       -1.5565624 1.3839145 1.5551679 1.4438223
000180 75 20 c5 bf 0c 8b c0 3f 92 90 c0 3f d3 81 7f 3f
       -1.540053 1.5042434 1.5044119 0.9980747
000190 97 3e c3 3f 92 c7 ba 3f 17 63 a6 3f cf 31 c1 bf
       1.5253476 1.4592154 1.299899 -1.5093325
0001a0 cf 61 c1 3f ee 16 ad bf 60 08 ba 3f e7 70 d9 3f
       1.5107974 -1.3522623 1.4533806 1.698758
0001b0 5e 11 c5 3f b0 98 bb 3f dd 9a cc 3f 51 9b df 3f
       1.5395925 1.4655972 1.598476 1.7469274
0001c0 d4 db c9 bf c9 e0 b8 bf ee 6f b7 bf 7e da ab 3f
       -1.5770211 -1.4443599 -1.4331033 1.3426054
0001d0 25 88 d7 bf b6 f7 e2 bf cd 6e c3 bf 3a 5c cc bf
       -1.6838423 -1.7731845 -1.5268189 -1.5965645
0001e0 a6 8f c4 3f 68 ec a2 bf 9c 20 e5 bf 4e 5a b2 bf
       1.5356338 -1.2728395 -1.7900577 -1.3933809
0001f0 12 3c ad bf 36 8d a1 bf b7 a4 bd bf 0f 05 cb bf
       -1.3533957 -1.2621219 -1.4815892 -1.5860919
