checkpoints/biped_v2_mp.pt (torch, 86917 bytes, 8 tensors)

log_std f4 [6]
0.06950526 0.12798011 0.13690697 0.10867165 0.12382224 0.121179566
00000000: c658 8e3d 380d 033e 5731 0c3e 3e8f de3d
00000010: 8496 fd3d fe2c f83d

body.0.weight f4 [128, 25]
0.24773623 -0.13203378 0.108063914 -0.04789979 0.56200814 0.39636314 -0.017959438 -0.12670404
-0.401963 -0.44371668 -0.010701443 -0.27496216 -0.45764372 0.17910278 -0.057234637 -0.13684988
0.36278686 -0.00729293 -0.066321686 -0.22756414 0.07797171 -0.018937638 0.1960731 0.09445624
-0.17115253 0.007074123 0.085488886 0.09527946 0.2216594 -0.10267534 -0.3568104 0.22983775
0.057633508 0.21838374 -0.1331947 0.030875424 0.16223143 0.06095943 0.1312772 -0.2625333
-0.14333767 -0.026300924 -0.13921744 -0.011478415 -0.055689845 0.12302982 0.09230353 0.105538614
0.21349776 0.006468267 -0.23207964 -0.255057 0.32391307 0.18302223 -0.42781097 -0.12890013
-0.010695723 0.20442936 0.13756211 -0.0057438104 0.06394343 0.21676658 0.029534807 -0.042366087
0.002890877 -0.2633177 -0.17299525 -0.09139176 0.08462966 0.17836134 0.06955445 -0.032243274
0.14241594 0.2404917 -0.020760357 0.35778517 0.19224627 -0.016218806 -0.23741022 0.25306115
0.3650074 -0.17761046 -0.030518213 -0.21285436 -0.07070903 0.02621483 -0.40474245 0.02040097
0.041837532 0.24112146 -0.05894638 0.36390075 -0.14056376 -0.07731083 -0.13479756 -0.24878527
0.010732491 -0.24467504 -0.08778789 0.080719456 0.055538386 -0.28095806 0.20806728 0.23558824
-0.09822841 -0.33817315 0.25501654 0.3073527 0.39031574 0.00487385 0.23024483 0.2639052
0.2111376 0.15278272 -0.25413764 -0.20606428 -0.1670608 -0.045285072 0.23988807 -0.0082248375
0.17890996 -0.009335982 0.2130884 0.21599017 -0.017777221 0.050558027 0.06742131 -0.11039115
-0.24851288 0.1072812 0.4430964 -0.21813712 -0.2422921 -0.18165644 -0.23674233 -0.21937743
-0.2744848 0.1276635 -0.16886371 0.29457116 -0.024039146 -0.018347505 -0.055076733 0.027552566
0.029955126 0.04321336 0.031968713 0.15938029 -0.19313803 -0.011584687 0.1402696 -0.4024805
0.21389587 -0.097889885 0.22831973 0.4214016 0.2235344 0.16813889 -0.014877277 -0.2307895
0.18102233 -0.09693658 0.050348245 0.089454085 0.004378485 0.118877254 0.22679299 -0.090867124
0.1270118 0.104019895 -0.12119226 0.14224422 0.19094457 0.059844613 -0.012700484 -0.065228716
-0.14695112 0.24426037 0.036030885 0.4005334 0.02958776 0.25656587 -0.112018146 -0.004535729
-0.3699998 -0.0002948787 -0.07364411 -0.2192961 0.079237975 -0.23134114 -0.16084859 0.28280947
-0.09507211 0.051979713 0.16712572 -0.059847977 0.21315803 0.0083912285 -0.10875501 -0.09727732
0.30996796 -0.024610754 0.31260648 0.24544008 0.4956893 0.2926217 0.086234264 0.2417664
-0.23966306 -0.30560714 0.017464053 -0.12220297 -0.13280211 0.2963503 -0.119918205 -0.12228999
0.2906701 0.19558483 0.07371666 0.082085505 0.070081495 0.22173242 0.011329025 -0.21661817
-0.08573665 0.06956227 -0.057903957 0.20232573 0.08548445 0.5807995 0.5733696 0.11583828
0.012284021 -0.120396025 -0.38983887 -0.15871857 -0.31867027 -0.4301522 0.42917678 -0.2268281
-0.037656788 0.33840108 0.12773432 0.23494479 -0.0271284 0.15152556 -0.1997256 -0.022230618
0.03818667 -0.23381548 0.023533996 -0.005976196 -0.049901992 0.056645345 0.2198519 0.43503496
00000000: 91ae 7d3e dd33 07be 9d50 dd3d 9232 44bd
00000010: c4df 0f3f 1cf0 ca3e ac1f 93bc b4be 01be
00000020: 18ce cdbe d52e e3be 1b55 2fbc d7c7 8cbe
00000030: 4750 eabe b866 373e de6e 6abd 6022 0cbe
00000040: 33bf b93e 88f9 eebb aad3 87bd 9306 69be
00000050: a2af 9f3d 1b23 9bbc 63c7 483e 4672 c13d
00000060: 9c42 2fbe 0bce e73b cc14 af3d e121 c33d
00000070: affa 623e 7347 d2bd daaf b6be 965a 6b3e
00000080: 1d11 6c3d fd9f 5f3e 3164 08be 75ee fc3c
00000090: ff1f 263e 98b0 793d 886d 063e c46a 86be
000000a0: 1cc7 12be 0975 d7bc 048f 0ebe f60f 3cbc
000000b0: 091b 64bd 0ff7 fb3d a209 bd3d a124 d83d
000000c0: 289f 5a3e c2f3 d33b 49a6 6dbe d596 82be
000000d0: efd7 a53e 2e6a 3b3e 0a0a dbbe 65fe 03be
000000e0: 1d3d 2fbc ee55 513e 15dd 0c3e 9336 bcbb
000000f0: c6f4 823d 0ff8 5d3e fbf2 f13c 1088 2dbd
00000100: de74 3d3b 94d1 86be ab25 31be 9a2b bbbd
00000110: 5152 ad3d 5ba4 363e 9072 8e3d 8611 04bd
00000120: 7cd5 113e 7543 763e a011 aabc 9e2f b73e
00000130: 35dc 443e 4ddd 84bc aa1b 73be 3b91 813e
00000140: 40e2 ba3e 84df 35be 5501 fabc 7ef6 59be
00000150: e5cf 90bd 7cc0 d63c 673a cfbe ef1f a73c
00000160: d55d 2b3d 8be8 763e c271 71bd 3351 ba3e
00000170: f2ef 0fbe 2455 9ebd 5f08 0abe 91c1 7ebe
00000180: 54d7 2f3c 188c 7abe 23ca b3bd 3e50 a53d
00000190: 387c 633d bcd9 8fbe 970f 553e 0b3e 713e
000001a0: fa2b c9bd 0825 adbe 8791 823e 555d 9d3e
000001b0: 77d7 c73e d1b4 9f3b 4dc5 6b3e 951e 873e
000001c0: 7434 583e 1373 1c3e 541e 82be 8402 53be
000001d0: fd11 2bbe d77c 39bd 38a5 753e 78c1 06bc
000001e0: 2c34 373e f2f5 18bc d833 5a3e 872c 5d3e
000001f0: 89a1 91bc ef15 4f3d 2f14 8a3d c114 e2bd
00000200: 297a 7ebe 3fb6 db3d 88dd e23e 565f 5fbe
00000210: 6c1b 78be 2504 3abe 956c 72be 7aa4 60be
00000220: 4689 8cbe 38ba 023e 9cea 2cbe 08d2 963e
00000230: beed c4bc 824d 96bc 2498 61bd ebb5 e13c
00000240: 7464 f53c 7e00 313d a0f1 023d 9634 233e
00000250: fac5 45be b3cd 3dbc d6a2 0f3e ed11 cebe
00000260: 8507 5b3e 7e7a c8bd a6cc 693e f3c1 d73e
00000270: 34e6 643e 9a2c 2c3e d3bf 73bc 1554 6cbe
00000280: eb5d 393e b086 c6bd f639 4e3d b433 b73d
00000290: 6579 8f3b eb75 f33d 6c3c 683e 8b18 babd
000002a0: 620f 023e 6208 d53d a633 f8bd 78a8 113e
000002b0: f986 433e a01f 753d b115 50bc a296 85bd
000002c0: 5b7a 16be 641f 7a3e 1f95 133d b712 cd3e
000002d0: 0862 f23c 9a5c 833e c569 e5bd 74a0 94bb
000002e0: 9d70 bdbe f399 9ab9 b9d2 96bd 288f 60be
000002f0: 8547 a23d b1e4 6cbe 7eb5 24be 67cc 903e
00000300: 2bb5 c2bd aee8 543d 0123 2b3e 2723 75bd
00000310: 1946 5a3e 5d7b 093c f2ba debd 5539 c7bd
00000320: 1fb4 9e3e 7e9c c9bc f50d a03e a554 7b3e
00000330: fdca fd3e 83d2 953e 979b b03d 9c91 773e
00000340: 3c6a 75be 8a78 9cbe c610 8f3c 8d45 fabd
00000350: 47fd 07be 3abb 973e ad97 f5bd 2d73 fabd
00000360: b6d2 943e 6447 483e c3f8 963d 721c a83d
00000370: e386 8f3d d30d 633e 609d 393c 27d1 5dbe
00000380: b296 afbd aa76 8e3d b32c 6dbd 7a2e 4f3e
00000390: 7912 af3d 47af 143f 5ac8 123f 9f3c ed3d
000003a0: eb42 493c 3192 f6bd f698 c7be 1f87 22be
000003b0: c028 a3be e93c dcbe 0fbd db3e a045 68be
000003c0: 013e 1abd e842 ad3e c9cc 023e 5e95 703e
000003d0: 613c debc 8429 1b3e de84 4cbe fc1c b6bc
000003e0: a069 1c3d 536d 6fbe 5eca c03c f7d3 c3bb
000003f0: 0866 4cbd f304 683d db20 613e e7bc de3e

body.0.bias f4 [128]
0.21580118 0.075873576 0.28153512 -0.15076149 0.11204506 -0.11134226 0.14765923 0.26664692
0.042830277 0.04389372 0.10433745 0.20663837 0.01801447 0.023153374 0.27901658 -0.26572677
0.10898308 0.28420782 -0.073607154 0.09413396 -0.21381702 0.2541806 -0.13249686 -0.06978271
0.15191364 -0.29972866 -0.09710107 -0.04814791 -0.06637463 -0.051994566 -0.13555145 -0.09114082
0.037118457 -0.018275952 -0.17515184 0.28760847 0.1260216 0.18132755 0.15226524 -0.22432046
0.0054848357 0.124952935 -0.18765005 -0.19257338 -0.11744014 0.15203008 -0.20800407 0.07425308
-0.08671618 -0.027867988 -0.006347986 -0.2384871 0.24381328 -0.18883386 -0.020497853 -0.13774587
0.15108761 -0.31218493 -0.21889202 -0.008942299 0.240537 0.1586378 -0.023368128 0.12955683
0.15098202 0.116547786 -0.029774005 -0.045206964 -0.2814742 -0.26606193 0.008833114 -0.07226828
0.14059648 -0.24562807 0.093221396 0.022393687 -0.028401673 -0.021477679 0.21418732 0.13182703
0.06459573 0.046858314 -0.086490475 0.052226327 0.28268558 -0.16633081 0.1517975 0.050292604
-0.07766892 0.20159619 -0.035379868 -0.15919907 0.22926377 0.12492971 0.21565735 -0.20160328
-0.17031096 0.077936456 0.21173838 -0.0016561064 0.28654936 0.124225706 0.2207108 0.26401013
0.16408262 0.03925534 0.20363615 -0.16368976 -0.0059578717 -0.19359243 0.15115254 -0.21821162
-0.08308128 -0.13953212 -0.21885437 -0.2356246 0.08109846 -0.22573309 0.007883101 0.17349342
-0.27899686 -0.22697577 -0.011707327 0.24270514 0.009684753 -0.12997954 0.25545374 0.3183927
00000000: fcfa 5c3e 9b63 9b3d 5f25 903e 3861 1abe
00000010: e177 e53d 6907 e4bd fb33 173e f285 883e
00000020: cd6e 2f3d e7c9 333d dfae d53d 0299 533e
00000030: 1593 933c 25ac bd3c 43db 8e3e 570d 88be
00000040: 8532 df3d b083 913e 59bf 96bd 4ec9 c03d
00000050: d9f2 5abe f623 823e 42ad 07be 3dea 8ebd
00000060: 408f 1b3e 0976 99be eddc c6bd be36 45bd
00000070: 6cef 87bd 41f8 54bd 00ce 0abe 0aa8 babd
00000080: 8609 183d 73b7 95bc 015b 33be 6b41 933e
00000090: ce0b 013e eead 393e 6beb 1b3e 43b4 65be
000000a0: 23ba b33b 53e7 ff3d 5627 40be f531 45be
000000b0: 7584 f0bd c6ad 1b3e 05ff 54be 0012 983d
000000c0: 4198 b1bd 684b e4bc c402 d0bb f635 74be
000000d0: 30aa 793e aa5d 41be 1deb a7bc 410d 0dbe
000000e0: b6b6 1a3e b4d6 9fbe 3b25 60be b882 12bc
000000f0: 554f 763e f371 223e 846e bfbc 8caa 043e
00000100: 089b 1a3e 9bb0 ee3d 9de8 f3bc f02a 39bd
00000110: 631d 90be 4539 88be c4b8 103c 6401 94bd
00000120: 86f8 0f3e ed85 7bbe dcea be3d f772 b73c
00000130: a0aa e8bc f5f1 afbc ec53 5b3e aafd 063e
00000140: c44a 843d 81ee 3f3d eb21 b1bd 46eb 553d
00000150: 2abc 903e a052 2abe ce70 1b3e 9eff 4d3d
00000160: e210 9fbd 3b6f 4e3e 7bea 10bd 1505 23be
00000170: 1fc4 6a3e 26db ff3d 48d5 5c3e 1771 4ebe
00000180: ff65 2ebe 269d 9f3d f2d1 583e b611 d9ba
00000190: 99b6 923e 0c6a fe3d 0302 623e 562c 873e
000001a0: 4605 283e 35ca 203d ff85 503e 4a9e 27be
000001b0: 403a c3bb 183d 46be bbc7 1a3e de72 5fbe
000001c0: 8526 aabd 82e1 0ebe 5c1b 60be 9347 71be
000001d0: f316 a63d 9326 67be 1f28 013c 42a8 313e
000001e0: add8 8ebe 566c 68be 17d0 3fbc b287 783e
000001f0: ccac 1e3c 5b19 05be d5ca 823e 5e04 a33e

body.2.weight f4 [128, 128]
0.28840697 0.15849367 -0.0011660951 0.012912923 -0.010872586 -0.14139447 0.017148744 0.13508506
0.4580099 0.11368913 0.24622267 0.1910961 -0.18091369 -0.14872313 0.073707536 -0.0065165414
0.025079891 0.2656572 0.17010406 0.034811083 -0.12805158 0.18562862 -0.07130038 -0.20483948
0.24894223 -0.17134455 -0.153891 -0.25481048 -0.18809049 -0.051947404 -0.12837805 -0.11390459
0.08857177 -0.20598981 -0.17089209 0.03216355 0.12902401 0.23839056 0.21783046 -0.21128015
-0.085310854 0.10455881 -0.2900114 -0.11125258 -0.15945347 0.07628498 -0.08688807 0.3011344
-0.18406306 0.22595987 -0.17700595 -0.10225384 -0.03220884 -0.016898317 -0.2525081 -0.08504694
0.12503704 -0.1348434 -0.039877705 -0.22909968 0.112370014 0.122832745 -0.2511536 0.049167976
-0.14821744 -0.16993074 0.19814388 -0.23570055 0.025013665 -0.24326901 0.19459623 -0.0679113
0.095029466 -0.18532698 0.09337387 0.031065308 0.21611954 -0.12252943 0.17853531 0.21269277
-0.0002155659 0.18565108 0.14363602 0.1550824 0.0034536168 -0.07938146 0.06975486 0.018649695
-0.17754528 0.23794773 -0.15921175 -0.1152073 -0.0037536295 0.12813799 0.1224399 -0.16628756
-0.15587543 -0.26048827 -0.033442877 -0.055946343 0.19768412 0.41958264 0.019232439 0.058971047
0.16279134 0.10908737 0.10428783 -0.19772795 -0.12092184 -0.14534564 -0.030792303 -0.02330538
-0.09437346 0.10272181 -0.17729726 -0.052054692 0.23062931 -0.07894626 0.13592345 0.109815024
-0.09711366 0.016586564 -0.081132464 0.1432949 -0.24561085 -0.21735196 0.031538446 0.10829719
0.16146089 0.074433096 0.14482094 -0.06862249 0.1335026 -0.033657573 0.08713461 -0.005521491
0.38106942 0.14842749 0.26156336 0.06929531 -0.15499221 -0.18413189 0.16249767 -0.16767183
0.019747902 0.2648182 0.118060514 0.008663024 -0.34318873 0.2073484 -0.10749637 -0.09081143
0.28921056 -0.066839814 -0.20214446 -0.17352332 -0.09672261 -0.10673559 -0.07000772 -0.10804981
-0.019784896 -0.18370815 -0.17455816 0.17550078 0.23244786 0.16781597 0.13577427 -0.21495661
-0.039517 0.11427398 -0.21355662 -0.031937893 -0.089281015 0.03062231 -0.08138861 0.13060495
-0.17140345 0.13480465 -0.0742321 -0.051617876 -0.023238301 -0.01534689 -0.2399963 -0.10143661
0.07413117 -0.21818054 -0.06278997 -0.06769121 0.11617397 0.012068416 -0.23186535 0.1761853
-0.04499246 -0.23717332 0.13998729 -0.19299501 -0.03488604 -0.2331475 0.16784832 -0.15466797
0.08258319 -0.24118498 0.2977467 0.05778809 0.08783853 -0.1759664 0.025045939 0.1507438
0.16251352 0.11580221 0.096996 0.08255635 0.076596014 -0.030514523 0.12797043 0.09311075
-0.15062687 0.29112718 -0.2550228 -0.19084102 0.04212113 0.21792409 0.06872424 -0.1287242
-0.21989688 -0.12197154 0.09502917 -0.091250196 0.18671294 0.4722846 0.022154633 0.098143615
0.20578523 0.0046410444 0.16020136 -0.2506935 -0.1736118 -0.1103718 0.034997046 -0.061406914
-0.16802253 0.115522526 -0.19989721 -0.1114008 0.113642044 -0.046328705 0.24205916 0.068928406
-0.100679375 -0.091164045 -0.15231287 0.077769384 -0.13695699 -0.15339445 0.08140862 0.1372479
00000000: 14aa 933e 2a4c 223e a9d7 98ba b990 533c
00000010: ee22 32bc b6c9 10be 867b 8c3c bd53 0a3e
00000020: 4680 ea3e d9d5 e83d cc21 7c3e b2ae 433e
00000030: 7041 39be e04a 18be faf3 963d b688 d5bb
00000040: 5874 cd3c 3804 883e c22f 2e3e 1196 0e3d
00000050: f41f 03be 6e15 3e3e ef05 92bd 71c1 51be
00000060: b6ea 7e3e f274 2fbe 9a95 1dbe 8576 82be
00000070: cb9a 40be cdc6 54bd 8975 03be cf46 e9bd
00000080: 1e65 b53d feee 52be 56fe 2ebe edbd 033d
00000090: df1e 043e a81c 743e f30e 5f3e d359 58be
000000a0: 75b7 aebd ee22 d63d 607c 94be 65d8 e3bd
000000b0: c547 23be 4d3b 9c3d 5ff2 b1bd 4a2e 9a3e
000000c0: 077b 3cbe 0662 673e 0c41 35be 766a d1bd
000000d0: 6bed 03bd 576e 8abc be48 81be 172d aebd
000000e0: b609 003e 6314 0abe ce56 23bd 1b99 6abe
000000f0: 4022 e63d bc8f fb3d 3497 80be 5c64 493d
00000100: 50c6 17be 5302 2ebe 3be6 4a3e 7c5b 71be
00000110: 75e9 cc3c 831b 79be 3c44 473e 1415 8bbd
00000120: cf9e c23d 5bc6 3dbe cd3a bf3d ac7c fe3c
00000130: 714e 5d3e b6f0 fabd f6d1 363e 22cc 593e
00000140: 8809 62b9 511b 3e3e 5215 133e eccd 1e3e
00000150: 1356 623b bf92 a2bd a3db 8e3d 3fc7 983c
00000160: 6ece 35be 92a8 733e 6808 23be cef1 ebbd
00000170: 74ff 75bb 9b36 033e c5c1 fa3d 4947 2abe
00000180: cf9d 1fbe b85e 85be 66fb 08bd fe27 65bd
00000190: b56d 4a3e 89d3 d63e 598d 9d3c a08b 713d
000001a0: c6b2 263e 3369 df3d dc94 d53d 3279 4abe
000001b0: dfa5 f7bd 7dd5 14be 2440 fcbc edea bebc
000001c0: df46 c1bd d05f d23d 6a8d 35be 4d37 55bd
000001d0: 172a 6c3e 94ae a1bd 842f 0b3e b3e6 e03d
000001e0: 87e3 c6bd 8ce0 873c c728 a6bd e6bb 123e
000001f0: 6981 7bbe 8391 5ebe 752e 013d ebca dd3d
00000200: 0156 253e 6170 983d f14b 143e f389 8cbd
00000210: e8b4 083e 86dc 09bd a173 b23d a0ed b4bb
00000220: 881b c33e 60fd 173e a2eb 853e b3ea 8d3d
00000230: 47b6 1ebe 128d 3cbe ca65 263e 2ab2 2bbe
00000240: 5ac6 a13c 4096 873e b6c9 f13d 5bef 0d3c
00000250: 6fb6 afbe 2453 543e 0f27 dcbd 58fb b9bd
00000260: 6813 943e 50e3 88bd f5fe 4ebe 19b0 31be
00000270: 8116 c6bd 3098 dabd 3560 8fbd 3849 ddbd
00000280: ef13 a2bc fd1d 3cbe 60bf 32be 7ab6 333e
00000290: d006 6e3e f3d7 2b3e 6908 0b3e 961d 5cbe
000002a0: 94dc 21bd 7a08 ea3d 96ae 5abe 4fd1 02bd
000002b0: f7d8 b6bd a3db fa3c 12af a6bd 4ebd 053e
000002c0: 6384 2fbe 3b0a 0a3e 0007 98bd 446d 53bd
000002d0: 405e bebc 8671 7bbc 97c1 75be ffbd cfbd
000002e0: 15d2 973d b86a 5fbe 0798 80bd b0a1 8abd
000002f0: 9eec ed3d 9bba 453c 1c6e 6dbe eb69 343e
00000300: 044a 38bd 90dd 72be d458 0f3e 7ca0 45be
00000310: aae4 0ebd 38be 6ebe 6ee0 2b3e 4861 1ebe
00000320: 6021 a93d 32f9 76be 4172 983e 34b3 6c3d
00000330: b0e4 b33d 8930 34be 242d cd3c 955c 1a3e
00000340: f269 263e b629 ed3d d7a5 c63d 4e13 a93d
00000350: 5fde 9c3d 98f9 f9bc ae0a 033e d9b0 be3d
00000360: ee3d 1abe 9f0e 953e 5992 82be d46b 43be
00000370: 3587 2c3d 7e27 5f3e 4bbf 8c3d 47d0 03be
00000380: a62c 61be 37cc f9bd a79e c23d 62e1 babd
00000390: ad31 3f3e 49cf f13e a27d b53c 85ff c83d
000003a0: 5db9 523e e713 983b d30b 243e e65a 80be
000003b0: 4bc7 31be 9c0a e2bd 1059 0f3d d185 7bbd
000003c0: 190e 2cbe 1397 ec3d dbb1 4cbe 1a26 e4bd
000003d0: 29bd e83d 2bc3 3dbd 5bde 773e 562a 8d3d
000003e0: fd30 cebd 37b4 babd e8f7 1bbe 8e45 9f3d
000003f0: 743e 0cbe 6f13 1dbe 90b9 a63d b78a 0c3e

body.2.bias f4 [128]
0.064028 -0.012071693 0.11189085 0.094813414 -0.09423762 0.10500849 0.051976852 0.069339305
0.029527321 0.15420692 -0.034007385 0.12249568 0.11065246 -0.02925627 0.06475196 -0.08978473
0.0069373893 -0.0145467045 -0.098881535 -0.12529309 -0.06847072 0.16600809 -0.015684374 0.120434016
-0.049089357 0.015332709 0.05373793 0.09698964 -0.07792304 -0.051360153 0.060422037 0.0015727484
0.06882351 -0.028746767 0.116391554 -0.030521097 0.036223616 0.03458419 0.04250109 -0.08248316
-0.01167082 -0.031574458 0.16569668 0.06082638 -0.027747588 0.052620005 0.13233814 0.13034865
0.10621435 -0.0071641193 -0.057324678 0.18603393 0.04041201 -0.020720506 -0.12302495 -0.0419343
0.044122487 0.038355548 0.0114031555 0.07382492 0.027884556 0.12819354 -0.14974378 -0.023899173
0.105474494 0.049811713 0.06510319 0.020148147 0.02483315 -0.112714104 -0.013585729 -0.0237646
0.17761242 -0.01636846 -0.10795946 -0.019794436 0.049368776 -0.029666934 -0.037780195 -0.065618895
-0.11797241 -0.08452227 0.11428737 -0.09326747 0.06947742 0.042982582 -0.048401047 0.1326525
-0.11974595 -0.07552227 0.038925108 0.030329958 -0.049696084 -0.07243728 -0.14539045 0.088586636
-0.22737145 0.03556479 -0.018262189 -0.028064234 -0.13653801 0.035501383 -0.06107235 0.07948482
-0.014251106 -0.031764004 -0.06638089 -0.1310519 -0.06410308 0.031500638 0.030171126 0.013777713
0.006339478 -0.026565857 0.04480936 0.016238043 -0.03457717 0.1660865 0.008926197 -0.040195905
0.1346584 -0.07029381 0.027738946 -0.161263 -0.0064010248 -0.064317845 -0.13684647 0.047091834
00000000: 1d21 833d 5ac8 45bc 0827 e53d 892d c23d
00000010: a7ff c0bd b10e d73d aee5 543d c401 8e3d
00000020: 48e3 f13c 6be8 1d3e 544b 0bbd 04df fa3d
00000030: c29d e23d d8aa efbc ad9c 843d 0ee1 b7bd
00000040: 0a53 e33b 4d55 6ebc 6782 cabd d54c 00be
00000050: 603a 8cbd 06fe 293e 847c 80bc 1ca6 f63d
00000060: ec11 49bd 0b36 7b3c 4e1c 5c3d 81a2 c63d
00000070: 1d96 9fbd 065f 52bd 197d 773d ae24 ce3a
00000080: 57f3 8c3d 577e ebbc b25e ee3d 6107 fabc
00000090: 375f 143d 27a8 0d3d 9f15 2e3d eeec a8bd
000000a0: f836 3fbc 3854 01bd 64ac 293e 1525 793d
000000b0: e94e e3bc 1388 573d a683 073e 1e7a 053e
000000c0: e986 d93d fdc0 eabb 48cd 6abd ae7f 3e3e
000000d0: 1087 253d 0dbe a9bc 81f4 fbbd 4dc3 2bbd
000000e0: c8b9 343d b51a 1d3d 4dd4 3a3c 8531 973d
000000f0: 276e e43c 2b45 033e 6f56 19be 33c8 c3bc
00000100: 0303 d83d 5e07 4c3d d254 853d ba0d a53c
00000110: e46e cb3c a7d6 e6bd ad96 5ebc faad c2bc
00000120: 08e0 353e 2617 86bc d919 ddbd f127 a2bc
00000130: ea36 4a3d 1208 f3bc 68bf 1abd 3363 86bd
00000140: 859b f1bd 031a adbd 7f0f ea3d 0403 bfbd
00000150: 2d4a 8e3d 810e 303d 2d40 46bd 0fd6 073e
00000160: 5d3d f5bd 6bab 9abd ef6f 1f3d 8876 f83c
00000170: 1f8e 4bbd ff59 94bd 3ce1 14be e96c b53d
00000180: 10d4 68be 63ac 113d 969a 95bc f7e6 e5bc
00000190: 9fd0 0bbe e669 113d 0027 7abd f0c8 a23d
000001a0: 797d 69bc f91a 02bd b4f2 87bd 7832 06be
000001b0: 7a48 83bd d006 013d 7029 f73c ebbb 613c
000001c0: 65bb cf3b a4a0 d9bc 058a 373d a505 853c
000001d0: caa0 0dbd 9412 2a3e 2f3f 123c 76a4 24bd
000001e0: e4e3 093e 33f6 8fbd c93c e33c 2122 25be
000001f0: b0bf d1bb 13b9 83bd 7b21 0cbe 5ee3 403d

mean_head.weight f4 [6, 128]
0.062457748 -0.025518239 0.0034712455 -0.055506367 0.009152646 -0.010381601 -0.07704761 -0.028070588
0.04904924 -0.024813825 -0.08575353 -0.05170675 -0.06847631 -0.08172083 0.004229748 0.064095095
-0.097417556 -0.02675052 -0.067410216 0.022331258 -0.042470768 0.060864206 0.089643925 -0.00021942605
-0.010588069 -0.05289753 -0.021725256 0.0035114018 -0.0813387 -0.0037458602 -0.021823626 -0.023810014
-0.007751808 -0.076482445 -0.025178103 0.036332455 -0.039031375 0.013691311 0.002996165 -0.019782566
0.013442432 -0.034034833 -0.0067210193 -0.0819124 -0.07403522 -0.09904759 -0.0068075573 0.07070764
-0.056956425 -0.097409986 0.046331912 0.06571306 -0.025556423 -0.021782897 0.04982896 -0.08324121
-0.08727294 -0.0658905 0.055356562 -0.022770034 0.0015685728 0.06487825 -0.055283595 0.055820066
-0.025250683 -0.012599495 -0.05648055 0.05809835 -0.031784162 0.02223909 0.04758897 0.037849892
0.05080755 -0.0630503 0.016319916 0.000108199325 0.03829616 -0.05907376 0.024624744 0.011970809
0.011335663 0.08186235 0.038874935 -0.04856651 0.022131614 -0.05964387 -0.04374918 -0.033553015
0.026944015 -0.0038800677 0.052741256 0.049904115 -0.06715328 -0.07361882 0.008075084 0.013588582
0.07285502 0.04983046 0.052559905 0.037540697 -0.08072566 -0.06620637 0.016454497 -0.08472323
0.016208375 0.05778196 -0.08856943 0.0439449 0.08341708 0.049634803 0.07072103 -0.019408649
-0.036201004 -0.05278356 -0.08407831 -0.05733426 -0.03889729 -0.084016345 -0.040711183 -0.014203655
0.063269325 0.06650806 -0.053605106 0.059854276 0.023912141 -0.004839679 -0.012938985 -0.08073744
0.05737933 -0.03262608 -0.0149594415 -0.018779552 -0.02142374 -0.03923181 0.023811225 0.068751834
0.09638047 -0.018860718 0.0460546 0.0014453491 0.03369944 -0.039802123 -0.062222008 -0.023686936
-0.027295226 0.03138695 0.037806988 -0.0056806095 -0.04110346 -0.013994324 0.021991586 0.045354653
-0.035811678 -0.011231627 0.054596096 0.08177186 0.096135944 0.08062518 0.06934897 -0.05171218
0.012729672 0.065047495 0.046204068 0.06653317 -0.075138204 0.034747384 -0.09156892 0.077243194
-0.04207296 -0.013299817 0.034163717 0.06967476 0.025137747 -0.006688657 0.08093417 0.056475565
0.023249751 -0.08272616 -0.044364173 0.0698197 0.033460096 -0.04666168 0.05365324 -0.050629847
-0.07959731 -0.018153453 -0.058046315 0.041681696 0.036038842 -0.024342678 -0.05508684 -0.0081311
-0.08348704 0.056481615 -0.02758188 0.049482856 0.019274421 0.042572424 -0.082238756 -0.043508925
0.04102382 -0.059137765 -0.03772802 -0.023518067 -0.00807009 -0.039028596 -0.07127527 -0.04073449
0.025870256 -0.08079434 -0.03235358 0.034803532 -0.024033863 -0.070090674 0.009950939 0.018997902
-0.0026918505 -0.017974174 0.048610196 -0.027382085 0.076855466 -0.07949325 0.027363887 0.027668009
0.055113357 -0.0067332597 0.032914836 -0.0408887 -0.008009429 0.07773558 0.05800976 -0.03725253
-0.014687381 0.005335553 0.018611535 0.056047976 -0.01589738 0.012624666 0.053959467 -0.06755083
-0.057596073 0.03367621 -0.05544418 -0.0372282 0.092043996 -0.04614377 0.04614451 0.02544416
0.054453995 0.0040542525 0.011905268 0.09080554 0.010983992 -0.05488621 -0.01697707 -0.031277392
00000000: b2d3 7f3d a00b d1bc d67d 633b a55a 63bd
00000010: fbf4 153c 9717 2abc 23cb 9dbd 4af4 e5bc
00000020: dbe7 483d 5d46 cbbc 8c9f afbd 75ca 53bd
00000030: 4f3d 8cbd 405d a7bd b399 8a3b 4a44 833d
00000040: db82 c7bd e823 dbbc 5e0e 8abd 0bf0 b63c
00000050: d4f5 2dbd bf4c 793d 3c97 b73d bb15 66b9
00000060: 9579 2dbc 15ab 58bd 2af9 b1bc 8c1f 663b
00000070: e894 a6bd 1b7d 75bb 76c7 b2bc 380d c3bc
00000080: e102 febb d4a2 9cbd 4f42 cebc 57d1 143d
00000090: 5ddf 1fbd 8551 603c 4f5b 443b 0c0f a2bc
000000a0: a53d 5c3c 1c68 0bbd ff3b dcbb b0c1 a7bd
000000b0: c79f 97bd 76d9 cabd ee11 dfbb 2bcf 903d
000000c0: 244b 69bd e37e c7bd 88c6 3d3d 9294 863d
000000d0: b45b d1bc 0c72 b2bc 7419 4c3d 5e7a aabd
000000e0: 28bc b2bd 99f1 86bd 90bd 623d 3988 babc
000000f0: 9298 cd3a e3de 843d 0d71 62bd 95a3 643d
00000100: 85da cebc 1d6e 4ebc 2658 67bd 89f8 6d3d
00000110: 1c30 02bd c12e b63c a7ec 423d 7d08 1b3d
00000120: 941b 503d 8420 81bd 58b1 853c 12e9 e238
00000130: 6fdc 1c3d 54f7 71bd d5b9 c93c 3621 443c
00000140: 37b9 393c 73a7 a73d 533b 1f3d aded 46bd
00000150: 5c4d b53c 214d 74bd 5732 33bd e36e 09bd
00000160: b2b9 dc3c bc48 7ebb 3707 583d 4268 4c3d
00000170: a987 89bd 77c5 96bd 5b4d 043c a5a2 5e3c
00000180: 0335 953d 061b 4c3d 0e49 573d 46c4 193d
00000190: 7f53 a5bd 3597 87bd 95cb 863c 5f83 adbd
000001a0: 6dc7 843c c7ac 6c3d e463 b5bd 91ff 333d
000001b0: 93d6 aa3d dd4d 4b3d 30d6 903d e3fe 9ebc
000001c0: 8147 14bd 9333 58bd 4031 acbd 54d7 6abd
000001d0: c452 1fbd c310 acbd c5c0 26bd 72b6 68bc
000001e0: 5993 813d 6135 883d 0791 5bbd c229 753d
000001f0: 65e3 c33c 2c96 9ebb 09fe 53bc ac59 a5bd
00000200: 9706 6b3d eda2 05bd 7218 75bc 93d7 99bc
00000210: d780 afbc 89b1 20bd c20f c33c c3cd 8c3d
00000220: 2063 c53d cb81 9abc c0a3 3c3d de71 bd3a
00000230: 6d08 0a3d 8d07 23bd 81dc 7ebd 1b0b c2bc
00000240: 3d9a dfbc 9a8f 003d 80db 1a3d 6824 babb
00000250: 1a5c 28bd 7348 65bc b327 b43c cdc5 393d
00000260: 44af 12bd dc04 38bc 28a0 5f3d 0178 a73d
00000270: ece2 c43d d01e a53d d506 8e3d 27d0 53bd
00000280: 1d90 503c 9f37 853d 7a40 3d3d 8b42 883d
00000290: 0fe2 99bd 4653 0e3d 7c88 bbbd ae31 9e3d
000002a0: b254 2cbd 7ae7 59bc 41ef 0b3d a4b1 8e3d
000002b0: aded cd3c 862c dbbb d0c0 a53d ec52 673d
000002c0: 4376 be3c 556c a9bd 35b7 35bd a2fd 8e3d
000002d0: 740d 093d 5120 3fbd 80c3 5b3d 3e61 4fbd
000002e0: ea03 a3bd 8db6 94bc f9c1 6dbd 6dba 2a3d
000002f0: 779d 133d 4c6a c7bc bda2 61bd 4e38 05bc
00000300: 41fb aabd 4459 673d 65f3 e1bc 89ae 4a3d
00000310: 64e5 9d3c 6c60 2e3d cb6c a8bd 6a36 32bd
00000320: 9808 283d 713a 72bd b288 1abd f6a8 c0bc
00000330: 6938 04bc 73dc 1fbd c5f8 91bd 35d9 26bd
00000340: dced d33c 8177 a5bd 3085 04bd 268e 0e3d
00000350: aae2 c4bc b38b 8fbd 4309 233c 7da1 9b3c
00000360: c269 30bb 933e 93bc 7c1b 473d 6550 e0bc
00000370: 6666 9d3d 5bcd a2bd 3b2a e03c 05a8 e23c
00000380: 8bbe 613d ada2 dcbb b5d1 063d e97a 27bd
00000390: fb39 03bc d533 9f3d a49b 6d3d 1c96 18bd
000003a0: 57a3 70bc ddd5 ae3b 3877 983c 9092 653d
000003b0: 393b 82bc b0d7 4e3c 9a04 5d3d 1758 8abd
000003c0: dce9 6bbd 11f0 093d 7019 63bd 997c 18bd
000003d0: 9081 bc3d 4001 3dbd 0702 3d3d 4570 d03c
000003e0: 270b 5f3d 89d9 843b 500e 433c 41f8 b93d
000003f0: 34f6 333c 5dd0 60bd 7f13 8bbc b91c 00bd

mean_head.bias f4 [6]
0.06915271 -0.0771671 0.049528863 0.09168873 0.058678947 -0.11488837
00000000: f09f 8d3d c909 9ebd c7de 4a3d 4dc7 bb3d
00000010: 5659 703d 984a ebbd

value_head.weight f4 [1, 128]
1.4956323 1.5492288 1.7241553 1.7695343 -1.8100526 1.7598145 1.5039153 1.4856434
-1.7459403 1.7498028 1.4597468 -1.4806463 1.5717912 -1.7509044 -1.5010811 -1.5268089
-1.5442038 -1.4870515 -1.7850507 -1.7870846 1.4997 1.7240735 1.5672816 1.7457693
-1.786037 -1.5473967 1.7555692 -1.4528992 -1.7395602 -1.8026972 1.78515 -1.5124544
1.7714106 -1.7877626 1.7850463 1.4828179 1.7759943 -1.7722868 1.5487776 1.4672235
1.5052997 1.4759369 1.7976271 1.766439 -1.562045 -1.5097643 1.5120038 1.8238317
-1.5048152 1.8081036 1.4386138 1.7488153 -1.5018234 -1.6983933 -1.5226533 1.5281652
-1.5150806 1.5528358 1.5045983 1.5292463 1.4906737 1.7401222 -1.7424713 -1.5383604
1.4943992 1.4962097 -1.7334504 -1.6194876 -1.5276386 -1.7503449 -1.7631651 1.4717228
1.7316508 -1.5369366 1.4989804 1.5530461 -1.496606 -1.4938695 -1.8069186 -1.5286052
-1.506564 1.5176587 1.7677358 -1.7580489 1.7894802 1.5255151 1.5185207 1.5529492
-1.763179 -1.5348463 1.6202426 -1.4897279 1.5506511 -1.7976725 1.4976135 -1.5008407
-1.6214598 1.7796575 -1.5223575 1.5068907 1.4960365 1.5387875 1.5186752 1.7340499
1.8094832 -1.5715873 -1.5436119 -1.7322977 -1.7666441 1.5280617 1.4897623 -1.5139089
1.4790456 -1.5272152 1.5099984 1.5420246 1.5265687 -1.4684551 -1.4819202 1.4898367
1.7725109 -1.5695287 1.5068048 -1.7452297 1.4928718 -1.7137319 -1.7790167 1.7414951
00000000: e170 bf3f 214d c63f 1fb1 dc3f 1a80 e23f
00000010: ceaf e7bf 9a41 e13f 4c80 c03f 9029 be3f
00000020: f97a dfbf 8af9 df3f fcd8 ba3f d185 bdbf
00000030: 7430 c93f a31d e0bf 6d23 c0bf 796e c3bf
00000040: 78a8 c5bf b457 bebf 8b7c e4bf 30bf e4bf
00000050: 2bf6 bf3f 71ae dc3f af9c c83f 5e75 df3f
00000060: dc9c e4bf 1811 c6bf 7eb6 e03f 9af8 b9bf
00000070: e9a9 debf c8be e6bf cc7f e43f 1b98 c1bf
00000080: 95bd e23f 68d5 e4bf 667c e43f facc bd3f
00000090: c853 e33f 4bda e2bf 583e c63f fbcd bb3f
000000a0: a9ad c03f 80eb bc3f a518 e63f ac1a e23f
000000b0: 17f1 c7bf f53f c1bf 5789 c13f 5173 e93f
000000c0: c99d c0bf f06f e73f 7f24 b83f 2ed9 df3f
000000d0: c03b c0bf f464 d9bf 4ee6 c2bf eb9a c33f
000000e0: 29ee c1bf 53c3 c63f ad96 c03f 58be c33f
000000f0: 65ce be3f 53bc de3f 4d09 dfbf fee8 c4bf
00000100: 7948 bf3f cd83 bf3f b4e1 ddbf 5f4b cfbf
00000110: a989 c3bf 4d0b e0bf 65af e1bf 6a61 bc3f
00000120: bca6 dd3f 57ba c4bf 97de bf3f 37ca c63f
00000130: c990 bfbf 1e37 bfbf 1c49 e7bf 56a9 c3bf
00000140: 17d7 c0bf a442 c23f 2b45 e23f bf07 e1bf
00000150: b00d e53f 1444 c33f e35e c23f 0ac7 c63f
00000160: d9af e1bf d875 c4bf 1c64 cf3f 67af bebf
00000170: bc7b c63f 221a e6bf cdb1 bf3f 8c1b c0bf
00000180: ff8b cfbf d1cb e33f 9cdc c2bf cbe1 c03f
00000190: 207e bf3f fdf6 c43f f363 c23f 59f5 dd3f
000001a0: 259d e73f c629 c9bf 1395 c5bf eebb ddbf
000001b0: 6521 e2bf 8797 c33f 88b0 be3f c4c7 c1bf
000001c0: 5e51 bd3f ca7b c3bf a147 c13f 1061 c53f
000001d0: 9a66 c33f 56f6 bbbf 90af bdbf f8b2 be3f
000001e0: a3e1 e23f 51e6 c8bf fbde c03f b063 dfbf
000001f0: 6c16 bf3f 915b dbbf d2b6 e3bf 50e9 de3f
