checkpoints/biped_v2_fixed_mp.pt (torch, 87007 bytes, 8 tensors)

log_std f4 [6]
000000 62 24 2d 3d 72 2e 0d 3d a3 84 58 39 b4 d4 25 3d
       0.042271025 0.03446812 0.00020648776 0.040486053
000010 89 f6 0c 3d 64 34 3d 3d
       0.0344148 0.04619254

body.0.weight f4 [128, 25]
000000 79 12 58 3d 6b 6e e3 bd 7f 34 8e 3e 46 ef 1f bd
       0.052751992 -0.11105045 0.27774426 -0.03904655
000010 d2 46 04 bd ee ed 60 3c d9 e2 16 3e a6 b3 f4 3d
       -0.032294102 0.013728602 0.14734973 0.11948328
000020 f5 59 d7 3c fd a9 58 be 06 d1 92 3e e9 7b 9a bd
       0.026288012 -0.21158595 0.28675097 -0.07543165
000030 6e e4 5f be b4 98 82 3e 4f c6 e8 3d f8 91 b0 3d
       -0.21864483 0.25507128 0.11365949 0.08621591
000040 8a 46 fa 3d da b9 6a be 49 38 48 be a2 01 f5 bd
       0.122204855 -0.22922459 -0.19552721 -0.11963202
000050 45 61 85 3d 21 dd 92 bc 69 3b 7f bd 96 e4 03 3e
       0.06512693 -0.017927708 -0.062312517 0.12880167
000060 b1 3c c4 bd 9b e5 74 be 7c a6 57 3c d0 ee eb bd
       -0.095818885 -0.23915713 0.013162252 -0.11520159
000070 4c 8f b5 bd 8a c4 0e be d6 f4 2a be 3f 41 c7 bd
       -0.08865222 -0.13942161 -0.1669496 -0.097292416
000080 57 82 5d be f7 01 5b 3c 40 71 b3 3e 63 b0 aa bd
       -0.21631752 0.013367168 0.3504734 -0.08334424
000090 14 de 6a 3d ae ae 8e 3c db 13 9a be b8 c3 a6 be
       0.057340696 0.017417278 -0.30093274 -0.32571197
0000a0 95 bb b7 bd 1e 3a 2f bd 61 97 86 3e 3c ae 1e 3e
       -0.08971325 -0.042780034 0.26287368 0.15496153
0000b0 a6 c6 d7 bc 07 d1 53 3d 5f a6 50 be a0 d3 88 be
       -0.02633984 0.051713016 -0.20375966 -0.26723957
0000c0 e2 44 f1 bd be b1 28 be d9 7e d7 bc 59 77 2f 3e
       -0.117807165 -0.16474053 -0.026305603 0.17135371
0000d0 71 7a 1b bd 00 7f 14 be 1d fb a2 be 62 8a bd bd
       -0.037958566 -0.14501572 -0.3183221 -0.0925491
0000e0 a4 d3 80 be 70 36 1d 3e e8 58 11 3d 15 7f 6e 3e
       -0.2516147 0.15352798 0.03548518 0.23290665
0000f0 21 48 0c be 8a c8 b6 3d 70 f4 7d 3e c2 82 d0 bd
       -0.1369939 0.089249685 0.24800277 -0.1018119
000100 c1 42 ff bd ba 39 34 bd a2 8c 17 3d 65 60 e7 3c
       -0.12463904 -0.044000365 0.036999352 0.028244207
000110 8b 70 24 3e dd 29 5f 3c 5a 06 06 3e 45 d8 8f 3d
       0.16058557 0.013620821 0.1308836 0.07023672
000120 e7 fe b8 bc 71 85 fd 3d ec 5e 83 3b aa 6c 93 3e
       -0.022582484 0.123789676 0.0040091183 0.28793842
000130 c9 e0 55 3d 22 b5 ad 3d d8 f3 3d 3e bf 59 97 3e
       0.052216325 0.08481814 0.1855005 0.29560658
000140 af b9 1e bc 6d 85 cf 3d 13 b4 d8 3d 0e 58 07 be
       -0.009687825 0.10132871 0.105812214 -0.13217184
000150 74 de 0f be 38 0f 96 3e 32 75 b1 3c a5 99 86 3d
       -0.14049703 0.29308486 0.021662328 0.06572274
000160 b2 3e 9b 3d 10 1c 81 3e 65 79 05 3e 2d 8d 80 bc
       0.075803176 0.25216722 0.1303459 -0.015692318
000170 55 b1 2a 3d 20 cc 21 3d dc a4 11 be 6d 65 38 be
       0.041673023 0.03950131 -0.14223045 -0.18007441
000180 cb 1a cb 3c c7 60 0d 3b 42 fa c1 bd e9 b6 ff 3d
       0.02479305 0.0021572576 -0.09471561 0.12486059
000190 65 66 23 3d 76 82 32 3e d5 42 0a 3e 6d 5c 04 3e
       0.039892573 0.1743258 0.13502057 0.12925883
0001a0 36 71 b8 3e 5c 08 ea 3d 2e 08 ac 3e 80 e1 19 be
       0.36023873 0.11427376 0.3359999 -0.15027428
0001b0 fc 57 c5 3d d0 4a 0f bd 15 19 0f 3e e0 21 37 be
       0.09635922 -0.034983456 0.13974412 -0.17884016
0001c0 ca 29 e8 3b 89 c0 b7 3e 8c d7 82 3e 2a 09 9f bd
       0.00708506 0.3588908 0.25555074 -0.0776542
0001d0 48 2f 99 3d 63 40 e3 bd 98 9c 41 3d 47 79 09 3e
       0.07479721 -0.11096265 0.04726848 0.1342517
0001e0 be 26 78 3d 8a 5e e8 3d b0 1f ff 3d 9f 42 22 3e
       0.060583822 0.11346157 0.12457216 0.15845726
0001f0 21 99 cd 3d 2c 79 61 3e 8b 38 3c 3e 2d c9 a9 bd
       0.10038973 0.2201888 0.18380944 -0.08290324
000200 9b 0e 8c 3e 81 e4 fe bc 78 b8 44 3e df f1 b8 3d
       0.27354893 -0.031114819 0.19210994 0.09030508
000210 80 44 28 3e 27 68 ad 3d e6 5f a7 be f8 7d 13 3e
       0.1643238 0.08467131 -0.32690352 0.14403522
000220 5f f3 4b be 98 03 09 be 0a 9a 70 3d fa 3f 8b 3e
       -0.19917057 -0.13380277 0.058740653 0.27197248
000230 9e 6e 57 3d 7f 2e 02 3e 5e 4f 91 bc 6a 87 49 be
       0.052595727 0.1271305 -0.01773804 -0.19680563
000240 20 a3 01 3b ec 46 10 be d0 7d 48 bd d1 a3 4e 3e
       0.0019781068 -0.14089555 -0.04894811 0.20179678
000250 57 d1 26 3e 13 2e d5 bd 30 36 94 3e a9 5f ae bd
       0.16290794 -0.104091786 0.28947592 -0.085143395
000260 69 75 1f 3e 17 a4 5c 3d 7e c8 3a 3e ca 62 02 3e
       0.15572132 0.053867426 0.18240544 0.12732998
000270 c0 b0 22 3e 6c cd 42 3e cb ef ca bd 30 76 ea bd
       0.15887737 0.19023675 -0.09909018 -0.11448324
000280 7f 2b 0e 3e 4d 13 f3 bd 7a a1 02 bd b2 43 09 3e
       0.1388378 -0.11868916 -0.031892277 0.1340473
000290 d2 24 4f bd 8a 04 86 bd 1d 65 82 3e bb 53 a2 3d
       -0.050572224 -0.065438345 0.25467768 0.079261266
0002a0 ee 93 0a be e3 86 04 3e 3b 7e 6d 3d f7 8e b4 3d
       -0.13532993 0.1294208 0.05798171 0.08816331
0002b0 76 28 86 3e 6c 07 73 bc 84 1f de bd 1f a6 93 3c
       0.26202744 -0.0148333125 -0.10845855 0.018023549
0002c0 08 fc d8 3d cd 02 50 be 4e d3 3e be 5c a4 e3 bd
       0.10594946 -0.20313568 -0.18635294 -0.111153334
0002d0 76 20 0b be eb 3c 4e bd 9c 50 54 be fb 5a 2a 3d
       -0.13586602 -0.050351065 -0.20733875 0.041590672
0002e0 7a df 92 3e 0f a2 12 be 5e 05 05 be 16 5b 4e 3e
       0.28686124 -0.14319633 -0.12990329 0.20151934
0002f0 3f 3e 9c be 41 84 ab be 4a 94 4c 3d f2 e5 16 be
       -0.3051624 -0.3349934 0.049946107 -0.14736155
000300 0b d5 83 3d a6 a7 f6 bc 86 22 36 3c 35 5a 25 be
       0.06437119 -0.030109238 0.0111166295 -0.16147693
000310 b1 3b d8 3c 26 5d 53 3d 78 9f 3d be b7 5e 31 be
       0.02639565 0.051602505 -0.18517864 -0.17321287
000320 be 26 86 3d 1c a2 41 3d 72 89 61 3d 28 27 d1 3c
       0.06550358 0.04727374 0.05506272 0.025531366
000330 68 4f cd 3d df 68 b3 3e 3f be 5d 3e 18 2c 7a bd
       0.10024911 0.35040948 0.21654604 -0.061077207
000340 76 82 21 be d3 78 b7 be a6 fa 84 3e f3 73 e0 bd
       -0.15772423 -0.3583437 0.2597248 -0.109596156
000350 8c 53 ad bd 94 8e 3c bc 1c d5 cf bd 97 cf 89 bd
       -0.08463201 -0.011508603 -0.10148069 -0.06729048
000360 16 de 08 3e 29 c2 b0 3d 51 01 8d bd 91 24 25 3e
       0.13365969 0.08630783 -0.06885017 0.1612723
000370 25 fb c0 3d 7f ec b7 bd 04 b0 42 3d a2 3f 71 3d
       0.09422902 -0.08980655 0.047531143 0.058898576
000380 95 a2 61 bd 5d 8a 3b 3e de 5d 44 3e 81 e9 6d 3e
       -0.05508669 0.183145 0.19176432 0.23233606
000390 f2 ff 76 3d ea a5 31 3e ef 3a a1 3e 41 88 e6 3d
       0.060302682 0.17348447 0.31490275 0.11256457
0003a0 c4 02 5b bc 7d 71 5b 3d 4b a6 a8 3d bf a5 6e 3e
       -0.013367359 0.053575028 0.08234843 0.23305415
0003b0 89 03 a9 3d 8f cc d5 3c 98 79 5b 3c a6 de 34 bb
       0.082526274 0.026098518 0.013395689 -0.002759853
0003c0 75 a3 df 3d ec 88 16 3e 89 5f 24 be 31 cd 4b bd
       0.10919849 0.14700669 -0.16052069 -0.049756233
0003d0 e4 e6 75 3d 1c b0 a2 bd 1f e4 0f 3e 59 9d 85 3d
       0.060034648 -0.079437464 0.14051865 0.06524152
0003e0 9f 85 06 be ae 96 36 3e 02 f7 a7 3c 80 18 b6 3d
       -0.1313691 0.17830917 0.020503525 0.08891392
0003f0 3c c2 2d bd 67 11 75 3d 6d d4 ac be 9d e2 cc be
       -0.042421564 0.05983105 -0.33755818 -0.40016642

body.0.bias f4 [128]
000000 dd ec 8d 3e b2 f1 a6 be d7 a1 6f be 40 a6 8a 3e
       0.27719775 -0.32606274 -0.23401581 0.27079964
000010 54 a8 fe 3d c4 ec 3e 3e 2e 8e 43 3e 73 9f 6a be
       0.1243445 0.18645006 0.19097206 -0.22912388
000020 d9 90 90 3e 2e 9b 5a 3e 53 2d 63 be be ba 7e 3e
       0.2823551 0.21348259 -0.22185259 0.24875924
000030 14 70 5f 3e 02 e6 89 3e 05 6d 8a be 62 31 33 3e
       0.21820098 0.26933295 -0.270363 0.17499307
000040 d9 b7 0d be 8e c3 63 3e a0 9c 56 be b9 82 87 3e
       -0.13839664 0.22242567 -0.20958185 0.2646692
000050 e4 90 58 be 94 4b 91 be 17 96 e7 bd e9 c4 fa ba
       -0.21149021 -0.28377974 -0.11307924 -0.001913217
000060 82 21 86 3c 17 7a 90 3e c2 b2 31 be 66 23 19 be
       0.0163734 0.28218147 -0.17353347 -0.1495491
000070 ed 83 8d be c2 f4 37 3e 62 60 76 3e f0 d3 30 3e
       -0.27639714 0.17964461 0.24060205 0.17268348
000080 26 d2 45 be 41 45 20 be 7c e6 ad bd 54 22 8e 3e
       -0.19318447 -0.15651418 -0.08491227 0.27760565
000090 80 97 13 3e be a3 74 3e 26 0c c3 bd 27 81 ac 3d
       0.14413261 0.23890588 -0.095238015 0.08423071
0000a0 c4 28 56 bc 3c 11 31 3d c3 26 16 be 40 67 39 3e
       -0.013071243 0.043229327 -0.14663224 0.18105793
0000b0 94 0a 11 3e 1d 0c 44 be 1b 1d 72 be a5 ed 80 be
       0.14164191 -0.19145246 -0.23643915 -0.25181308
0000c0 ac 68 91 be 12 26 78 3e 8c 0c fb 3d 68 cc df 3c
       -0.2840017 0.24233273 0.122582525 0.027319148
0000d0 17 f2 8e 3e 4d 0e fc 3d fd ba 31 3e 5c d6 30 3b
       0.27919075 0.12307415 0.17356487 0.0026983237
0000e0 e1 ee c1 bd d2 aa c2 bd 2a a8 54 bd bb dc 50 3e
       -0.09469391 -0.09505238 -0.051918186 0.20396702
0000f0 bc 47 87 3e 2c 62 8e be 52 30 84 3e 17 90 ab bd
       0.26421916 -0.27809274 0.25818115 -0.08377092
000100 c3 a0 c2 3d a5 87 33 bd 46 b8 75 be b3 b3 48 3e
       0.09503319 -0.043830533 -0.23996076 0.195998
000110 a7 0f 36 bc e6 13 82 be 54 50 92 3e 90 e7 79 be
       -0.01111213 -0.25405806 0.2857691 -0.2440474
000120 65 6f 83 be 84 73 ed bd 73 37 80 3e 51 7b 05 3e
       -0.25670925 -0.115942985 0.25042304 0.13035323
000130 50 79 46 3e a1 17 a5 bc c9 9b 11 be 92 1c 83 bd
       0.19382215 -0.020152869 -0.14219584 -0.06401934
000140 7c cc a3 bd 0c ff 88 be a0 fb f2 bd b6 a6 05 be
       -0.07997987 -0.26757085 -0.118644 -0.13051876
000150 ff 7a 91 3e 98 f3 5a be 91 cb 71 3e 0a 10 e9 bc
       0.2841415 -0.21381986 0.2361281 -0.02845003
000160 9e 0a 77 3d ec 25 99 3c 8d 89 1c 3e f9 27 75 be
       0.06031286 0.01869484 0.15286846 -0.2394103
000170 a0 3e 8b 3e cb 5d 4b be 93 4c 84 be 14 8a 8b 3e
       0.27196217 -0.19859998 -0.25839671 0.27253783
000180 f0 45 84 3e 60 75 82 3e d7 77 5a be a2 c5 6d 3e
       0.25834608 0.25480175 -0.21334778 0.23219922
000190 03 e5 88 be c2 f5 58 be e0 3f 47 3e 73 c8 7e be
       -0.26737222 -0.21187499 0.1945796 -0.24881153
0001a0 13 eb fb 3d dc 2b 2d be 02 ae b5 bd b8 08 e9 3d
       0.12300696 -0.16911262 -0.0887108 0.11378616
0001b0 6d cd c4 bd ab d9 8d be 04 10 5f be 55 0f 8e 3e
       -0.09609494 -0.2770513 -0.21783453 0.27746072
0001c0 1b 42 5d 3e f1 61 8c be 0b 5c 5d be 11 c7 41 3e
       0.21607248 -0.27418473 -0.21617143 0.18923594
0001d0 e2 1e 91 be 0f 4a 34 be 3c 78 34 be ba 34 89 bd
       -0.28343874 -0.17606376 -0.17623991 -0.0669951
0001e0 6e 38 a6 3d 65 54 92 be 93 88 44 3e f0 56 7d 3e
       0.08116232 -0.28580013 0.19192724 0.24740195
0001f0 23 bc 95 3e 62 2d f1 bc b4 2f 92 be 61 a1 2f be
       0.292451 -0.029440586 -0.2855202 -0.17151405

body.2.weight f4 [128, 128]
000000 c8 69 4e bd 26 ee 05 3e 2b 67 86 3c 3c 6e da bd
       -0.05039385 0.13079128 0.016406616 -0.10665557
000010 95 f2 b5 bd f5 b5 cb bd 80 70 3e be d3 34 03 3e
       -0.088841595 -0.09946815 -0.18597603 0.1281312
000020 21 09 93 bd 6d 08 ae bd 20 08 80 3d e6 2f a6 3c
       -0.071794756 -0.08497701 0.0625155 0.020286512
000030 18 56 89 be 1f 51 7a bd c2 af cf 3d a5 21 07 be
       -0.26823497 -0.06111252 0.10140945 -0.13196428
000040 03 9c 1e 3e 0c 23 39 be 03 bf 0e 3e 14 0a e6 bd
       0.15489201 -0.18079776 0.13940053 -0.11232391
000050 e1 67 25 3e 4c 55 21 3e 61 33 9e 3d 6b 92 d9 3c
       0.16152908 0.15755194 0.077246435 0.026559075
000060 ba c3 a4 3d 23 6a 38 bc 82 7c da 3d d6 f2 d3 3d
       0.080451444 -0.011255774 0.10668279 0.10349052
000070 72 44 d9 3d 2c e4 e0 bd a2 71 39 bd 75 55 24 be
       0.10608758 -0.1098102 -0.045274384 -0.16048224
000080 57 80 98 3d 6b 82 cd 3c 0c 3a cd 3d c3 09 1c bd
       0.07446354 0.025086602 0.10020837 -0.038095247
000090 15 04 c6 bb 69 a4 dc bd 84 2a a3 3c aa 0e 71 bd
       -0.006042967 -0.10773546 0.019917734 -0.058851875
0000a0 a4 61 3b be d5 c6 90 bd 8b 64 ae 3d d4 a8 8d bb
       -0.18298966 -0.07069174 0.08515271 -0.0043231044
0000b0 de 92 6d be 9b 93 74 3c 62 4e 27 3e 55 03 ae 3d
       -0.23200557 0.01492777 0.16338494 0.08496729
0000c0 2c 93 8b 3d af 50 20 be 58 a4 5e be 60 51 cc bc
       0.0681518 -0.15655778 -0.2174238 -0.024941146
0000d0 71 79 7d bd 5d 36 35 be c7 f2 b3 bd e9 e1 fb 3d
       -0.061883394 -0.17696519 -0.087865405 0.12298948
0000e0 b7 26 a2 3c c2 ae 1b 3e 28 06 16 bb 1f 6e c4 bc
       0.019793851 0.15203384 -0.0022891853 -0.023978291
0000f0 44 9b 9c bc e2 da 03 3e ed 9c be bd b4 ee 4d 3e
       -0.019117005 0.12876466 -0.09307275 0.2011059
000100 9d f9 0f be 94 af 02 3e 8b 27 8c 3d 16 ac be bd
       -0.14060064 0.1276229 0.0684348 -0.093101665
000110 27 fd 8f bc 8a 15 6a 3e 3c 97 33 bd d3 3c 99 3d
       -0.017576767 0.22859779 -0.0438454 0.074823044
000120 ad 45 15 3e 37 66 59 3d 91 66 17 be 90 43 2e be
       0.1457736 0.053075995 -0.1478522 -0.1701796
000130 f7 16 53 be 6a 2a 28 be 78 d7 8c 3d 5b 6e a4 3c
       -0.20614229 -0.1642243 0.06877035 0.020072153
000140 91 20 23 3d 59 c1 10 3e d8 1f 83 3d 7b 2e e7 3d
       0.03982598 0.14136256 0.06402558 0.11288162
000150 d4 5f 07 bd 20 60 0b 3e c6 17 c2 bd a7 8f 80 3d
       -0.033050373 0.13610888 -0.09477191 0.062773995
000160 d8 64 4c bd 3d 5d 2f be ca 69 29 be 8d 94 c9 3b
       -0.04990086 -0.17125411 -0.16544262 0.006151742
000170 c1 7d 1a be 6c 99 83 3d ca 35 86 3d b0 fb a6 bd
       -0.15087034 0.06425747 0.06553228 -0.08153474
000180 cc 62 00 be 99 7b 9a bc 2d e8 a1 3c 21 cb bf bd
       -0.12537688 -0.018857764 0.01976403 -0.09364916
000190 83 76 9e 3d c2 e9 02 3c 83 ed d1 bc 21 6d 10 3e
       0.07737448 0.0079903025 -0.02562595 0.1410413
0001a0 f2 f9 d9 bd 6e 29 80 3d c8 45 46 3c dc 42 69 be
       -0.106433764 0.06257902 0.012101598 -0.22779411
0001b0 5c d5 8d 3d 57 ff 45 3c 59 7a bc 3d 63 63 28 bd
       0.06925461 0.012084804 0.092030235 -0.041110408
0001c0 5e b6 c7 bd dd 4b 62 3d c3 4b 17 3e be 9f d6 bd
       -0.09751581 0.05524813 0.14774995 -0.10479687
0001d0 88 7b 14 3e 20 d8 d2 3d 11 81 16 3e 34 f0 24 3e
       0.14500248 0.10295129 0.14697672 0.16107255
0001e0 4d 08 8d bd 13 e8 99 3d 25 90 bd bd 45 38 72 bd
       -0.06886349 0.07514968 -0.09256009 -0.059135694
0001f0 12 ca 21 bd 29 f7 49 3e 5d 14 0f 3b bf 05 57 3d
       -0.03949935 0.1972319 0.0021832206 0.052495714
000200 7a bf 1e 3e 3a dc 81 be 41 f7 90 bd 66 f0 89 3d
       0.1550273 -0.25363332 -0.0707841 0.067353055
000210 60 c2 4c 3d 8a 48 1b 3e 3a 71 43 3e 72 43 24 bc
       0.049990058 0.1516439 0.19086161 -0.010025846
000220 b5 5d 15 3e 83 b6 8b bc 28 f1 eb bd 0c 21 97 3d
       0.14586528 -0.017054802 -0.11520606 0.0737935
000230 46 84 5e 3e b6 cf 50 bc df f0 39 be da 11 19 3e
       0.21730146 -0.012744835 -0.18158291 0.14948216
000240 d0 32 6f be c6 80 28 3e 86 1f e7 bd c4 83 ee 3d
       -0.23359227 0.16455373 -0.112853095 0.11646226
000250 c7 e4 1d bb b2 ea a6 bc 8e ed ba 39 43 06 a4 bd
       -0.002409266 -0.020375583 0.00035653677 -0.08009007
000260 bf 83 8d bc 41 30 bc 3b dd d6 4a 3b 61 94 33 bd
       -0.017274735 0.005743057 0.0030950822 -0.043842677
000270 4a be 73 bc 1f 51 dd 3c 7f 59 17 3e c6 41 12 3d
       -0.014876911 0.02701622 0.14780234 0.035707258
000280 92 65 02 be 50 04 1a be f3 1a cc bd 10 2a d3 3c
       -0.12734058 -0.15040708 -0.09966078 0.025776893
000290 87 d7 83 3d 71 a1 99 3d 29 b5 16 be e6 5d 6d 3d
       0.06437593 0.07501496 -0.14717545 0.057950877
0002a0 26 4b ec 3d 92 75 57 3d ed 4c 43 bd f9 af 86 bb
       0.11537771 0.05260236 -0.047680784 -0.004110333
0002b0 f6 00 ff 3d 75 f4 1e bd 50 70 58 bb a7 49 04 be
       0.12451355 -0.03880735 -0.0033025928 -0.12918721
0002c0 8c 76 1e be f7 d4 a7 3d a3 91 93 3d 9b 5b 0f 3e
       -0.1547491 0.08194917 0.072055124 0.13999788
0002d0 9d b0 bb 3d 88 c7 6e 3d a0 41 b3 3d 72 10 c6 bc
       0.09164546 0.058295757 0.08752751 -0.024177764
0002e0 63 82 16 be d8 93 71 bd de bb 37 bd 66 65 c6 3c
       -0.14698176 -0.058978885 -0.0448569 0.024218272
0002f0 05 c5 76 3d 36 12 09 be 7f b5 be 3d 55 f6 b3 bd
       0.060246486 -0.13385853 0.093119614 -0.087872185
000300 49 3f a6 3d 63 e7 74 bd 26 d2 b6 bd 51 29 ec 3d
       0.081175394 -0.05979098 -0.089268014 0.11531318
000310 f4 ea 3d 3e f0 63 ea bd 79 67 f9 3c da 21 ae bd
       0.18546659 -0.11444843 0.030444847 -0.085025504
000320 83 d0 ef bd ab 84 dc bd 70 bb 3d 3e a2 14 3b 3e
       -0.11709692 -0.10767492 0.18528533 0.1826959
000330 3b b9 51 3e 2e b0 e3 3d 70 6c 8a bd 82 58 f8 3b
       0.20480816 0.11117588 -0.06758964 0.0075789103
000340 3e 54 e0 bd 57 24 f2 bd 7d 45 ba bd 18 88 ef bd
       -0.10953568 -0.118233375 -0.09095285 -0.1169588
000350 a9 3a 86 3d 49 13 19 bd d5 f8 5b 3d fd e6 00 be
       0.06554157 -0.037371907 0.0537041 -0.12588115
000360 65 93 29 3e 77 35 a2 3d bc b8 9a 3d 0a d8 07 be
       0.16560133 0.07920354 0.075547665 -0.13266006
000370 eb 5b 1b 3e 2a 6a c9 bb b7 a3 2a be ad d3 03 3e
       0.15171783 -0.006146689 -0.16664015 0.12873717
000380 47 20 0f bc 34 5f bb 3d a0 2c 23 bd 3e 3f be 3d
       -0.008735723 0.09149018 -0.03983748 0.09289406
000390 cc 87 40 bd af 68 26 be b3 92 6c 3c f7 34 0f be
       -0.047004506 -0.16250871 0.014439273 -0.13985048
0003a0 6a 43 9b 3c ea c7 e3 bd be 19 08 be c8 d4 37 3e
       0.018953044 -0.11122115 -0.1329107 0.17952263
0003b0 2a 09 4e bd 10 e4 20 be 0f 8c b4 bd c3 55 06 3e
       -0.05030171 -0.15711999 -0.088157766 0.13118653
0003c0 d3 de cc 3d 72 d9 34 bd 97 a2 88 bd a8 7d 1c 3c
       0.10003438 -0.044152685 -0.066716366 0.009551443
0003d0 7c a7 5e bd e9 e9 ce bd 4f 12 05 be 25 42 08 bd
       -0.054358944 -0.101032086 -0.12995265 -0.033266205
0003e0 eb bd 2e 3e 7d 31 7b bc a8 36 14 3d 71 55 c3 3d
       0.17064635 -0.015331623 0.036184937 0.09537781
0003f0 ca e3 e1 3d 6e 8e 39 be 1d bf 09 be 99 34 c9 bd
       0.110297754 -0.18120739 -0.1345181 -0.09824485

body.2.bias f4 [128]
000000 72 3a 49 bd e1 1e c8 3d 47 de cf bd 0c 65 c6 3d
       -0.049128003 0.09771515 -0.10149818 0.09687242
000010 2f 8d 3b 3c 17 45 8e 3d 8b 4d f6 3d d8 0d 08 bd
       0.011447235 0.069467716 0.12026509 -0.033216327
000020 b0 bf 6f bc bc d2 7d 3d 42 d1 d9 3c 3e e3 c9 bc
       -0.014633104 0.06196855 0.02658904 -0.02464449
000030 ec 2e 02 be 50 ea 80 bd 35 2a cd 3c f7 ed 97 3d
       -0.12713212 -0.062946916 0.02504454 0.07418435
000040 ad aa 12 bb 96 b0 23 bd 71 00 4f 3d e2 f5 d7 3d
       -0.0022379563 -0.039963327 0.05053753 0.10544945
000050 ae fc cf bd 99 26 0b be 04 b7 b5 3d c7 44 1a 3a
       -0.10155617 -0.13588943 0.08872798 0.00058848824
000060 c8 ef e6 3d 27 49 4a bd 02 ab 90 bb 06 70 88 3c
       0.112762034 -0.04938617 -0.004414917 0.01665498
000070 9e dc a2 3c e8 8c c7 bd ba 21 d3 bc 4b d2 1f bc
       0.01988059 -0.097436726 -0.025772918 -0.009754728
000080 29 0b ad 3d 2d a8 a5 bd ba 1b cd 3d 6f 2f 87 3b
       0.08449394 -0.080887176 0.10015054 0.0041255276
000090 30 72 ce bd 77 16 fc bd 86 41 99 3c 4e d2 14 bc
       -0.10080373 -0.12308972 0.018708002 -0.009083344
0000a0 81 1d 84 3d 20 8e 6b 3d 6c 03 00 be 11 e4 d4 bd
       0.0645094 0.057508588 -0.12501305 -0.10395063
0000b0 09 8b 98 3c b0 02 c3 bd d5 4b c3 3d 17 83 36 3c
       0.018620985 -0.09521997 0.09535948 0.011139653
0000c0 eb 22 df 3c 39 df da bd ca 35 d1 bc 01 3a d2 bd
       0.02723833 -0.106871076 -0.025538344 -0.102649696
0000d0 05 73 f1 3d e9 36 54 bc 32 a0 5e 3d 15 b5 e8 3d
       0.11789516 -0.012952545 0.054351993 0.11362664
0000e0 b8 2f ff 3c e5 ee 04 3e b4 0c dc bd 35 28 07 be
       0.031150684 0.12981756 -0.107446104 -0.13198932
0000f0 83 8d c7 3d ab 38 05 be 57 0b e3 bc 79 2c 9d 3c
       0.09743788 -0.13009898 -0.027715368 0.019186245
000100 82 2a 07 bd a5 ed df bc ee fa 06 3e d6 ec 8f bc
       -0.032999523 -0.027334997 0.1318166 -0.017568987
000110 70 a7 5e 3d 45 4d 0b bd 7b 59 b1 bb 47 1a 75 3d
       0.0543589 -0.034009237 -0.005412278 0.059839513
000120 59 da b4 bc 3d ca d4 bd ce 2f af 3d a1 0e f1 bb
       -0.022076773 -0.103901364 0.0855404 -0.00735648
000130 f9 ba ce 3d af a7 25 bc e2 61 69 3d fa 5c 5b 3d
       0.10094256 -0.01011078 0.056978114 0.053555466
000140 61 20 7e 3c 19 ae 02 3e db 1b b0 bd 2e 21 93 3c
       0.015510649 0.12761725 -0.08599063 0.017960157
000150 b5 49 d5 bd dc b1 29 bd 67 86 5a bc 23 d9 f9 3d
       -0.10414449 -0.041429386 -0.013337708 0.12199619
000160 48 e5 a9 3d 12 5e 03 be 70 21 19 bd b6 33 62 bd
       0.08295685 -0.12828854 -0.037385404 -0.055225097
000170 63 8e 66 3d fd 62 91 bd 19 10 aa 3d f3 30 64 bd
       0.056288134 -0.07098959 0.08303852 -0.055710744
000180 91 17 12 bd 36 08 a4 3d 81 db e2 3d f5 0d 91 3d
       -0.035667006 0.080093786 0.11077023 0.0708274
000190 39 22 b6 3d 62 eb d2 bc f7 4a 82 bd b6 f3 cf bd
       0.08893246 -0.025747005 -0.06361955 -0.10153906
0001a0 a7 08 d1 bd 91 51 07 be f3 80 73 bd 7e 4e a6 3c
       -0.102067284 -0.13214709 -0.059449147 0.0203011
0001b0 13 48 d8 3c c2 8a 41 3b 49 ff d0 bc 0b e4 c8 3d
       0.026401555 0.002953217 -0.025512354 0.09809121
0001c0 9d c2 92 3d cb ac 8c 3d df 0d 28 3d f5 88 d4 3b
       0.07166026 0.06868895 0.041028854 0.006486053
0001d0 57 12 e1 3c 8a cd 27 3c f3 1e d6 bc 98 9f a2 3d
       0.027474565 0.010241875 -0.026137805 0.07940596
0001e0 e5 9c 40 bd 20 d6 28 3d 4d ec 20 3d 28 9a 25 bc
       -0.047024626 0.04121983 0.039287854 -0.0101075545
0001f0 31 2f 10 bd b0 a7 08 bd 1f 60 a2 bd 69 4b 0c bc
       -0.035201255 -0.033363044 -0.0792849 -0.008562901

mean_head.weight f4 [6, 128]
000000 dd 5d 92 3d 13 15 81 3d 37 09 94 bd f0 d2 04 bd
       0.07146809 0.06302848 -0.0722832 -0.03242773
000010 b4 97 45 3d 7f 2c 7b 3d b6 54 46 3c d8 b6 51 3d
       0.04824038 0.06132173 0.012105158 0.051199764
000020 94 0a 64 bd 2b a7 c3 bd 5f 51 8c 3d 90 8f 93 3d
       -0.05567415 -0.09553369 0.06851458 0.07205117
000030 30 b9 0c bd 64 4a 16 3c 54 d0 9c bc d9 7a 0f 3d
       -0.034356296 0.00917301 -0.019142307 0.035029266
000040 c9 a1 b6 3d 10 1f 2f bd 41 a9 ab 3d d9 46 83 bd
       0.08917577 -0.042754233 0.08381892 -0.064099975
000050 0c 27 00 3d 20 4b 31 3d 53 0a 61 3d 55 f6 4a bc
       0.031287238 0.043284535 0.054941487 -0.012387832
000060 c5 00 4a bd 65 21 b6 3c e9 40 a3 3d 15 29 87 3c
       -0.04931714 0.02223272 0.07971365 0.016499082
000070 2f 95 8c bd 92 98 9d 3d 47 e3 19 bd 2b 63 15 3d
       -0.06864392 0.07695116 -0.037570264 0.036471527
000080 db 2f 35 3d 0e 9c 50 3d 30 3a a2 3c 3f f3 4c bd
       0.04423509 0.050930075 0.019803137 -0.050036665
000090 5a 1e 92 3d 04 48 9e bd 46 5b 26 bc d5 b6 33 bd
       0.07134695 -0.0772858 -0.010153597 -0.043875534
0000a0 3f 45 48 bd 12 2b aa 3d c1 ba 31 bc af 16 80 3d
       -0.048894163 0.08308996 -0.010847748 0.062543266
0000b0 5c 50 8c 3d e2 00 b6 bd e2 7c e4 bb 8f 16 6f 3d
       0.06851265 -0.08886887 -0.006972895 0.058371123
0000c0 b5 18 ac bb fb f5 2f bc d4 e1 b2 bc c7 37 29 bd
       -0.0052519687 -0.010739799 -0.021836199 -0.04131296
0000d0 c1 f6 3c bc e4 6b 58 3d 4d 2b dc bb 2d b1 c1 3c
       -0.01153344 0.052837268 -0.006719029 0.023644054
0000e0 b4 1e 27 bd 5f ec 44 3d 23 03 4d 3b 70 38 02 3d
       -0.040800765 0.048076984 0.0031282387 0.031792104
0000f0 1f ad 15 3d 18 8a 7f 3d cd 4e 83 3d 02 17 60 3d
       0.036542054 0.062387556 0.064115144 0.054709442
000100 d3 c2 19 3d ce 39 5f bd 1a 06 b0 3d 24 a7 44 bc
       0.037539314 -0.054498486 0.08594914 -0.01200274
000110 47 85 ed bc de c2 ee 3a ad 9c b7 bc 1d 15 84 bd
       -0.028994216 0.0018216034 -0.022413576 -0.064493395
000120 74 3e 9e bb 49 cd 04 3b 69 d3 d6 3c b3 05 29 bd
       -0.0048292223 0.002026396 0.026223855 -0.0412652
000130 b3 e5 2a bd c7 26 98 bd f7 17 c1 3c a2 af 13 bd
       -0.041722964 -0.07429271 0.023570998 -0.03605617
000140 c1 9a f3 3c 8b 0c 23 bd 5c 23 85 bd 40 ad ad 3d
       0.029736878 -0.039806884 -0.06500885 0.084803104
000150 53 4a 5b bd 94 8a 84 3d 21 c5 7c 3d 0c 58 87 bd
       -0.053537678 0.06471744 0.061711434 -0.066085905
000160 a2 15 3e 3c b0 c4 88 bd 04 7e ad 3c b7 1e bc 3c
       0.011601837 -0.0667814 0.021178253 0.022963865
000170 1e ea 9c 3d 8f 97 81 3d 1f 49 a9 3d 19 be 41 3d
       0.07661842 0.06327736 0.082659 0.047300432
000180 da 37 b6 bd aa 7b 70 bb 5e 05 a7 bc f0 bd c0 3c
       -0.088973716 -0.0036694803 -0.020388301 0.02352807
000190 b1 6e 11 bd a7 d3 a9 bb 1f 93 80 3b 91 da 97 3d
       -0.035505954 -0.0051827016 0.003923788 0.07414735
0001a0 aa 14 8f 3c f2 53 9c bc 3d fb d4 bb 76 32 a8 bc
       0.017465908 -0.019082997 -0.0064996765 -0.020531874
0001b0 3d cc 33 bc 15 db a6 3d 68 b1 8b bd 4e bd 52 bd
       -0.010973987 0.08147255 -0.06820947 -0.051450066
0001c0 cb 11 ab bd 61 1b 6d 3c 6c 75 80 bc 2a 28 89 bc
       -0.08353003 0.01447186 -0.015680991 -0.016742785
0001d0 9f 52 3a bc 37 75 43 3d 4e 33 28 bc 38 44 09 bd
       -0.0113722375 0.047719207 -0.010266138 -0.033512324
0001e0 31 3c 1a 3d ea 99 c8 3d 66 9e 9b bd 71 21 9c bd
       0.03765506 0.09794982 -0.075985715 -0.07623566
0001f0 45 73 5f 3d 85 66 ec bb 1e dc d7 bb 97 15 35 bc
       0.05455329 -0.0072143697 -0.0065875193 -0.011052511
000200 40 76 7d 3d 94 e6 7a 3d 9a 8b 02 3d b4 e5 61 bd
       0.06188035 0.061255053 0.031871416 -0.055150703
000210 e8 02 3d bd 6b 41 55 3d ba 26 51 bd dc c3 df bc
       -0.04614535 0.05206434 -0.051062323 -0.027315073
000220 70 15 a0 3c 21 3e ba bc ad f4 88 bd db e4 59 3c
       0.019541472 -0.022734703 -0.06687293 0.013299192
000230 b2 23 98 bd 3d ca 01 3d c5 4a 98 3d 95 bd 0c bd
       -0.07428683 0.03168701 0.07436136 -0.034360487
000240 4f ad 8e 3c f1 cc a3 bd 72 fd 97 3d af 9b 99 3d
       0.017416624 -0.07998074 0.07421388 0.075003974
000250 08 2b 72 3d bc cd 1e 3d d0 e1 10 3c 1b 34 52 3c
       0.05912307 0.038770422 0.0088429 0.012829806
000260 68 49 08 3c 57 37 9b bc 0b 8f cd bc ac 6e b1 3c
       0.008318283 -0.018947287 -0.025092622 0.021659218
000270 19 44 9e bd 40 18 31 3d 70 6c 2d 3d 3b 4b 9a bd
       -0.07727832 0.043236017 0.042339742 -0.0753388
000280 d4 49 2a 3d 3d 2e 04 3d d6 5b a3 3c 3d 29 94 3d
       0.041574314 0.03227066 0.019941252 0.07234428
000290 6e 46 6d 3d 12 c0 2c bd 1a e9 db bc 87 66 20 3d
       0.057928495 -0.04217536 -0.02684455 0.039160278
0002a0 61 ab 33 bd 13 c2 60 bd 7f 78 93 bb fa 14 83 bc
       -0.04386461 -0.054872584 -0.0045004482 -0.016001213
0002b0 47 c9 57 bd 4c 8b 2a bd 25 a5 0c bc c2 14 12 bb
       -0.052682187 -0.04163675 -0.008584295 -0.0022290205
0002c0 bd 4b 95 bd 55 ef 8e bd 1b 4a 4e 3d 06 66 5c 3c
       -0.072898366 -0.06979243 0.05036364 0.013452059
0002d0 cb 72 5a 3d 62 e9 6d bd bb 9f 6b bd c9 b6 07 bd
       0.05333213 -0.0580839 -0.057525378 -0.033133302
0002e0 f5 d4 c4 bc 43 b9 8c bd 3a 7d 4d 3d e9 9a c4 3c
       -0.024027327 -0.06871273 0.050168253 0.023999648
0002f0 96 34 96 bd 65 02 6c bd fc 26 d4 3b b7 3f e1 ba
       -0.07334249 -0.05761947 0.006474374 -0.0017185126
000300 4e b0 65 bd 77 bb 9d bc b4 6d 0f bd 83 4a 92 3c
       -0.05607634 -0.01925443 -0.03501673 0.017857796
000310 b1 40 ba 3d ec 00 8b 3d 5c fb 0e bd 57 17 aa 3d
       0.0909437 0.06787285 -0.034907684 0.08305233
000320 96 43 55 3b f6 8a 05 3d d9 8a 0c 3d 7c 1b 7c bd
       0.0032541505 0.032603227 0.034312103 -0.06154965
000330 73 36 b7 3d 20 dc 96 3c 42 38 3c 3c d0 7a 56 3d
       0.08945932 0.01841551 0.011488022 0.052363217
000340 31 8e 53 bb f0 3f 59 bd ca dc 36 bd c1 99 5e 3d
       -0.0032280798 -0.05303949 -0.044644155 0.05434585
000350 70 80 a9 ba 02 df 1d bd 75 ac 3d bc ae 96 96 bd
       -0.0012931954 -0.038542755 -0.0115767615 -0.073529586
000360 2b 41 3d 3d 5a 04 13 3d db ad 95 bd f0 c6 14 3d
       0.046204727 0.03589282 -0.07308551 0.036322534
000370 9d 38 6f bd 9d 2c 6e bd 12 86 61 bb 24 41 89 3d
       -0.0584036 -0.058148015 -0.0034412188 0.06701878
000380 ac d8 19 3d 24 6c a4 bd a9 ac 96 bd 20 e4 82 3d
       0.03756015 -0.08028439 -0.07357151 0.06391168
000390 64 87 33 3c 25 10 92 3d 54 b3 4c 3d 34 0e 16 3d
       0.010957573 0.071319856 0.049975708 0.03663464
0003a0 b8 8b 98 bc e3 a8 fa bc de ea 32 bd a3 8b 8f bd
       -0.01862131 -0.03059811 -0.043681018 -0.070090555
0003b0 22 3f 1a 3d f3 05 1c 3d d9 d5 4f bd 45 52 64 3c
       0.037657864 0.03809161 -0.05074105 0.01393563
0003c0 8a be 93 3d 24 93 97 3c 6a 22 75 bd fe a1 2b 3d
       0.07214077 0.01850278 -0.059847273 0.041902535
0003d0 f2 32 63 bc 47 03 65 bd ef 45 1b 3d 01 c4 60 bd
       -0.013867127 -0.05591133 0.03790849 -0.054874424
0003e0 55 45 af bd 90 52 05 3a d5 24 5f 3d 1b 7c a0 bd
       -0.08558146 0.000508585 0.054478485 -0.07836171
0003f0 6f ef 9d bd 12 4d af 3d 96 c6 ac bd ad 7a 9e bc
       -0.07711684 0.08559622 -0.08436315 -0.019345606

mean_head.bias f4 [6]
000000 0d 7a df bd 0f 5c 29 3c 62 40 a4 bd 73 5f 29 bd
       -0.10911951 0.01033689 -0.080200925 -0.041350793
000010 50 de bf bd ac 11 b6 bd
       -0.093685746 -0.088900894

value_head.weight f4 [1, 128]
000000 5d e5 cd be 95 6a c7 3e f3 9a d6 be 49 09 dc 3e
       -0.40214053 0.38948503 -0.41915092 0.42975834
000010 76 bf d7 be 56 4b cb 3e 83 5c e5 3e 3c 64 e5 3e
       -0.4213826 0.39705914 0.44797143 0.44803035
000020 02 f4 f4 be 7c 67 d3 be ad 7c ec 3e c6 55 da 3e
       -0.47842413 -0.4128989 0.4618887 0.42643565
000030 89 a6 ee be 57 64 d2 3e cd e6 cf 3e 89 b2 d2 3e
       -0.4661143 0.41092178 0.40605775 0.41151837
000040 e9 70 d7 3e 75 91 cc be da 9f c7 3e ff c9 d0 3e
       0.4207833 -0.39954725 0.38989145 0.4077911
000050 08 e0 d7 be df 8b de be 02 b4 f2 3e 02 e1 f1 be
       -0.4216311 -0.43466088 0.4740296 -0.4724198
000060 99 db cb 3e 90 3b f2 be 59 c7 ed 3e 91 81 d9 be
       0.39815977 -0.47311068 0.46441153 -0.42481664
000070 0a e6 d2 3e 9b 51 d3 be 32 32 d6 3e 58 1e f6 3e
       0.4119113 -0.41273198 0.4183517 0.48070025
000080 d0 f7 d1 3e b3 96 d7 be ee 75 e0 3e 3c 54 da 3e
       0.41009378 -0.42107162 0.43839973 0.4264239
000090 c9 d9 d4 be 6d ec dc be 65 df d0 be 37 31 fc be
       -0.41572407 -0.4314913 -0.40795437 -0.49256298
0000a0 ea c5 cb 3e ba ff e2 3e 45 5c c7 be 67 e2 d0 be
       0.39799434 0.4433573 -0.38937584 -0.4079773
0000b0 71 98 fb be 0b 27 d8 be 59 41 ff 3e f6 dc f6 be
       -0.4913974 -0.42217287 0.49854544 -0.48215455
0000c0 c5 2d d9 be 62 8d ef be dc a4 dc 3e a6 1d e4 be
       -0.42417732 -0.46787554 0.43094528 -0.4455387
0000d0 52 d1 c9 3e 77 7c e0 be df 6e ec 3e a1 fd de 3e
       0.3941751 -0.4384496 0.46178338 0.43552878
0000e0 60 c5 e8 3e d3 eb f4 3e c0 e9 e9 be 75 83 c9 be
       0.45463085 0.4783617 -0.4568615 -0.39358106
0000f0 fd 2b e9 3e 70 45 ed be f1 62 cc 3e 45 2f f9 3e
       0.45541373 -0.4634204 0.39919236 0.48668876
000100 6f 44 e5 be 32 9a f7 be 03 8d d9 3e 59 ed dc 3e
       -0.44778773 -0.4835983 0.42490396 0.43149832
000110 2b 6f e1 3e aa 72 fa 3e 1a 05 f0 3e 27 47 c1 3e
       0.44030127 0.48915607 0.46878892 0.37749597
000120 57 ad f7 be c1 b9 e1 be 53 2a fb 3e a6 77 ed 3e
       -0.48374435 -0.4408703 0.49055728 0.46380347
000130 e3 67 d2 3e 95 09 f2 be 34 29 ef 3e 50 5b e6 3e
       0.41094884 -0.47272936 0.46711123 0.4499154
000140 a7 6f e1 be d3 8b d3 3e ce f1 d7 be b1 af f8 be
       -0.44030496 0.41317615 -0.4217667 -0.48571542
000150 de fb e4 be fa 59 d3 3e e3 f3 c4 be b6 51 fc 3e
       -0.4472341 0.41279584 -0.3846732 0.4928109
000160 09 9c de 3e 5b cc d3 be 5d a2 d3 3e 5d 3a d3 be
       0.4347842 -0.41366848 0.4133481 -0.41255465
000170 fa e2 eb 3e cb 02 e7 be d3 5d e3 3e 8b 6e e8 be
       0.46071607 -0.45119318 0.4440752 -0.45396838
000180 0c 15 dc 3e e6 79 bf 3e fe 0f de 3e b7 2f fb 3e
       0.42984807 0.3739769 0.43371576 0.4905984
000190 e6 b2 c9 3e e5 23 ce be da 71 e7 be b0 6d e8 be
       0.393943 -0.4026176 -0.4520405 -0.45396185
0001a0 02 45 e1 be 58 45 e4 be 63 e4 db be cb 5e cc 3e
       -0.4399796 -0.44584155 -0.42947683 0.3991607
0001b0 8d f5 d8 3e a5 7d ee be 16 4a d4 3e e6 b2 f5 3e
       0.4237484 -0.46580234 0.41462773 0.4798805
0001c0 a6 9d e5 3e 72 64 f2 3e 4b 71 cc 3e 06 10 de be
       0.4484684 0.4734226 0.39930186 -0.433716
0001d0 e6 8f e1 3e 35 17 d2 be 73 6f e4 be 27 26 da 3e
       0.44055098 -0.4103333 -0.4461628 0.42607233
0001e0 67 a7 e2 be 85 ea d4 3e f9 2d d4 3e 3b b8 ec 3e
       -0.44268343 0.41585174 0.41441324 0.46234307
0001f0 33 a5 f6 3e 0b f2 eb 3e e9 f8 d7 be 12 bc dc 3e
       0.48172912 0.46083102 -0.4218209 0.43112236
