checkpoints/biped_pretrained.pt (torch, 86992 bytes, 8 tensors)

log_std f4 [6]
00000000: 93b4 62c0 1063 5dc0 6eec 61c0 cec2 63c0
00000010: 9713 61c0 0bbb 62c0
-3.5422714 -3.4591713 -3.5300555 -3.558765 -3.5168207 -3.5426662

body.0.weight f4 [128, 25]
00000000: de90 813d c317 d33d 374c abbd 25ec 02be
00000010: eae2 5b3e 7e84 b53e 0ea4 823d c0d2 c4be
00000020: ef7e 49bf 72dd c0bd d69c b93e e1d5 c73e
00000030: 2904 48bf 4206 77bd 92c9 60be d439 be3d
00000040: 03e1 b3be c823 84be c193 193e d7fa cc3e
00000050: 3771 c03d 613f 7e3d c9f5 073e c258 11bc
00000060: 7c65 4dba c859 acbd e97e 55bd 5781 533c
00000070: 4388 33bd 7c37 973e 8f43 273e e79f 92bc
00000080: 0b11 54be d965 f4be d1e6 d13e f74d ab3f
00000090: f8ed 4dbf b434 01bf cea1 9ebd 9d45 8bbe
000000a0: 9464 1abe b0d8 8b3e 866a 65be be8a 29be
000000b0: f370 96be e0d4 10be af1b 06be 2165 f5bc
000000c0: e8a5 41be 2212 a1be a06f b83e 2f42 973c
000000d0: 8199 763e 528d 26bc 454e 64bf 44f8 74bd
000000e0: 92dc 7c3d eae6 993c 3fb0 1e3e 5926 0abf
000000f0: 5024 cf3e 0d98 413e d1bf 613f d7e9 373e
00000100: 9e2d 833e 6f03 c2be e110 943d a661 6c3e
00000110: d21f 4b3e 59e2 59be 6039 36be 7fd9 27be
00000120: fc41 77be 18cd 0fbe 457b 2c3e f9fd 1c3c
00000130: 9e42 b7bd 0ea2 7ebd 0113 a03d bfb7 17bf
00000140: 5fc3 64be 0746 c23d cfc1 a33e 1abf 2e3e
00000150: 21ee 0fbf 30b8 1bbf d4c9 603f 020b a63f
00000160: 38df fe3d 2d8b 913d 3c87 293d 36a6 86bc
00000170: 71cd 113e 7c48 bebb a270 a23d 7106 4bbe
00000180: f5fd 89be 4564 0c3e 714b 813d 4da4 aebd
00000190: f03c 2c3d f98e 9c3e 2205 b73d 0302 f5bd
000001a0: 3c3b 44be 5d51 003f b825 2d3e dfc4 0f3f
000001b0: d285 02bd 1c6e 3bbf aed1 83bf efdf 7dbd
000001c0: a763 543f 8436 39bd 727a 9f3c 8afa dc3d
000001d0: 1f12 a33c 2743 80bd 7e78 b53e 6c1a 133e
000001e0: 735f 523e a4e2 6abe 052c babe 8fa3 98bd
000001f0: 8f34 ec3d d93e 4f3e 0a7e e5bd 109d d8bd
00000200: f2c6 a33d 19b0 c1bd 91e2 b3bd 95e1 d13d
00000210: 8560 cebe 4664 1abd 17dc a6bf dc5e 3dbf
00000220: 50a6 2d3f d613 543e 8f46 9dbc aafe 4ebe
00000230: 4e6b 5cbe e230 be3d 3cd5 493e b7ef e8bc
00000240: 84f7 d63d 21a3 12bd 11d9 3c3e be39 e6bd
00000250: 7ac3 093e 9e6f a03e d95e 52bd 54f3 8bbd
00000260: 3f34 443e d114 363d 7545 0b3e 07bc ed3c
00000270: 0c35 fe3d a3fb cabe 2c17 f5be b97f 5f3f
00000280: c6e3 393f 6f5a 243f e36f 0abf 579a 953e
00000290: 44c1 063e 0925 d03d b53d e13d bbda 8a3d
000002a0: 0011 28be b8d5 993d 69cb 473e c10e db3d
000002b0: 5aec 0bbe 5879 253f 31cf 8ebe 40ce 35be
000002c0: d935 86be 789e df3d c8fe 4dbd 92e0 8a3e
000002d0: af88 1a3e 6856 a03c 07ea 9abf 5b3a 9bbe
000002e0: 9adc 3f3f 82b8 073f ab1d 0c3e ab26 e0be
000002f0: 13da 2abd 6c0d 5a3e 2d75 2bbd 06d7 09bd
00000300: 7e27 1c3f 7d87 efbe 4e74 ae3e afba 2fbf
00000310: 6fe5 b8bd 7a5f b2be d652 0b3f 6a5f 63bd
00000320: 9378 c43d 8127 2a3e 77ab eb3d 167b 04bc
00000330: 6ee5 b43d d006 a5bb 4028 15bd f4c1 ff3e
00000340: 597a 0abe 7def 5f3e defa 1b3f 792f 1fbf
00000350: 455f 463e 3359 bf3d 1291 a03d e6c9 be3c
00000360: 70ee 7d3e 419b 033e d8a2 34be ea07 a7bd
00000370: 4643 3d3e 0fe5 acbe 3c1b db3d 2dbb 1abe
00000380: 6191 ecbd abf2 8d3e da22 7dbe 5437 873d
00000390: 7e49 8c3e d6b9 7dbe b403 43bc 38d7 673e
000003a0: ca51 09be 5c7a 1ebe ae80 8bbd 5717 da3e
000003b0: c712 6e3f 5b88 dc3e 21da 1a3f 7e98 08bd
000003c0: 7f5e 153e d813 5c3e 039b cfbe 0b9d 97bd
000003d0: a9b5 9dbd a1e8 463e a9e1 c1be 1704 c5bd
000003e0: ab7e 32be 0c21 fe3d fb1c b83d 653a a1be
000003f0: b2af d93c 9fad debd 4e51 4dbe f73a 34bf
0.06326459 0.103072666 -0.08364146 -0.12785394 0.2147328 0.35452646 0.06378947 -0.3844204
-0.7870931 -0.09417237 0.3625247 0.39030364 -0.7813135 -0.060308702 -0.21951893 0.092883736
-0.35132608 -0.2580855 0.1499777 0.40035126 0.09396594 0.06207216 0.13277353 -0.008871259
-0.0007835252 -0.08415562 -0.052122984 0.012909255 -0.04383112 0.2953452 0.16334365 -0.017898513
-0.20709626 -0.47733954 0.4099641 1.3383168 -0.80441236 -0.50471044 -0.077457055 -0.27201548
-0.1507743 0.27313757 -0.22403917 -0.16556832 -0.29383048 -0.14143705 -0.13096498 -0.029955449
-0.18910944 -0.31459147 0.36022663 0.018464176 0.24081995 -0.010165529 -0.8918193 -0.059807077
0.06173379 0.018786866 0.1549692 -0.53964764 0.40457392 0.18905659 0.88183314 0.17960297
0.2562074 -0.37893245 0.07229782 0.23084125 0.19836357 -0.21277751 -0.17795324 -0.16391562
-0.24146265 -0.14043081 0.16843899 0.009582036 -0.08948253 -0.062166266 0.07816125 -0.5926475
-0.22340153 0.09486013 0.31983802 0.17065087 -0.5622273 -0.6082792 0.87807965 1.2972109
0.12444919 0.07106624 0.041388735 -0.016436677 0.14238526 -0.0058069807 0.07931639 -0.19826676
-0.26951566 0.13710125 0.063132174 -0.08527432 0.042050302 0.3057783 0.08936526 -0.11963274
-0.19163221 0.5012415 0.1690892 0.56159776 -0.031865902 -0.7321489 -1.0298364 -0.061981138
0.8296456 -0.045218006 0.019467566 0.10789974 0.019906102 -0.06262808 0.3544349 0.14365548
0.20544223 -0.22938019 -0.3636171 -0.07453071 0.11533462 0.20238818 -0.11205681 -0.10576832
0.0799693 -0.09457416 -0.087834485 0.102481045 -0.40308014 -0.037693284 -1.3035916 -0.7397287
0.678319 0.20710692 -0.019198684 -0.20214334 -0.21525308 0.092866674 0.19710249 -0.028434617
0.104964286 -0.035800103 0.1844218 -0.11241482 0.13453475 0.31335157 -0.051359985 -0.068335205
0.19160555 0.044453446 0.13600715 0.029020322 0.12412462 -0.3964511 -0.4786924 0.87304264
0.7261318 0.6420049 -0.54076976 0.29219314 0.13159662 0.10163314 0.10998098 0.06780001
-0.16412735 0.07511467 0.19511189 0.106961735 -0.1366438 0.6463828 -0.2789245 -0.1775446
-0.26212958 0.109188974 -0.050291806 0.2712446 0.15091203 0.019572452 -1.210267 -0.3031796
0.74945986 0.5301591 0.13683192 -0.437795 -0.041711878 0.21294183 -0.041859794 -0.033652328
0.6099776 -0.46783057 0.34073108 -0.6864423 -0.09028136 -0.34838468 0.5442327 -0.055510916
0.0959331 0.16616632 0.11507314 -0.008085987 0.08832823 -0.0050362125 -0.03641534 0.49952662
-0.13523234 0.21868701 0.6092967 -0.6218181 0.1937228 0.09343185 0.0784017 0.023289632
0.24797988 0.12852193 -0.17640245 -0.08155806 0.18482694 -0.33768508 0.10698554 -0.15110464
-0.11551166 0.27724203 -0.24720326 0.0660235 0.2739982 -0.24777922 -0.011902738 0.22640693
-0.13410106 -0.15476364 -0.06811653 0.42595932 0.929974 0.4307278 0.6048909 -0.033348553
0.14586829 0.21491945 -0.40547952 -0.074030004 -0.077006646 0.19424678 -0.37867478 -0.09619921
-0.17431132 0.12408647 0.089899026 -0.31489864 0.026573036 -0.10872959 -0.20050547 -0.70402473

body.0.bias f4 [128]
00000000: 54ad 063d ab4c 08bc d7e4 6f3e eed9 b8bc
00000010: ca65 d13a 448d 453d 4de9 353e befd 153e
00000020: 60d0 f83d 3e45 813e b990 bb3d f589 10be
00000030: 184e 91bc fdba 46be bf25 133d 21bf 2dbe
00000040: f9d1 6fbc cd22 3e3e fdfb 393e ecf3 263d
00000050: e34b a3be c2f1 263d 1ca8 3d3e 0a5d b53d
00000060: 3ff7 95bd a0bb 443e e203 77bd 97a2 b8bd
00000070: 57b1 9abe f6cb c5bd cd17 04be aeb9 ec3d
00000080: 09f4 66be 14ed 0f3e caec 83be 45ce 75be
00000090: dd47 7d3e a200 9dbe c4dc 13be 96c9 81bd
000000a0: 6f1b 45be 907b 87be b3cf 4f3e a1a2 763e
000000b0: 40d3 0ebe f9f6 bcbd 6f7e 18bd 5486 673e
000000c0: 0aa0 53be 929f 513e 03c2 cebd a3b8 48be
000000d0: e22d 2ebe 6c90 96bd a1b0 343e aff4 2f3e
000000e0: 383b e9be b905 ca3d 6510 93bd a220 83bc
000000f0: 6d60 5ebd 51f9 34be fd6b 2f3d 44fa 12be
00000100: a50c 84be 7ef0 883e b1da 8dbe 6627 34be
00000110: b538 b1be efd1 cb3e a8fa d53e a88f 14bd
00000120: ee1c 54be cd89 0f3e df2b 70bd ec51 223e
00000130: b033 0dbe 7f56 6bbd 9260 4abe e682 febe
00000140: b459 a2be 7fae 543d 3cc7 aabc a676 ea3d
00000150: 3eb8 2abe 2a5c 02be 9b3f 3d3e d0b5 ad3e
00000160: 1c75 003e 70b4 613d 47e4 933e 7ad5 703d
00000170: 0db7 b8be 85a4 abbd 7ca5 e23d 4b46 8f3d
00000180: cb2a 813e d37d a43d c54b 853d a16e 5fbd
00000190: 170c e93d 8d38 b4bc 56a2 803d 1e71 ef3c
000001a0: 3340 d53c 22dd 9fbe efce 763e 4343 c43e
000001b0: 7848 83be bcae 4b3e 412c d9bd 0d2d fa3d
000001c0: 58d9 2dbc 2133 1dbe e3d0 ff3d bae0 ecbd
000001d0: 5cb3 86be 164a bfbd b8b1 32bd 0372 36be
000001e0: e17f 9cbd 1ac7 d8be d57e 233d 5a21 d3bd
000001f0: 4499 cabd 6a17 b73d 2673 253d b7dd 01be
0.032880142 -0.00831906 0.23427139 -0.022564854 0.001597577 0.048230425 0.17764778 0.14647576
0.121491194 0.2524814 0.09158463 -0.14115126 -0.017737433 -0.19407268 0.03592467 -0.16967441
-0.014637464 0.18567963 0.18162532 0.040759966 -0.31893834 0.040757902 0.1852116 0.088556364
-0.07322549 0.19212198 -0.060306437 -0.090153866 -0.30213425 -0.09658043 -0.12899704 0.11558853
-0.2255403 0.14055282 -0.25766593 -0.24004467 0.24734445 -0.30664545 -0.14439684 -0.063372776
-0.19248746 -0.26461458 0.20294075 0.24085476 -0.13947773 -0.09226794 -0.03722995 0.22609836
-0.20666519 0.20471027 -0.100955985 -0.19601683 -0.1700969 -0.07351765 0.17645504 0.17183183
-0.45552993 0.09864373 -0.071808614 -0.016006771 -0.054291178 -0.17673232 0.042827595 -0.14353281
-0.25790897 0.2674598 -0.2770591 -0.17593154 -0.34613577 0.39808604 0.41792798 -0.036269814
-0.20714161 0.1401741 -0.05863559 0.15851563 -0.13789248 -0.057455536 -0.19763401 -0.49709243
-0.31709063 0.051924225 -0.020846955 0.11448412 -0.16671845 -0.1273047 0.18481295 0.33927774
0.12544674 0.05510372 0.288851 0.058797337 -0.36077157 -0.08380989 0.1106672 0.06995829
0.2522796 0.080318116 0.065085925 -0.054548863 0.11379259 -0.021999622 0.06280963 0.029228743
0.02603159 -0.31223398 0.24102376 0.38332567 -0.25641227 0.19890875 -0.10604144 0.12215624
-0.010610901 -0.15351535 0.12491014 -0.11566301 -0.26308715 -0.09340303 -0.043626517 -0.1781693
-0.076415785 -0.42339402 0.03991588 -0.10309096 -0.09892514 0.08940013 0.040393017 -0.12682234

body.2.weight f4 [128, 128]
00000000: 9593 4ebf 0549 0ebd 98e9 783e 14fb 8d3e
00000010: 2da7 3f3e dbc8 85be 5dd0 ccbe 557b 68bd
00000020: 75be 4c3e 915e 5abd ba73 de3d 3972 273e
00000030: fe1a cabd 97b8 93be fdb6 19bd 400e c3be
00000040: 6a3a ebbd 6332 08bd 23f2 2ebf a7d5 993e
00000050: f7eb 85be 9669 883e d7f9 843e a866 b53e
00000060: 0a00 33bd 64c2 373e 39bf afbe 625c 6e3e
00000070: 3548 f5bd ceed 6b3d 66d2 a4bd 0c12 983d
00000080: ee2d 9fbe afcb 1dbf f8e2 193e 3774 85bd
00000090: acb9 243e d431 04be 67dc 33bc 6cb4 823e
000000a0: 0f40 48be 4cd9 083b db17 783d 7898 953d
000000b0: 8a87 6abc 2f40 2c3d 471d a4be 0a6d c53d
000000c0: 3d88 dabe 461d d63d 72e3 e53d c30d 20bd
000000d0: 7fa3 083e 8c1a ee3c 2244 f0bd d1e3 c1bc
000000e0: c117 743b 23aa 263e ec37 5c3e 4f01 373e
000000f0: 7431 713c 72ef 8b3e faa3 39bc f5c3 6cbe
00000100: 2052 843a 3886 0a3e 0482 8abe 2ed1 57bd
00000110: 7dcf cd3b c00a c53d ef04 193e 2c68 603d
00000120: ea96 9dbd f16a 403e 5b0c bb3e d93f 943d
00000130: 8399 85be 8d1d 253e 0299 ccbe 60b6 f3be
00000140: 399d 15be 88f0 c2be a580 c73d 421d 993d
00000150: edd7 e2bd 6e24 debe 7227 81be d21e 80be
00000160: 1f23 f0bc ecfc edbd 900c 8dbe 9852 273e
00000170: 9e0d 2f3e f48a 903e 5621 47bd d66d b1bd
00000180: e25b 153e c770 2bbe 1549 d43e e96d b8bd
00000190: baae cb3e 53d1 c3be 9b10 d13d 7e9f 8d3c
000001a0: 9fcd 893d 003b 5ebe b278 02be d2b3 aabd
000001b0: 7138 74bc c5a9 07be c18d 39be 7e4c f4bc
000001c0: a248 cdbe 0b81 90bd 0e31 a0bd 5d61 6fbe
000001d0: ca78 cc3d 31ad d03d 7438 59be 3b96 56be
000001e0: 2399 95bd 155d 913e f300 81be 3b81 32be
000001f0: 3e4c 81be 40d9 293e 0fd6 f1bd 3b49 a6bc
00000200: ccd7 6abe 8750 f5be 1810 813e 3e45 1a3e
00000210: 18c5 0f3e 16cb 883f 68ab 1bbf 7e41 82bd
00000220: 41ba 79be 7b91 1ebd f45a e63e 4243 033e
00000230: f306 90be 1f96 d4bd 6082 99be aec4 fdbe
00000240: c89b 2cbd 2148 d2bc aa20 94be 085f 3a3f
00000250: 389d 19be 8461 9dbc 0b78 8e3e d1d8 9d3e
00000260: 2403 963c 104c ac3d 68d5 f8be 069a 3ebe
00000270: 2a7f 9a3d c649 da3d 7078 573e 26c4 aebe
00000280: 1e55 22bf 1839 7abf 53cb 8d3e 7a02 eabe
00000290: 726c 2dbc 3026 61be 148f a5be bbdc 953e
000002a0: 8226 2ebe 4781 f33d c3f7 22bc 640e 6c3e
000002b0: 4ff8 95bd 4b7a f83d 35f0 e7be 8ad7 54bd
000002c0: d71a 1ebe 683b 13bd 56dc f23d 6686 84bd
000002d0: c572 593e c186 9a3e 9d42 ba3e 4f91 5e3d
000002e0: 5991 3bbe c502 6cbe 0855 423f 9c93 ec3e
000002f0: 7f99 1b3e 92f5 253f 05c3 48be 099c 29bf
00000300: 4229 843d 9a68 80be 4a6a 2a3e 0be1 cebd
00000310: 7c92 6f3c 890f 063e 4c73 e43b 4a1d efbc
00000320: 6434 62be 6821 943e 3404 1d3e 8b9b fd3a
00000330: 82f1 dfbe 9bc4 21bf f956 023e 4764 19bf
00000340: ce31 5dbe 32a6 bcbe 8975 8f3d 77f7 d7be
00000350: f166 b63d 921b a33d 6908 04be 56b9 edbe
00000360: 4a8f 3bbe 997e aa3e bfe2 52be e543 9c3e
00000370: 67af 36be efd4 033f 63bc 5ebe cda5 733d
00000380: 94c4 3b3f 70f1 97bd 51f8 06bc 375b 63be
00000390: 8d8f 1b3f f1da e9be ddc3 e93e 9286 49be
000003a0: 4ecd ce3c 0085 94be 64c0 2a3d 64e8 863d
000003b0: d636 433d 3e52 49be fa2d d1be d7f9 ccbd
000003c0: a947 9ebe c0a1 aabe d140 233e f8da 883d
000003d0: fe38 d33c 7dbf 413e 8f27 d2be b81a 803d
000003e0: 78b0 ac3b 5117 503e 3902 9ebe dc2a 12bf
000003f0: 2f9b 9abe cb0c 863e 5879 793d 6d91 203e
-0.8069394 -0.034737606 0.24307859 0.2773062 0.18716116 -0.26129803 -0.4000272 -0.056758244
0.19994529 -0.05331284 0.10861917 0.16352166 -0.098684296 -0.28851768 -0.037528027 -0.3809681
-0.11485751 -0.033251178 -0.6833822 0.30045816 -0.2615659 0.26643056 0.25971863 0.35429883
-0.04370121 0.17945248 -0.3432558 0.23277429 -0.11976663 0.057599835 -0.08047943 0.07425317
-0.3108973 -0.6163892 0.15027988 -0.06516307 0.16086453 -0.12909633 -0.010977841 0.25528276
-0.19555686 0.0020881472 0.060569625 0.07304472 -0.014314542 0.042053398 -0.32053587 0.09639938
-0.42682067 0.10454802 0.112250224 -0.039075624 0.13343619 0.029065393 -0.11731745 -0.023668202
0.0037245604 0.1627584 0.21505708 0.17871593 0.014721263 0.2733112 -0.011330599 -0.23121627
0.0010095276 0.13527763 -0.2705232 -0.052689724 0.006280838 0.09621191 0.14943288 0.054786846
-0.076948 0.18790795 0.36532864 0.072387405 -0.26093683 0.16124554 -0.39960486 -0.4760008
-0.14610757 -0.38074136 0.09741334 0.074762836 -0.11076341 -0.4338717 -0.25225407 -0.25023514
-0.029313622 -0.11620507 -0.27548647 0.16340101 0.17095038 0.28231013 -0.048615776 -0.08663528
0.14585832 -0.1674224 0.41462007 -0.09005339 0.39781743 -0.3824564 0.10208245 0.017287966
0.06728672 -0.21702194 -0.12741354 -0.08335079 -0.014906035 -0.13248356 -0.18120481 -0.02982163
-0.40094477 -0.07055863 -0.078218564 -0.23376985 0.09983976 0.10189284 -0.21212941 -0.20955746
-0.07304599 0.28391328 -0.25196037 -0.1743211 -0.2525348 0.1658678 -0.118084066 -0.02029859
-0.22933882 -0.47913 0.2520759 0.15065476 0.14040029 1.0686977 -0.6080842 -0.06360148
-0.24387456 -0.03871296 0.44991267 0.12818626 -0.28130302 -0.10380196 -0.2998228 -0.49564117
-0.042140752 -0.02566916 -0.2893117 0.72801256 -0.1500138 -0.019211538 0.2782596 0.3082948
0.018312044 0.08412945 -0.48600316 -0.18613443 0.07543786 0.106586024 0.21042037 -0.34134024
-0.6341113 -0.9774337 0.27694187 -0.45705014 -0.010584937 -0.21987224 -0.32335722 0.29269966
-0.17006877 0.11889892 -0.009946766 0.23052365 -0.07322752 0.121327005 -0.4530045 -0.051963367
-0.15439926 -0.035945326 0.11858432 -0.06470947 0.21235187 0.30180934 0.36378947 0.054337796
-0.18317164 -0.23047931 0.75911 0.46206367 0.15195273 0.64827836 -0.19605644 -0.66253716
0.06453182 -0.25079805 0.16642109 -0.10101517 0.014622327 0.13091864 0.0069717523 -0.02918877
-0.22090298 0.28931737 0.15333635 0.0019348724 -0.43738943 -0.6319062 0.1272849 -0.59918636
-0.2160103 -0.36845547 0.0700484 -0.42180988 0.08906353 0.07964243 -0.12893833 -0.46430463
-0.18316379 0.3329971 -0.2059431 0.3052055 -0.17840348 0.51496786 -0.21751551 0.05948429
0.7334683 -0.074190974 -0.008237914 -0.22202764 0.60765916 -0.45674852 0.45657244 -0.19680241
0.025244381 -0.2900772 0.041687384 0.06587294 0.047659718 -0.19660279 -0.4085539 -0.10008591
-0.30914047 -0.3332653 0.15942694 0.0668239 0.025784012 0.18920703 -0.41045806 0.06255096
0.00527006 0.20321395 -0.3086107 -0.5709665 -0.3019652 0.26181635 0.060906738 0.15680476

body.2.bias f4 [128]
00000000: d650 5a3d 379e 043e 8bd5 52bd 1f63 94bd
00000010: b356 15bd 44c9 17be df6f 503e 46fc 32be
00000020: c1b1 1f3e ec74 d6bd 26bc 21be 9bef 41be
00000030: 1374 c3bd c925 853e 27a4 403d 6c0a 923d
00000040: 1e53 413d 7cde 7b3d 6a15 63be b348 be3d
00000050: 7eaf c83d 7850 28bb 9f6f 3cbb e6fa 453e
00000060: e991 dbbd e287 13bd 502c 853c cbb8 10be
00000070: 9d8a 9dbd 83a9 ecbd e788 8a3d 9eed de3d
00000080: 269f 3cbe 46a6 7bbd 9a20 e83c 2181 d2bd
00000090: 5235 18be b493 56be ad43 273e 88e6 0a3d
000000a0: 97c6 3cbd 43dd 3e3e 6d8f 00be 0402 da3d
000000b0: 62d8 52be 8c55 993d e5ed babd a708 e1bd
000000c0: f0ba a3bb 71b0 dc3d 3954 833d 3e0f efbc
000000d0: ec6c 703e 0feb 9f3d 3858 cc3c a032 94bd
000000e0: 94d3 4a3d bc72 873c 43d8 c3bd 5a98 ba3b
000000f0: b611 e93d e4cb 4abe 2321 9b3d f507 69bb
00000100: 80d1 f83d 3a10 c43d 4ffc 3dbd c511 ad3d
00000110: 093b 62be 21b2 eebd c7dd 08be 631d f63c
00000120: bc89 f13d da4e e9ba f898 a1bc 1db2 e3bd
00000130: 9c37 45be e990 973c 1826 9f3e 81be 883d
00000140: 8949 c63d 32f9 1cbe bb07 0c3e 4a47 91bc
00000150: 34cf 6bbe aa5c 1b3d c651 9e3d 227b 103e
00000160: d0b2 653d 8f61 893d b3e0 82bc 3d47 31be
00000170: 2c86 35be 18e8 31be f225 aabd d5b8 a73d
00000180: ab9c b6bd 9f86 07be 569c 2bbe 9cf0 543e
00000190: 9bee c5bd 1602 853d 94a4 53bd 95fd 5dbd
000001a0: f743 913d 91bc 863d 507a de3c 68e1 b13d
000001b0: 4807 0bbb 5bda 2d3b 1905 e3bd 4aa1 a4be
000001c0: f804 323e 50df 5abd d1fe 85bd 7020 0bbd
000001d0: c5ae 483e 2db1 133d 5c7d fd3c 11a7 2ebe
000001e0: 7250 013d 24ff 49be 1999 10bd f260 523d
000001f0: a666 4fba 7c3e c33c c74b a73c 1257 83be
0.053299747 0.12950979 -0.05147318 -0.07245468 -0.036459636 -0.1482287 0.20355175 -0.17479047
0.15595151 -0.1047152 -0.15794429 -0.18939058 -0.09543624 0.2600539 0.047031548 0.07130894
0.047198407 0.061491475 -0.22176138 0.0929121 0.097990975 -0.0025682729 -0.0028753055 0.19333991
-0.107211895 -0.03601826 0.016256481 -0.14132993 -0.07692454 -0.11555769 0.06764393 0.10885166
-0.18420085 -0.061437868 0.028335858 -0.10278536 -0.1486409 -0.20954782 0.1633441 0.033911258
-0.046087828 0.18639092 -0.12554713 0.10644916 -0.20590356 0.0748702 -0.09127406 -0.109879784
-0.00499665 0.10775841 0.064125486 -0.029182073 0.2347905 0.07808506 0.02494441 -0.072362185
0.049518183 0.016534202 -0.09562733 0.0056944313 0.11380331 -0.1980434 0.0757468 -0.0035557721
0.12149334 0.095734075 -0.0463832 0.08450655 -0.22092833 -0.11655069 -0.13365851 0.03004331
0.11793849 -0.0017799989 -0.019726261 -0.11117957 -0.19259495 0.018501716 0.3108375 0.06676961
0.096819945 -0.15329435 0.13674824 -0.017734189 -0.2302826 0.03793017 0.07730441 0.14109471
0.056078732 0.06708061 -0.015976286 -0.17312331 -0.17726964 -0.17373693 -0.08308019 0.08189551
-0.08916601 -0.13234948 -0.16758856 0.2079491 -0.09664651 0.064945385 -0.051670626 -0.054196913
0.070930414 0.06578935 0.027157933 0.08685571 -0.0021214057 0.0026527855 -0.11084957 -0.32154304
0.17384708 -0.053435624 -0.06542743 -0.03396648 0.1959792 0.03605764 0.030943565 -0.17055918
0.03157086 -0.19726235 -0.035302255 0.051361986 -0.0007911719 0.023833506 0.020421876 -0.25652367

mean_head.weight f4 [6, 128]
00000000: 90b4 713e b0b2 283e 08bd 9d3d e31e b2bd
00000010: fe11 8a3e 5741 62be e3bc 193e de18 76bd
00000020: 4587 d73d fbc5 993d a026 533d dc8c 093e
00000030: d42d 39be f051 84be 51e4 583e 5481 32be
00000040: 069f 843e 9ee2 43be febf 8a3e 6b61 bfbe
00000050: adba af3d adca ae3e f582 b03e 1461 60be
00000060: 0308 26bf 751c 21be ea06 393e ce9d ec3e
00000070: e091 74be 33b7 8b3e fe18 80be 9058 1dbf
00000080: fd5c a03d 27b8 033d 6c44 9e3e c998 e4bb
00000090: 7824 debd a8ee 28be 8c32 9ebe 81bc b13e
000000a0: 98a4 61bd a3a4 60be 42dc 20bf 3e96 eb3d
000000b0: 77d4 56be 2da4 913d 6879 92be 4009 3f3e
000000c0: 3823 fabd ca02 abbe 0b88 963b a884 29be
000000d0: 3065 13be 400a 18bf 7b4a 07bf a1ba 65bd
000000e0: 9b96 163e 9cbf e03e 15be c53e 97a4 84bf
000000f0: a976 30bf 2a70 033f 26de a03e 05b2 14bf
00000100: 9a41 90bd 3478 00bf cfae 553f bb41 b0bd
00000110: 6eb6 96be a4c8 723d 5ad5 373e 4525 4c3e
00000120: ed72 5b3e a799 003e 51e8 d6be 76b4 c43e
00000130: 16dd 47be 3b10 4f3e 8653 923e fe7d 80be
00000140: 0fe6 01bd 9993 04bf 5c29 4b3d 6889 ad3e
00000150: 3eae e73e 669b dbbe 3d9a 833e d61d 133f
00000160: 86fa 283f cf9f c03c 638b 8abd 3cb3 55bc
00000170: 6488 0a3e 12e3 aabd bf82 0abf 8b4f 2abd
00000180: 8c86 8a3e 31c7 ac3e 7120 0b3f c0e9 27be
00000190: 2c70 82be 30cd a5be 587e 243e dcb4 40bd
000001a0: a00d eb3d 9722 54be ec70 4bbe f460 1bbf
000001b0: 8180 32bf e889 133e 8b08 8d3e c644 1e3f
000001c0: f66f c2bd 2a67 843c 58e4 993e 6472 a0be
000001d0: ef91 98be b465 18bd 7e01 423e f1b4 c13e
000001e0: cd6c 8f3e faf5 2ebd 1ece 693e 7b37 4bbe
000001f0: eb30 afbd ef0d 92bc 281a b2be 08d8 843e
00000200: 49c3 32bf d184 18bf 839e 063e 78a1 07bf
00000210: 5717 a6be c513 ef3e 5a25 c03e 13bf b9be
00000220: e7b0 f1be ea67 f23e 4214 8dbe e34b c3be
00000230: 442b 803e 7ee1 f63e b34a 9fbe 8d3f e33e
00000240: 7937 1d3f 9b8a 8e3e 860a dabe 5a4e 153f
00000250: 317d 99be 8cf2 923e 85ca b1be 3632 813e
00000260: 64ea ad3d 6b11 033f c174 0fbf 1bc5 bfbe
00000270: ab47 963e 067c c63e 13c4 f43e a07b 493e
00000280: 423d c7be 52f2 bb3e 0d69 cbbe 8961 97be
00000290: e2ee 163f 17e9 debe e9a5 d33e cc02 9dbe
000002a0: 94a6 813e 4400 c23e 674d df3e 59b4 1cbf
000002b0: f62b 213f 3608 b43e e592 f93e 9a9a c3be
000002c0: 29ad cf3e fde6 9c3e dce4 673e ca0c 103f
000002d0: 93ce c43e a0f7 1cbe 1991 01bf 281a c43e
000002e0: af82 b83e f63b 103f 3a2e 093f 6578 81bd
000002f0: 211e 923e da3d 33be 4a13 9f3e a7fd d13e
00000300: 9947 ab3e b446 af3d 0ebc d93e 1f3f bd3e
00000310: 683a acbe e4be d7be d61c c9be 4254 75be
00000320: 08d6 1fbf 14b6 08bf 565d d43e 4c90 3ebe
00000330: 8f46 013f 36d7 953e 3123 b4be cce3 eb3e
00000340: 7d56 37be 2e1a 2a3f 1f92 6cbe 55a6 f03e
00000350: cd0e 343f 52da 04bf e7ca a3be b373 59be
00000360: 1ffc f23e cb61 c93e e2ab 583e 2b59 bc3e
00000370: 122f cabe 5682 ea3e 9c4b c53e 06e1 b43e
00000380: b05c 9bbe 0a4c 6ebd 4378 efbe 3450 86be
00000390: 4004 d03e dfe6 c8be dc45 9a3e 8e19 3fbe
000003a0: 929b f7be 1aac 2bbf 540d 1f3e b33d e8be
000003b0: fee7 f2be 1b48 1bbf 5f52 32bf 479d edbe
000003c0: bcff 17bf d465 683e a6ca 853e 9690 9f3e
000003d0: dda3 a23e 077c 29be fdad 073f b355 c1be
000003e0: 84d8 f6be 35fd 123f 68b3 b5be a408 aa3e
000003f0: 0e06 85be 7a10 8ebe c3b8 033f be5d 44be
0.23604035 0.16474414 0.077020705 -0.086972974 0.26966852 -0.22095238 0.15013461 -0.06008231
0.105238475 0.07508465 0.051550508 0.1343264 -0.18083888 -0.25843763 0.21180846 -0.17432147
0.25902575 -0.19129416 0.27099603 -0.37379012 0.085805275 0.34139004 0.34474912 -0.21912032
-0.64855975 -0.15733512 0.18069044 0.46214145 -0.23883772 0.27288207 -0.25019068 -0.6146326
0.07830236 0.032158043 0.30911577 -0.006976221 -0.108467996 -0.1649729 -0.3089794 0.3471413
-0.05508861 -0.21937804 -0.62836087 0.11503266 -0.20979486 0.07111392 -0.2860825 0.18655872
-0.12213749 -0.33400565 0.0045938543 -0.1655451 -0.14394069 -0.5939064 -0.52848023 -0.056086186
0.14705889 0.43896186 0.38621584 -1.0362729 -0.6893106 0.51343024 0.31419486 -0.58084136
-0.070437625 -0.50183415 0.8346986 -0.08606287 -0.29436058 0.059273377 0.17952481 0.19936092
0.2143056 0.12558614 -0.41974118 0.3841893 -0.19517931 0.20221035 0.28579348 -0.25096124
-0.03171354 -0.51787716 0.04959999 0.33893895 0.45250124 -0.42891997 0.25703612 0.574674
0.6600727 0.023513703 -0.06764867 -0.013043221 0.13528591 -0.083440915 -0.5410575 -0.041579764
0.27055776 0.3374572 0.54346377 -0.16397762 -0.25476205 -0.32383108 0.16063821 -0.04704748
0.11477208 -0.2071632 -0.19867295 -0.60694814 -0.6972733 0.14408076 0.2754558 0.6182369
-0.09494011 0.016162474 0.30057025 -0.31337273 -0.29798838 -0.037206367 0.18945882 0.3783336
0.28012696 -0.04271505 0.22832534 -0.19845383 -0.08554252 -0.01782891 -0.3478558 0.2594607
-0.6982923 -0.5957766 0.13146405 -0.52980757 -0.32439682 0.4669477 0.37528497 -0.3627859
-0.47205278 0.47344905 -0.27554518 -0.38143834 0.2503301 0.48218912 -0.31111678 0.44384423
0.6141277 0.27840123 -0.42586154 0.5832268 -0.29978326 0.28700674 -0.34724823 0.2523362
0.08491972 0.5119845 -0.5603753 -0.37455067 0.29351553 0.38766497 0.47805843 0.19676065
-0.38913924 0.36708313 -0.39728585 -0.295666 0.58958256 -0.43537208 0.41337517 -0.30666196
0.25322402 0.37890828 0.4361374 -0.6121269 0.62957704 0.35162514 0.48744884 -0.3820389
0.40561798 0.3064498 0.22645897 0.56269515 0.38438854 -0.15328836 -0.50612026 0.38301206
0.36037204 0.56341493 0.5358616 -0.063217916 0.28538612 -0.17504063 0.31069404 0.41013834
0.33453062 0.085584074 0.42526287 0.3696222 -0.3363831 -0.42137825 -0.39279813 -0.23957923
-0.6243596 -0.5340283 0.4147746 -0.18609732 0.5049829 0.29265755 -0.351831 0.46072233
-0.17904086 0.664462 -0.23102616 0.470019 0.70335084 -0.5189563 -0.3199074 -0.21235542
0.47457978 0.39332423 0.21159318 0.3678678 -0.39489037 0.45802563 0.38534248 0.3532793
-0.30344152 -0.058177985 -0.4677144 -0.26233065 0.40628242 -0.3923864 0.30131423 -0.18662092
-0.48360878 -0.6705948 0.15532428 -0.45359573 -0.4744262 -0.606569 -0.6965694 -0.46409056
-0.59374595 0.22695094 0.2613117 0.31164998 0.31765643 -0.16551219 0.5299986 -0.37760696
-0.48212063 0.57417613 -0.3548844 0.33209717 -0.25981182 -0.27746946 0.514538 -0.19176385

mean_head.bias f4 [6]
00000000: 765c b33d 675a 83be 5cbc 52be 769a abbd
00000010: 4838 e1be b7d1 99be
0.0875787 -0.2565491 -0.20579666 -0.083790705 -0.43988252 -0.30042812

value_head.weight f4 [1, 128]
00000000: dbbd 2b3d ab37 8fbd 05bc dc3c 0548 5ebd
00000010: 21ef 71bb 81e6 a2bd 7981 82bd 9d59 aebd
00000020: f329 33bb 4bec fbbc c648 afbc 3e1c 503d
00000030: b642 f8bc b614 4b3d e468 73bd f14b 4dbd
00000040: a6e3 43bd c3d3 123d ce8e 003d 47b5 b23d
00000050: 8105 783c 2530 e0bc 8a9f 1cbd 373d 9ebd
00000060: b9f3 8bbd 22f1 ab3d f47d 5f3b 28fa f93c
00000070: 6928 103d e903 ce3a 601f 463d 8a9d 513d
00000080: 3b97 8b3c 5c25 b0bd 71f6 983d f8c9 fc3c
00000090: 125e 34bc af6a a53d 274a 10bc 1f2c 8d3d
000000a0: 3e76 763d fd44 2e3d 7d0b b13d 3516 2fbd
000000b0: a6ad 5fbd 25ab 933d e46a 81bd c4bf 01bc
000000c0: 8b69 a7bc 3586 003c 45b9 983d efd3 393c
000000d0: bd51 a0bd 7e17 673d 52c9 a4bd da25 31bc
000000e0: 79db acbc 6434 8b3d b043 89bd f0be 9bbd
000000f0: 803d 8ebd 28d0 a2bd d6a5 8bbc 4e05 133c
00000100: bd08 86bd de74 64bd 5bd1 3abd 8437 a63d
00000110: ff19 5bbd 107f 583d 9651 45bb a11e 3d3d
00000120: 65cf 61bb 1dfe a93d c238 a6bd cdf9 453d
00000130: 8de6 4c3d 191e 503d 07f9 d43c 68c7 9b39
00000140: 61c8 ab3d c1cb f5bb 662b f0bc ee8c b3bd
00000150: d235 523d d2ba 8fbd 4412 ae3c add3 03bd
00000160: 72f2 923d f146 073d 94de b13d 6a43 abbd
00000170: c3c2 5fbd b46d febc 9013 253d b98b dabc
00000180: 31ea a6bd 9f93 243d 864b 103c 2d9e 89bd
00000190: 613d 5c3d ad84 de3c b8cf 66bd 53bb 96bc
000001a0: b6ef 63bd 6fb6 723d 55dc a6bd 5ffe 48bd
000001b0: e1ff 793c 1494 513d 736c 2d3d 9422 f93c
000001c0: b665 073d f78d 193d 2ab7 98bd 2214 023c
000001d0: 139d ab3b a5c9 b33c a2dc 993c 64ad 49bd
000001e0: 2f62 7d3d a01b b33d 037b 5bbd c43e 7fbd
000001f0: c3b6 85bd 7239 4b3d 15c3 96bd 90dd d33a
0.041929107 -0.0699304 0.026945123 -0.054267902 -0.0036916214 -0.079541214 -0.06372351 -0.08513186
-0.0027338236 -0.030752322 -0.021397006 0.050808184 -0.030305248 0.0495803 -0.059426203 -0.05012125
-0.047824524 0.035846483 0.03138619 0.08725982 0.015138031 -0.027366707 -0.038238086 -0.077265196
-0.06833596 0.08395602 0.0034102174 0.030514792 0.035194788 0.0015717718 0.048369765 0.05117563
0.017039886 -0.08600876 0.0746888 0.030858025 -0.011008756 0.08076989 -0.008806742 0.06893181
0.06017136 0.04254626 0.08644769 -0.042745788 -0.054608963 0.072103776 -0.06319216 -0.007919256
-0.020436069 0.007844497 0.07457212 0.011342033 -0.0782809 0.05641889 -0.08046211 -0.010812247
-0.021100746 0.06797102 -0.067023635 -0.07604778 -0.06945324 -0.07949859 -0.01704685 0.008973433
-0.065446354 -0.055775516 -0.045609813 0.081160575 -0.05349159 0.05285555 -0.0030108443 0.046171788
-0.0034455892 0.083004214 -0.081162944 0.04833393 0.050024558 0.050809953 0.025997652 0.00029712473
0.083878286 -0.007501096 -0.029317569 -0.087671146 0.05132086 -0.07018055 0.021248944 -0.03218429
0.07175149 0.03302664 0.086850315 -0.083624676 -0.0546291 -0.03105817 0.04030186 -0.026677953
-0.08150137 0.040179845 0.008807069 -0.06719623 0.053769473 0.027162874 -0.05635044 -0.01839987
-0.055648528 0.059256013 -0.08147494 -0.049070712 0.01525876 0.05116661 0.042339753 0.030411996
0.033055983 0.037488904 -0.07456811 0.00793937 0.0052372306 0.021946738 0.018781964 -0.049237624
0.061861213 0.087455034 -0.05358411 -0.062315717 -0.06529 0.04961533 -0.07361428 0.0016164053
