checkpoints/biped_ik.pt (torch, 83800 bytes, 8 tensors)

log_std f4 [4]
0	0xbe5d06ba	-0.21584597
1	0xbe30afdd	-0.17254587
2	0x3e506b8b	0.20353524
3	0xbec93a05	-0.39302078

body.0.weight f4 [128, 21]
0	0xbe7be334	-0.2459839
1	0x3f4220bd	0.75831205
2	0x3fa058fe	1.2527158
3	0xbea057dc	-0.3131703
4	0xbe16ee63	-0.14739375
5	0x3e49c73a	0.19704905
6	0xbe0104d0	-0.12599492
7	0x3d80d369	0.06290323
8	0x3eb07418	0.34463573
9	0xbda81920	-0.08207917
10	0x3e17e492	0.14833286
11	0x3d8de167	0.06927758
12	0x3e21f2ee	0.15815327
13	0xbe279c89	-0.16368307
14	0xbe1a2836	-0.15054402
15	0x3cb7492b	0.022373756
16	0xbd9f791a	-0.0778677
17	0x3db6ea27	0.0893138
18	0xbd74131d	-0.05958854
19	0xbb9d681e	-0.0048036715
20	0xbe16a0cd	-0.14709778
21	0xbe0b96a0	-0.13631678
22	0x3f4edf7e	0.8080977
23	0x3ed6cba0	0.4195223
24	0x3b15a1bc	0.0022831997
25	0x3e8d1be4	0.2756034
26	0x3cd86221	0.026413979
27	0x3e0da20e	0.1383135
28	0xbdf40176	-0.11914341
29	0xbdf1cfb4	-0.11807194
30	0xbe008005	-0.12548836
31	0xbe852e28	-0.26011777
32	0xbed71240	-0.4200611
33	0xbeae415e	-0.34034246
34	0x3e333457	0.17500435
35	0x3dae49fa	0.08510204
36	0xbe466618	-0.19374883
37	0x3de79165	0.11307029
38	0xbe1af5a5	-0.15132768
39	0xbe559134	-0.20856172
40	0xbe0bad15	-0.13640244
41	0xbdca61b7	-0.09881919
42	0xbed03a3d	-0.40669432
43	0x3f3ce3b4	0.7378495
44	0x3fadbd12	1.3573325
45	0xbe95d5e1	-0.2926474
46	0x3dc00be0	0.09377265
47	0xbd8358fe	-0.06413458
48	0xbdc0ea59	-0.09419698
49	0x3e74e984	0.23917204
50	0x3eab1b62	0.3341933
51	0x3d9f1e80	0.07769489
52	0x3e80f475	0.25186506
53	0x3ea6c803	0.32574472
54	0x3e297ecc	0.16552275
55	0xbc8d3612	-0.017237697
56	0xbdb30a49	-0.08742196
57	0xbde59156	-0.11209361
58	0xbe204d30	-0.15654445
59	0xbca04bc9	-0.019567387
60	0xbb8fda4b	-0.004390036
61	0x3e562b4f	0.20914958
62	0x3d1d48f7	0.038399663
63	0x3e6b7e24	0.22997338
64	0xbf406612	-0.75155747
65	0xbf66a31d	-0.9009264
66	0x3ec30f39	0.3809755
67	0xbe049afd	-0.12949748
68	0xbd7f3417	-0.062305536
69	0x3ddd2d2d	0.10799632
70	0x3e801e4e	0.2502312
71	0xbe4d91ea	-0.20075193
72	0xbec4da88	-0.38447976
73	0xbe86c492	-0.26321846
74	0x3dbe71d4	0.09299055
75	0xbe651238	-0.22370231
76	0xbc5c1e7f	-0.013435005
77	0xbe5a3e72	-0.21312883
78	0xbd7f3e12	-0.062315054
79	0x3e18f5b2	0.14937475
80	0x3c29d8cf	0.010366633
81	0x3d1d0112	0.0383311
82	0xbcc7243a	-0.024309266
83	0xbe4720c5	-0.19446094
84	0xbe34fb06	-0.17673883
85	0x3f72141e	0.94561946
86	0x3f7c1a4a	0.98477614
87	0xbe367995	-0.17819817
88	0xbdbe824b	-0.09302195
89	0x3ed3f2b0	0.41396093
90	0xbddc9360	-0.10770297
91	0xbdeca091	-0.11554063
92	0x3ecbbdf3	0.39793357
93	0xbc39a814	-0.011331577
94	0x3ef99e1c	0.4875344
95	0x3dd50531	0.10401381
96	0x3e40b33d	0.18818374
97	0xbdb1f09d	-0.086884715
98	0x3e07de86	0.1326848
99	0x3d9aef42	0.07565166
100	0xbdff395b	-0.124621116
101	0xbc14af45	-0.009074991
102	0x3d8fa386	0.070136115
103	0x3cf72de6	0.030173253
104	0x3e76ee18	0.24114263
105	0x3d41dd4c	0.047330186
106	0x3f6c07fc	0.92199683
107	0x3fa10fb1	1.2582914
108	0xbe8bee4f	-0.27330253
109	0x3f28f2b2	0.65995324
110	0xbe37cd72	-0.17949465
111	0x3ea369af	0.31916568
112	0x3ebda824	0.37042344
113	0xbdaa1c0e	-0.08306132
114	0x3e8bfb1b	0.27340016
115	0x3ee2e3b1	0.4431434
116	0x3e7187bb	0.23586933
117	0x3e0f1b9b	0.13975374
118	0xbe425e84	-0.18981367
119	0x39cfab60	0.000396098
120	0xbdb8bdeb	-0.09020599
121	0x3daca259	0.08429403
122	0xbd4fc566	-0.050725363
123	0xbe29e6cf	-0.16591953
124	0x3d899423	0.06717708
125	0xbd0b78d0	-0.034050763
126	0xbde80dee	-0.11330782
127	0xbf799740	-0.97496414
128	0xbf86bf7e	-1.0527189
129	0x3eb34d5e	0.35019964
130	0xbe221ba1	-0.15830852
131	0xbc9ca189	-0.019119995
132	0x3c98e209	0.01866247
133	0xbcd55b3c	-0.02604448
134	0xbd207507	-0.039174106
135	0x3d469fe1	0.048492316
136	0xbf0a4289	-0.54007775
137	0xbe925de3	-0.28587255
138	0xbd4dcc60	-0.050243735
139	0xbcc5246f	-0.024065224
140	0x3d99c3a3	0.07508018
141	0xbce0ad35	-0.027426342
142	0x3e893f2b	0.26806006
143	0x3e1757fc	0.14779657
144	0x3e3a6d8a	0.18205848
145	0xbd411e38	-0.04714796
146	0xbd122b4a	-0.035685815
147	0x3e110ad3	0.14164285
148	0xbf13176d	-0.5745762
149	0xbf56da3b	-0.83926743
150	0x3e676751	0.22598006
151	0xbefcff1d	-0.49413386
152	0xbd73802a	-0.0594484
153	0xbdde5b7d	-0.10857294
154	0xbd9dc407	-0.07703405
155	0xbf1a07ae	-0.6016797
156	0xbe5a6e15	-0.21331055
157	0xbe1bc6e8	-0.15212595
158	0xbe8a3f8b	-0.27001604
159	0xbf26916c	-0.65065646
160	0x3e0bc6b1	0.13650014
161	0xbdf0056d	-0.11719785
162	0xbdd12dba	-0.102138
163	0xbde29d2d	-0.11065135
164	0xbe2c2b85	-0.16813476
165	0xbd324f6d	-0.043532778
166	0x3e13666a	0.14394537
167	0xbe345f85	-0.17614563
168	0x3dc48285	0.09595207
169	0x3f754c14	0.9581921
170	0x3f780d56	0.9689535
171	0xbe520114	-0.20508224
172	0x3d51fcb9	0.051266406
173	0xbe0e320f	-0.13886283
174	0x3ea371b1	0.31922677
175	0x3e83b1fd	0.25721732
176	0x3d3d01e3	0.046144377
177	0x3e8df508	0.27726007
178	0x3ecc5b6b	0.39913496
179	0x3e01179b	0.12606661
180	0x3dc27602	0.094951645
181	0x3e81204a	0.25219947
182	0xbe26e885	-0.16299637
183	0x3d089b0d	0.033350993
184	0xbdb4e239	-0.08832211
185	0x3dacf448	0.084450305
186	0xbdb4a164	-0.08819845
187	0x3e575d24	0.21031624
188	0x3ce410ce	0.027840044
189	0x3d7fb0ac	0.062424347
190	0xbf832844	-1.0246663
191	0xbf947426	-1.1597946
192	0xbe987c7e	-0.2978248
193	0xbd8c66a8	-0.068555176
194	0x3f05fc47	0.5233807
195	0x3dd54672	0.10413827
196	0x3e99f3c9	0.30068806
197	0x3ea201f2	0.3164211
198	0x3e39a3e7	0.1812893
199	0x3df3ad14	0.118982464
200	0xbc977c14	-0.018491782
201	0x3e53ef93	0.20696859
202	0xbea5c1e8	-0.323745
203	0xbd447a05	-0.04796793
204	0xbe2011ce	-0.15631792
205	0x3caa9fa9	0.020828085
206	0xbca560b5	-0.020187715
207	0x3e5e0295	0.21680672
208	0x3e58e3b5	0.21180613
209	0xbdcb1fb1	-0.09918154
210	0xbdc4c243	-0.09607365
211	0x3f8c993b	1.0984262
212	0x3fa470ae	1.2846887
213	0xbe9bad88	-0.3040583
214	0x3dbe89cd	0.09303627
215	0x3dc19c62	0.09453656
216	0xbe800a5d	-0.25007907
217	0x3e573987	0.21018039
218	0x3e2ddba3	0.16978316
219	0xbe2d85c5	-0.1694556
220	0x3f0bd816	0.54626596
221	0x3dcfc039	0.101440854
222	0x3cf2aa20	0.029622138
223	0xbe0c5bc3	-0.1370688
224	0x3cc49e62	0.024001304
225	0x3d3d2b81	0.046184067
226	0xbcbe1d36	-0.023207288
227	0xbd9a65d1	-0.07538951
228	0x3b8f6eed	0.004377237
229	0xbe0e4692	-0.13894108
230	0x3e1105d7	0.14162384
231	0x3e1d5a17	0.15366398
232	0xbeb759bd	-0.35810652
233	0xbf051162	-0.5197965
234	0x3e87ba1a	0.26509172
235	0xbec9374f	-0.3930001
236	0xbe8f8d7a	-0.28037626
237	0xbeb7dce0	-0.35910702
238	0xbe96fec7	-0.29491255
239	0xbe86636f	-0.26247737
240	0x3e59cff5	0.21270736
241	0xbd60ef85	-0.054915924
242	0xbf019510	-0.50618076
243	0xbebc6099	-0.36792448
244	0xbdcb3909	-0.09922988
245	0x3de14746	0.109999225
246	0x3e0c7f1e	0.13720366
247	0x3da4d3ba	0.08048196
248	0xbd358ff8	-0.044326752
249	0x3db0155f	0.08597826
250	0xbe469e4c	-0.19396323
251	0xbd13f682	-0.03612376
252	0xbdd3780f	-0.10325634
253	0x3f5a8a06	0.8536686
254	0x3f861bd0	1.0477238
255	0xbe2d5719	-0.16927756

body.0.bias f4 [128]
0	0x3d4dba9d	0.050226796
1	0x3d854199	0.065066524
2	0x3db82b17	0.08992594
3	0xbd79d60a	-0.06099514
4	0xbe65ab73	-0.22428684
5	0xbdb08051	-0.086182244
6	0x3d4a33d7	0.049365845
7	0xbab4d667	-0.0013796807
8	0xbe33a7bf	-0.17544459
9	0xbe329139	-0.1743821
10	0xbc3bc480	-0.0114604235
11	0x3e2f42f7	0.17115389
12	0xbe258759	-0.16164912
13	0xbe13fa00	-0.14450836
14	0x3d90f51f	0.07078003
15	0xbdd1b9b9	-0.10240502
16	0xbe3cbb9d	-0.18430944
17	0xbe4fb846	-0.20285138
18	0x3da00751	0.078138955
19	0xbe2c0ad1	-0.16801001
20	0xbe32af29	-0.17449631
21	0xbd27742f	-0.040882286
22	0xbe07c1db	-0.13257544
23	0x3da9fc4b	0.08300074
24	0x3e3b7e5a	0.18309918
25	0x3c8bf890	0.017086297
26	0x3e1a06c8	0.1504165
27	0x3d7b6d84	0.06138374
28	0x3dfda4dd	0.12384961
29	0x3e0794c0	0.13240337
30	0x3cf0883f	0.029361842
31	0x3a4fd216	0.00079277286
32	0xbe158deb	-0.14604919
33	0xbd92628d	-0.07147703
34	0xbea4b818	-0.32171702
35	0xbe5ae091	-0.21374728
36	0xbc20a583	-0.009805086
37	0x3e0b156c	0.1358239
38	0xbd866b45	-0.06563429
39	0xbe4173da	-0.1889185
40	0x3e45a958	0.19302881
41	0xbe696d2a	-0.22795549
42	0x3e5a46a2	0.21316007
43	0xbde71dd0	-0.11284983
44	0x3e8ab22f	0.27089068
45	0xbe12e7f9	-0.14346303
46	0xbea6b2d2	-0.32558304
47	0x3db12bc9	0.086509295
48	0xbc4dcab2	-0.012560533
49	0x3d8cadce	0.06869088
50	0xbd934758	-0.07191342
51	0xbda006db	-0.078138076
52	0x3e2965fe	0.16542813
53	0xbe46b83b	-0.19406216
54	0xbe8251b5	-0.25452963
55	0x3d9fd385	0.07804016
56	0x3df1b73e	0.11802529
57	0x3d74de0c	0.059782073
58	0x3e413d80	0.18871117
59	0x3d303dfc	0.043027863
60	0x3dd70795	0.10499493
61	0xbe6b8fb2	-0.23004034
62	0xbe2fc06e	-0.1716325
63	0xbe0f57f6	-0.13998398
64	0xbd7b7c86	-0.06139805
65	0xbe58f001	-0.21185304
66	0x3dfd0b26	0.12355642
67	0x3ea874b1	0.32901528
68	0x3d97d1e7	0.074130826
69	0xbde86ef4	-0.11349288
70	0xbbae4bd4	-0.005319098
71	0x3c6dddc0	0.014518201
72	0x3de1ade7	0.11019497
73	0x3e7b1f40	0.2452364
74	0x3d3255fa	0.043539025
75	0x3daf828a	0.0856982
76	0xbe224a8a	-0.15848747
77	0xbe034965	-0.12820967
78	0x3dbf130c	0.09329805
79	0xbb7a2261	-0.0038167464
80	0xbd9c142c	-0.07621035
81	0x3e192e44	0.14959055
82	0xbe39207d	-0.180788
83	0xbd9d6cb1	-0.07686747
84	0x3e8fd6d7	0.28093597
85	0x3e36e4a7	0.17860661
86	0x3def50a5	0.116853036
87	0xbd42fc4c	-0.04760389
88	0x3e589ad2	0.2115281
89	0xbe2dd743	-0.16976647
90	0x3de308ac	0.110856384
91	0x3b1a55a3	0.0023549579
92	0xbeae92ba	-0.34096318
93	0xbd46de31	-0.048551742
94	0xbdc499bb	-0.09599634
95	0x3ea4c47e	0.32181162
96	0x3e1fd78e	0.15609571
97	0x3e5040f5	0.20337279
98	0x3b880024	0.0041504074
99	0xbe732b2c	-0.23746938
100	0x3e6714a5	0.22566469
101	0xbcc3ec52	-0.023916397
102	0xbdbc79b0	-0.092028975
103	0xbc660b97	-0.014040849
104	0xbd6da93f	-0.058022734
105	0xbb534e9a	-0.0032242895
106	0x3e360594	0.17775565
107	0xbdfb9f10	-0.12286198
108	0xbd9ec824	-0.077530175
109	0x3e0d36fb	0.13790505
110	0xbe71c77c	-0.23611253
111	0x3d450871	0.048103753
112	0xbe9b6aec	-0.30355012
113	0x3e5834da	0.21113911
114	0xbe98b44f	-0.29825065
115	0x3e48d47d	0.19612308
116	0x3e3c7b83	0.18406491
117	0xbe35a55a	-0.17738858
118	0xbe320447	-0.17384444
119	0xbd8afdc8	-0.06786686
120	0x3e1b09a0	0.1514039
121	0xbd769486	-0.060200237
122	0x3c927e8d	0.01788261
123	0xbe75922f	-0.23981546
124	0xbe795d73	-0.24352054
125	0xbe01aa72	-0.12662676
126	0xbdbdaf80	-0.092619896
127	0x3e5479d0	0.20749593

body.2.weight f4 [128, 128]
0	0xbe7e472c	-0.24831837
1	0x3e8d5043	0.27600297
2	0xbf6f8faa	-0.9357859
3	0xbd858855	-0.06520144
4	0xbdecbf45	-0.11559919
5	0xbf4035c0	-0.75082016
6	0x3f561bed	0.8363636
7	0x3d229bb0	0.039699256
8	0xbea853fd	-0.32876578
9	0x3df558e4	0.11979845
10	0xbf80f9b5	-1.0076205
11	0x3e9e73e3	0.3094779
12	0xbf0bbb32	-0.5458251
13	0x3f5e295c	0.8678186
14	0x3f37e822	0.7183858
15	0xbf31e77d	-0.6949385
16	0xbeef912e	-0.4679045
17	0x3ea7d68a	0.32780868
18	0x3eca99dc	0.3957051
19	0x3f148d6a	0.5802828
20	0xbe9906f2	-0.2988811
21	0x3bd52c04	0.006505491
22	0xbf555131	-0.83327013
23	0xbf6013d6	-0.8753027
24	0x3f072919	0.52797085
25	0xbf2f05f5	-0.68368465
26	0x3f26c000	0.6513672
27	0x3ec57eaa	0.385732
28	0xbd8372f3	-0.06418409
29	0xbc913a0d	-0.017727876
30	0x3ee8e5c7	0.45487806
31	0xbe052888	-0.13003743
32	0x3e49529f	0.19660424
33	0xbf8da3ae	-1.1065576
34	0x3e1ac2ba	0.15113345
35	0xbd02f78a	-0.031974353
36	0x3eb5db14	0.35518706
37	0x3ec21f24	0.37914383
38	0x3eb3f3a0	0.3514681
39	0x3d63034e	0.055423073
40	0x3da83110	0.08212483
41	0x3e82685b	0.25470242
42	0x3ce89d8e	0.02839544
43	0xbf0a1524	-0.5393851
44	0x3ea90f29	0.3301938
45	0x3ebe4225	0.3715984
46	0x3d7936a3	0.06084312
47	0xbe8d44d3	-0.2759157
48	0x3f7527d0	0.95763874
49	0x3dc404b6	0.09571211
50	0x3f814dc4	1.0101857
51	0x3eeac789	0.45855358
52	0x3f1171cd	0.5681427
53	0xbeb05cd2	-0.34445816
54	0x3d88956d	0.06669126
55	0x3e9a8e5d	0.3018674
56	0x3e5c1ed5	0.21496136
57	0xbe57c883	-0.21072583
58	0xbe496c7a	-0.19670287
59	0x3da6ea48	0.08150154
60	0xbe563c2d	-0.20921393
61	0xbf11b2d0	-0.5691347
62	0x3df430e1	0.119233854
63	0x3df34648	0.118786395
64	0xbe45083f	-0.19241427
65	0xbf4a7cbc	-0.7909658
66	0x3ed18223	0.409196
67	0xbd9ba381	-0.07599545
68	0xbee9b80f	-0.45648238
69	0xbf0d98b8	-0.55311155
70	0xbe9557f8	-0.29168677
71	0x3ec637c2	0.38714415
72	0x3f219bd0	0.63128376
73	0x3e8500a0	0.2597704
74	0x3e31dc75	0.17369254
75	0xbcec42d0	-0.028840452
76	0x3e8c2043	0.27368364
77	0xbea2b5d0	-0.31779337
78	0x3eed3ac7	0.46333906
79	0xbcde3c1e	-0.027128275
80	0x3eff3fe6	0.49853438
81	0x3f22410b	0.633805
82	0xbf04369f	-0.51645845
83	0xbe971a0a	-0.29512054
84	0x3d876cad	0.06612525
85	0x3df5af8f	0.11996376
86	0x3f0ab28d	0.54178697
87	0xbf181c57	-0.59418243
88	0xbd9bdf8a	-0.07610996
89	0xbdc3951b	-0.09549924
90	0x3e6ab951	0.22922255
91	0x3ec5cdc4	0.3863355
92	0x3e02e7dc	0.1278376
93	0xbf7077b1	-0.93932635
94	0xbe182f20	-0.14861727
95	0xbd1bf6d8	-0.038077205
96	0x3d5d62ac	0.05404918
97	0x3ebbb5dd	0.36662188
98	0xbc2bdece	-0.0104901325
99	0xbdd5edd8	-0.10445756
100	0x3f2cfa4a	0.6756941
101	0xbee8268e	-0.45341915
102	0x3e8f0e8a	0.2794078
103	0x3ec83379	0.3910177
104	0xbf126376	-0.57183015
105	0xbd3b8878	-0.045784444
106	0x3e7b5d1c	0.24547237
107	0xbda28e42	-0.0793729
108	0x3f6b013b	0.9179875
109	0xbb687d8a	-0.0035475218
110	0x3dd90b17	0.10597818
111	0x3ec77bf7	0.38961765
112	0x3e834bd8	0.25643802
113	0xbdcbe7db	-0.09956332
114	0xbe93af7d	-0.28844824
115	0xbddc25ba	-0.10749383
116	0x3e6e1cff	0.23253249
117	0x3cf2f22e	0.029656496
118	0xbea79dd7	-0.3273761
119	0x3ecec1fe	0.4038238
120	0xbeacb685	-0.33733
121	0x3ec780d1	0.38965467
122	0xbf0faa99	-0.56119686
123	0xbceba73a	-0.028766263
124	0x3ea177a8	0.31536603
125	0xbf255b2d	-0.6459225
126	0xbe5199a6	-0.20468768
127	0x3f331283	0.6995012
128	0xbd9b5997	-0.07585447
129	0x3d6b9dc5	0.057523508
130	0x3cd3c748	0.02585186
131	0x3e5298fa	0.20566168
132	0xbda27edf	-0.07934355
133	0xbe51f7bf	-0.20504664
134	0x3e19d7be	0.15023705
135	0x3e602f5a	0.21893063
136	0xbdacacd4	-0.08431402
137	0xbe2232c8	-0.15839684
138	0xbe4b7dab	-0.19872157
139	0x3d17a1f4	0.037019685
140	0xbe551b4a	-0.20811191
141	0x3dc37992	0.09544672
142	0x3d1880ee	0.037232332
143	0xbe63cb57	-0.22245537
144	0xbea36a1a	-0.31916887
145	0xbe735a33	-0.23764877
146	0x3de7bd04	0.11315349
147	0x3dc2180c	0.09477243
148	0xbd7ba289	-0.061434302
149	0x3cff5b81	0.031171562
150	0xbce64093	-0.028106963
151	0x3d3d7e06	0.046262763
152	0x3e477798	0.19479215
153	0x3e344f1f	0.17608307
154	0x3d64a48f	0.055820998
155	0xbe98000a	-0.2968753
156	0x3d125dfa	0.035734154
157	0x3e665b3c	0.2249574
158	0x3d086a19	0.033304308
159	0x3e9c0c6b	0.30478224
160	0xbde514e0	-0.11185622
161	0xbdb3fa84	-0.087880164
162	0xbee1692e	-0.44025558
163	0xbed6cd0c	-0.41953313
164	0xbe81a3a6	-0.25320166
165	0x3dfbb994	0.122912556
166	0x3dd8a185	0.105776824
167	0xbdc235ca	-0.09482916
168	0x3e850ceb	0.25986418
169	0xbe74c7b0	-0.239043
170	0x3ec65ca1	0.38742545
171	0xbc40e47c	-0.011773225
172	0x3e2f9ce4	0.17149693
173	0xbdbdacc7	-0.0926147
174	0xbe827eb3	-0.2548729
175	0x3e8a2a0e	0.2698521
176	0x3e6eff5c	0.233396
177	0xbd4c9131	-0.049943153
178	0x3dfab072	0.122406855
179	0xbe7915c0	-0.24324703
180	0x3e4045f2	0.18776682
181	0xbe128111	-0.14307047
182	0xbe88f2c4	-0.26747715
183	0xbd2c5ae1	-0.042078856
184	0x3da2badc	0.07945797
185	0xbcf409f4	-0.029789902
186	0x3e83a52f	0.25711963
187	0x3ead0ba4	0.33797944
188	0x3e8f7e83	0.28026208
189	0xbe6b381a	-0.2297062
190	0xbc1e2eed	-0.009654743
191	0xbdb0230f	-0.08600437
192	0x3e80abcb	0.25131068
193	0xbda3e226	-0.08002119
194	0x3e232b64	0.15934521
195	0x3e8c084c	0.2735008
196	0xbc0c6704	-0.008569483
197	0xbe400ebf	-0.18755625
198	0xbdd7430d	-0.10510836
199	0x3e75a67e	0.23989293
200	0x3de442ee	0.11145578
201	0x3de6e304	0.112737685
202	0x3d91cc6a	0.07119067
203	0xbe32d1ac	-0.17462796
204	0xbe90b7e1	-0.28265288
205	0x3dd01163	0.10159566
206	0x3d724cec	0.05915539
207	0xbe4a612a	-0.19763628
208	0x3e564852	0.20926026
209	0x3d00a76a	0.03140966
210	0x3da2d59a	0.079508975
211	0xbe946c07	-0.28988668
212	0x3eb2c342	0.34914595
213	0x3e48f58f	0.19624923
214	0x3d3f1c3e	0.046657793
215	0xbca24331	-0.01980743
216	0x3e562e0c	0.20916003
217	0xbd8d3041	-0.06893969
218	0x3dcf474b	0.1012102
219	0x3e13c4b6	0.14430508
220	0xbe3eb997	-0.18625484
221	0x3d40fb30	0.04711455
222	0xbe1c04d9	-0.15236224
223	0x3e9e812a	0.3095792
224	0x3de50bc9	0.111838885
225	0x3e772cb4	0.24138147
226	0xbcd8ae07	-0.02645017
227	0xbe75c911	-0.24002482
228	0x3dbf4f40	0.093412876
229	0x3dca3968	0.098742306
230	0x3e57eb52	0.21085861
231	0x3d5923f2	0.053012796
232	0xbe3f7ddd	-0.18700357
233	0xbe210830	-0.1572578
234	0x3dab2b6b	0.08357891
235	0xbe860339	-0.26174334
236	0x3e6869e4	0.22696644
237	0x3e4fb34b	0.20283239
238	0xbcdfe944	-0.02733291
239	0x3e203678	0.15645778
240	0xbead9f34	-0.33910525
241	0x3e8f6848	0.28009248
242	0xbe82057a	-0.25394803
243	0x3df1b8ff	0.11802863
244	0x3ee48c4e	0.44638294
245	0xbeb53522	-0.353921
246	0xbef0a04b	-0.46997294
247	0x3dc52991	0.09627069
248	0x3d3cd066	0.04609718
249	0xbebac226	-0.36476249
250	0x3d237be3	0.03991307
251	0xbe3c8e0f	-0.18413566
252	0xbec8abe2	-0.39193636
253	0xbe52a376	-0.20570168
254	0xbe51dc74	-0.20494252
255	0x3e5bf95e	0.21481845

body.2.bias f4 [128]
0	0xbd6c3cde	-0.057675235
1	0x3e5b3715	0.21407731
2	0xbd95af3b	-0.07308813
3	0xbcd70435	-0.026247123
4	0xbcf6204e	-0.030044701
5	0xbcc0c0fa	-0.023529518
6	0xbdbf2ee6	-0.09335117
7	0xbe792ebb	-0.24334233
8	0xbe01e68a	-0.126856
9	0x3d297d89	0.041379485
10	0xbe03392a	-0.12814775
11	0x3de47aed	0.11156259
12	0x3d569332	0.05238647
13	0xbe4d60bf	-0.20056437
14	0xbe3e82d4	-0.18604594
15	0xbd97bfe7	-0.07409649
16	0x3dc5c907	0.096574835
17	0x3e332580	0.17494774
18	0x3dda3ea4	0.10656479
19	0x3e675264	0.22590023
20	0x3e134621	0.14382221
21	0x3e301493	0.17195348
22	0x3dea7dc5	0.1144977
23	0xbd581e98	-0.05276355
24	0x3e33284c	0.17495841
25	0xbd9a8e92	-0.075467244
26	0xbe0b6110	-0.13611245
27	0xbe0c6f26	-0.13714275
28	0xbe83de5e	-0.2575559
29	0xbe742d44	-0.23845392
30	0x3de12686	0.10993676
31	0xbe22f396	-0.15913233
32	0xbe42b8f1	-0.19015862
33	0xbe2b24bf	-0.16713236
34	0xbdfd4f7a	-0.123686746
35	0x3d7cc78f	0.06171375
36	0xbe624d7b	-0.22099869
37	0x3e2b8cfb	0.16752999
38	0x3d99cd92	0.075099126
39	0x3e3d77e7	0.1850277
40	0x3e6a846a	0.22902074
41	0x3c60982d	0.0137081565
42	0xbe65e1bc	-0.22449392
43	0xbe29fa67	-0.16599427
44	0xbd1b1e2b	-0.037870567
45	0x3de9f43a	0.11423536
46	0x3d1ce54f	0.038304623
47	0x3d97eb6c	0.0741795
48	0x3c81397d	0.015774483
49	0x3e6b9efb	0.23009865
50	0x3dcda83e	0.10041855
51	0x3e3fde92	0.18737248
52	0xbe00a6f9	-0.12563695
53	0x3e20b5b0	0.15694308
54	0x3e4333d0	0.19062734
55	0x3e077e55	0.13231786
56	0xbdf20a5b	-0.118183814
57	0x3cae1e97	0.02125482
58	0x3df75e41	0.120785244
59	0xbe489232	-0.19587019
60	0xbe3effe5	-0.18652304
61	0x3dde1ac7	0.10844951
62	0x3bd80a35	0.0065930136
63	0x3de48cea	0.1115969
64	0xbe346d8c	-0.17619914
65	0xbd8fd2ba	-0.07022615
66	0xbe2af8c6	-0.16696462
67	0xbe299292	-0.16559818
68	0x3e2c29e4	0.16812855
69	0x3d49d2ba	0.04927323
70	0xbdd31d05	-0.103082694
71	0xbe8a7eb2	-0.27049786
72	0xbe14783c	-0.14498991
73	0xbe17f6c5	-0.14840229
74	0x3d877a75	0.06615154
75	0xbde64b34	-0.112448126
76	0xbde8d6e5	-0.11369113
77	0xbe0f5521	-0.13997318
78	0xbe224e81	-0.1585026
79	0xbdab8c20	-0.08376336
80	0x3e0fe85f	0.14053486
81	0xbde33b27	-0.11095267
82	0x3d93ba51	0.072132714
83	0xbe0a859f	-0.13527535
84	0x3e4e0ab5	0.20121272
85	0x3df071a6	0.11740427
86	0x3e356d27	0.1771742
87	0x3e7f3b9b	0.24925081
88	0x3e162507	0.14662562
89	0xbd89979b	-0.067183696
90	0x3e8ad47a	0.27115232
91	0xbe6f6e87	-0.23382007
92	0x3e8ab3ac	0.27090204
93	0x3def1e5e	0.11675714
94	0xbe1e2042	-0.15441993
95	0xbe20be7d	-0.15697666
96	0x3e044391	0.129164
97	0xbcb7e50b	-0.022448083
98	0xbe1c92c0	-0.15290356
99	0x3e10206a	0.14074865
100	0xbe914bd4	-0.28378165
101	0x3dc9615b	0.09833022
102	0x3db362b1	0.08759058
103	0xbe41cb6d	-0.18925257
104	0x3d7de3b8	0.061984748
105	0xbe970a4e	-0.2950005
106	0x3e275fd6	0.16345152
107	0x3de39e32	0.11114158
108	0xbdffcfb4	-0.12490788
109	0x3c512f66	0.012767648
110	0xbd9bc08f	-0.07605087
111	0xbe872cbc	-0.26401317
112	0xbe0d8dac	-0.13823575
113	0xbdb48763	-0.088148855
114	0x3d429f73	0.047515344
115	0xbe800502	-0.2500382
116	0x3df959a2	0.12175299
117	0xbc86e83e	-0.016468164
118	0x3e919e2a	0.28440982
119	0xbe8c7b04	-0.27437603
120	0xbdbae805	-0.091262855
121	0x3dbf13c3	0.09329941
122	0xbd867036	-0.06564371
123	0xbe13a62f	-0.14418863
124	0xbe73fc4b	-0.23826711
125	0xbe1a5ab0	-0.15073657
126	0xbe6a33d4	-0.22871333
127	0xbd899dd1	-0.06719554

mean_head.weight f4 [4, 128]
0	0xbe04f183	-0.12982754
1	0x3c8fef6d	0.017570222
2	0xbdad9ab8	-0.08476776
3	0xbd934bd1	-0.07192195
4	0x3cdcb03e	0.026939508
5	0xbbaace1b	-0.005212558
6	0x3d4f7b6a	0.050654806
7	0xbd00c248	-0.03143528
8	0x3d9fdf58	0.07806271
9	0xbbb9a8d2	-0.005665877
10	0x3c9f2b51	0.019429835
11	0x3d73348a	0.059376277
12	0xbd82460c	-0.06361017
13	0x3c4ce99e	0.012506871
14	0x3d2c8769	0.042121325
15	0x3d6d9d78	0.058011502
16	0x3d38aae6	0.045084856
17	0x3db098a7	0.08622866
18	0x3b2fe5fb	0.002683996
19	0xbcd77304	-0.02629996
20	0xbcd9dbaa	-0.026594002
21	0x3ab66047	0.0013914191
22	0xbbcdc2a9	-0.006279309
23	0xbc98ac71	-0.018636914
24	0x3d5cf6f7	0.05394646
25	0x3d992d0a	0.07479294
26	0xbd2bb26b	-0.0419182
27	0xb9804ddb	-0.0002447207
28	0xbc9b501c	-0.018959098
29	0xbd6a7b4e	-0.0572465
30	0x3cc94bd0	0.024572283
31	0xbc460089	-0.0120850885
32	0xbe686f1f	-0.2269864
33	0xbe2e068f	-0.1699469
34	0xbca9f916	-0.020748656
35	0xbd1efe14	-0.038816527
36	0x3d3bdcd9	0.045864914
37	0x3d79b1a5	0.06096043
38	0x3e432d08	0.19060147
39	0xbcab3f10	-0.020904094
40	0x3de105e5	0.109874524
41	0x3d3512cb	0.044207375
42	0xbdaceb26	-0.084432885
43	0x3eb9218b	0.36158404
44	0x3dd41ded	0.103572704
45	0xbce43636	-0.027857881
46	0x3cb07835	0.021541694
47	0x3e48741f	0.19575547
48	0xbbfdc519	-0.007744443
49	0x3d8e5a4e	0.06950818
50	0xbdbea55b	-0.09308883
51	0xbd4a6f98	-0.04942283
52	0x3d28fdb4	0.041257575
53	0x3a017d90	0.000493967
54	0x3e3e228f	0.1856787
55	0xbbeaf359	-0.0071701226
56	0x3d5c644d	0.05380659
57	0x3d5bb828	0.053642422
58	0x3d97a9a7	0.074054055
59	0xbd9a5e72	-0.07537545
60	0x3c88798e	0.016659524
61	0x3e91b34c	0.28457105
62	0x3d0375a1	0.0320946
63	0xbdc00819	-0.093765445
64	0x3cabb990	0.020962507
65	0x3d815c34	0.063164145
66	0x3dc17635	0.09446374
67	0xbdb1d51e	-0.08683227
68	0x3d9257d1	0.07145656
69	0xbe36ff2e	-0.17870781
70	0xbca92826	-0.020649027
71	0x3c2f88ba	0.0107137505
72	0xbdbf9d8a	-0.0935622
73	0xbdb24fc6	-0.08706622
74	0xbce4698e	-0.027882364
75	0xbdd4a202	-0.10382463
76	0x3c95abb7	0.018270357
77	0xbd258fec	-0.040420458
78	0xbcbbdf49	-0.02293362
79	0xbebd2e85	-0.36949554
80	0xbc23801a	-0.009979272
81	0xbdaad040	-0.08340502
82	0xbd9e314c	-0.077242464
83	0xbd92a95b	-0.07161208
84	0x3ee16af4	0.4402691
85	0x3d1ade79	0.037809823
86	0x3d23dae8	0.040003687
87	0x3d063259	0.03276286
88	0x3d7156b4	0.058920577
89	0x3dba87ae	0.0910791
90	0x3df32ff6	0.11874382
91	0xbd70cfe7	-0.05879202
92	0x3dccc83f	0.099991314
93	0xb9299f8b	-0.0001617653
94	0x3cd1646b	0.025560578
95	0xbca78dbe	-0.02045333
96	0x3e248b31	0.16068722
97	0x3d8ccd2a	0.068750694
98	0xbc83b904	-0.016079433
99	0x3dc2103f	0.09475755
100	0x3c21175c	0.009832229
101	0x3d3313ce	0.04372006
102	0x3d279cf3	0.040921163
103	0x3d183782	0.03716231
104	0x3ea4a8c8	0.3216002
105	0xbd1b18cb	-0.03786544
106	0x3da02ed0	0.07821429
107	0xbd806085	-0.0626841
108	0x3d8aaefc	0.06771657
109	0xbd88bc68	-0.06676561
110	0x3cfb9eb9	0.030715333
111	0xbdbd45ae	-0.09241806
112	0x3d86a569	0.06574518
113	0xbd752853	-0.05985291
114	0x3dec6991	0.11543573
115	0xbdabaf9e	-0.08383106
116	0x3d056362	0.032565482
117	0xbdba8eae	-0.09109245
118	0x3d81517b	0.06314369
119	0xbdc4e5c2	-0.09614135
120	0xbdd7ee93	-0.10543551
121	0x3d50522c	0.050859615
122	0xbdcfd372	-0.10147752
123	0xbd003a72	-0.031305738
124	0x3c3154f3	0.010823476
125	0xbbaf5609	-0.0053508324
126	0xbcb63fe2	-0.022247259
127	0xbd87d979	-0.066332765
128	0x3da612bb	0.08109041
129	0x3d555fab	0.05209319
130	0xbbbccf47	-0.005762014
131	0x3d7cb909	0.0616999
132	0x3c2e43b6	0.010636261
133	0x3d86b14b	0.06576785
134	0x3cc782c5	0.024354348
135	0xbd37c8f5	-0.044869382
136	0x3d524aaa	0.051340736
137	0xbd95d7ad	-0.073165275
138	0x3deb5cf0	0.11492336
139	0x3d9f3fe9	0.07775862
140	0xbbdd38a9	-0.006751139
141	0xbcf1fd1e	-0.029539641
142	0x3beb171d	0.007174386
143	0x3d1ca71f	0.038245317
144	0x3d9912d6	0.07474296
145	0xbcfaa32f	-0.03059539
146	0x3d3730a2	0.044724114
147	0xbd38c18a	-0.04510645
148	0x3d71c06d	0.059021402
149	0x3cae4cf5	0.02127693
150	0xbd53654b	-0.051610272
151	0xbccb4e12	-0.0248175
152	0xbce0c3de	-0.027437147
153	0x3dfd4d94	0.123683125
154	0xbd39d260	-0.045366645
155	0x3cfc5853	0.030803835
156	0xbd969b14	-0.073537976
157	0xbcd71aee	-0.026257958
158	0xbde2ff0a	-0.11083801
159	0x3c8f9d45	0.017531047
160	0xbd8b73ee	-0.06809221
161	0xbdb763c9	-0.089545794
162	0x3d1b8186	0.03796532
163	0xbc8c5d72	-0.017134402
164	0xbd7aa891	-0.061195914
165	0x3d5b5a8a	0.05355314
166	0xbd9be94b	-0.076128565
167	0xbca4c40e	-0.020113017
168	0xbda4868e	-0.08033477
169	0x3d18c8cd	0.037300874
170	0x3d57bc2d	0.052669693
171	0xbe6c802e	-0.23095772
172	0xbddbd8c5	-0.10734705
173	0xbdbbf91d	-0.09178374
174	0xbde5b734	-0.11216584
175	0x3e3d00d1	0.18457343
176	0xbd4d6584	-0.05014564
177	0xbd3f5837	-0.046714988
178	0xbc0240b7	-0.0079499995
179	0xbe00c495	-0.1257499
180	0xbd203e3e	-0.03912186
181	0xbdcc9ecd	-0.09991226
182	0xbea82b0f	-0.3284535
183	0x3d825f83	0.06365874
184	0xbd782078	-0.06057784
185	0xbd81b1fb	-0.06332775
186	0xbddea122	-0.108705774
187	0x3d4ba94b	0.049721997
188	0x3d4670e5	0.04844751
189	0xbdefb8a9	-0.11705143
190	0xbe3462f8	-0.17615879
191	0x3d0674ae	0.03282612
192	0xbd07d3bf	-0.03316092
193	0x3d97d949	0.07414491
194	0x3d8f1f40	0.06988382
195	0x3dd89c53	0.105766915
196	0x3dc199d9	0.09453172
197	0x3dccb9d3	0.09996381
198	0x3d88bffa	0.066772416
199	0x3daa59aa	0.08317883
200	0x3daf98fa	0.085741
201	0xbd8a64a5	-0.06757478
202	0xbdc76512	-0.097360745
203	0x3dc16f57	0.094450645
204	0xbd53fb2a	-0.0517532
205	0x3ce2a120	0.027664721
206	0xbd8b5d14	-0.068048626
207	0x3d0a46ae	0.03375881
208	0x3dab1beb	0.08354934
209	0x3dad8338	0.084722936
210	0x3d32e105	0.043671627
211	0xba6dec38	-0.0009076032
212	0x3c8e018a	0.017334718
213	0x3dda8eac	0.10671744
214	0x3cf8a7f7	0.03035353
215	0xbc936520	-0.017992556
216	0x3ecdbc61	0.40182784
217	0xbce346df	-0.027743755
218	0xbdffcaa2	-0.12489821
219	0xbc923451	-0.017847212
220	0xbcb0aa8a	-0.021565694
221	0x3d1c22a8	0.03811899
222	0xbc25fe9f	-0.010131507
223	0xbd5faea1	-0.0546099
224	0x3d3d8cc0	0.046276808
225	0xbd8d6c92	-0.06905474
226	0xbd1de04c	-0.038543984
227	0xbc1a5955	-0.0094207125
228	0xbba2468a	-0.0049522566
229	0x3ce35756	0.027751606
230	0x3d1f3bc0	0.03887534
231	0x3e0211a0	0.12702036
232	0xbdf08466	-0.11744003
233	0xbd343514	-0.04399593
234	0xbded181d	-0.11576865
235	0xbd25469c	-0.04035054
236	0xbd600c11	-0.054699007
237	0x3cd168a3	0.02556259
238	0xbb8dfb43	-0.0043329312
239	0xbd3a249c	-0.04544507
240	0xbd2ee396	-0.04269751
241	0x3d8bd758	0.06828183
242	0xbd13dc4f	-0.036098775
243	0x3cd636d3	0.02614919
244	0x3d944c93	0.07241168
245	0x3e15d424	0.14631706
246	0xbd2aa92e	-0.04166525
247	0xbb8af852	-0.004241028
248	0xbc6c65f0	-0.014428601
249	0x3d7677f5	0.060172994
250	0xbd3f5839	-0.046714995
251	0xbc1ec469	-0.0096903825
252	0x3c3f6253	0.011681157
253	0x3da8a0b6	0.08233778
254	0xbc6916fd	-0.014226672
255	0x3d97726d	0.07394872

mean_head.bias f4 [4]
0	0xbcf20e9f	-0.029547988
1	0xbd4e89bc	-0.050424322
2	0xbbc693c6	-0.0060600964
3	0x3d261ae8	0.040553004

value_head.weight f4 [1, 128]
0	0x3f6f8906	0.93568456
1	0x3f6dea0a	0.9293524
2	0xbf662f11	-0.8991557
3	0xbf6e2ce4	-0.9303725
4	0xbf7e2837	-0.99280113
5	0x3f92853f	1.1446913
6	0xbf6f94df	-0.93586534
7	0xbf787e15	-0.97067386
8	0x3f790850	0.9727831
9	0x3f747996	0.95498025
10	0x3f882f55	1.0639445
11	0x3f6f527a	0.93485224
12	0x3f77ebde	0.9684428
13	0xbf7dbd2e	-0.9911679
14	0x3f79fe44	0.97653604
15	0xbf67682e	-0.9039334
16	0xbf8942a4	-1.0723462
17	0x3f6b52c3	0.9192316
18	0x3f670938	0.9024844
19	0x3f7a231b	0.97709817
20	0xbf89d096	-1.076678
21	0xbf785b94	-0.9701474
22	0x3f83104e	1.0239351
23	0xbf679843	-0.9046671
24	0xbf7ddc11	-0.9916392
25	0x3f67c899	0.9054046
26	0xbf5917b4	-0.84801793
27	0xbf6b0926	-0.91810834
28	0xbf7cf87d	-0.98816663
29	0x3f761c86	0.96137273
30	0xbf89ce1a	-1.0766022
31	0x3f6e809e	0.93165004
32	0x3f3aebc4	0.73016
33	0xbf5d4198	-0.86428213
34	0xbf7e6d31	-0.9938536
35	0x3f6e7cd2	0.9315921
36	0x3f711a3e	0.9418067
37	0xbf788479	-0.9707714
38	0xbf0cb57e	-0.54964435
39	0xbf758013	-0.9589855
40	0xbf6ff2b7	-0.9372973
41	0x3f86e2e9	1.0537997
42	0xbf71ac4d	-0.94403535
43	0x3f7a01dd	0.97659093
44	0x3f5f4250	0.8721056
45	0xbf67a68e	-0.9048852
46	0xbf6af7fc	-0.91784644
47	0xbf84f3d2	-1.0386908
48	0x3f83256d	1.0245796
49	0x3f6f5969	0.93495804
50	0x3f7840e6	0.9697403
51	0x3f749936	0.9554628
52	0xbf699afd	-0.9125212
53	0x3f6b2511	0.91853434
54	0xbf3f2817	-0.7467055
55	0xbf61e5ab	-0.8824107
56	0xbf5f7891	-0.87293345
57	0x3f731979	0.94960743
58	0x3f6f2ffc	0.93432593
59	0xbf64c3fc	-0.8936155
60	0x3f84694a	1.0344632
61	0x3f755220	0.9582844
62	0xbf120e4f	-0.57053083
63	0xbf75d436	-0.96026933
64	0xbf7af7e1	-0.98034483
65	0xbf68206e	-0.90674484
66	0x3f891cc1	1.07119
67	0xbf6b4919	-0.91908413
68	0xbf6121bf	-0.8794212
69	0xbf8637d1	-1.0485784
70	0xbf83058a	-1.0236065
71	0xbf7e0e9c	-0.9924104
72	0xbf7b513b	-0.9817082
73	0x3f6d7424	0.9275534
74	0x3f70384b	0.93835896
75	0x3f806e4e	1.0033662
76	0xbf6ab13c	-0.9167669
77	0xbf726610	-0.94686985
78	0xbf62d7d9	-0.8861061
79	0x3f9a145d	1.2037464
80	0xbf6bd936	-0.9212831
81	0xbf6b864e	-0.9200181
82	0xbf79ae29	-0.9753137
83	0xbf76c99f	-0.964014
84	0xbe935134	-0.2877289
85	0xbf89e2fb	-1.0772394
86	0x3f6fe27f	0.9370498
87	0x3f7214e4	0.94563127
88	0x3f3f26ac	0.74668384
89	0x3f80c194	1.0059075
90	0x3f8231de	1.0171468
91	0xbf76ad07	-0.9635777
92	0x3f6b6312	0.91948044
93	0x3f652a0c	0.89517283
94	0xbf6a4602	-0.91513073
95	0x3f76ac49	0.96356636
96	0xbf7cfd44	-0.9882395
97	0xbf8b6e05	-1.089295
98	0xbf6e8e1b	-0.93185586
99	0x3f6bcffa	0.9211422
100	0x3f788407	0.9707646
101	0xbf77d7cb	-0.9681365
102	0x3f657854	0.8963673
103	0xbf6ac0e1	-0.9170056
104	0xbef026f1	-0.4690471
105	0xbf7c3d73	-0.98531264
106	0x3f6e7cea	0.93159354
107	0xbf704007	-0.938477
108	0xbf6cd217	-0.9250807
109	0x3f885b59	1.0652877
110	0x3f797e16	0.97458017
111	0xbf7285a7	-0.9473519
112	0xbf774baf	-0.9659986
113	0xbf621051	-0.88306147
114	0x3f78b5d5	0.97152454
115	0x3f7c5303	0.98564166
116	0x3f7d6c3d	0.98993284
117	0xbf6906a1	-0.9102574
118	0x3f601cd5	0.87543994
119	0xbf76e5ed	-0.9644459
120	0xbf6de206	-0.9292301
121	0xbf722587	-0.9458851
122	0xbf6fb7ff	-0.9364013
123	0x3f72c215	0.94827396
124	0xbf65a903	-0.89711016
125	0xbf6e2813	-0.930299
126	0xbf7e4981	-0.9933091
127	0xbf6cf06e	-0.92554367
