checkpoints/biped_ppo_mp.pt (torch, 27299 bytes, 8 tensors)

log_std f4 [6]
0	0xc02ae8f3	-2.670468
1	0xc012b253	-2.292134
2	0xc01c8bc5	-2.4460309
3	0xc0150757	-2.328573
4	0xc025e58b	-2.5921352
5	0xc0126c7f	-2.287872

body.0.weight f4 [64, 18]
0	0xbaec5dc0	-0.0018033311
1	0x3f7436b6	0.9539598
2	0xbf06243a	-0.5239903
3	0x3e84c3f2	0.25930744
4	0x3e8865f7	0.26640293
5	0xbeb5a3d7	-0.35476562
6	0x3c41547a	0.011799926
7	0x3f8e9843	1.1140217
8	0xbeb0ea79	-0.34553888
9	0xbf956a04	-1.1672978
10	0x3f371277	0.7151255
11	0x3f84dbb2	1.0379546
12	0x3ea44470	0.32083464
13	0x3d863ce0	0.0655458
14	0x3e56eaa5	0.20987947
15	0x3f0e5406	0.5559696
16	0x3eaad619	0.3336647
17	0x3e5af832	0.21383741
18	0xbf54dcfc	-0.83149695
19	0xbe0e7d58	-0.13915002
20	0xbdaae0c0	-0.08343649
21	0x3e92315b	0.2855328
22	0x3f410d0c	0.7541053
23	0x3f6bccf6	0.9210962
24	0xbeeea8f9	-0.4661329
25	0x3f3c3808	0.73522997
26	0x3eaa21ad	0.33228818
27	0xbe8fa079	-0.28052118
28	0xbe73ef15	-0.23821671
29	0xbe91201a	-0.28344804
30	0x3e7f2aa8	0.24918616
31	0x3ee21f91	0.44164708
32	0x3def1f27	0.11675864
33	0xbf4cb192	-0.7995845
34	0x3f7530d1	0.9577761
35	0x3ebf7fec	0.37402284
36	0x3f6194fd	0.88117963
37	0xbdc90a0a	-0.09816368
38	0x3ebf3c54	0.37350714
39	0xbf94f85a	-1.1638291
40	0xbedec158	-0.43506885
41	0xbe9aff40	-0.30272865
42	0x3f6ecc87	0.93280834
43	0x3e9f8480	0.31155777
44	0xbf453b65	-0.77043754
45	0xbd71a9a9	-0.05899969
46	0x3e6fc4fc	0.23414987
47	0x3d92b230	0.07162893
48	0x3e4a2955	0.1974233
49	0x3d03f033	0.032211494
50	0xbecd6019	-0.4011238
51	0x3eb29f1c	0.34887016
52	0xbfc93b21	-1.572117
53	0xbf9c08df	-1.2190207
54	0xbea09e86	-0.31370944
55	0x3f051034	0.5197785
56	0xbe89942a	-0.26870853
57	0xbf239ebe	-0.63914096
58	0xbc92c2f6	-0.01791523
59	0xbd006d0e	-0.031354003
60	0xbd8799d8	-0.0662114
61	0xbeec6495	-0.46170488
62	0xbf644287	-0.8916401
63	0x3e24f6da	0.16109791
64	0xbdd3e740	-0.10346842
65	0xbe084042	-0.13305762
66	0x3d88bb95	0.066764034
67	0xbe0cb8ac	-0.13742322
68	0xbd84bc31	-0.06481207
69	0x3e9a07f3	0.3008419
70	0xbf5fd041	-0.87427145
71	0x3e8e83fc	0.2783507
72	0xbf79c6b0	-0.975688
73	0x3fbdd5ea	1.4830906
74	0x3d09ed2f	0.03367346
75	0x3ed6b1cb	0.4193252
76	0xbeb2d991	-0.34931615
77	0xbdab2e36	-0.083584234
78	0xbfcadfb6	-1.5849521
79	0xbe89b345	-0.26894584
80	0x3f2c1adc	0.67228484
81	0x3db5693f	0.08857965
82	0x3eac0279	0.33595636
83	0x3dd7dec9	0.1054054
84	0xbc69f56b	-0.014279704
85	0xbdf7c998	-0.12098998
86	0x3e8a73ce	0.27041477
87	0xbf0eb468	-0.5574403
88	0xbf2ef392	-0.6834041
89	0x3f34d037	0.7063021
90	0x3f06faf4	0.52726674
91	0xbe86dccf	-0.2634034
92	0xbdb60045	-0.0888677
93	0xbf0c0df6	-0.547088
94	0xbf9c7a05	-1.2224737
95	0xbeffa260	-0.4992857
96	0x3f4ed192	0.8078853
97	0x3d221b89	0.03957704
98	0xbe437e3a	-0.1909112
99	0xbecb35d7	-0.39689514
100	0x3dfc8054	0.12329164
101	0xbdae0189	-0.084963866
102	0x3cad5995	0.02116088
103	0x3e4841f4	0.19556409
104	0xbde20c6e	-0.11037527
105	0x3f3b8d1b	0.73262185
106	0xbef2d889	-0.47430828
107	0xbf20d259	-0.62820965
108	0xbef0dd41	-0.47043803
109	0xbcec362c	-0.028834425
110	0xbec7f30e	-0.39052624
111	0xbeb3ee03	-0.35142526
112	0xbdd87eb7	-0.10571044
113	0x3e9310a3	0.2872363
114	0xbf8e46c2	-1.1115344
115	0xbf68bd24	-0.90913606
116	0xbefe9083	-0.4971963
117	0x3e8cdb48	0.27511048
118	0x3e06aca6	0.13151798
119	0x3e255bf1	0.16148354
120	0xbec6afa7	-0.38805887
121	0x3df82f23	0.121183656
122	0xbce40943	-0.027836448
123	0xbfa1564b	-1.260446
124	0x3e73090e	0.23733923
125	0x3fa5513d	1.2915417
126	0xbe672fd7	-0.22576843
127	0xbdbaff58	-0.09130734
128	0x3e67ece6	0.22648963
129	0x3f63a2dd	0.88920385
130	0x3fb69639	1.4264594
131	0xbeb3f15a	-0.35145074
132	0x3e61519f	0.22003792
133	0x3e8fd704	0.2809373
134	0x3f33c996	0.7022947
135	0x3d86518e	0.06558524
136	0x3dd08b27	0.10182791
137	0xbde06778	-0.10957235
138	0xbdc87b3c	-0.0978913
139	0xbc157dac	-0.009124201
140	0xbd6c104f	-0.05763274
141	0xbe2cab97	-0.16862331
142	0xbfca5273	-1.5806412
143	0xbf2628be	-0.6490592
144	0x3e0153a8	0.12629569
145	0xc0020519	-2.0315611
146	0x3f014037	0.5048861
147	0xbd393bb3	-0.04522295
148	0x3f1292f0	0.5725546
149	0xbf3f5f56	-0.74754846
150	0xbe26ca82	-0.16288188
151	0x3f972c80	1.1810455
152	0x3e27d95f	0.16391514
153	0x3b7a906e	0.003823306
154	0x3e7404ba	0.23829928
155	0x3e33362f	0.17501138
156	0xbd89053d	-0.06690452
157	0x3e88eda9	0.2674382
158	0x3d07f88d	0.03319602
159	0xbe62d63e	-0.2215204
160	0xbeb3c86b	-0.35113844
161	0x3edfaf94	0.43688643
162	0xbfa6cfa1	-1.3032113
163	0xbe9ae6fa	-0.30254346
164	0x3e2e9069	0.17047276
165	0xbf2c7621	-0.6736775
166	0x3e6489df	0.22318219
167	0x3e5a57ec	0.21322602
168	0xbd1f6ca5	-0.03892197
169	0x3eb39b5a	0.3507946
170	0xbccdba66	-0.025113296
171	0xbd79b10e	-0.060959868
172	0xbd2790a7	-0.040909436
173	0x3dc4c5e4	0.09608057
174	0x3db5898f	0.08864128
175	0x3dbba7f5	0.09162895
176	0xbc4bfc75	-0.012450327
177	0xbebc5739	-0.36785296
178	0x3e39b431	0.18135144
179	0x3f38ef99	0.72240597
180	0x3d95f117	0.07321375
181	0xc093c51d	-4.6178117
182	0x3e33429e	0.17505881
183	0x3f7d136b	0.98857754
184	0x3f89ac44	1.0755696
185	0x3eed1d07	0.4631121
186	0xbe8b90dc	-0.27258956
187	0xbee4cf5a	-0.44689447
188	0xbf632014	-0.8872082
189	0x3be22ffd	0.0069026933
190	0x3d92faeb	0.07176765
191	0xbd460b82	-0.04835082
192	0xba0ba9da	-0.0005327739
193	0x3d76c704	0.06024839
194	0xbd1f7204	-0.038927093
195	0x3ed4b894	0.41547072
196	0xc02da46d	-2.7131608
197	0x3f9034a0	1.126606
198	0x3be48e39	0.006974962
199	0xc0180788	-2.3754597
200	0x3bf7af1a	0.0075587155
201	0x3e45872f	0.1928985
202	0xbfcf0e64	-1.6176267
203	0xbdaadeed	-0.08343301
204	0x3ef058fc	0.4694289
205	0x3c27943b	0.010228212
206	0xbe863c7f	-0.2621803
207	0xbd02a739	-0.031897757
208	0xbcbc0a96	-0.022954267
209	0x3deaf9a1	0.11473394
210	0x3e2f0a14	0.17093688
211	0xbdf72c1c	-0.1206896
212	0xbcf26f28	-0.029594019
213	0x3cae94c8	0.021311179
214	0xbf3c7642	-0.7361795
215	0x3e055315	0.13019975
216	0xbd92ba09	-0.0716439
217	0x3f19c5c8	0.60067415
218	0xbe2fcdbf	-0.1716833
219	0xbfae2252	-1.3604224
220	0x3eb08cec	0.34482515
221	0xbe898b2d	-0.26863995
222	0x3d9cc726	0.07655172
223	0x3f0fc6d2	0.5616275
224	0xbf1edd25	-0.6205619
225	0xbe6dd8f4	-0.23227292
226	0x3da7b88c	0.081894964
227	0x3f1f3062	0.621832
228	0x3e9f28ed	0.3108591
229	0x3f4e4b36	0.8058351
230	0x3ed0fab0	0.4081626
231	0xbd39f370	-0.045398176
232	0x3c9009c6	0.017582785
233	0xbf076a45	-0.5289653
234	0xbf6b34e3	-0.91877574
235	0x3f2451a1	0.64187056
236	0x3eecc46c	0.46243608
237	0xbf07c92e	-0.5304135
238	0x3ed6f0e7	0.4198067
239	0x3f04cadc	0.5187204
240	0xbf021e31	-0.5082732
241	0xbf5c9492	-0.861642
242	0x3f01ec59	0.5075126
243	0x3c1b7473	0.009488213
244	0xbdbd59de	-0.092456564
245	0x3e1a7092	0.15082005
246	0xbe4ad4f4	-0.19807798
247	0xbcf98fe9	-0.03046413
248	0xbe998c5d	-0.299899
249	0xbf7bd082	-0.9836503
250	0xbe8f1f08	-0.27953362
251	0xbe28da43	-0.1648951
252	0x3e47bac0	0.19504833
253	0xbf7448d6	-0.9542364
254	0x3ec30d91	0.38096288
255	0xbf6ada31	-0.91739184

body.0.bias f4 [64]
0	0xbeaccdd6	-0.3375079
1	0x3de811af	0.11331498
2	0xbdab6111	-0.08368123
3	0x3f3434ca	0.7039305
4	0x3f1a9b87	0.60393566
5	0xbf00c8af	-0.5030622
6	0x3f1cf56f	0.61312
7	0xbe872a56	-0.26399487
8	0xbf04083b	-0.5157506
9	0x3f0adb8e	0.54241264
10	0xbe84e630	-0.2595687
11	0xbf0038db	-0.50086755
12	0xbeda71a1	-0.42664817
13	0xbd8e7afb	-0.069570504
14	0xbf5d760d	-0.86508256
15	0x3e489c30	0.19590831
16	0x3e4f090d	0.20218296
17	0x3e76d1b7	0.24103437
18	0xbeabdfb4	-0.3356911
19	0xbea8a9d5	-0.32942072
20	0xbdbdb427	-0.09262877
21	0x3e9366c7	0.2878935
22	0x3eaf79a5	0.34272495
23	0x3eaf58d8	0.3424747
24	0x3e8481a2	0.25880152
25	0x3e023c2b	0.12718265
26	0x3d6aee92	0.057356425
27	0xbeb7b4f7	-0.35880253
28	0xbe369fb4	-0.1783436
29	0x3ea0bb6d	0.31392995
30	0x3d9d13f1	0.07669819
31	0xbd9ccc67	-0.07656174
32	0xbf309cf9	-0.6898952
33	0xbe6170fb	-0.22015755
34	0xbe83fa60	-0.25776958
35	0x3db2e909	0.08735854
36	0x3d85e245	0.06537298
37	0x3deed05e	0.11660837
38	0xbe33bbbc	-0.17552084
39	0xbe5abfbd	-0.21362205
40	0xbe445885	-0.19174393
41	0x3c17d9c4	0.009268228
42	0xbe31a612	-0.17348507
43	0x3f1628f8	0.58656263
44	0x3e98e3ac	0.298612
45	0x3ea6b333	0.32558593
46	0x3d0b62f3	0.034029912
47	0xbf048d30	-0.51777935
48	0xbdbdc30b	-0.09265717
49	0xbe57e5d6	-0.21083769
50	0xbae80b53	-0.001770357
51	0x3c778735	0.015107919
52	0xbe9b7a92	-0.3036695
53	0x3d9b4171	0.07580841
54	0x3de9b138	0.11410755
55	0x3e3c4547	0.18385802
56	0x3f3a83a9	0.7285715
57	0x3d57b6ab	0.05266444
58	0xbe5344b4	-0.20631677
59	0x3ebebfdd	0.37255755
60	0x3e2ebdbc	0.17064565
61	0xbedad496	-0.42740315
62	0x3efe4bdb	0.49667248
63	0x3f6b1a17	0.91836685

body.2.weight f4 [64, 64]
0	0x3d7b7737	0.06139299
1	0x3e2b67cf	0.16738819
2	0x3ed310fc	0.41223896
3	0x3eaf2108	0.34204888
4	0x3eaeef38	0.34166884
5	0x3d523792	0.051322527
6	0xbdc6203d	-0.09674118
7	0x3f9397e9	1.1530734
8	0x3e6b3ca8	0.22972357
9	0x3ec6262f	0.38701007
10	0x3fda4d18	1.7054777
11	0x3eb8bfca	0.36083823
12	0x3dd9db34	0.10637513
13	0xbee7efef	-0.45300242
14	0xbf2bd929	-0.67128235
15	0xbf0e323e	-0.55545413
16	0xbea9dfc1	-0.33178523
17	0xbe4d8b4e	-0.20072672
18	0xbf44f246	-0.7693218
19	0x3ed0b684	0.40764248
20	0x3f26c833	0.6514923
21	0xbdcc478b	-0.09974583
22	0xbf11b19d	-0.5691164
23	0x3dd5075f	0.104017965
24	0x3ed4383f	0.41449162
25	0x3f0f4815	0.55969363
26	0xbedf9214	-0.43666136
27	0xbe91d34e	-0.28481525
28	0x3e770071	0.24121262
29	0x3f86367f	1.0485381
30	0x3eceeb30	0.4041381
31	0xbe956146	-0.29175776
32	0xbe8b8969	-0.27253273
33	0x3f3f86f6	0.7481531
34	0x3e2cefc5	0.1688834
35	0xbd8ce8b4	-0.06880322
36	0xbec36f03	-0.38170633
37	0x3dbb0073	0.09130945
38	0x3d4f1840	0.050560236
39	0xbe6a9ecf	-0.22912143
40	0x3f1c79c2	0.6112329
41	0x3ebd0598	0.3691833
42	0x3f02db5a	0.51115954
43	0xbec1f13a	-0.37879354
44	0x3c71f309	0.014767417
45	0xbe8f69c6	-0.28010386
46	0x3e0be00d	0.13659687
47	0xb9187580	-0.00014539622
48	0xbec416b5	-0.38298574
49	0xbf6232d1	-0.8835879
50	0x3ef85408	0.4850161
51	0x3da389c2	0.079852596
52	0xbf9fd4ab	-1.2486776
53	0xbe036f87	-0.12835513
54	0xbe84d814	-0.25946105
55	0x3da58340	0.080816746
56	0x3c278b57	0.010226092
57	0xbf94a90e	-1.1614091
58	0x3c6c03d4	0.01440521
59	0xbe83df2a	-0.25756198
60	0xbf65fbc5	-0.89837295
61	0x3f4eca44	0.8077738
62	0x3eac77e9	0.33685234
63	0x3eb752de	0.3580541
64	0xbc819946	-0.015820157
65	0xbe9004df	-0.28128716
66	0x3e2496d5	0.16073163
67	0xbe3391f7	-0.1753615
68	0xbed5c157	-0.4174907
69	0x3e0d0239	0.13770379
70	0x3e9cbc1e	0.30612272
71	0xbef78665	-0.48344722
72	0xbf0b83c9	-0.54497963
73	0xbecfc8ba	-0.4058283
74	0x3e2dddbc	0.16979116
75	0x3dd644eb	0.10462364
76	0x3ef3b709	0.47600582
77	0xbdb347c0	-0.087539196
78	0x3d47d7b0	0.04878968
79	0xbdb7f6fe	-0.08982657
80	0xbe84609e	-0.25854963
81	0x3d9d08f5	0.07667724
82	0x3eba9cc3	0.36447725
83	0xbe93360f	-0.2875218
84	0xbdc64562	-0.096812025
85	0x3cf7f686	0.030268919
86	0xbf118dab	-0.56856793
87	0x3eb004c3	0.34378633
88	0xbe98d51b	-0.29850087
89	0xbbca9bd4	-0.006183127
90	0x3eafcadf	0.34334466
91	0x3e624ec8	0.22100365
92	0x3d9fbd4f	0.077997796
93	0x3e132518	0.14369619
94	0x3d035728	0.03206554
95	0x3e40923a	0.18805781
96	0xbe5af393	-0.21381979
97	0x3ea6d503	0.3258439
98	0xbe856e17	-0.26060554
99	0xbf06053e	-0.5235175
100	0x3e9b98c4	0.30389988
101	0xbe93896f	-0.2881579
102	0x3e25ff11	0.16210581
103	0x3d76d4f9	0.0602617
104	0x3e08cc49	0.13359179
105	0xbe05dcdf	-0.13072537
106	0x3e830ef3	0.25597343
107	0xbf352815	-0.70764285
108	0x3db76520	0.08954835
109	0x3e9af00d	0.3026127
110	0xbca9e3be	-0.020738479
111	0xbdb4a4b1	-0.08820475
112	0xbe1ac3c7	-0.15113746
113	0xbe31b9f1	-0.17356087
114	0x3e06e858	0.1317457
115	0xbe170b85	-0.14750488
116	0xbf4d40ab	-0.801768
117	0xbe4e07ea	-0.20120206
118	0x3e6afb76	0.22947487
119	0xbe8c1d02	-0.2736588
120	0x3e00ee4e	0.12590906
121	0x3e805484	0.2506448
122	0x3d4ce7e7	0.050025847
123	0x3e007175	0.1254328
124	0xbf191dda	-0.59811175
125	0x3ef3068d	0.47465935
126	0x3e7d410f	0.24731849
127	0xbf1cb819	-0.6121841
128	0x3e10bab2	0.14133719
129	0xbe101fb1	-0.1407459
130	0x3ecd095c	0.40046203
131	0x3f1f81ac	0.6230724
132	0x3db4c018	0.088257015
133	0xbf414d92	-0.7550899
134	0x3e97a1f0	0.29615736
135	0x3ead4946	0.33844966
136	0x3ec5cc47	0.38632414
137	0x3f9613be	1.1724775
138	0x3f574384	0.84087396
139	0x3effb873	0.4994541
140	0x3d4d71bb	0.05015729
141	0x3f46cab0	0.77653027
142	0x3eab3f4e	0.33446735
143	0xbf01d430	-0.507144
144	0xbea4c72e	-0.32183212
145	0x3e497b3f	0.19675921
146	0xbf036661	-0.5132809
147	0xbf298f2e	-0.662341
148	0xbf7a8257	-0.9785513
149	0xbe214f05	-0.157528
150	0xbf8e5fb6	-1.1122959
151	0xbe8a88b4	-0.2705742
152	0x3d07ae20	0.033125043
153	0x3cd8ef8a	0.026481409
154	0x3d7535a6	0.059865616
155	0xbe9454bb	-0.28970894
156	0x3e746f69	0.23870625
157	0x3e07ef0f	0.13274787
158	0xbda81ab1	-0.08208216
159	0xbe1c8429	-0.1528479
160	0xbe8fd2ab	-0.28090414
161	0x3fb5f151	1.4214269
162	0xbcbf0c8a	-0.023321409
163	0x3ec01279	0.37514094
164	0xbe344f82	-0.17608455
165	0x3efc7674	0.49309123
166	0xbedc9154	-0.43079627
167	0xbf0d6c1c	-0.55243087
168	0x3e942525	0.2893459
169	0x3f3ba819	0.7330337
170	0x3ed5cdbb	0.41758522
171	0xbf20ad84	-0.62764764
172	0x3e2ce5e2	0.16884568
173	0xbcc7c66c	-0.024386607
174	0x3f13c7f5	0.57726985
175	0xbeea592d	-0.4577116
176	0x3c7ad4ca	0.015309522
177	0xbeb4cf8e	-0.35314602
178	0xbbf80a1e	-0.0075695654
179	0xbd0e1ac6	-0.034693502
180	0x3eec9a5c	0.46211517
181	0x3ecf51c8	0.40492082
182	0xbe8f2483	-0.27957544
183	0xbe54bafc	-0.20774454
184	0x3e27bc92	0.16380528
185	0x3ed6547d	0.41861334
186	0x3e998bde	0.29989523
187	0xbd992ee0	-0.07479644
188	0xbf4dddd2	-0.80416596
189	0x3ed34089	0.41260174
190	0xbdab24b6	-0.083566114
191	0x3eacfa01	0.33784488
192	0xbd7fb3a3	-0.062427174
193	0x3f4378b5	0.7635606
194	0x3daf86f0	0.08570659
195	0x3e92a5a8	0.2864201
196	0xbe87c143	-0.26514634
197	0xbec8d87f	-0.39227673
198	0x3da14e7b	0.07876297
199	0xbeaf1d36	-0.34201974
200	0x3d32fa68	0.043695837
201	0x3f243933	0.6414978
202	0xbe57786d	-0.21042033
203	0xbe210493	-0.15724401
204	0x3dc1f86e	0.09471212
205	0x3cff0195	0.031128684
206	0x3eb9b871	0.3627353
207	0x3e7aae8e	0.2448065
208	0xbce65be7	-0.028119994
209	0xbd1c3b18	-0.038142294
210	0xbf019c03	-0.5062868
211	0xbea2674d	-0.31719437
212	0x3f1c9620	0.6116657
213	0x3ebbce72	0.36680943
214	0x3e1faf6b	0.1559426
215	0x3d05e24f	0.032686528
216	0x3e5371ce	0.20648882
217	0x3e8e4e47	0.27794096
218	0x3e317bea	0.17332426
219	0xbeb04e34	-0.34434664
220	0xbe160b41	-0.1465273
221	0xbd9274e2	-0.071512
222	0xbe1e2acc	-0.15446013
223	0x3e27c5a5	0.16383989
224	0x3e3461b6	0.17615399
225	0xbe873a96	-0.26411885
226	0x3d399bac	0.045314476
227	0xbef72c47	-0.48275968
228	0xbd33ecd2	-0.04392702
229	0xbe4e4b26	-0.20145854
230	0x3d1a95f9	0.03774068
231	0xbe8b83d0	-0.27249002
232	0xbeb7ed9e	-0.35923475
233	0x3d011597	0.03151473
234	0x3f17753f	0.5916328
235	0x3d19e3dd	0.037570823
236	0xbe04b685	-0.1296025
237	0x3e782143	0.24231438
238	0xbc7636c1	-0.015027703
239	0xbeba4b65	-0.36385646
240	0xbec6b8f8	-0.38812995
241	0x3ed72870	0.4202304
242	0x3c9347b5	0.017978529
243	0x3de50f0a	0.11184509
244	0xbdab463b	-0.08363005
245	0xbdcaae9f	-0.098965876
246	0x3d14d597	0.036336508
247	0xbdf27554	-0.11838785
248	0x3f38b53c	0.7215154
249	0x3f0a0b82	0.5392381
250	0xbe6cdd6c	-0.2313134
251	0x3dfe7135	0.12423936
252	0xbe037531	-0.12837674
253	0xbe808153	-0.25098667
254	0x3d8d6d24	0.069055825
255	0x3f948532	1.1603148

body.2.bias f4 [64]
0	0xbf27fad3	-0.656171
1	0xbec7db14	-0.3903433
2	0xbee99a14	-0.45625365
3	0x3eca6313	0.39528713
4	0xbe8bf633	-0.27336273
5	0xbec394b8	-0.381994
6	0x3d2ca2e2	0.042147525
7	0x3e53fd33	0.20702057
8	0x3e2fa7ff	0.17153929
9	0x3e91e177	0.2849233
10	0x3e5380d2	0.2065461
11	0x3e6603eb	0.22462432
12	0xbe962ea9	-0.29332474
13	0x3e459053	0.19293337
14	0xbe42b9e6	-0.19016227
15	0xbd762f87	-0.06010392
16	0xbd6b00cf	-0.057373818
17	0xbd82a724	-0.06379536
18	0xbe21dcdc	-0.15806907
19	0x3e85c5b3	0.26127395
20	0xbc84b673	-0.01620028
21	0x3e1fe0b7	0.15613066
22	0xbdda0920	-0.10646272
23	0x3d15090a	0.036385573
24	0x3e87114c	0.26380384
25	0xbe974602	-0.295456
26	0x3efc49e3	0.4927512
27	0xbed623aa	-0.41824085
28	0x3e847086	0.258671
29	0xbf2e5aa6	-0.6810707
30	0x3e126e62	0.1429992
31	0xbde3f987	-0.11131578
32	0xbf046d77	-0.5172953
33	0xbbfb021a	-0.0076601626
34	0x3eb50062	0.35351855
35	0x3d827bb4	0.06371251
36	0xbe67cae9	-0.22635998
37	0x3e4be6b2	0.19912222
38	0x3e12ab07	0.14323054
39	0xbd32591c	-0.043542013
40	0x3e808fe1	0.2510977
41	0xbe3b4ad2	-0.1829026
42	0x3edc4b63	0.43026266
43	0x3edee023	0.43530378
44	0x3e9f208c	0.3107952
45	0x3ea301d8	0.31837344
46	0xbee65eea	-0.4499429
47	0xbd8fbaa3	-0.0701802
48	0x3e8ed0b6	0.2789361
49	0x3eb55bc5	0.35421577
50	0x3c9951b4	0.018715717
51	0x3ee7a283	0.45241174
52	0xbea4708a	-0.3211711
53	0x3f221134	0.633075
54	0xbe2e7a4c	-0.1703884
55	0xbc9c1c87	-0.019056572
56	0x3eb93f56	0.36181134
57	0x3e9c8948	0.30573487
58	0xbe45d700	-0.19320297
59	0xbd8a0870	-0.067398906
60	0xbf2fb707	-0.6863865
61	0x3efc226d	0.49245015
62	0xbdc9bc4e	-0.098503694
63	0xbd67bf9d	-0.05657922

mean_head.weight f4 [6, 64]
0	0x3d79119b	0.060807806
1	0xbd828f26	-0.0637496
2	0xbd8d2c96	-0.0689327
3	0x3e9556e9	0.2916787
4	0xbe2d3021	-0.16912891
5	0x3def6170	0.116885066
6	0xbad2c34f	-0.0016079935
7	0xbe7312b8	-0.2373761
8	0x3c142a2a	0.009043256
9	0x3e595afb	0.21226113
10	0x3dc17d25	0.094476976
11	0x3c7ddc46	0.015494412
12	0xbe0bf39d	-0.1366715
13	0x3c14d0c1	0.009082974
14	0x3e526dba	0.2054967
15	0x3ef6ac3e	0.48178285
16	0x3e4ceb6a	0.20011678
17	0x3ed39302	0.41323096
18	0x3da69e72	0.0813569
19	0xbd79eee0	-0.061018825
20	0x3e141386	0.14460573
21	0xbd86b669	-0.06577761
22	0xbecc7574	-0.3993336
23	0x3d4950d2	0.049149342
24	0x3d187969	0.03722516
25	0xbe4922b3	-0.19642143
26	0xbe47c01f	-0.19506882
27	0x3d9fb782	0.07798673
28	0x3e095a22	0.13413289
29	0x3d34b3a9	0.04411665
30	0xbf0221f9	-0.5083309
31	0x3e4d8fa5	0.20074327
32	0xbe3e6541	-0.18593313
33	0x3efd192b	0.49433264
34	0xbe181ea0	-0.14855433
35	0x3d92a8f5	0.07161132
36	0x3db20fb8	0.08694404
37	0x3e074407	0.13209544
38	0x3e4349ec	0.19071168
39	0xbd24fbf4	-0.040279344
40	0x3f0e9cc3	0.5570795
41	0xbce276e8	-0.02764459
42	0xbdf41722	-0.11918475
43	0x3ce746e7	0.028232051
44	0xbdf2c5f6	-0.11854164
45	0x3e8134b4	0.25235522
46	0xbd5be9da	-0.053689815
47	0xbe86cf30	-0.26329947
48	0x3d58be77	0.052916016
49	0x3bf7df09	0.0075644297
50	0x3e4156ea	0.18880811
51	0xbe99c364	-0.30031884
52	0x3cc9ac13	0.024618184
53	0xbe5a2529	-0.21303238
54	0x3bed15aa	0.0072352486
55	0x3df02cbf	0.11727285
56	0xbda41654	-0.08012071
57	0x3e01da8e	0.12681028
58	0x3e3dc9ff	0.18534087
59	0xbe8f3eca	-0.27977592
60	0x3d926496	0.071480915
61	0xbcc1a46a	-0.023637969
62	0x3e80b858	0.25140643
63	0x3eb7bdf3	0.35887107
64	0x3dd52e3f	0.10409211
65	0xbe96eb86	-0.29476565
66	0xbc8626b3	-0.016375875
67	0xbd83d2fb	-0.06436726
68	0x3ce6086c	0.028080188
69	0x3b899e3d	0.0041997717
70	0xbd02e19b	-0.031953435
71	0x3e98e461	0.2986174
72	0xbcd56129	-0.026047306
73	0xbe59c2ba	-0.21265689
74	0x3d29d450	0.041462243
75	0x3d371d38	0.0447056
76	0x3d019571	0.03163666
77	0xbdb0d54f	-0.086344354
78	0x3e97e6b5	0.29668203
79	0x3d99d45a	0.07511206
80	0x3e8dabdb	0.27670178
81	0xbcebe60b	-0.028796216
82	0xbda25937	-0.07927173
83	0x3c74a634	0.014932204
84	0x3f156b9d	0.5836733
85	0xbea2dfe3	-0.31811437
86	0x3e16cdca	0.1472694
87	0xbdc958c5	-0.098313846
88	0xbd87e758	-0.06635922
89	0xbd390c74	-0.04517789
90	0xbdc0b89e	-0.09410213
91	0xbd04db5a	-0.032435752
92	0x3d86b541	0.0657754
93	0x3d351f7a	0.04421947
94	0xbe92c5e1	-0.28666595
95	0x3ce16c5f	0.027517496
96	0x3f093536	0.5359682
97	0xbd8a3427	-0.067482285
98	0x3cd61f62	0.026138011
99	0xbc91d8d9	-0.017803596
100	0x3ee727fe	0.451477
101	0xbdc29317	-0.095007114
102	0xbd4216f5	-0.047385175
103	0xbe69f039	-0.22845544
104	0x3e809c71	0.25119355
105	0xbe8b83c8	-0.2724898
106	0x3e3ac8d2	0.1824067
107	0x3e85e133	0.26148376
108	0x3d49d417	0.04927453
109	0xbd28e11a	-0.0412303
110	0x3ce0473e	0.02737772
111	0xbdb4bf2f	-0.08825528
112	0xbe4933ac	-0.19648618
113	0xbcff14f3	-0.031137919
114	0xbe03583a	-0.12826625
115	0xbd49057c	-0.049077496
116	0x3de2b501	0.1106968
117	0x3b525864	0.0032096142
118	0x3f706fdb	0.9392068
119	0x3f1b128a	0.60575163
120	0xbd814415	-0.06311814
121	0xbdd0b385	-0.10190491
122	0x3ea2cea2	0.31798273
123	0x3db56169	0.0885647
124	0x3d93d069	0.072174855
125	0x3e59ff18	0.21288717
126	0x3dbbc755	0.09168879
127	0x3effe335	0.49978033
128	0xbe763b9a	-0.24046174
129	0xbcfc0be8	-0.030767396
130	0xbdf1d73b	-0.1180863
131	0xbd42e605	-0.047582645
132	0x3e291834	0.16513139
133	0x3e977a7c	0.29585636
134	0x3ba0e029	0.0049095345
135	0xbe1e19aa	-0.15439478
136	0xbd474cf9	-0.04865739
137	0xbd343b53	-0.04400189
138	0x3d052ee4	0.03251542
139	0x3e0bdeb8	0.13659179
140	0xbd5047dc	-0.05084978
141	0xbe6fecf8	-0.2343024
142	0x3e33d638	0.17562187
143	0x3d3a12b5	0.045427997
144	0x3cc77d85	0.024351845
145	0x3d2b5044	0.041824594
146	0xbd890859	-0.06691045
147	0xbb4b7e11	-0.0031050483
148	0x3c2b7b3f	0.010466396
149	0x3d9a9ef8	0.07549852
150	0x3d89723a	0.0671124
151	0x3c434afe	0.011919735
152	0xbeac0ca3	-0.3360339
153	0xbc25c791	-0.010118381
154	0xbd803d3c	-0.062616795
155	0xbd306859	-0.043068264
156	0x3dca8163	0.0988796
157	0x3da53776	0.08067219
158	0x3f1c4b22	0.61052144
159	0x3dbc5250	0.09195387
160	0x3c601a84	0.013678197
161	0xbb534f5b	-0.0032243344
162	0x3caffc53	0.021482622
163	0xbe079a00	-0.1324234
164	0xbe7d34fb	-0.24727242
165	0x3ea15792	0.31512123
166	0x3eae5bb5	0.34054342
167	0x3f398497	0.7246794
168	0x3de0277c	0.10945031
169	0x3e1226f2	0.14272669
170	0x3ea2bff2	0.31787068
171	0xbe967728	-0.29387784
172	0x3def7b3a	0.116934255
173	0x3d67ab6f	0.056559976
174	0xbcaeb08f	-0.021324424
175	0x3e4cbbdd	0.19993539
176	0xbe5a0b62	-0.21293405
177	0xbd8aee65	-0.067837514
178	0xbe65378c	-0.2238447
179	0x3e303da5	0.17211016
180	0x3e865417	0.2623603
181	0x3e8e7221	0.27821448
182	0xbe916a0b	-0.28401217
183	0xbe836726	-0.25664634
184	0xbe128d92	-0.14311817
185	0x3d32fc4e	0.043697648
186	0x3d2b44d9	0.041813705
187	0x3dd4c3e7	0.10388928
188	0xbd1ab3c3	-0.03776909
189	0xbe45a6fa	-0.19301978
190	0xbe48c4a8	-0.19606268
191	0x3e699eb5	0.22814448
192	0xbe046bf7	-0.1293181
193	0x3d37d355	0.044879276
194	0xb920c5b2	-0.00015332436
195	0xbe50a203	-0.20374303
196	0xbed8d143	-0.42347154
197	0xb98f8a00	-0.00027377903
198	0xbe9aac15	-0.30209413
199	0xbec2dc16	-0.38058537
200	0xbcc1dfb1	-0.023666235
201	0x3ec44b45	0.38338676
202	0x3b60e174	0.0034314068
203	0x3e41b73b	0.18917553
204	0xbd0a80f2	-0.033814378
205	0xbe06ed33	-0.13176422
206	0xbddcba62	-0.10777737
207	0xbc257dfc	-0.010100838
208	0xbe4f39da	-0.20236912
209	0x3ece56b5	0.40300527
210	0xbe98709b	-0.2977341
211	0x3e5d93c5	0.21638401
212	0x3cdb20ef	0.026749102
213	0xbea8b53e	-0.32950777
214	0x3eb84a43	0.35994157
215	0xbd9e0c4a	-0.07717188
216	0x3e0867b1	0.13320805
217	0x3eaccf80	0.3375206
218	0x3e51b0f1	0.20477654
219	0x3e083940	0.13303089
220	0x3e77e2b7	0.24207579
221	0xbe331850	-0.17489743
222	0x3ec9c31f	0.39406678
223	0x3f012a13	0.50454825
224	0x3e2a4bda	0.16630498
225	0x3d48bca1	0.049008016
226	0xbdecd1d8	-0.11563462
227	0x3d850ae8	0.06496221
228	0x3e3ccd0e	0.18437597
229	0x3d8fdacd	0.07024155
230	0x3dfa80a3	0.12231567
231	0xbd884332	-0.066534415
232	0xbdf44568	-0.11927301
233	0x3dab9e2b	0.083797775
234	0x3d9907a8	0.074721634
235	0x3e4747f0	0.19461036
236	0x3c551ab8	0.0130068585
237	0x3b88b011	0.0041713794
238	0xbcac4345	-0.02102817
239	0xbe2595b8	-0.16170394
240	0x3e30420d	0.17212696
241	0xbe2bf46b	-0.16792457
242	0x3d04f759	0.03246245
243	0x3e52dcc5	0.2059203
244	0x3e2f0e41	0.17095281
245	0xbe765717	-0.2405666
246	0x3e49d06f	0.19708417
247	0xbebbd3da	-0.36685067
248	0xbe6b063f	-0.22951601
249	0x3ec70392	0.3886991
250	0xbd4c5485	-0.04988529
251	0x3eda6f22	0.42662913
252	0x3be0ad1c	0.0068565737
253	0xbdd0106e	-0.10159384
254	0xbe4e2552	-0.20131424
255	0x3cc82c8b	0.024435302

mean_head.bias f4 [6]
0	0xbd1f35c8	-0.03886965
1	0xbc3c2eac	-0.011485737
2	0xbe03980c	-0.1285097
3	0x3cef3d03	0.029203897
4	0xbd075d1b	-0.033047777
5	0x3d3e4764	0.046454802

value_head.weight f4 [1, 64]
0	0xc00c39cd	-2.1910279
1	0xbfacdd1b	-1.3504976
2	0xbff3fc62	-1.9061396
3	0x3f2ee4f8	0.6831813
4	0xbedd11e3	-0.4317771
5	0xbfa2a347	-1.2706078
6	0x3f212dc1	0.6296044
7	0x3f09f82d	0.5389431
8	0x409d727f	4.9202266
9	0xc0439582	-3.0560002
10	0x4064b6d5	3.5736592
11	0x3e1f32e3	0.15546755
12	0xc0461f21	-3.09565
13	0x3fdfd49e	1.7486761
14	0xbff60321	-1.9219705
15	0x3ec8e205	0.3923494
16	0xbef22790	-0.4729581
17	0x3d2a5eb9	0.04159424
18	0x39619847	0.000215144
19	0x3fdbe5f8	1.7179556
20	0x3f87415b	1.056682
21	0xc00e1c6d	-2.220485
22	0x3e84cca2	0.25937372
23	0xbfe742ef	-1.8067302
24	0x3d3183a9	0.04333845
25	0xbfee420a	-1.8613904
26	0x3faf645a	1.37025
27	0xbfabfdea	-1.3436863
28	0x3fd89128	1.6919298
29	0xc003a631	-2.0570185
30	0x3f30431e	0.6885241
31	0xbf6a734f	-0.91582197
32	0x3e13a1e5	0.14417227
33	0x3fb61f4f	1.4228305
34	0x401efb84	2.4841013
35	0x40014e6b	2.0204113
36	0xbe53ed1e	-0.20695922
37	0x3e6159fa	0.2200698
38	0xbeeb0418	-0.4590156
39	0x3ca4c7be	0.020114776
40	0x3e7b7431	0.24556042
41	0xc0183327	-2.378122
42	0x3f81bf14	1.0136437
43	0x3fbad8bf	1.4597396
44	0x4023dad2	2.5602307
45	0x400cae1a	2.1981263
46	0xc00f2517	-2.2366388
47	0xbf0e2646	-0.5552715
48	0x3fd7ca8c	1.6858687
49	0x4009c12d	2.1524155
50	0x3da3ce93	0.07998385
51	0x3fd01b8b	1.6258405
52	0x3c1bf5dc	0.009519067
53	0x3fe38d0b	1.7777418
54	0x3ccf617b	0.025315037
55	0xbd0f3ef4	-0.034972146
56	0x403d2af1	2.955746
57	0x401bcd92	2.434422
58	0xbf0ed7e3	-0.55798167
59	0xbf69d9bd	-0.9134787
60	0xbff87307	-1.9410104
61	0x40006c97	2.0066278
62	0x3ec79fbd	0.38989058
63	0xbf6748d8	-0.90345526
