checkpoints/biped_ppo_mp.pt (torch, 84884 bytes, 8 tensors)

log_std f4 [6]
0	0xbf6d78d2	-0.9276248
1	0xbf60e67c	-0.8785169
2	0xbf72b7bb	-0.948116
3	0xbf3b9cbb	-0.73286027
4	0xbf04d284	-0.5188372
5	0xbf585236	-0.84500444

body.0.weight f4 [128, 21]
0	0x3ea0b9f5	0.31391874
1	0x3fb7e0ef	1.4365519
2	0x3dea0f0d	0.11428652
3	0xbd7c4981	-0.061593536
4	0x3f1cdbf5	0.6127313
5	0xbef1e156	-0.4724223
6	0x3f4a704d	0.7907761
7	0x3d36cb2f	0.044627365
8	0xbb9fe890	-0.0048800185
9	0xbf03c0c1	-0.51465994
10	0x3cb39c28	0.021925047
11	0x3ced88a9	0.028995829
12	0xbeb7d39e	-0.3590364
13	0x3e8777a2	0.2645846
14	0x3dd6ddc0	0.10491514
15	0x3dae7491	0.08518327
16	0xbc60dc67	-0.013724423
17	0xbebb0240	-0.36525154
18	0xbf05d942	-0.52284634
19	0x3da04392	0.07825388
20	0xbe28d2e3	-0.16486697
21	0x3de71cdb	0.112848006
22	0x3ebd6578	0.36991477
23	0x3f078647	0.52939266
24	0x3f290fe8	0.66039896
25	0x3e73178b	0.2373945
26	0xbe53b1f2	-0.2067335
27	0x3e144a0d	0.14481373
28	0x3f2b4857	0.66907257
29	0xbec2b77b	-0.3803061
30	0xbf3fb1e4	-0.74880815
31	0x3f1f39da	0.6219765
32	0xbf37adce	-0.7174958
33	0x3e67788c	0.22604579
34	0xbe5340b6	-0.20630154
35	0xbefd3785	-0.4945642
36	0x3db4c43b	0.088264905
37	0xbeb5ec30	-0.3553176
38	0xbf24d953	-0.6439411
39	0xbe514255	-0.2043546
40	0xbd6763d2	-0.05649168
41	0xbe2a84c0	-0.16652203
42	0xbdf5965c	-0.119915694
43	0x3fc8b6c1	1.5680772
44	0x3da58463	0.080818914
45	0x3e8e49b5	0.2779061
46	0x3d68619f	0.056733724
47	0x3e8b7d31	0.2724395
48	0x3e82c3e1	0.2554007
49	0x3d46e44b	0.04855756
50	0xbef9e951	-0.4881082
51	0x3f2afb68	0.66789865
52	0x3ee6b241	0.45057872
53	0xbf6067dc	-0.87658477
54	0xbe611dfd	-0.21984096
55	0xbdfee218	-0.12445468
56	0x3edf5358	0.43618274
57	0x3ede93c9	0.43472126
58	0xbece702b	-0.40319952
59	0x3dc9dea3	0.09856918
60	0x3dc9fd8e	0.09862815
61	0xbe5f6193	-0.21814565
62	0x3cf13b64	0.029447265
63	0x3d0ddc7f	0.03463411
64	0x3e818209	0.2529452
65	0x3fc2e5df	1.5226401
66	0x3ece6ba7	0.40316507
67	0x3fc5bbfe	1.5447996
68	0x3d309605	0.04311182
69	0x3f7eb40f	0.994935
70	0xbe01ce23	-0.12676291
71	0xbf035f0c	-0.51316905
72	0xbf384430	-0.71979046
73	0x3f57dc30	0.84320354
74	0xbf2de5e0	-0.67928886
75	0xbe42f6f0	-0.19039512
76	0x3e569193	0.2095397
77	0x3e35efb3	0.17767219
78	0x3d70c1f0	0.058778703
79	0x3de8d2fd	0.11368368
80	0x3de1350a	0.109964445
81	0x3e8ef528	0.27921414
82	0xbdcdb952	-0.10045113
83	0x3e35fe9e	0.1777291
84	0x3e24cd55	0.16093953
85	0xbeb91b60	-0.36153698
86	0xbed23623	-0.41056928
87	0xbef8a8de	-0.48566335
88	0xbf8987dc	-1.0744586
89	0x3f386292	0.72025406
90	0xbf21f67d	-0.63266736
91	0x3e387b5a	0.18015805
92	0x3e5f5c40	0.21812534
93	0x3e271192	0.16315296
94	0xbef92dec	-0.48667848
95	0xbe91b144	-0.28455555
96	0x3e80a83e	0.2512836
97	0x3d800685	0.062512435
98	0x3e598d0b	0.2124521
99	0xbba2880d	-0.004960066
100	0xbd8b9391	-0.068152554
101	0xbd893a10	-0.06700528
102	0x3e67a739	0.22622384
103	0xbe0c968a	-0.13729301
104	0xbe1f1196	-0.15534052
105	0x3e12f898	0.14352643
106	0xbe26dc7a	-0.16295043
107	0x3dd791b3	0.10525837
108	0xbe0b523c	-0.13605589
109	0xbf339253	-0.7014515
110	0x3f0f1ff3	0.55908126
111	0xbed599ba	-0.41718847
112	0x3b660869	0.0035100228
113	0xbe81190e	-0.25214428
114	0x3f34fbed	0.7069691
115	0x3db525cb	0.08845099
116	0x3ef0a8a8	0.47003675
117	0xbe971c49	-0.29513767
118	0x3e33a059	0.17541637
119	0x3e1eea44	0.15519053
120	0x3e2c9ac9	0.16855921
121	0x3ed244cc	0.41068113
122	0xbe266282	-0.16248515
123	0x3e649a0a	0.22324386
124	0x3b1e76b5	0.0024179642
125	0xbe57194a	-0.21005741
126	0xbc21ead3	-0.009882647
127	0x3e52a32f	0.20570062
128	0x3e8dc51e	0.2768945
129	0x3e77897d	0.24173541
130	0x3f6c9c36	0.9242586
131	0xbdb8f51f	-0.09031128
132	0xbf50dff0	-0.815917
133	0xbf5dd37f	-0.8665084
134	0xbe911cfa	-0.2834242
135	0x3e421866	0.1895462
136	0xbf069a8e	-0.5257958
137	0x3e49c7ba	0.19705096
138	0xbceaa75f	-0.028644262
139	0xbe85b9a8	-0.26118207
140	0xbd1ed7e5	-0.03878011
141	0x3e99b48f	0.30020568
142	0x3d8ccc84	0.06874946
143	0x3e853bfc	0.26022327
144	0x3dc50b5b	0.096213065
145	0x3e34240d	0.17591877
146	0xbe596394	-0.21229392
147	0x3de0291f	0.10945343
148	0x3f0021e9	0.5005174
149	0x3e823066	0.2542755
150	0x3d600ee2	0.054701693
151	0x3f599e3e	0.85007083
152	0x3e6b9f9d	0.23010106
153	0x3f3ac4a8	0.72956324
154	0x3e218b1c	0.15775722
155	0x3d7e0922	0.06202043
156	0xbf051dd4	-0.5199864
157	0xbf153238	-0.5827975
158	0x3fc87587	1.5660866
159	0xbe4c407e	-0.19946477
160	0x3e2bed9e	0.16789863
161	0x3f167834	0.58777165
162	0x3e15de3b	0.14635555
163	0x3e87d5e5	0.26530376
164	0xbda1ee47	-0.07906776
165	0x3d116fb2	0.03550691
166	0xbe0579f6	-0.13034806
167	0x3e1320b5	0.14367945
168	0xbd5c613d	-0.05380367
169	0xbf235a72	-0.63809884
170	0xbdd84259	-0.1055953
171	0x3e665e1b	0.22496836
172	0x3e96fe10	0.2949071
173	0xbeac34ac	-0.33633935
174	0xbde292bd	-0.11063144
175	0x3d51eef8	0.05125329
176	0x3ed8abf9	0.42318705
177	0xbf1d5335	-0.6145509
178	0x3cc34516	0.023836654
179	0x3edf782d	0.43646374
180	0xbea0777c	-0.3134116
181	0x3d0ab9eb	0.03386871
182	0xbb27b750	-0.002559144
183	0xbe271ce4	-0.16319615
184	0xbe4a710d	-0.19769688
185	0x3ec929f2	0.39289814
186	0xbe840580	-0.25785446
187	0xbdb53a79	-0.088490434
188	0xbd2f7520	-0.04283631
189	0x3ee4f99a	0.4472168
190	0x3fb40654	1.4064431
191	0x3efd5f72	0.49486881
192	0x3e396536	0.18105015
193	0x3f8065be	1.0031049
194	0xbf4c5647	-0.7981915
195	0x3f78526e	0.9700078
196	0x3cab1a65	0.02088661
197	0xbeb7c892	-0.3589521
198	0xbe32c7e6	-0.17459068
199	0x3eaf9e41	0.34300426
200	0xbf22659d	-0.634363
201	0x3e2d5598	0.16927183
202	0x3d567db4	0.052365974
203	0x3f02178a	0.5081717
204	0x3d02fa50	0.031976998
205	0x3ec28112	0.37989098
206	0x3e82a229	0.25514343
207	0x3ea5aa76	0.32356614
208	0xbd1008d3	-0.035164665
209	0xbd68987d	-0.05678605
210	0xbd9187ef	-0.071060054
211	0x3e79228f	0.2432959
212	0x3e2508a3	0.16116576
213	0xbdb7dbbe	-0.08977459
214	0x3ef77fc8	0.48339677
215	0xbf3c06c1	-0.73447806
216	0xbf6a3587	-0.91487926
217	0xbec0a7b4	-0.37627947
218	0x3e06a3c8	0.13148415
219	0xbf470582	-0.7774278
220	0xbd028bc6	-0.03187158
221	0xbecfbb59	-0.40572622
222	0xbf149950	-0.58046436
223	0xbe2404f5	-0.16017516
224	0xbef4252c	-0.4768461
225	0xbdd70c07	-0.10500341
226	0xbf545e98	-0.8295684
227	0xbebb4e39	-0.36583117
228	0x3dad824e	0.08472119
229	0xbe221c74	-0.15831167
230	0xbe2e626c	-0.17029732
231	0x3e900fc3	0.28137025
232	0x3f82bfc9	1.0214778
233	0xbe158be6	-0.14604148
234	0xbea7090b	-0.32624087
235	0x3e5e9eac	0.21740216
236	0x3dbe30ae	0.09286629
237	0xbdac481b	-0.084121905
238	0x3d01b84f	0.03166991
239	0xbf0a0ef5	-0.5392907
240	0x3d432bb2	0.047649093
241	0xbe56ee8b	-0.20989434
242	0xbf0a1d39	-0.5395084
243	0x3e7255bc	0.23665518
244	0xbe4cad03	-0.19987874
245	0x3e08652e	0.13319847
246	0x3edcac75	0.43100324
247	0xbe8fc9c8	-0.28083634
248	0x3e6845d2	0.22682884
249	0xbe31aee6	-0.17351875
250	0x3dd6cd81	0.104884155
251	0x3e343ae3	0.17600589
252	0x3ec4028c	0.38283193
253	0x3f83b7f3	1.0290512
254	0xbc34a593	-0.011025804
255	0xbeb187a9	-0.34673813

body.0.bias f4 [128]
0	0xbdcf5ed5	-0.1012551
1	0x3ee6738c	0.4501003
2	0x3e03d762	0.12875131
3	0xbe02db1c	-0.12778896
4	0xbe8f4013	-0.27978572
5	0xbe3c54f4	-0.18391782
6	0xbdb14252	-0.08655228
7	0x3e87630a	0.26442748
8	0xbd9ae23f	-0.07562684
9	0x3e4ffe19	0.20311774
10	0xbe8f3142	-0.27967268
11	0x3c925a94	0.017865457
12	0x3e1b7eab	0.15185039
13	0x3e0aa9d2	0.13541344
14	0xbe56ac0c	-0.20964068
15	0xbe091526	-0.13386974
16	0x3ecc416a	0.39893657
17	0x3d36763f	0.044546362
18	0xbea742f3	-0.32668266
19	0xbea764b8	-0.3269403
20	0x3e38300e	0.17987081
21	0xbe2c8c87	-0.16850482
22	0x3ee141e0	0.4399557
23	0x3ec572e5	0.3856422
24	0x3dd32428	0.10309631
25	0xbe7af39b	-0.2450699
26	0x3e561cc1	0.20909406
27	0xbe835237	-0.25648662
28	0x3ebbefb9	0.3670633
29	0x3e526e16	0.20549807
30	0xbd33a9b7	-0.043863025
31	0xbcd85dad	-0.026411856
32	0x3e94eb24	0.29085648
33	0x3e93509d	0.2877244
34	0xbd04d504	-0.03242971
35	0xbebc63da	-0.3679493
36	0xbe87abd6	-0.26498288
37	0x3d527023	0.051376473
38	0x3d5f1c9a	0.054470636
39	0x3da4fca4	0.08056
40	0xbe55cda0	-0.20879221
41	0x3e144a27	0.14481412
42	0x3ea25ee7	0.3171303
43	0xbe57eb83	-0.21085934
44	0xbdd0d5ba	-0.10197015
45	0x3eafd221	0.34340003
46	0xbbce8cb3	-0.0063033937
47	0x3cd07ac7	0.02544917
48	0xbe5c4723	-0.21511512
49	0xbe1183f3	-0.14210491
50	0x3e0a7102	0.13519672
51	0x3ee68e4c	0.4503044
52	0x3c858402	0.016298298
53	0xbca46399	-0.020067023
54	0xbcb788f4	-0.022404172
55	0x3ed36903	0.41291055
56	0x3e90f5d7	0.2831256
57	0xbe496a5c	-0.19669479
58	0xbeb0f5be	-0.34562486
59	0xbd45c0d8	-0.048279613
60	0x3de640ee	0.11242853
61	0x3ee07277	0.4383733
62	0x3e0e19e0	0.13877058
63	0xbe2ae6e5	-0.16689642
64	0xbe9d2668	-0.30693364
65	0x3dffcc0a	0.12490089
66	0xbe4d608f	-0.20056365
67	0xbdcec4c2	-0.10096122
68	0xbe82c9eb	-0.25544676
69	0x3d765abc	0.060145125
70	0x3bbea676	0.0058181835
71	0x3e7b9980	0.24570274
72	0x3d711994	0.058862284
73	0x3e69004e	0.22754022
74	0x3ef8bf9e	0.48583692
75	0x3ece37a3	0.40276822
76	0x3e6b1989	0.2295896
77	0xbdec15b1	-0.11527575
78	0x3b8a1468	0.0042138584
79	0xbe7927da	-0.24331608
80	0xbe2e3a40	-0.17014408
81	0x3d98ba77	0.0745744
82	0xbdfc288f	-0.123124234
83	0x3e504575	0.20338996
84	0xbe79eda9	-0.24407066
85	0x3db83fb9	0.08996529
86	0x3d7de638	0.06198713
87	0x3ea326c9	0.31865528
88	0x3e30c821	0.17263843
89	0xbdd7594d	-0.1051508
90	0xbe674d67	-0.2258812
91	0x3e7e5e9e	0.24840781
92	0x3ea83862	0.32855517
93	0x3de98890	0.11403
94	0xbe88cc69	-0.26718453
95	0x3e094462	0.13404992
96	0xbd82e824	-0.063919336
97	0xbd64398d	-0.055718947
98	0x3e52254e	0.20522043
99	0xbd9c30e0	-0.0762651
100	0xbe92525f	-0.2857847
101	0x3e1ef346	0.15522489
102	0x3d857adb	0.065175734
103	0x3ce3e6d7	0.027820034
104	0xbdea56dc	-0.11442348
105	0xbbbc0243	-0.0057375743
106	0x3c6a9585	0.014317875
107	0xbecbffe7	-0.39843675
108	0x3ec07053	0.37585697
109	0xbe1d777d	-0.15377612
110	0xbeb83b42	-0.3598271
111	0xbe233ecf	-0.15941928
112	0x3d1cb036	0.038253985
113	0x3ec6ada6	0.38804358
114	0xbebda1cd	-0.37037507
115	0xbe361cfe	-0.17784497
116	0xbe66d5da	-0.22542515
117	0x3d077170	0.033067167
118	0x3e942445	0.2893392
119	0x3dc6c28c	0.097050756
120	0xbe194d4d	-0.14970894
121	0xbebaaec1	-0.36461452
122	0x3ddea100	0.10870552
123	0x3db7de9d	0.08978007
124	0x3e9513c2	0.29116637
125	0x3dd62786	0.10456757
126	0x3d82b8fd	0.0638294
127	0x3e37f44f	0.1796429

body.2.weight f4 [128, 128]
0	0xbf228311	-0.6348124
1	0x3f07d8c8	0.53065157
2	0x3ea16f46	0.31530207
3	0x3f1a762f	0.60336584
4	0xbe26c594	-0.16286308
5	0x3e00a330	0.12562251
6	0xbce28c05	-0.027654657
7	0xbd98228b	-0.074284635
8	0x3db8948c	0.09012708
9	0xbdf1e710	-0.1181165
10	0xbcef3e03	-0.029204374
11	0xbe471b74	-0.19444066
12	0xbfbb3f44	-1.4628682
13	0x3ddc106e	0.10745321
14	0x3eb3b412	0.3509832
15	0x3ec3c00f	0.38232467
16	0xbee1f2ab	-0.44130453
17	0x3ae36bde	0.0017350873
18	0xbe863c6b	-0.2621797
19	0xbf21a2aa	-0.6313883
20	0xbe8669e1	-0.26252654
21	0x3dddd2d6	0.108312294
22	0xbe9d5125	-0.3072597
23	0x3ef933eb	0.48672423
24	0xbe4c0950	-0.19925427
25	0x3ddbe39f	0.10736775
26	0x3e07b7b3	0.1325367
27	0x3deb5b8a	0.11492069
28	0xbed48b5c	-0.41512573
29	0x3e48511b	0.1956219
30	0xbe589062	-0.21148828
31	0xbf889d79	-1.0673057
32	0x3e563628	0.20919096
33	0x3f26dde8	0.6518235
34	0xbd2ee58e	-0.04269939
35	0x3d4ab0ef	0.049485143
36	0x3e0bdf54	0.13659412
37	0x3d9d73e7	0.07688122
38	0x3f1c1610	0.60971165
39	0x3d9d9aa8	0.07695514
40	0xbd072de4	-0.03300275
41	0xbdda185a	-0.10649176
42	0xbe97a8d4	-0.29620993
43	0x3ed05cbb	0.40695748
44	0x3e47ad1f	0.19499634
45	0xbdfc585a	-0.12321539
46	0xbe3cfb40	-0.1845522
47	0xbe1dbeae	-0.1540477
48	0x3e77a5bb	0.24184315
49	0x3f085e9f	0.5326938
50	0x3d0bbe7d	0.03411721
51	0xbcb4d48f	-0.022074012
52	0xbee72df1	-0.45152238
53	0xbeb80e67	-0.35948488
54	0xbe3c9a0e	-0.18418142
55	0x3f092cb3	0.5358383
56	0xbe990794	-0.29888594
57	0x3f855c50	1.0418797
58	0x3e21e99d	0.15811773
59	0xbd4ace55	-0.04951318
60	0xbda2360b	-0.07920464
61	0xbe0aeca9	-0.13566841
62	0x3f19c27a	0.6006237
63	0x3cbff196	0.023430627
64	0x3e1406a6	0.14455661
65	0x3efef1aa	0.4979375
66	0xbe75ffb0	-0.24023318
67	0x3ea78191	0.3271604
68	0xbeaced12	-0.3377462
69	0xbf00213a	-0.500507
70	0x3dcbd23b	0.09952208
71	0xbe1268fc	-0.14297861
72	0xbc5b3fd6	-0.013381919
73	0xbd916504	-0.07099345
74	0x3db61b28	0.088918984
75	0xbdceb12f	-0.10092389
76	0xbf2256db	-0.6341378
77	0xbe1fbb66	-0.1559883
78	0xbf03b791	-0.51451975
79	0x3ee8a827	0.4544079
80	0xbe0da420	-0.1383214
81	0x3c0cb8b0	0.008588955
82	0x3eeaf8e5	0.45893016
83	0xbe8881b4	-0.26661456
84	0x3eba965b	0.36442837
85	0xbf07c4c1	-0.530346
86	0xbec48cc8	-0.38388658
87	0x3eb33b64	0.3500625
88	0x3e03a344	0.1285525
89	0xbf0ac79c	-0.5421083
90	0xbeb58e90	-0.3546033
91	0xbdb4f37c	-0.088355035
92	0x3f072820	0.527956
93	0x3e841efd	0.25804892
94	0x3e6eb582	0.23311427
95	0xbe4b5cc7	-0.1985961
96	0xbe22f70b	-0.15914552
97	0x3e742697	0.23842846
98	0xbe461975	-0.19345649
99	0xbd84bbc9	-0.0648113
100	0x3e43d088	0.19122517
101	0xbeecc62a	-0.46244937
102	0x3eceeaff	0.40413663
103	0x3f22c7ce	0.6358613
104	0x3c9951e8	0.018715814
105	0x3eb86850	0.36017084
106	0xbf778181	-0.9668198
107	0x3e6d73b9	0.23188676
108	0xbe40185b	-0.18759291
109	0xbe6affa5	-0.22949083
110	0x3e79c782	0.24392512
111	0x3f359eb0	0.7094526
112	0x3e15619c	0.14588016
113	0x3e9a154f	0.30094382
114	0x3ecfae93	0.40562877
115	0xbd4c29dc	-0.049844608
116	0xbf04bfa9	-0.5185495
117	0xbe6eefed	-0.23333712
118	0x3cef48e1	0.029209556
119	0xbe466c85	-0.19377334
120	0xbd6838d1	-0.05669481
121	0xbedbdcc1	-0.4294186
122	0xbd133214	-0.03593643
123	0xbc0dc29b	-0.008652355
124	0x3d2d9a99	0.042383764
125	0x3ec5f8b6	0.38666314
126	0xbd93848a	-0.07203014
127	0xbee9b040	-0.4564228
128	0xbed8763d	-0.4227771
129	0xbec0dc99	-0.37668303
130	0x3e57e12f	0.21081994
131	0xbe708761	-0.23489143
132	0x3dc88585	0.09791092
133	0x3eeb3680	0.45940018
134	0xbde4cb03	-0.11171534
135	0xbca64fb8	-0.020301685
136	0xbec1eed0	-0.37877512
137	0xbebb2cca	-0.3655761
138	0xbdcaf570	-0.09910095
139	0x3f259b00	0.64689636
140	0x3e93f6a6	0.28899115
141	0xbe213226	-0.15741786
142	0x3da550d8	0.0807206
143	0x3e385433	0.1800087
144	0x3f226fa9	0.6345163
145	0x3e88922e	0.26674026
146	0xbe06a2dc	-0.13148063
147	0x3ed9f6dc	0.4257115
148	0xbdc22c9c	-0.09481165
149	0x3b09127e	0.0020915563
150	0xbeb43944	-0.3519994
151	0xbf19f482	-0.60138714
152	0xbe674410	-0.22584558
153	0xbe53f33e	-0.20698258
154	0x3f3c88e4	0.7364638
155	0x3c2b6780	0.010461688
156	0xbe6deef2	-0.23235682
157	0xbe7d5a56	-0.24741492
158	0x3edd60aa	0.4323781
159	0x3e9d5713	0.30730495
160	0x3ea03cad	0.31296292
161	0xbe5d38da	-0.21603718
162	0xbd85858a	-0.06519611
163	0xbec74b24	-0.38924515
164	0xbd87aca5	-0.06624726
165	0xbda2ad46	-0.079432055
166	0xbe004ce5	-0.12529333
167	0xbeace765	-0.3377029
168	0xbe403e01	-0.18773653
169	0xbed08a42	-0.40730482
170	0xbe5b2cb0	-0.21403766
171	0xbc0e5e1a	-0.008689428
172	0xbdb0e7f5	-0.08637992
173	0xbe6286a6	-0.22121677
174	0xbe8f311a	-0.2796715
175	0x3ee5ee1c	0.44908226
176	0x3ddedd88	0.108820975
177	0x3e95e15d	0.292735
178	0xbdd07f13	-0.101804875
179	0xbf075926	-0.52870405
180	0xbe5133cf	-0.2042992
181	0xbe3ca604	-0.18422705
182	0xbe62c221	-0.22144367
183	0xbe96e5a7	-0.29472086
184	0xbea46f58	-0.321162
185	0xbea5e5dc	-0.3240193
186	0x3eafa5c3	0.34306154
187	0x3f1d3ab3	0.6141769
188	0x3e1c706d	0.15277262
189	0x3cbf1094	0.023323335
190	0xbea1b5a4	-0.31583893
191	0x3e8de4b2	0.27713543
192	0xbe48bfc7	-0.19604407
193	0xbd9d938f	-0.0769416
194	0x3f11f8e0	0.5702038
195	0xbebcb6dd	-0.36858264
196	0xbe8abddc	-0.27097976
197	0xbf07d274	-0.530555
198	0x3f01a434	0.5064118
199	0xbf203752	-0.6258441
200	0x3e1c3883	0.15255933
201	0x3dbad33f	0.09122323
202	0xbf3ff0fb	-0.7497708
203	0xbf03f3ff	-0.51544183
204	0xbe7e11eb	-0.24811523
205	0x3d4731d6	0.04863151
206	0x3e497a25	0.196755
207	0x3f093522	0.535967
208	0x3cdefb8e	0.02721956
209	0xbf00e1e2	-0.5034467
210	0xbea1d93b	-0.31611046
211	0xbe2e238e	-0.1700575
212	0x3f28eda1	0.6598759
213	0x3f19c0cd	0.60059816
214	0xbc8a7e12	-0.016905818
215	0x3e216ba5	0.1576372
216	0xbeae759e	-0.3407411
217	0x3ec809fb	0.39070114
218	0x3e9c3142	0.3050633
219	0xbec0154f	-0.37516257
220	0xbea4799d	-0.32124034
221	0xbd8d6410	-0.06903851
222	0x3eb6a1fb	0.35670456
223	0xbd9efe6e	-0.07763372
224	0x3cb3ac17	0.021932645
225	0xbc6d5cb7	-0.014487437
226	0xbdb44eac	-0.08804068
227	0xbeb0ed97	-0.34556267
228	0x3e11ae04	0.14226538
229	0x3cfc3528	0.030787066
230	0x3d743189	0.059617553
231	0xbe73634e	-0.2376835
232	0x3dde956f	0.10868346
233	0x3d9f06d8	0.07764977
234	0xbf0892ac	-0.53348804
235	0xbf2c138c	-0.67217326
236	0x3dea6465	0.1144493
237	0xbca14e89	-0.019690769
238	0xbe15b4d2	-0.14619759
239	0xbebe3150	-0.37146997
240	0xbedb6cba	-0.4285639
241	0x3aa9f9a0	0.0012968071
242	0x3e16b068	0.14715731
243	0x3ed54596	0.41654652
244	0x3f0edf25	0.5580924
245	0xbe5366c6	-0.20644674
246	0x3f6ffff8	0.9374995
247	0x3e6548ca	0.22391048
248	0xbec2f9f1	-0.38081315
249	0xbc54e899	-0.012994909
250	0x3f497273	0.7869026
251	0xbe02ef01	-0.12786485
252	0xbe98117d	-0.29700842
253	0xbef28d2e	-0.47373337
254	0xbdd09848	-0.10185295
255	0xbd0e1c74	-0.034695104

body.2.bias f4 [128]
0	0xbd4d620f	-0.050142344
1	0xbd252e84	-0.040327564
2	0xbe6dd0a3	-0.2322412
3	0xbd3da7c3	-0.04630257
4	0x3d9d6c2b	0.07686647
5	0xbdf4f1ec	-0.119602054
6	0xbddc4ce7	-0.107568555
7	0x3dfc565b	0.123211585
8	0x3db8997b	0.09013649
9	0xbda415a2	-0.08011939
10	0x3ec8f01e	0.39245695
11	0xbe0a433b	-0.13502209
12	0xbeb36eb1	-0.35045388
13	0x3e12760d	0.14302845
14	0x3e4f7e8d	0.20263119
15	0x3e29a268	0.1656586
16	0xbdfd7310	-0.12375462
17	0xbca60e2e	-0.020270433
18	0x3d4b980c	0.04970555
19	0x3d73e5fc	0.059545502
20	0xbce7e2fd	-0.028306479
21	0xbe77ca4e	-0.24198267
22	0xbdb3ea53	-0.08784928
23	0x3d325e44	0.04354693
24	0x3cf0a373	0.029374814
25	0x3df7247b	0.12067505
26	0x3e146019	0.14489783
27	0x3d476564	0.048680678
28	0xbe5d0b99	-0.21586455
29	0xbd2a9e25	-0.041654725
30	0x3e39574d	0.18099709
31	0xbd415d41	-0.047208074
32	0x3de3b1db	0.111179076
33	0x3bf1c115	0.0073777535
34	0x3e62b93b	0.22140972
35	0x3e862f04	0.26207745
36	0xbe187fd9	-0.1489252
37	0xbe3d82cf	-0.18506931
38	0x3e0d37fb	0.13790886
39	0xbe614f52	-0.22002915
40	0xbe16d80e	-0.14730856
41	0xbc5f5a58	-0.0136323795
42	0xbe14e240	-0.14539433
43	0xbd05825b	-0.03259502
44	0x3e6f3fea	0.23364225
45	0x3de21fa0	0.11041188
46	0x3da52aa3	0.08064773
47	0xbd3b74fc	-0.045765862
48	0xbe015d5c	-0.1263327
49	0x3e7487d8	0.23879945
50	0xbe16a1ee	-0.14710209
51	0xbda2e6b1	-0.07954157
52	0xbe22c293	-0.15894537
53	0x3e2ec8f5	0.17068847
54	0x3e15a91a	0.14615288
55	0x3dc211d2	0.09476055
56	0xbe1afc0c	-0.15135211
57	0xbe22108b	-0.15826623
58	0xbc68ddac	-0.014213007
59	0x3e0c186d	0.13681193
60	0x3d94a92d	0.0725883
61	0x3a9ca124	0.0011949879
62	0x3db97a83	0.090565704
63	0x3a015e76	0.0004935035
64	0x3dfd466e	0.12366949
65	0xbe955116	-0.29163426
66	0xbd83751a	-0.0641882
67	0xbe65af8d	-0.22430249
68	0xbdb80db2	-0.08986987
69	0xbb49019f	-0.0030671132
70	0x3d38bca6	0.045101784
71	0xbdadf3d2	-0.08493771
72	0xbd347ea9	-0.044066105
73	0x3d2e0edd	0.042494643
74	0x3e256d8a	0.16155067
75	0xbdd4f4ac	-0.1039823
76	0xbd08a744	-0.033362642
77	0xbd0c3f94	-0.03424032
78	0xbe5bc00a	-0.21459976
79	0x3dbd7357	0.09250515
80	0xb98d1c67	-0.00026914777
81	0xbe45009a	-0.1923851
82	0x3de5231f	0.111883394
83	0x3d328b4b	0.04358987
84	0xbdf15e49	-0.117855616
85	0xbcd057f4	-0.025432564
86	0x3e368bf6	0.17826828
87	0xbe5a9688	-0.21346486
88	0x3d446e34	0.04795666
89	0xbe095a1c	-0.1341328
90	0xbd8ed20c	-0.06973657
91	0xbb18dcf2	-0.0023325053
92	0x3daadb79	0.08342642
93	0x3e0b4f2f	0.13604425
94	0xbe1d2696	-0.1534675
95	0x3e5780f7	0.2104529
96	0x3cc4134d	0.023934985
97	0xbc9b876d	-0.018985474
98	0xbdb54eba	-0.088529065
99	0x3e32e656	0.17470679
100	0xbeaec780	-0.3413658
101	0x3def36fb	0.116804086
102	0xbc6dccbc	-0.0145141445
103	0xbe81cf2c	-0.25353372
104	0x3e21864e	0.1577389
105	0x3da85ca3	0.08220794
106	0xbb91b9fe	-0.004447221
107	0x3e287201	0.16449739
108	0x3d953bff	0.07286834
109	0xbe8f04ad	-0.27933255
110	0x3dc66fb8	0.096892774
111	0xbc96130c	-0.01831963
112	0x3c88d3f5	0.016702631
113	0x3e731f0b	0.2374231
114	0xbe12ba3a	-0.14328852
115	0x3ab119a1	0.0013511666
116	0x3de42b97	0.111411266
117	0xbd88cc98	-0.06679648
118	0xbe10cf2c	-0.1414153
119	0xbe486eb9	-0.19573487
120	0x3de1aece	0.110196695
121	0xbd60d7c0	-0.054893255
122	0xbda8f25a	-0.0824935
123	0x3d5f7dcf	0.05456334
124	0x3e42d52f	0.19026636
125	0xbd6a0f29	-0.057143364
126	0xba611237	-0.0008585783
127	0xbdcddfac	-0.10052428

mean_head.weight f4 [6, 128]
0	0x3e4488c5	0.19192798
1	0xbf000400	-0.50006104
2	0x3e4ecc6d	0.2019517
3	0xbdb318eb	-0.08744987
4	0x3e63902c	0.22222966
5	0x3ea62fbc	0.32458293
6	0x3e24aeff	0.1608238
7	0x3deaf930	0.1147331
8	0xbd92ac4a	-0.07161768
9	0x3d6bd8db	0.057579856
10	0xbea0af3a	-0.31383687
11	0xbc8eec44	-0.017446645
12	0xbe8e1b84	-0.27755368
13	0xbe5f28c2	-0.21792892
14	0x3e567c05	0.20945747
15	0xbc87e490	-0.01658848
16	0x3ec91c19	0.3927925
17	0x3e421aa7	0.1895548
18	0x3c4b3fff	0.012405395
19	0x3b92520d	0.0044653476
20	0xbea6d373	-0.32583198
21	0x3eb35bdd	0.35031024
22	0xbd6144d9	-0.0549973
23	0x3e0f1025	0.13971002
24	0xbd2a8758	-0.04163298
25	0x3eb0ff4f	0.34569785
26	0xbe6608e0	-0.22464323
27	0xbeb35452	-0.3502527
28	0x3eb8e022	0.361085
29	0xbd0f0fed	-0.034927297
30	0xbe30706f	-0.1723039
31	0xbde95586	-0.113932654
32	0x3ec88782	0.39165884
33	0xbc409df4	-0.011756409
34	0xbea61f10	-0.32445574
35	0x3e213ec9	0.15746607
36	0x3be2e0f2	0.006923788
37	0x3e96106f	0.29309413
38	0xbce491a7	-0.027901484
39	0xbe1f9983	-0.15585904
40	0x3de3b7b2	0.111190215
41	0xbe7e28ca	-0.24820247
42	0xbdbf8fc2	-0.093535915
43	0xbc79667f	-0.015222191
44	0xbd9819f2	-0.07426824
45	0xbe66992c	-0.22519368
46	0xbd82202f	-0.06353795
47	0x3e7ec92e	0.24881431
48	0x3e2fb5b9	0.17159165
49	0x3e529035	0.20562823
50	0x3e229b2e	0.15879509
51	0x3dfeb21b	0.12436315
52	0x3e8e3578	0.27775168
53	0xbd99d27c	-0.0751085
54	0x3e99ce6b	0.30040297
55	0xbe6a0d69	-0.22856678
56	0xbe156009	-0.14587416
57	0x3e9f7d9f	0.3115053
58	0x3e383768	0.17989886
59	0xbe6df6ec	-0.23238724
60	0xbe1bdec7	-0.15221702
61	0x3d72f1df	0.059312697
62	0x3e87dfb4	0.2653786
63	0x3e4499a8	0.1919924
64	0x3eedcf19	0.46447065
65	0x3e5be8c2	0.21475509
66	0x3e017eec	0.12646073
67	0x3e9ccfcd	0.3062729
68	0x3eb2b05e	0.34900182
69	0x3e6309ad	0.2217166
70	0xbe831639	-0.25602892
71	0x3e5df488	0.21675313
72	0xbe6e2928	-0.23257887
73	0xbeb9b09e	-0.3626756
74	0xbe5c94bd	-0.21541114
75	0x3c6077b7	0.013700417
76	0x3dcad267	0.09903412
77	0x3d6edaed	0.058314253
78	0x3e1a872e	0.1509063
79	0xbe61ad92	-0.22038868
80	0xbe912c35	-0.2835404
81	0xbdb69ce9	-0.08916647
82	0x3d2f77c1	0.042838816
83	0xbe518288	-0.2045995
84	0xbe93ef98	-0.28893733
85	0x3e967878	0.29388785
86	0x3ee4aa3e	0.44661134
87	0x3e67483f	0.22586153
88	0x3e620922	0.22073796
89	0xbe330545	-0.17482479
90	0x3e12f0f6	0.14349732
91	0x3dabab99	0.08382339
92	0xbd7e0d9c	-0.062024698
93	0x3e8b9e84	0.27269375
94	0xbdd536e8	-0.10410863
95	0xbe57bddd	-0.21068521
96	0x3da92c92	0.08260454
97	0xbdaac175	-0.0833768
98	0x3ea3c187	0.31983587
99	0xbe57537e	-0.21027943
100	0x3e261d6a	0.16222158
101	0x3d75607a	0.05990646
102	0x3df3399e	0.11876224
103	0x3dd9df40	0.10638285
104	0x3c4c29d5	0.012461145
105	0xbe6a7e74	-0.228998
106	0x3d257316	0.040392958
107	0x3d3e334a	0.04643563
108	0xbe1b98a1	-0.15194942
109	0xbd635101	-0.055497173
110	0x3e742b76	0.23844704
111	0xbe11d977	-0.14243113
112	0xbeccdf26	-0.40014
113	0xbe0c8841	-0.13723852
114	0x3e49807d	0.1967792
115	0xbd07a556	-0.03311666
116	0xbe11c138	-0.14233863
117	0x3dd2bd5d	0.102900244
118	0x3dbb7c79	0.09154601
119	0x3e6b3125	0.22967966
120	0x3e82a248	0.25514436
121	0x3e2da60e	0.16957876
122	0x3e38f19d	0.18060918
123	0xbde3a794	-0.11115947
124	0xbe7efe91	-0.24901797
125	0x3dd59015	0.10427872
126	0xbddad60f	-0.1068536
127	0x3ea5ca99	0.32381132
128	0xbc95ddb6	-0.018294197
129	0x3e2c9ef3	0.1685751
130	0xbc4c291e	-0.012460975
131	0xbe9e4613	-0.30912837
132	0x3e7ccd2f	0.24687646
133	0xbd8ed3e2	-0.06974007
134	0xbe3f24e8	-0.18666422
135	0xbe0f7ef0	-0.14013267
136	0xbded577f	-0.11588954
137	0xbeab1d06	-0.3342058
138	0x3dc68aca	0.09694441
139	0xbe2afb7b	-0.16697495
140	0xbe6f4671	-0.23366715
141	0x3e2ed288	0.17072499
142	0x3d363841	0.04448724
143	0xbe68a6f4	-0.22719938
144	0xbe6e6e45	-0.23284252
145	0xbd267f47	-0.040648725
146	0x3e2c6be8	0.16838038
147	0x3e0b7ba1	0.1362138
148	0x3ded29df	0.11580252
149	0x3d7717f1	0.060325567
150	0xbe4bb693	-0.19893865
151	0x3e23671d	0.15957303
152	0x3d6901c3	0.056886446
153	0x3da5a144	0.080873996
154	0xbd72f4dd	-0.05931555
155	0xbeecb8bb	-0.46234688
156	0xbd6e8709	-0.05823425
157	0xbe9b8c17	-0.30380318
158	0x3e078182	0.13232997
159	0x3cfe8b8e	0.031072404
160	0x3e006b16	0.1254085
161	0x3eae51d3	0.34046802
162	0x3e493270	0.19648147
163	0x3d66426c	0.05621569
164	0x3ea0e521	0.3142481
165	0x3bb8cd03	0.0056396737
166	0x3d93ea91	0.07222474
167	0xbdb5f40a	-0.088844374
168	0xbe8a5ff2	-0.27026325
169	0xbe062588	-0.13100255
170	0xbd465e07	-0.048429515
171	0x3d8a3449	0.06748254
172	0xbd5033cf	-0.05083066
173	0x3d36c746	0.044623636
174	0x3db7b5f6	0.08970253
175	0xbe84c3bb	-0.2593058
176	0x3e92f7c1	0.28704646
177	0xbea22791	-0.31670812
178	0x3d7b2bd2	0.061321087
179	0xbe055d48	-0.13023865
180	0xbe362154	-0.17786151
181	0xbdd81a31	-0.105518706
182	0x3df0e2dc	0.1176202
183	0xbd7523eb	-0.059848707
184	0x3e4f52e7	0.20246468
185	0xbd37fc3c	-0.044918284
186	0xbda477d8	-0.08030671
187	0x3e4c7790	0.19967484
188	0x3e6b8ea0	0.23003626
189	0x3e210c06	0.15727243
190	0xbe05cb29	-0.1306578
191	0x3e7819bc	0.24228567
192	0xbe41189b	-0.18857042
193	0xbdd30dfe	-0.10305403
194	0xbc0477fa	-0.008085245
195	0xbda46f12	-0.080289975
196	0xbe7da1e5	-0.24768789
197	0x3e726567	0.23671494
198	0xbd2c52e9	-0.042071257
199	0x3e6c9127	0.23102246
200	0xbd7ac4bd	-0.06122278
201	0xbdaee89d	-0.08540461
202	0x3dccbf02	0.09997369
203	0xbe7d5736	-0.247403
204	0xbdf0afe8	-0.117523015
205	0xbe2bae79	-0.16765775
206	0xbd555a20	-0.052087903
207	0x3e013d9a	0.12621155
208	0xbd984cb4	-0.07436505
209	0xbe439c90	-0.19102693
210	0x3e37a627	0.17934476
211	0x3e33847e	0.1753101
212	0xbe082cf0	-0.13298392
213	0x3e8328d6	0.25617093
214	0x3e63843c	0.22218412
215	0xbd0babb1	-0.034099285
216	0xbe9bbb59	-0.30416372
217	0xbd4fc3d0	-0.05072385
218	0xbd93f15f	-0.07223772
219	0x3d6c2d81	0.057660583
220	0x3d8961eb	0.067081295
221	0x3b0c5f4e	0.002141911
222	0x3e6b89fd	0.23001857
223	0xbd8b5229	-0.0680278
224	0x3c13b216	0.009014627
225	0x3e61c0a8	0.22046149
226	0x3e800da0	0.25010395
227	0x3e03c598	0.12868345
228	0xbe08608c	-0.1331808
229	0x3dfd2136	0.1235985
230	0x3be9f595	0.0071398714
231	0xbdccfda8	-0.100093186
232	0x3e560597	0.2090057
233	0xbd8ef197	-0.06979673
234	0xbe64f5b4	-0.22359353
235	0x3dfbcf25	0.12295369
236	0x3e325172	0.17413881
237	0x3df5a5dc	0.11994526
238	0x3e833208	0.25624108
239	0xbc6f2d4e	-0.014598204
240	0x3e8564e0	0.26053524
241	0xbdc4e071	-0.09613121
242	0x3e754d4f	0.23955272
243	0x3dbe6a0a	0.09297569
244	0x3e1e9314	0.15485793
245	0xbe098d62	-0.1343284
246	0xbe8e380a	-0.2777713
247	0xbe3743a3	-0.17896895
248	0xbe138fbe	-0.14410302
249	0x3d6e7306	0.058215164
250	0x3e8d5637	0.2760484
251	0xbe64392b	-0.22287433
252	0x3dcb1ac0	0.099172115
253	0xbe900752	-0.28130585
254	0x3e4039f8	0.18772113
255	0x3e3314a5	0.17488344

mean_head.bias f4 [6]
0	0xbe2183e0	-0.15772963
1	0x3e1a8e8e	0.15093443
2	0x3d60c967	0.054879572
3	0x3b519ba4	0.0031983638
4	0x3bcc3d5d	0.006232901
5	0x3db72261	0.08942104

value_head.weight f4 [1, 128]
0	0x3f68580d	0.90759355
1	0xbeeafbe4	-0.45895302
2	0x3cc64023	0.024200505
3	0xbbf269d1	-0.007397868
4	0xbd342a5c	-0.04398571
5	0x3d87e19d	0.06634829
6	0x3d9a5238	0.07535213
7	0x3f8e0e89	1.1098186
8	0x3ee0934b	0.43862376
9	0xbfb5ddbe	-1.4208295
10	0xbec051c9	-0.37562397
11	0x3efd06c0	0.49419212
12	0x3e783ed3	0.24242716
13	0xbb7ff270	-0.0039054416
14	0xbd942cdf	-0.07235121
15	0xbd3aa721	-0.045569543
16	0xbf3ed515	-0.7454389
17	0xbebdb853	-0.3705469
18	0x3eb3420f	0.35011336
19	0x3f91972e	1.1374261
20	0x3cd23acc	0.025662802
21	0xbf9444fc	-1.1583552
22	0xbef6c8ec	-0.48200166
23	0x3ef3542b	0.47525153
24	0x3f5e6dc8	0.8688626
25	0x3f79a44e	0.97516334
26	0x3d086b1d	0.033305276
27	0xbd34efdd	-0.044174064
28	0x3e4c23cd	0.19935532
29	0xbdb8de6e	-0.090268
30	0x3f871468	1.0553102
31	0x3e892d46	0.26792353
32	0x3ea28b4c	0.317469
33	0x3f0dcb23	0.5538809
34	0x3faa71d1	1.3315984
35	0x3fa32cd8	1.274806
36	0x3c11e804	0.0089054145
37	0x3e981be0	0.29708767
38	0xbf2014a1	-0.6253148
39	0x3dba2938	0.09089893
40	0x3df72e86	0.120694205
41	0xbd385ed9	-0.04501233
42	0xbf2ff8d2	-0.68739045
43	0x3f26b88d	0.6512535
44	0x3f948222	1.1602213
45	0x3fa5a0bc	1.2939677
46	0xbf9d7d0c	-1.2303786
47	0xbd6c2e34	-0.05766125
48	0xbe5fa006	-0.21838388
49	0xbb925fbd	-0.0044669793
50	0xbf9dea82	-1.2337191
51	0x3c99cdc8	0.018774882
52	0xbfa1a365	-1.2627989
53	0xbcf41eff	-0.029799936
54	0x3d8ba438	0.068184316
55	0x3f620870	0.88294125
56	0xbf768783	-0.96300524
57	0xbf4b1d0b	-0.7934119
58	0x3eb499dd	0.35273638
59	0xbd100000	-0.03515625
60	0x3d5ffa76	0.054682218
61	0x3f925e47	1.1435021
62	0x3c16e541	0.009209932
63	0x3ede8e75	0.4346806
64	0x3f5cef11	0.86302286
65	0xbf9a8e6c	-1.2074714
66	0x3e1b2f79	0.15154828
67	0xbf9ec39c	-1.2403445
68	0x3b37761b	0.002799398
69	0xbf89c81c	-1.0764194
70	0x3e9c631b	0.3054436
71	0x3cd76a97	0.026295943
72	0xbf1eb2ee	-0.61991775
73	0x3ce3bbd2	0.02779952
74	0x3fa95815	1.3230006
75	0xbf16cc72	-0.5890571
76	0xbec1ccdb	-0.37851605
77	0xbf5d103e	-0.8635291
78	0xbf994d90	-1.1976795
79	0x3f946b4d	1.1595246
80	0x3f0123e9	0.5044542
81	0xbbf3e7bf	-0.007443398
82	0xbeb21148	-0.3477881
83	0x3f8e3db2	1.1112578
84	0x3f83a692	1.0285208
85	0x3f64f3c1	0.8943444
86	0xbd831d65	-0.06402091
87	0x3e989313	0.2979971
88	0xbf37c6bb	-0.71787614
89	0xbf91fbb3	-1.1404938
90	0x3b4bf63d	0.0031122111
91	0x3f9d31c7	1.2280816
92	0xbf64094f	-0.89076704
93	0x3f1cd86d	0.6126774
94	0xbf08297a	-0.5318829
95	0x3c45a61a	0.0120635275
96	0x3f533c8b	0.82514256
97	0x3df86129	0.12127907
98	0xbf0ae435	-0.54254466
99	0x3f76cedf	0.9640941
100	0xbf8b6268	-1.0889406
101	0x3e6d189e	0.23153922
102	0x3f6e17f4	0.930053
103	0xbf34b733	-0.7059204
104	0xbf98528c	-1.1900191
105	0x3d4afe8b	0.049559157
106	0xbf19634f	-0.5991716
107	0x3ed4a8f4	0.4153515
108	0x3ec1d63d	0.37858763
109	0xbf3efe5f	-0.7460689
110	0xbdcc7e65	-0.09985045
111	0xbf39abd0	-0.7252779
112	0x3f3e996f	0.7445287
113	0x3f966ae8	1.1751375
114	0x3be545c0	0.0069968402
115	0x3ef7fbb4	0.48434222
116	0xbc3127d5	-0.010812719
117	0xbf31a4da	-0.6939217
118	0x3e6b6a94	0.22989875
119	0xbf8f046a	-1.1173222
120	0x3f21b7e6	0.6317123
121	0x3d8f341f	0.06992363
122	0x3ed276ed	0.41106358
123	0xbf678019	-0.90429837
124	0xbde94327	-0.113897614
125	0xbf9a929f	-1.2075995
126	0xbe904ae9	-0.28182152
127	0xbf177213	-0.5915844
