checkpoints/biped_ppo_mp_0.pt (torch, 27284 bytes, 8 tensors)

log_std f4 [6]
000000 16 d4 27 c0 f0 6c 24 c0 cb 73 33 c0 c3 08 42 c0
       -2.6223197 -2.569149 -2.8039424 -3.0317848
000010 48 31 28 c0 fd 9f 25 c0
       -2.628008 -2.58789

body.0.weight f4 [64, 18]
000000 3c 60 96 bf b8 cc 82 3f ad 18 a4 3f fb 07 57 be
       -1.1748118 1.0218725 1.282003 -0.20999138
000010 b9 9d 2f bf a4 e7 37 be b7 b2 34 3f 65 62 27 be
       -0.6860004 -0.17959458 0.705852 -0.16346128
000020 a6 8c 44 bf f6 b8 75 bd 1e f8 e5 bd 50 8a e8 bd
       -0.7677711 -0.059990846 -0.11228965 -0.11354506
000030 c3 ed 22 bd 10 1e 25 be a1 ba 66 bd 0b 3a 72 3d
       -0.03977753 -0.16124749 -0.056330327 0.059137385
000040 70 37 01 40 66 de 0f bf 57 bc b1 3d 1f fe ac bd
       2.0190086 -0.5619873 0.08678501 -0.08446907
000050 f8 d6 df 3e 8e 32 39 3f 45 7c 77 3f bf 00 8e 3b
       0.43718696 0.72342765 0.96673995 0.004333585
000060 e7 2f 85 be d8 24 58 be c8 0a 5d bf 37 82 7f 3d
       -0.2601311 -0.21107805 -0.86344576 0.062380042
000070 d9 67 aa 3a e6 15 60 3e 3f 1b 20 3d ed 2a a3 bd
       0.001300092 0.21883354 0.039088484 -0.07967172
000080 3a d1 38 bb bf f9 89 bf a6 37 47 be 51 88 b0 bf
       -0.002820088 -1.0779341 -0.19454822 -1.37916
000090 a3 8c 87 be 4d 9e 0f 40 c3 1e a0 3f 60 60 3e 3f
       -0.26474485 2.244037 1.2509388 0.74365807
0000a0 9f 5d 40 bb 5d 53 96 bf a6 39 17 3e c5 33 59 3d
       -0.0029352678 -1.174419 0.14768085 0.053027887
0000b0 fe d8 59 3e 9f 98 31 3c 0e 61 1b bd 2c 8f 49 bd
       0.21274182 0.01083961 -0.037934355 -0.049208805
0000c0 95 59 02 3e 77 e7 dd bd 62 80 19 bd 53 bc 40 3f
       0.12729485 -0.10835164 -0.03747595 0.7528736
0000d0 54 2b a9 3f 59 64 c6 be 46 9e 6b bf 32 8c 18 c0
       1.3216348 -0.38748434 -0.9203838 -2.3835568
0000e0 89 4e 7c be 31 39 05 c0 b0 de 76 bf ef ed 6a 3f
       -0.24639334 -2.0816157 -0.96433544 0.9176931
0000f0 37 94 16 3f ff ac 4d 3e c2 67 27 bf 2a 45 28 3c
       0.5881991 0.20085524 -0.65392697 0.010270396
000100 44 dd 68 3d ea b2 50 3d 87 d1 44 bd 09 3b 1d be
       0.05685164 0.050951876 -0.048051383 -0.15354551
000110 39 f3 8a 3d 08 84 ce be bf 58 03 c0 e4 13 73 be
       0.06784672 -0.40335107 -2.0522916 -0.23738056
000120 9e 78 19 bf 3a 10 09 3f c3 9b 91 be 1c 13 5e 3e
       -0.5994967 0.53540385 -0.2843915 0.21686977
000130 c1 74 bd bc 52 3f 91 3d 8c 1f f2 be 98 e3 6f be
       -0.023126962 0.070921555 -0.47289693 -0.23426664
000140 e0 f3 da be db 94 3b bc 6f 64 8b 3d b1 39 8b bc
       -0.42764187 -0.011449064 0.068062656 -0.016995283
000150 15 94 8e bd 61 59 8b 3d 3b 84 52 3d ad e5 29 bf
       -0.06961838 0.06804157 0.051395636 -0.6636608
000160 ef 4c c5 3c 88 6d 65 bd 0f f7 49 3f fa bf 8b bf
       0.024084536 -0.05601266 0.78892606 -1.0917962
000170 5c 80 77 3f c2 35 45 bf 85 b2 c7 be fb f9 d8 bd
       0.96680236 -0.7703515 -0.39003387 -0.10594555
000180 28 ac 31 3f 9f fb 8e 3e 2f 7d 3e 3f 72 1d 05 be
       0.69403315 0.27926347 0.74409765 -0.12999514
000190 91 d5 db bc f7 af 41 3e c8 98 2a 3e 8f 7f 52 bd
       -0.026835235 0.18914782 0.16659844 -0.05139118
0001a0 f6 03 9d 3d f4 36 a2 3f 65 53 f6 be dd 3d cc be
       0.07666771 1.267302 -0.481105 -0.39890948
0001b0 e9 f5 e1 3c 1b fc 35 be 1f 34 00 bf 4f 71 81 3e
       0.02758308 -0.17771952 -0.5007953 0.2528176
0001c0 e0 44 82 be 96 39 41 3f c5 79 08 3d 5c 32 1f bd
       -0.25443172 0.75478494 0.033319253 -0.038866386
0001d0 81 87 1d bf 95 a0 7c 3e a1 a7 84 3e 02 42 c0 3d
       -0.6153489 0.24670632 0.2590914 0.0938759
0001e0 90 50 90 be 78 8e 2d be db eb 74 3e b1 0f 0f be
       -0.28186464 -0.16948879 0.23918097 -0.1397083
0001f0 5b fb f4 3e 8b 25 15 3d fe 20 80 bf 97 99 35 3f
       0.4784802 0.036412757 -1.0010068 0.70937485
000200 43 f9 96 3e 0f 5e 70 bc 22 8f c4 be 94 6b a9 bc
       0.29487047 -0.014670863 -0.38390452 -0.02068118
000210 2f de e5 bd 39 2c e4 be 89 60 59 be 68 7f 11 bd
       -0.11224019 -0.4456499 -0.21228231 -0.035521895
000220 b9 ff 88 bd 95 78 6f bd 60 23 d3 bb d6 bf c2 bc
       -0.066894 -0.058464605 -0.006443426 -0.023773115
000230 1f a2 02 3e a6 1a 66 be 23 70 91 bf a7 0e af 3e
       0.12757157 -0.22471103 -1.1362346 0.34190866
000240 69 3f 5e 3f 83 89 19 3f 8c 72 20 3e 1e 92 23 3d
       0.86815506 0.5997545 0.15668696 0.03993427
000250 7c a1 39 3e c6 e5 e8 be d5 a1 bd bd 71 a4 f4 be
       0.18128008 -0.45487803 -0.09259383 -0.4778171
000260 de b7 8d bc 48 d1 1d 3e c3 a2 eb 3d 03 d6 43 3d
       -0.017299589 0.15411866 0.11505654 0.04781152
000270 d4 56 30 bd c7 e8 e7 bd dd f9 d6 bc 21 9f b0 3e
       -0.043051556 -0.11323696 -0.026242191 0.34496406
000280 58 44 a5 bc 3f 70 c4 be 08 1d 1b 3f 28 bf 86 bf
       -0.02017419 -0.38366887 0.60591173 -1.0527086
000290 0d 71 6e 3e 50 bf f1 bd 06 9c 09 3e 02 6d 1c 3e
       0.23285313 -0.11804068 0.13438424 0.15275958
0002a0 71 79 41 3f 42 6c ae be 3b 55 3e bf fb 22 e2 3d
       0.7557593 -0.3406697 -0.743488 0.11041828
0002b0 a8 3f 8f 3b 0a 84 47 bd 7b 2c 8d bd 69 cf c3 be
       0.004371602 -0.048709907 -0.068932496 -0.3824418
0002c0 49 87 26 bd f3 54 bc 3e f4 9e b5 be dd bd 20 be
       -0.04065636 0.3678356 -0.35472834 -0.15697427
0002d0 d8 ba b3 be 22 9d 8a 3f b8 a7 00 bf e3 99 51 3f
       -0.35103488 1.0829203 -0.5025592 0.8187544
0002e0 c3 30 f8 3e f0 df 96 be 7e a6 01 bf 1e d4 f2 3e
       0.48474702 -0.29467726 -0.5064467 0.47427458
0002f0 aa f3 30 3e 4f 34 12 3e 38 84 09 3e 12 93 08 be
       0.1728045 0.14277767 0.13429344 -0.13337353
000300 fd 3a 04 3e dc 88 a4 bd 47 b7 5c bc 5b 31 e6 3e
       0.12913127 -0.08033916 -0.013471431 0.4495953
000310 79 0f a9 3d 7a 2a 43 3d f0 94 34 3e 44 9c 83 3f
       0.08254904 0.04764793 0.1763494 1.0282063
000320 80 c9 a9 3e 77 bc d2 3d 60 13 04 3e 64 03 7a 3f
       0.33161545 0.10289853 0.12898016 0.97661424
000330 ce 7a 0d bf 5a f3 d4 bc ea 2b 2e bf 13 6c fc 3c
       -0.5526551 -0.025994945 -0.6803576 0.030813253
000340 29 bf 1e bc b1 24 93 3d 59 22 00 3e 6a 2e cf 3d
       -0.009689131 0.07184733 0.12513103 0.10116275
000350 60 59 93 bb db 8c 46 be ce 06 b2 be c7 dc 0b bf
       -0.0044967383 -0.1938967 -0.34770817 -0.54633754
000360 d4 14 06 bf f1 ca 20 3f aa 47 0d 3f a6 24 48 bd
       -0.5237553 0.62809664 0.55187476 -0.048863076
000370 1a 14 9e be b4 0d 1e bf 42 3c c1 3b ee 40 14 3f
       -0.3087471 -0.6173966 0.005897076 0.57911575
000380 d1 3e 76 be b2 76 3b be 47 fd 2b bc 3c f8 56 3b
       -0.240474 -0.18306997 -0.010497398 0.0032801768
000390 74 b2 88 3d c3 92 20 3e 71 61 ae bc 5b 57 50 3f
       0.06674662 0.15680985 -0.021286698 0.81383294
0003a0 4a 4b 79 bf e8 a7 ef be d9 b6 10 be 05 45 57 3f
       -0.97380507 -0.4680779 -0.14132251 0.8408969
0003b0 fc 0e 0f bf 93 99 70 bf 12 bd 94 3d 8c 45 ca 3e
       -0.5588224 -0.93984336 0.07262625 0.39506185
0003c0 3c 6d c3 3f ec 94 40 bf 08 9b 00 be 82 f4 b8 bd
       1.5267711 -0.75227237 -0.1255914 -0.09031011
0003d0 a2 dd 6d bd 4c ed ba bc b9 11 24 be 97 07 b1 3d
       -0.058072694 -0.02281823 -0.16022386 0.08644026
0003e0 8b d4 f6 3d 27 e9 61 3f e9 14 8a bc 54 ac 59 3e
       0.12052258 0.8824639 -0.016855674 0.21257144
0003f0 8e ce 99 bf c7 a4 31 3d a4 6d 3c be 1b f1 71 bf
       -1.201616 0.043370035 -0.184012 -0.9450852

body.0.bias f4 [64]
000000 a0 55 82 bd e1 75 e7 bd 49 f5 b1 3e 27 fa ac bd
       -0.06363988 -0.113017805 0.3475745 -0.0844615
000010 cc c2 56 3f ed 2c 7e be a2 7a 27 bf b7 2e 13 bf
       0.83890986 -0.24821825 -0.654215 -0.57493156
000020 77 57 b6 be 09 b9 b6 3d 90 c2 08 3f da e3 aa 3c
       -0.35613605 0.089220114 0.5342188 0.020860601
000030 9e 2c ac be 3e 29 30 3f 21 1c 3a 3f 60 89 16 bf
       -0.3362779 0.6881293 0.7269917 -0.5880337
000040 bd 8a 07 3c 5c 13 9e 3e 5e 57 a1 bd ae d0 18 3e
       0.008272824 0.30874145 -0.07877992 0.14923355
000050 90 da d4 bd 3f 52 bf be a9 64 2f 3e 6b 6c e2 bc
       -0.1039325 -0.37367436 0.17128243 -0.027639588
000060 35 38 76 3f ad fc c6 be ba ec 8d bd 8b 9f 3e bf
       0.96179515 -0.3886465 -0.06929918 -0.74462193
000070 ba d8 f4 bd bf 88 c7 3e fb 91 0a be f7 89 91 bf
       -0.119554 0.38971516 -0.1353225 -1.1370229
000080 06 bf 53 be ee d0 a3 3e 16 d7 c4 be b8 9d 2b be
       -0.20678338 0.31995338 -0.38445348 -0.16759384
000090 39 79 d2 3c da cc 87 bf e5 9d 11 3f 68 f4 a8 be
       0.02569257 -1.0609391 0.5688155 -0.32998967
0000a0 af c7 e6 3e 23 1a 49 3d 31 bc 75 3f 77 30 1c bf
       0.45074221 0.04909719 0.9599028 -0.6101145
0000b0 a7 6c ff be c5 c4 bc be cd f7 c6 3d 6c 13 6e be
       -0.49887583 -0.36868873 0.09715233 -0.23249596
0000c0 1a 8c 46 bf 17 c7 39 3e b3 c7 8c be 8f c9 a7 be
       -0.7755753 0.18142353 -0.27496108 -0.32770965
0000d0 35 f2 a6 bd f4 1a 0d bf e6 0a 72 bd 46 11 dd be
       -0.08151666 -0.5511925 -0.059092425 -0.4317724
0000e0 1d fa 84 3f 46 c2 05 bf 66 a4 6f bf 20 aa c6 3d
       1.0388829 -0.5224956 -0.9361023 0.097004175
0000f0 5b 9f 6a 3e a4 74 ad 3e 0d 3a a2 3d c6 c2 d7 3e
       0.22912352 0.33878052 0.079212286 0.42140788

body.2.weight f4 [64, 64]
000000 00 85 13 3f f8 64 9c 3e 4f c7 0a 3f 3a 2a 83 be
       0.57624817 0.30545783 0.5421037 -0.25618154
000010 b5 f6 1e 3f c4 37 01 3e 3f dd 58 be ae e8 39 be
       0.62095195 0.12618929 -0.21178149 -0.18155167
000020 cf 79 8f 3a 61 d4 cc be 2a 04 84 3e ad b0 40 bd
       0.0010946336 -0.40005782 0.25784427 -0.04704349
000030 bb 8b 52 be 6e 64 8a 3e 84 b5 b1 be de c1 46 be
       -0.20561115 0.27029747 -0.34708798 -0.19409892
000040 2d 88 9a 3e e7 d6 1f 3f 12 0b 6f 3e ef 06 27 3e
       0.3018202 0.6243729 0.23344067 0.16311239
000050 6e 5a 85 3e bf e8 80 be e6 84 08 bd c6 91 00 3f
       0.26045555 -0.2517757 -0.033329867 0.5022243
000060 4e ca 75 be 2c 4e da be 6a 91 42 bd 94 3d 9d be
       -0.24002954 -0.42637765 -0.04750196 -0.30711043
000070 24 bb 32 be db 48 97 3e 58 88 a6 3e 66 c5 e7 be
       -0.17454201 0.29547772 0.32525897 -0.4526779
000080 e1 e8 9a be 47 0c ef bc 13 f4 36 bf 6d 8d d9 be
       -0.30255798 -0.029180659 -0.7146618 -0.42490712
000090 ea 62 35 3d 3b c0 32 be 4d 0a c6 3e 8c 98 17 3e
       0.044283785 -0.17456143 0.38679734 0.14804286
0000a0 ee ae 43 bc e0 7c 45 be c2 1f f5 3e ee 51 56 bf
       -0.011943562 -0.19285917 0.47875792 -0.83718765
0000b0 29 23 e5 be 6e df 06 be 92 de bd 3e e9 59 7b 3e
       -0.44753388 -0.13171169 0.3708387 0.24546017
0000c0 a4 3d b1 3e c1 2e 82 3e 1c a3 7e be f5 7b 6f be
       0.3461734 0.25426295 -0.24866909 -0.2338713
0000d0 84 a7 ab 3e ff a7 ba 3d 3b 3e f0 3e f2 3e bc bd
       0.33526242 0.09114074 0.46922478 -0.09191693
0000e0 39 15 60 3f b0 04 81 be 25 66 90 be f3 1a 65 3e
       0.87532383 -0.2519889 -0.2820293 0.22373562
0000f0 35 f5 2f 3e 33 c2 f4 3c a7 49 b8 3e e7 12 bd 3e
       0.17183383 0.029877758 0.35993692 0.36928484
000100 03 de 8c 3e ef 90 49 be 6f 7f 03 3e 6e 4d ea 3b
       0.27513131 -0.19684194 0.12841581 0.0071503436
000110 07 4d d7 be f5 bd f2 3e 80 05 0a 3f 7d 93 df 3d
       -0.42050955 0.4741055 0.5391464 0.10916803
000120 ce 38 ce 3e b4 4c da 3d b1 39 a8 be a7 57 e7 bd
       0.40277714 0.10659161 -0.32856515 -0.11296015
000130 01 6e 12 3c 58 a0 98 be 27 98 d2 be 6a 02 a8 3e
       0.00893736 -0.29809833 -0.41131708 0.32814342
000140 31 82 1a 3e 5d 5d 0e bc b5 39 d1 3d a3 d5 af be
       0.15088727 -0.008689252 0.10216085 -0.3434268
000150 6b f2 35 3e b1 21 4c 3f 74 a0 1c 3e e7 be d0 3e
       0.17768256 0.7973891 0.15295583 0.40770647
000160 9e 3d 84 bf ff f8 8c be 7b 1c 52 3e 44 9e 41 3e
       -1.0331304 -0.2753372 0.20518677 0.1890803
000170 3d 48 2d be d7 d6 7b be d9 d1 fa 3e ea 47 36 3f
       -0.16922088 -0.24593674 0.48988226 0.7120348
000180 4a 2d ac ba 4f fe 8e be 37 64 f8 bd 03 df ca be
       -0.0013136056 -0.27928397 -0.121284895 -0.3962327
000190 93 e4 05 3e 00 fc 6f 3f fb d2 67 3d 42 13 e8 3e
       0.13075475 0.93743896 0.05659769 0.45327193
0001a0 ca 4b e0 3d e0 6e ec bd b5 e3 63 bf 1e 38 5a 3e
       0.109519556 -0.11544585 -0.8901933 0.2131047
0001b0 04 eb ed be 25 4b f6 3d fa 39 a0 3d d5 72 68 3e
       -0.46468365 0.120260514 0.07823558 0.22700055
0001c0 90 13 48 3f a8 ed 21 bb 52 6d d0 3b 16 4f c4 bc
       0.7815485 -0.0024708305 0.0063606882 -0.023963492
0001d0 39 04 ab 3e 8d c0 00 bd f9 c2 99 3e c0 47 21 3f
       0.3340166 -0.03143363 0.30031565 0.63000107
0001e0 37 97 4b bf b7 54 37 3f e9 db 92 3f 80 41 99 be
       -0.7952761 0.7161364 1.1473361 -0.29932785
0001f0 85 b1 93 be a5 c2 cf bd db 8c cb 3d 3e 91 b0 be
       -0.28846374 -0.101445474 0.099389754 -0.3448581
000200 7e 59 8b be a1 a2 94 3e ec e0 e3 3d 41 c8 4c be
       -0.27216715 0.29030326 0.11126885 -0.19998266
000210 67 7e ee be 54 73 10 bd cb 29 33 3e ad f1 0f be
       -0.46580812 -0.035266235 0.17496412 -0.14057036
000220 4b 75 cd bd 10 78 dc bd f5 e7 a2 3d 1b bb cc 3d
       -0.100321375 -0.107650876 0.079543985 0.09996625
000230 70 34 aa 3d bd 52 8a bd e4 b0 8f be 54 e4 fe 3e
       0.08310783 -0.06754062 -0.28064644 0.49783576
000240 93 03 0e bd fe 8c db be c1 e3 7f be ab 1b 98 3f
       -0.034671377 -0.42881006 -0.24989225 1.1883444
000250 01 cf a7 3e 72 52 a8 be ac a5 6b 3e 25 dc 92 be
       0.3277512 -0.328754 0.23012418 -0.28683582
000260 34 ba 2c bf 2a 0d 26 3d 81 58 73 3e 91 6b 20 3f
       -0.67471623 0.040539898 0.2376423 0.62664133
000270 12 57 6c 3e 76 3b e2 bd ec f2 e8 bd c0 2c 61 3e
       0.2308009 -0.110464975 -0.11374459 0.21989727
000280 14 14 f9 3d 82 f7 ab be cb 49 a9 3d bc e1 e2 bd
       0.12162033 -0.3358727 0.08266028 -0.11078212
000290 99 39 4f 3e c4 18 8f 3e 9d 6b 21 bf 7c 73 2e 3e
       0.20236816 0.27948582 -0.6305483 0.17036241
0002a0 66 62 96 be 03 15 29 3d 2f 7f 80 bf df 5b 22 3f
       -0.29371947 0.041279804 -1.0038813 0.63421434
0002b0 46 c0 8e 3d a2 de a7 3e 15 5d d5 3d bf 12 23 3f
       0.06970267 0.32787043 0.104181446 0.6370048
0002c0 30 77 2c 3f 19 a7 06 3e 0f d2 57 be 45 8a 0f 3f
       0.67369366 0.1314968 -0.21076225 0.5607036
0002d0 b8 42 11 3e 1e 5c 55 3d 62 f6 dc 3e fe ca 00 3c
       0.14185607 0.052089803 0.43156725 0.007860897
0002e0 aa bb 32 bf c0 a4 c0 3e b0 c5 af 3e a3 6f 39 3d
       -0.698176 0.37625694 0.3433051 0.04527248
0002f0 54 79 4f 3e 12 43 d0 3d 47 39 35 be 5c c7 26 3f
       0.20261127 0.10169043 -0.17697631 0.6514795
000300 c8 b5 22 bf e7 71 d8 3d 18 b1 39 be 38 9d 98 be
       -0.63558626 0.105686 -0.18133962 -0.29807448
000310 53 48 ca bb cc b0 e2 bc e3 24 fb bd 29 49 a3 be
       -0.0061731725 -0.027672194 -0.12262895 -0.31891754
000320 d8 ec 2e 3e dc ab b6 3e 0b 58 a8 3e fd ba ed 3d
       0.17082536 0.35677993 0.3287967 0.11607931
000330 d9 b9 04 be c6 7d 41 be 60 03 68 be 42 72 48 3d
       -0.1296152 -0.18895635 -0.22657537 0.04893709
000340 30 45 3d 3e bf d2 c5 3e 17 42 9e be 3b 6e 2c 3e
       0.18483424 0.3863735 -0.30909798 0.16838925
000350 5a 81 1a bc 76 e0 9e bd c0 cd cf bd 12 10 ad bd
       -0.009430254 -0.07757656 -0.101466656 -0.08450331
000360 39 9a b6 bd ec 2d 86 3e c2 7c 7e be 0e 82 6c bd
       -0.089161344 0.2620691 -0.24852279 -0.057741217
000370 ef d7 01 3f 5c e0 56 3e 8e 8a 93 3c ad 71 99 bd
       0.50720114 0.20984024 0.018010404 -0.07492385
000380 23 ca 48 be aa e2 8a be b0 46 e0 3e d9 5f bd bd
       -0.19608359 -0.27126056 0.4380393 -0.09246797
000390 26 0b f5 3b 0f c0 52 3e 47 8d d7 be 74 97 18 bd
       0.0074781356 0.20581077 -0.42099974 -0.037253812
0003a0 bc fe ee 3b 9f b6 99 be 2b 71 7b be a0 76 be 3e
       0.0072935503 -0.3002214 -0.24554889 0.3719988
0003b0 8c d7 a4 3e 09 75 2e bf 8d c2 98 be 47 18 e7 3d
       0.321957 -0.6814733 -0.2983593 0.112839274
0003c0 a6 85 c4 3e 2a 31 84 3d 56 7a 5d bf 4c 35 50 bd
       0.38383216 0.0645469 -0.86514795 -0.050832078
0003d0 81 17 10 3d 7b ef a0 bd c5 73 61 be 77 f7 e7 bd
       0.035178665 -0.07858177 -0.22016819 -0.11326497
0003e0 df e6 f5 be bd f5 d1 bd 17 14 7f bd 0d 47 cb 3e
       -0.48027703 -0.10251949 -0.06227502 0.39702645
0003f0 d8 0c 03 be 3a 35 ad 3d bf fc 0f 3f 82 52 69 3e
       -0.12797868 0.08457418 0.56245035 0.2278538

body.2.bias f4 [64]
000000 27 d0 08 3e e6 63 16 bf ce bf 9d be 49 ae 21 3e
       0.13360654 -0.5874618 -0.30810398 0.15789141
000010 e7 60 bd 3e e0 4c 9e 3e f3 54 99 bd d0 09 e1 bd
       0.36987993 0.30918026 -0.07486906 -0.109882
000020 4f fc 14 be a2 cc 2b bc 67 c4 c7 bd cb 93 3c be
       -0.14549373 -0.0104858 -0.09754258 -0.18415754
000030 af f5 f8 3d 04 4f 05 be 46 f9 d0 3e 4a 68 14 3e
       0.121562354 -0.13018423 0.4081518 0.14492908
000040 db 00 22 3d 0e b6 d3 be 54 1f 4f bb 5f 98 40 3e
       0.039551597 -0.41349834 -0.0031604366 0.18808125
000050 97 c4 90 be bc 04 fa bd 26 bf 04 3e f0 c1 53 be
       -0.28274986 -0.12207934 0.12963542 -0.2067945
000060 ef 35 88 bc 08 57 10 be b8 77 b3 bd c0 43 df bc
       -0.01662728 -0.140957 -0.08763069 -0.027253985
000070 5a e1 3f 3e 0a b5 1f 3e 21 80 07 3f 26 e9 9c 3d
       0.18738309 0.15596405 0.52929884 0.07661657
000080 0c 5f 33 be 43 26 bd 3d 16 ce f6 bd 64 b0 39 be
       -0.17516726 0.092358135 -0.120510265 -0.18133694
000090 1f 6c b0 3e ce bc 91 3d aa 27 ef 3e 07 f9 91 be
       0.3445749 0.0711609 0.4670995 -0.28510305
0000a0 7a c7 bd bd 69 9e af bd 07 49 f3 3b 67 4b a0 be
       -0.09266563 -0.08575136 0.007424477 -0.31307527
0000b0 8a 52 c8 bd 79 c4 b7 3d 79 d7 71 3e 21 3e a3 3d
       -0.09781368 0.08973021 0.23617353 0.079708345
0000c0 e7 f9 a6 bc d0 96 05 be bd 87 bc 3d 54 f3 f7 bd
       -0.020382835 -0.13045812 0.092055775 -0.12106958
0000d0 a3 67 ad 3d 69 1f 99 be 5d 64 a3 be 87 ae 9e be
       0.08467033 -0.29906777 -0.3191251 -0.3099253
0000e0 8c 87 9b be 83 39 51 3d 3c e6 ed 3d db 16 a4 3d
       -0.30376852 0.051080238 0.11616179 0.08012172
0000f0 3f 85 81 3e d1 ef ae bb d7 d4 91 be 25 f3 80 3e
       0.2529697 -0.005338647 -0.28482696 0.25185505

mean_head.weight f4 [6, 64]
000000 cf b3 29 be 69 69 34 3d 09 8c a3 3d de ff fd be
       -0.16572498 0.04404584 0.07985694 -0.49609274
000010 22 99 26 3d d3 12 8a bd 49 86 73 3e e7 b6 71 3e
       0.040673383 -0.06741872 0.23781694 0.23604928
000020 33 b8 2a bc ed ff 23 bc 45 b4 2b be 9d 14 12 be
       -0.010419893 -0.010009748 -0.16767986 -0.14265676
000030 56 44 8c 3d d0 99 0d 3d 68 e0 1e 3d ea 9d 6e 3d
       0.068489715 0.034570515 0.03878823 0.058256067
000040 cf 07 81 bd 7a 94 06 bc ad 78 fb bc eb bd 04 bd
       -0.063003175 -0.0082141105 -0.030697191 -0.032407682
000050 44 1b 79 bb c0 ba 21 bd 89 1b b9 bd 7f d1 4d be
       -0.0038010636 -0.03948474 -0.09038455 -0.20099448
000060 21 fc f9 3d 10 33 4e 3d d6 7d 7d 3d 73 6a 1b 3e
       0.12206293 0.050341666 0.061887585 0.15177326
000070 fb de 4f be 75 5d 61 3e 60 f7 a7 3d 6f ba 5d 3e
       -0.20299904 0.22008307 0.0820148 0.2165315
000080 16 77 1f be 68 35 8f bd 52 0b 14 be 2e 49 c8 bd
       -0.15572771 -0.06992608 -0.14457443 -0.09779583
000090 7b 4f 19 be 7b 84 27 be d6 46 5d 3d 37 7c 31 bd
       -0.14971726 -0.16359131 0.054022633 -0.04333135
0000a0 de 0f 24 3d d5 81 58 bd 22 7d f1 3d 4a a6 92 3a
       0.040054195 -0.052858192 0.11791445 0.0011188474
0000b0 70 70 0d 3d 0c 60 10 be 8b d6 d6 3d 39 de b4 3d
       0.034531057 -0.14099139 0.104901396 0.08831448
0000c0 b0 c3 37 3d 5e 71 6c 3e d6 1c 00 bc b2 f8 24 3d
       0.044864357 0.23090121 -0.007819375 0.040276237
0000d0 87 d3 09 3e cd 9e 17 3e 17 e7 94 bd 0b eb d7 bc
       0.13459598 0.14806671 -0.072706394 -0.026357194
0000e0 85 8f fe bd 46 54 c5 3c b8 91 b4 bd e4 6e 19 3d
       -0.12429718 0.024088036 -0.08816856 0.03745927
0000f0 32 68 fc bc d1 d2 19 be 67 3b ce 3c da 2e 3a 3e
       -0.030811403 -0.15021826 0.02517481 0.18181935
000100 38 d2 c8 be 18 c2 50 3d 09 b2 5d 3d 1c 84 1f be
       -0.39222884 0.050966352 0.054124866 -0.1557774
000110 7e 0e 35 be 96 f8 81 bc 81 9f 47 3e b7 54 29 3e
       -0.1768131 -0.015865605 0.1949444 0.16536222
000120 fb 98 bc bd 1d 43 5b 3d 18 1e 07 3e 62 46 34 bd
       -0.09208866 0.0535308 0.13195074 -0.044012435
000130 95 73 74 3c 85 b3 40 3e 09 89 9a 3c cc cc 8d 3c
       0.014920135 0.18818481 0.018864172 0.017309569
000140 29 96 2e 3d f5 e7 c1 3b 27 dc b0 bc d2 48 e4 bd
       0.042623673 0.005917544 -0.021589352 -0.11146702
000150 4a fd 4b bd 2e d4 25 bd 4a 5b 32 3d 3c e4 5c be
       -0.049802102 -0.040485553 0.04354409 -0.2157144
000160 3a 2a 93 bc 10 4e 4f 3a 5b 20 54 bd 6b 89 c3 3d
       -0.017964471 0.00079080556 -0.05178867 0.09547695
000170 06 89 ec bd 45 f2 a2 bc 37 4a 05 3d 0b 7c d3 3c
       -0.11549573 -0.019890914 0.03254148 0.025815984
000180 3b a8 b5 bd a5 61 64 bd 6c cf 90 bd af d8 cf bd
       -0.08869978 -0.055757184 -0.070708126 -0.10148751
000190 05 0e c6 bd 7f 42 00 be a2 87 54 3c 83 92 1e bd
       -0.09670643 -0.12525366 0.0129717905 -0.038713943
0001a0 b0 da 64 3d cb ef a7 bd 40 db a6 ba e2 e3 6a 3c
       0.05587262 -0.08200034 -0.0012730137 0.014336558
0001b0 b8 3e 51 bc 3c 5f 74 be 54 8d c4 bd 6d 01 07 3e
       -0.012771301 -0.23864454 -0.09597269 0.13184138
0001c0 7b 1b 27 bd ae 62 da 3d 7d 84 2b be 75 29 b7 bd
       -0.04079769 0.10663353 -0.16749759 -0.08943454
0001d0 9b 9f 81 3d 97 d7 c0 3d 8f a0 86 bd b2 1b 8e 3d
       0.063292705 0.094161205 -0.06573593 0.06938876
0001e0 94 65 68 bc e7 7f 5c bc cc 48 87 bd a7 8a 9c bd
       -0.014184374 -0.013458229 -0.06605682 -0.07643633
0001f0 4d 22 33 bd 3e 07 3b 3d 18 65 aa bd c0 b9 cc 3d
       -0.043733884 0.045661204 -0.08320063 0.099963665
000200 16 21 b3 be bc 96 44 3d a9 97 fd bd ab f8 41 3d
       -0.3498618 0.047995314 -0.123824425 0.04735629
000210 6c 1e 07 3d 72 d7 ae 3d c2 9f 80 3d 77 0f d6 bd
       0.032987997 0.08537187 0.062804714 -0.104521684
000220 15 09 4b 3e 9d 9a 13 3d 9b f2 ae 3d 9b 06 2a be
       0.19827683 0.036036123 0.08542367 -0.16604082
000230 6c 5f e7 3c ad 24 43 3e 4b 85 e9 bc d6 a6 c3 3c
       0.028243743 0.1905696 -0.028505942 0.023883265
000240 ee 94 90 bd 81 a7 0e bb 2f 39 78 bd d5 4e 0a bc
       -0.07059656 -0.002176732 -0.06060141 -0.008441647
000250 39 86 da ba ab 93 bd 3c 5e 4e e5 3d 08 b3 0a 3d
       -0.0016672082 0.023141703 0.11196588 0.033862144
000260 11 95 32 3d 76 e2 c7 38 43 c8 a6 bc ef f4 10 3e
       0.043599192 9.531241e-05 -0.020359164 0.14155935
000270 66 c4 b2 3d 84 cb 09 bd e6 92 6b 3b a4 99 75 3d
       0.08728866 -0.033641353 0.0035945713 0.059960976
000280 a2 78 08 bc dd 02 96 bc cb 9e d6 ba 4d 31 b9 3d
       -0.008329542 -0.018311912 -0.0016374228 0.090426065
000290 ef 95 04 3e d7 3e 00 3e 54 13 f9 3a 03 48 f6 bc
       0.1294782 0.12523971 0.0019002953 -0.030063635
0002a0 7d b2 c4 3b 60 50 5f bd d1 30 94 3d bb ce 3c 3e
       0.006002723 -0.05452001 0.072358735 0.18438236
0002b0 c7 4b 96 3d 2f 3d b4 3d 45 65 66 3b 3d 19 95 3e
       0.07338672 0.08800732 0.0035155576 0.29120818
0002c0 2a 9e 28 bc 96 b7 84 bd e1 c9 90 bd d4 18 de 3c
       -0.0102916155 -0.06480329 -0.07069755 0.027111448
0002d0 9f c0 f6 3c 87 11 88 3e cd d4 45 3e 96 cb 80 3e
       0.030121146 0.26575872 0.19319458 0.25155324
0002e0 df a2 38 bc b2 80 f2 39 20 5b 28 be 03 b3 8c 3d
       -0.0112693 0.00046253722 -0.16441011 0.06870081
0002f0 cd 50 80 bd 4a 9a 74 bd f3 69 53 bd 47 d3 59 3e
       -0.062654115 -0.059717454 -0.051614713 0.21272002
000300 57 7b 7d bd e3 c7 ac bc e5 a1 9b bd 2f 51 22 be
       -0.061885204 -0.021091407 -0.07599238 -0.15851282
000310 44 00 1a be 86 15 2f 3e 47 4b 8a be ae 55 a3 3b
       -0.15039164 0.17098054 -0.27010557 0.004984579
000320 d9 d0 2a be 08 e7 e4 bc cb 92 f0 bc 5a 97 bc 3c
       -0.16681232 -0.027942196 -0.029366871 0.023021389
000330 4d e8 82 3d 0c be 7a be 7b 37 59 bb ec ff 9f 3c
       0.06391964 -0.2448656 -0.0033144641 0.019531213
000340 72 78 af 3d a0 f9 51 bd 5d 53 a0 bc 7e 12 3b 3c
       0.08567895 -0.05126345 -0.019571 0.011417983
000350 af a1 e6 bb dd 6e c6 3d df 20 36 be e9 79 5b 3e
       -0.007038317 0.09689114 -0.17785977 0.21433224
000360 c1 ba 75 bb c3 13 fa bc c7 83 c8 3c ae e4 3e be
       -0.0037495347 -0.030527001 0.024476899 -0.18641922
000370 7f 9e 76 bd 96 f3 55 3d 0c ea cf 3d 60 a1 e8 3d
       -0.060209747 0.052234255 0.10152063 0.11358905
000380 37 cd 05 3e 84 1d b7 3d 90 d0 8f 3c 84 79 0b bb
       0.13066565 0.089411765 0.017555505 -0.0021282146
000390 57 eb c6 bd 8c 04 81 3d 51 e9 98 bd 7a e2 f2 bc
       -0.09712856 0.062996954 -0.074663766 -0.029649008
0003a0 ac e9 bf 3b 2a 11 ce bd 90 14 25 bd 2e 7b c6 3b
       0.0058567133 -0.100618675 -0.040302813 0.0060571646
0003b0 15 ba c0 bd e7 5f 98 bc 99 1d 83 3d 1f e6 eb bd
       -0.09410492 -0.018600417 0.0640213 -0.115185015
0003c0 15 b7 6a 3d bb 58 c3 3c 93 05 1b 3d 95 22 4b 3d
       0.057303507 0.02384602 0.037847113 0.049593527
0003d0 9b 5a 8d 3a 26 c1 2b 3e 4e e2 d3 3d ec 3e 0a be
       0.0010784449 0.16772899 0.103458986 -0.13500565
0003e0 bd d1 98 be 56 f6 1d be 7e d6 7c 3e 0f b8 8b 3e
       -0.29847518 -0.15426001 0.24691197 0.27288863
0003f0 7c 0e 95 bd 6c 37 1a be ae 4e 0c 3d b4 7b a8 3d
       -0.07278153 -0.15060204 0.034254722 0.082267195

mean_head.bias f4 [6]
000000 a1 0b 44 3d 8a 90 43 bc 0e a9 50 bd d7 6c 18 3e
       0.047862653 -0.011936316 -0.050942473 0.14885269
000010 6d b8 8c be 71 2c 07 3e
       -0.27484456 0.13200547

value_head.weight f4 [1, 64]
000000 5d 59 b0 3f 21 fe c6 3f 79 da 93 3f 54 01 28 bf
       1.3777272 1.5546304 1.1551048 -0.65627027
000010 ab 60 a4 bf cc f6 4a be e1 d0 95 3f be 7e 27 3f
       -1.2842001 -0.19820708 1.170437 0.6542777
000020 fd b4 88 3f db 5d 8c bf e1 25 14 3c 96 32 2e 3f
       1.0680233 -1.0966142 0.009042234 0.6804594
000030 70 ff df bf dd 6e 09 3f 3c 33 b1 bf 8e 4a 90 bf
       -1.7499828 0.5368479 -1.384376 -1.1272752
000040 78 9e 4e bf 0c 5c ea 3f 83 cd 57 c0 31 f0 0f c0
       -0.80710554 1.830934 -3.3719184 -2.2490351
000050 d5 b2 ea 3f ff 10 e2 3f 18 72 31 c0 e7 0f 67 3f
       1.8335825 1.7661437 -2.7725887 0.9025864
000060 75 eb 96 3f c1 f0 06 40 89 b0 0d c0 de a7 58 be
       1.1790606 2.1084445 -2.2138999 -0.21157786
000070 31 2d 08 c0 2c 4e 59 be 65 b9 0b c0 bd 20 a2 40
       -2.1277583 -0.21221226 -2.1831906 5.0664964
000080 ec ca 86 3f 3f d5 49 bf 32 bd 5a 3f 60 eb dc 3f
       1.0530677 -0.7884101 0.8544494 1.7259331
000090 87 39 e4 be 67 dd 2e 40 a3 94 91 bf bc 2f 3c 40
       -0.4457514 2.7322633 -1.1373485 2.9404135
0000a0 b5 96 53 40 e5 ff 19 3f b9 88 66 3f 93 af 83 3e
       3.3060734 0.6015609 0.9005237 0.2571989
0000b0 2c 1c 04 3f 1a 15 83 3f 70 4b 58 bf 98 40 1c bf
       0.51605487 1.0240815 -0.8449011 -0.6103606
0000c0 b2 16 8c 3f 2e d3 95 3f e0 f3 90 bf 95 dc 9b c0
       1.0944426 1.1705072 -1.1324425 -4.8706765
0000d0 24 32 0a c0 31 5f 85 3e b2 8f f5 3f 5e 8d e0 3e
       -2.1593103 0.26049188 1.9184477 0.43857855
0000e0 5c 22 2c 3f 8e 17 d4 bf 5b a0 90 bf 7b 3d 2e c0
       0.6723993 -1.6569688 -1.1298937 -2.7225025
0000f0 06 63 0d bf 82 13 4e 40 66 d1 75 3f 46 a8 c3 be
       -0.5522922 3.2199407 0.9602264 -0.3821432
