checkpoints/biped_ik_single.pt (torch, 83905 bytes, 8 tensors)

log_std f4 [4]
000000 96 20 f7 bf f7 b1 fa bf fa cb 25 c0 d1 c5 15 c0
       -1.930682 -1.958556 -2.5905747 -2.3401988

body.0.weight f4 [128, 21]
000000 54 7e 21 be 45 a3 01 3e 9d c4 4c bf 2c 1f 99 3d
       -0.15770847 0.12659939 -0.7998751 0.07476649
000010 d2 44 17 3f e2 de 88 3d f6 fc 84 be df 41 81 bd
       0.59089386 0.066831365 -0.25974244 -0.06311392
000020 c4 c2 dc 3d 6c da 6b bd 68 87 15 be b4 5c d8 3e
       0.10779336 -0.05758135 -0.14602435 0.42258227
000030 25 03 05 3e 58 ee 1e 3e 9d 59 8d 3e 98 62 24 3c
       0.12989481 0.15520608 0.27607432 0.010033272
000040 39 ce 07 3f bf 85 85 3e de 7c 9b be 89 8c 50 3e
       0.53049046 0.26078603 -0.30368704 0.2036611
000050 a1 8f 4e be cf 43 34 3e 95 a9 75 3e 2d 16 2f bf
       -0.20171978 0.17603992 0.23990472 -0.6839321
000060 1e d4 84 3b 4d 58 a5 bc cd 53 14 be dc 1f bb be
       0.0040536067 -0.020183707 -0.14485092 -0.36547744
000070 5d d0 72 be 02 64 aa bc bf cb 60 be a4 a4 cf bc
       -0.23712297 -0.02079964 -0.21952723 -0.025347061
000080 6d 8d a1 3e 4e 9f 6c 3d a4 a3 dd 3c a2 e3 26 3c
       0.31553212 0.057769112 0.027055569 0.010186108
000090 ba 9b 47 be 4a 14 3c 3e e2 f1 d1 bc f0 e9 0d be
       -0.19492999 0.18367115 -0.025628034 -0.13858771
0000a0 a5 12 10 3d d4 02 5d 3e 5d 13 5c be 73 fa 01 3f
       0.03517403 0.2158311 -0.21491762 0.5077278
0000b0 90 f6 46 bf de 7d 0a 3d b7 1f 7c be 96 1c c7 be
       -0.77719975 0.033811443 -0.24621473 -0.38888997
0000c0 de 3a ae bc 06 3a 97 3e a0 aa c0 3d 0f 70 20 be
       -0.021268304 0.29536456 0.09407544 -0.15667747
0000d0 c5 33 14 be d8 2c fe bd 66 61 39 3d c4 95 95 be
       -0.14472874 -0.12410897 0.045258902 -0.29215825
0000e0 6c 74 c4 bd a3 82 b2 3d c8 98 b4 bd 3f c3 9c be
       -0.09592518 0.08716323 -0.08818203 -0.3061771
0000f0 3d 05 18 be 6e c5 15 3d c1 3e 82 3d be d9 14 3e
       -0.14845748 0.036565237 0.063596256 0.14536187
000100 0a 4b 84 bf 80 74 04 3f 73 50 27 3e c2 e1 5b be
       -1.03354 0.51740265 0.16339283 -0.21472839
000110 d8 4b f3 bd 71 a4 9f 3e 64 90 04 3e 0f ca 12 bd
       -0.118797004 0.31180146 0.12945706 -0.03583723
000120 7f 17 b0 bc 19 e7 2e bd 16 37 73 3d c1 d6 b3 3e
       -0.021495579 -0.04270086 0.059378706 0.35124782
000130 4f 1a 45 be 5e 9a f5 bd 32 a7 7a 3c ba 33 02 bd
       -0.19248317 -0.11992334 0.0152986515 -0.03178761
000140 eb a4 c4 3c e1 db 5a be 60 b8 89 3d 02 51 d7 bd
       0.02400442 -0.2137294 0.0672462 -0.10513498
000150 a0 6a 8b bd de 58 fd be fc e7 67 3f 48 c4 74 3d
       -0.068074465 -0.49481863 0.90588355 0.0597575
000160 49 a0 ca 3d ce 50 86 bd 97 17 40 3e 89 0d 0d 3e
       0.09893853 -0.06558381 0.18758999 0.13774695
000170 b8 8a f3 3d ad 06 c2 3d 1e de 69 3e a0 19 da bc
       0.11891693 0.094739296 0.22838637 -0.026623547
000180 14 51 97 3d 28 6d 10 be 14 a7 99 bd fc 37 43 3d
       0.07388511 -0.1410414 -0.07502571 0.047660813
000190 d4 d4 d3 bd ed de c2 bd c4 70 7f 3d c0 67 39 3e
       -0.10343328 -0.09515176 0.0623634 0.18105984
0001a0 f1 36 31 3e 8a 50 b2 3d ec 49 1c bf 47 24 71 bf
       0.17306115 0.08706768 -0.61050296 -0.9419598
0001b0 af 14 04 3e 0e a8 c0 bd 77 fe 7d 3d 7d 3b 22 be
       0.12898515 -0.09407054 0.062010255 -0.15843005
0001c0 6f d7 66 be c2 bd 85 3e 74 44 4b bd 83 f5 6f 3d
       -0.22543119 0.26121336 -0.04962583 0.058583748
0001d0 73 a8 81 3e 85 af 9a 3e 6b 15 c6 bd c3 c8 16 be
       0.2532383 0.30212036 -0.09672054 -0.14725022
0001e0 72 1f d0 bd d9 38 9f 3c 72 5b 91 3d 9b bf 48 3b
       -0.10162248 0.019436287 0.0709752 0.0030631784
0001f0 d9 30 57 be 28 00 48 3e f3 91 0b 3e 3d 95 a9 be
       -0.21014728 0.1953131 0.13629894 -0.33121672
000200 24 e8 97 bf c7 a2 40 be 0e 2c 0d 3e ce c1 5a 3e
       -1.1867719 -0.18812095 0.13786337 0.21362993
000210 a1 9f 8f 3d 87 fc c3 be 38 4a 34 3e b3 4d 9f bd
       0.07012869 -0.382786 0.17606437 -0.07778492
000220 40 98 c7 bd c1 cd 13 3f 5a 45 0d be 7f 44 40 3e
       -0.09745836 0.5773583 -0.13795987 0.18776129
000230 30 db 78 3e ce 50 18 3d f8 2c e8 bd 7d e4 be 3d
       0.24302363 0.037186436 -0.11336702 0.093209244
000240 18 bc 13 3e dd 56 07 3d 10 e7 91 bd 1f 61 32 be
       0.14427221 0.033041824 -0.0712415 -0.17419861
000250 d1 96 07 be 1a e8 80 bf 6d 61 2d be 71 7c 4c 3e
       -0.13241126 -1.0070832 -0.16931696 0.19969346
000260 cb d3 e8 3d 6b 68 5c 3e 6d fe 12 3f 75 8b 84 be
       0.11368521 0.21524207 0.5741947 -0.25887647
000270 c7 4b 1e 3f f5 ff 00 3f e6 55 89 be 98 c1 e0 3e
       0.6183438 0.5039056 -0.26823348 0.438977
000280 c1 d9 90 be f5 4c a6 be 00 84 8b be 08 9d 74 bd
       -0.28291133 -0.3248059 -0.27249146 -0.05972007
000290 c0 84 f7 bd c8 cd a0 be 72 af 95 3d 87 c8 4d 3e
       -0.12085867 -0.31407 0.07308854 0.20096026
0002a0 1d 4c f9 3d 61 b3 54 be cb 88 61 3f cd 07 4d bd
       0.121727206 -0.20771553 0.88099355 -0.050056268
0002b0 79 e4 b7 3d 41 c6 01 bc 11 f1 85 3d 98 71 b1 bd
       0.089791246 -0.007920803 0.065401204 -0.086642444
0002c0 2a de 57 bd 9e a6 64 3e c7 fd 92 3e e8 38 fe bd
       -0.052702107 0.22329184 0.28709242 -0.12413198
0002d0 24 9d 98 3d 1e 6a 8d 3e 4d 0c 61 3e ec ae ea 3c
       0.07451847 0.27620023 0.21977349 0.028647862
0002e0 5a e9 aa bc 06 ee df 3d 12 3a bd bd 7a 17 45 3e
       -0.020863224 0.10934071 -0.09239592 0.19247237
0002f0 4c 9d d0 bd bd 21 90 3e b5 3a 1b bf 91 f9 1a bf
       -0.10186252 0.2815074 -0.60636455 -0.6053706
000300 91 21 50 3e 5a e8 87 3e 8b ff 77 3e 44 93 2b be
       0.20325305 0.26544458 0.24218576 -0.16755396
000310 25 ed a8 3c c1 5e fe 3c 20 ff 01 be dd db 2a 3e
       0.020620892 0.031051042 -0.12694979 0.16685434
000320 c4 f8 e7 3e 12 94 b1 3e 8a 50 89 3c 23 c1 fd 3c
       0.4530698 0.3468328 0.016762037 0.030975884
000330 d1 3e e1 bd bc 53 3c 3e 49 2c 18 3e f1 45 70 3e
       -0.109983094 0.18391317 0.14860643 0.2346418
000340 f1 61 98 bd 0a f7 3d 3e ab 72 aa 3d 0a 56 c9 be
       -0.07440556 0.18551269 0.083226524 -0.39323455
000350 f0 00 67 3f 8a 02 50 3e f1 eb 6f 3e 97 94 4e 3e
       0.90235806 0.20313469 0.23429848 0.2017387
000360 ec 04 71 bc 27 bd 3e 3e 1a 7a 08 be 71 f9 5c 3e
       -0.014710646 0.18626843 -0.13327828 0.2157953
000370 ea 3e 1d be 02 4d d3 bd 1f 90 fc 3d 27 cc 05 3e
       -0.15356031 -0.103174224 0.123321764 0.13066159
000380 4c d1 d2 3d b9 37 1b be 0b ae 01 3e a2 6d 5d 3d
       0.102938265 -0.15157975 0.12664048 0.054059632
000390 e9 b0 c3 bd 0d ad 01 bd 6d 3b bb bd a3 30 d5 bd
       -0.09555227 -0.031659175 -0.09142194 -0.10409667
0003a0 54 25 53 bf 0d e7 e6 3d 5a a7 17 be c5 bf 77 bc
       -0.82478833 0.11274538 -0.14809933 -0.015121405
0003b0 de 91 9d bd 56 71 cb 3d f7 b5 d2 3d 25 dd 35 3e
       -0.076938376 0.099337265 0.10288613 0.17760141
0003c0 a3 3c ca 3e f7 0f 13 3d 47 5f 24 3e 02 9f 02 3e
       0.39499387 0.035903897 0.1605197 0.12755969
0003d0 a6 93 2b 3d cd 0d b8 bd 99 ab 3c 3e fc d6 aa 3d
       0.041888855 -0.08987007 0.18424834 0.08341786
0003e0 b7 66 02 be 99 6a 78 bc 24 f3 85 bd 8c 10 82 bd
       -0.12734495 -0.015162134 -0.06540516 -0.06350812
0003f0 a3 1d 90 bd 58 79 2b be 41 04 a2 bf d9 10 0b be
       -0.07036903 -0.16745508 -1.2657548 -0.13580646

body.0.bias f4 [128]
000000 57 e0 7b bd 42 0a 45 3e 33 2d db 3d 0b bc 21 bc
       -0.061493244 0.19242194 0.107019804 -0.009871493
000010 a6 d6 8b bd 14 de 55 bd bb fc e2 3d 08 6d 38 3d
       -0.0682805 -0.052213743 0.11083361 0.045025855
000020 60 0a d7 bd 12 43 9b 3d 1a 99 33 be 1d 75 42 be
       -0.10500026 0.07581152 -0.17538872 -0.18989988
000030 89 84 c2 3b d4 1a 78 be a1 00 02 bc 30 00 ea 3d
       0.0059362096 -0.24228984 -0.00793472 0.11425817
000040 91 ca f2 bc 48 cd 30 be e8 b7 1c bd 20 f0 71 3e
       -0.029637607 -0.17265809 -0.038261324 0.23626757
000050 05 30 18 3e d2 9f cc 3d f2 c2 64 bd ec aa 95 bd
       0.14862068 0.09991421 -0.055849977 -0.073079914
000060 6e 72 2e 3d e8 1a 7d be 76 95 4f be d4 79 4a bd
       0.042589597 -0.24717295 -0.20271859 -0.04943259
000070 54 ca 34 3e f7 3b ab 3d e5 59 9f 3d 5f dd 6e be
       0.17655307 0.08361047 0.07780818 -0.23326634
000080 72 af 86 3e 03 79 45 3e 2c a3 05 be aa d6 97 bd
       0.2630573 0.19284444 -0.13050526 -0.07413991
000090 e0 49 26 3e fa 3b 45 be d7 b5 64 bc 03 54 17 be
       0.16239119 -0.1926116 -0.01395937 -0.14778142
0000a0 f5 f4 cb bc fb 8d a1 bc 7e ac 14 be e8 d4 36 be
       -0.024897078 -0.019721022 -0.14518926 -0.17854655
0000b0 39 2a 2d 3e 36 18 ea 3d 56 43 66 bd 7c d9 56 be
       0.16910638 0.11430399 -0.05621656 -0.20981401
0000c0 11 8b 46 3e c4 ca f9 3d 8f fd 20 be c3 4e 63 be
       0.19388987 0.121968776 -0.15721725 -0.22198014
0000d0 15 3b dd 3d 51 5c 4d bd ca c8 e6 bc d0 ec ca 3d
       0.10802285 -0.050136868 -0.028171916 0.0990845
0000e0 6e 85 c4 3d b3 e2 38 be 97 25 4b be c0 8d 22 bd
       0.09595762 -0.18055229 -0.19838558 -0.039685965
0000f0 d6 ae 2f be 0f 15 a6 3d 89 4d 2f 3e 0d 61 4d bd
       -0.17156538 0.08109485 0.17119421 -0.050141383
000100 26 7e 57 3e 39 46 57 be 38 0b 34 3d 99 ff 91 bd
       0.21044216 -0.21022882 0.04395601 -0.071288295
000110 29 c5 06 3d 29 a3 34 be e9 65 78 3e 84 c5 50 be
       0.03290287 -0.17640366 0.24257626 -0.20387846
000120 6c f0 18 3e 23 b3 34 be 46 85 c8 3c 97 85 04 bc
       0.14935464 -0.1764646 0.024477612 -0.008088491
000130 e1 bc 51 be 35 be fe 3d 30 00 34 3e c0 49 1d be
       -0.20482208 0.12438623 0.17578197 -0.15360165
000140 ac 69 55 3e 2c 2f 80 bd 93 ee 74 3e 34 e4 d4 3d
       0.20841092 -0.06258997 0.23919134 0.10395089
000150 53 8a bc b9 57 23 bd 3d f5 f4 5f be 77 9c 5a be
       -0.00035961214 0.09235256 -0.21870787 -0.21348749
000160 6d 9c b3 bd 3f fd 2b 3e 85 4e 5e 3d c3 1b c3 3d
       -0.0877007 0.16795824 0.0542741 0.095267795
000170 8f c9 aa bd 35 f2 a9 bd 1b 86 a5 bd 49 bd da bd
       -0.083392255 -0.082981504 -0.08082219 -0.106806345
000180 e5 81 56 3d 8d fd 22 3d 5c 94 e7 bd 0b 7e 68 3e
       0.05236997 0.039792586 -0.11307594 0.22704332
000190 34 8a fe 3d 48 85 05 3e 88 05 af 3c 2d b5 86 bd
       0.12428704 0.13039124 0.021364942 -0.06577525
0001a0 9b f7 f6 bd 91 a5 36 be 6e ad 33 3e fe 2f 42 bd
       -0.12058946 -0.17836596 0.17546627 -0.04740905
0001b0 fa 48 33 3d a1 51 95 3d 9c 39 d8 bc 86 23 fc 3d
       0.043770768 0.0729096 -0.026394658 0.12311463
0001c0 a1 83 71 3e 30 96 95 bd 01 a0 29 be c4 52 cf bc
       0.23585369 -0.073040366 -0.16564943 -0.02530802
0001d0 b7 59 b5 bd fe af 48 3d dc 85 b4 bb 13 5c e1 3d
       -0.088550024 0.048995964 -0.0055091213 0.1100389
0001e0 ea f0 8c be a4 9e 0c be 2b 6b 89 be 38 f9 ed bd
       -0.27527553 -0.13732392 -0.26839575 -0.116198
0001f0 a9 b6 84 bb f5 80 85 3e 6c 8b 8f 3d 74 33 7d bd
       -0.004050095 0.2607495 0.070090145 -0.061816648

body.2.weight f4 [128, 128]
000000 b0 fa 63 3d c2 16 83 bc b2 78 ab be 0f 73 07 3e
       0.055658996 -0.016002063 -0.3349052 0.13227485
000010 57 e3 97 3e 8f 76 51 3d f2 9e 95 bc c8 45 4c be
       0.29665634 0.051138457 -0.018264268 -0.19948494
000020 82 e2 51 3e b2 31 24 3d 0c 45 8a 3e f4 1b aa 3d
       0.20496562 0.040086456 0.27005804 0.08306113
000030 6d 3d 97 be e0 12 9d 3d e0 82 b1 3d 8c e0 31 be
       -0.29539052 0.07669616 0.086675406 -0.17370814
000040 95 b2 21 3e 7e 4a 4c 3e 93 70 8d 3e 45 1a ae 3d
       0.1579078 0.19950292 0.2762495 0.08501104
000050 1f 27 1f be 90 29 a5 3d 71 5b 08 be ca f5 2c 3e
       -0.15542267 0.08064568 -0.13316132 0.16890636
000060 a7 e8 ea 3b d5 5e 1f 3e 70 f9 87 3d dd 0f 80 3d
       0.0071688476 0.1556352 0.06639373 0.06253026
000070 a7 dc 53 be d4 cd ea 3d 99 36 73 be 5a cc 77 3e
       -0.20689641 0.1146504 -0.23751296 0.24199048
000080 74 cb 80 be bc bf 10 3e 95 cc 27 3c d1 f1 09 be
       -0.25155222 0.14135641 0.010241647 -0.13471152
000090 fd 86 d8 ba 36 a1 38 3e 9c 79 ca be c8 1a ee 3b
       -0.0016519722 0.18030247 -0.39545906 0.007266376
0000a0 93 5f dc bd e2 cc 29 bc f1 02 84 3e fb 45 6f 3e
       -0.10760417 -0.010363789 0.25783494 0.23366539
0000b0 f4 e5 0c 3e c4 c8 95 3b 79 e7 82 3c 25 92 15 3e
       0.13759595 0.0045710523 0.015979515 0.14606531
0000c0 ba a5 a5 bc 39 09 a8 be 77 14 d5 3d 31 61 64 3e
       -0.020220626 -0.32819536 0.10404294 0.223027
0000d0 e4 89 0f bd 59 b1 c9 3c 36 90 09 3e 98 e6 85 bc
       -0.035043612 0.024620699 0.13433918 -0.016345307
0000e0 1b eb e4 bd d6 58 2d 3e 77 72 86 3c 42 cb 11 be
       -0.11177655 0.1692842 0.016412003 -0.14237693
0000f0 ff 6e 0c 3e 6e d2 ce bd 61 d8 31 3d 43 08 3c be
       0.13714217 -0.1009873 0.043419246 -0.18362527
000100 85 8e 6c 3d b6 a7 3c 3d 69 a2 52 3e 0d 5a b0 3c
       0.057753105 0.04605838 0.20569767 0.021527315
000110 d1 71 0b be fa 2f 68 3e 93 55 9f be ac d5 44 3e
       -0.13617636 0.22674552 -0.31119975 0.19222134
000120 f9 3f 05 bc e1 4d c3 3d b1 59 31 be 2b 64 89 bd
       -0.008132928 0.095363386 -0.17319371 -0.06708559
000130 7f ba f5 3d 31 cb bb bc b4 2f 02 3e b4 71 aa 3c
       0.11998462 -0.022924038 0.1271351 0.020806171
000140 32 e3 7a 3e 02 b8 22 3e ac da b6 3d e3 71 a9 bc
       0.2450073 0.15890506 0.08928427 -0.020684188
000150 e3 58 b7 be 3a 4c f5 bc 40 35 ba 3e ad 14 fc 3b
       -0.35810003 -0.029943574 0.36368752 0.0076928944
000160 a4 24 1d bd 53 ab b0 bd 09 41 e7 bd 8a c6 39 3d
       -0.03836502 -0.086264275 -0.11291701 0.045355357
000170 fc c2 41 bd 2c a1 b1 3e 86 11 ef 3d 62 72 88 3e
       -0.047305092 0.34693277 0.11673264 0.26649767
000180 8d a3 96 bd fb 28 9d bd 01 7a 9f 3d 2a fb 17 3e
       -0.073554136 -0.07673832 0.07786942 0.14841905
000190 5a 30 e4 3d 32 e1 7d bd 7d c2 35 bd 63 0a 30 3e
       0.11142035 -0.06198234 -0.04437493 0.17191462
0001a0 1b 4e e5 3d 04 c9 57 3c b0 88 0f bd 7e bb 32 be
       0.11196538 0.013170484 -0.035042465 -0.17454335
0001b0 cb 39 7d 3e 56 98 28 3d 8e c3 4d bd 7e cc 83 3d
       0.24729078 0.041160904 -0.050235324 0.06435488
0001c0 20 aa ec bd b8 ef 73 3e c7 fa f6 3d b2 61 f1 bd
       -0.11555886 0.23821914 0.12059551 -0.11786212
0001d0 db 02 b9 3e 39 cb 57 3e ad 2e 18 3d c7 97 01 be
       0.3613499 0.21073617 0.03715389 -0.12655555
0001e0 c5 f1 af 3d 4a 4f 9a bc 72 37 34 3e d1 13 4f 3e
       0.08591036 -0.018836636 0.17599276 0.20222403
0001f0 93 3f 11 3d 8a a5 a0 3d b2 e7 96 3d 20 8d 05 3f
       0.03546102 0.07844074 0.07368411 0.52168465
000200 34 9e 25 bd 8d a6 cd 3b 56 2e 92 be 17 29 c6 be
       -0.040434077 0.006275958 -0.28550977 -0.38703224
000210 a0 36 29 be 4b 28 11 be ce 2d 15 bc 9f 6d 87 3d
       -0.16524744 -0.14175527 -0.009105159 0.066127054
000220 35 a7 4d 3e e6 26 8c bd 93 be 2d 3d fb 38 da 3b
       0.20083316 -0.06843357 0.042418074 0.0066596246
000230 13 70 33 be 5d 3b 30 bd 4f 14 3f 3e 5a 1d 60 3e
       -0.17523222 -0.043025363 0.18660091 0.21886197
000240 99 a3 41 be aa 1b 21 3e 16 9b 93 3e 9b f9 04 3e
       -0.18910064 0.15733209 0.2882926 0.12985842
000250 47 2e 83 bc aa 19 ea bd a2 a1 d3 3d a4 8b 90 3e
       -0.016013278 -0.11430676 0.103335634 0.28231537
000260 92 67 f5 bc 8c 5b a3 3d 2f 51 1e bd 55 16 2a 3e
       -0.029956613 0.079764456 -0.03865164 0.16610081
000270 16 3b 64 3c 6e 2d 7c 3e 55 2f 5a bd 2c 54 9c bb
       0.013930103 0.24626705 -0.053267796 -0.0047707763
000280 fe 6c 81 3a e0 e6 65 3e eb ad 8d bd 19 ba ac 3d
       0.0009874401 0.22451353 -0.06917938 0.08433933
000290 95 a2 03 be 08 c1 36 3e 07 a5 b7 3e fb 37 9e bb
       -0.12854989 0.17847073 0.35868093 -0.0048284507
0002a0 b2 c2 bd bd 88 7b 43 3d 00 4b 2a be 9d 6d 33 3c
       -0.09265651 0.04772523 -0.16630173 0.010951427
0002b0 49 39 bb bc f2 c5 16 be 50 fc 6c 3e 61 d6 e3 bd
       -0.022854464 -0.14723948 0.23143125 -0.11124874
0002c0 3a 81 13 3c ed fb f3 3d a8 f0 ea ba c1 bc 02 3d
       0.009002978 0.119132854 -0.0017924504 0.03191829
0002d0 91 e4 06 be 0b 6c c7 3d e2 8c 24 3e 2a 92 a9 bc
       -0.13173129 0.097374044 0.16069368 -0.02069958
0002e0 34 2d d1 bd 5e ed e5 bd 31 e6 0d be 2a cc 57 bd
       -0.102137 -0.11226915 -0.13857342 -0.05268494
0002f0 9b b3 3b 3b 0d 50 15 bd 5f d7 5d be af 2a 39 bc
       0.0028640989 -0.036453295 -0.21664189 -0.0113016805
000300 cc bf a1 bd 9d e0 bb 3d 8a 30 bc 3d c9 e8 c0 3d
       -0.078979105 0.09173701 0.091889456 0.094194
000310 6e d9 c5 3d d1 09 46 bd ca b9 a7 3d 34 ad b1 3d
       0.09660612 -0.048349205 0.08189733 0.08675614
000320 8e 37 15 3d 4d 09 79 3d 2c 06 ac 3e 8a a9 34 3d
       0.036429934 0.060799886 0.3359846 0.044106998
000330 95 94 2b bd ee 89 a8 bd db 5f 64 bb 53 5d 0c 3e
       -0.041889746 -0.08229433 -0.0034847173 0.13707475
000340 ef 52 aa be b2 45 65 bd 19 51 71 bc 59 2d 81 be
       -0.33266398 -0.05597467 -0.014728808 -0.2522991
000350 52 40 92 3c 59 f3 a6 be 19 34 83 3d 5a c5 b5 bd
       0.017852936 -0.32607535 0.06406421 -0.088755324
000360 5d 45 8c 3d 05 a1 a8 bc 51 12 52 3e 58 c9 26 bd
       0.068491675 -0.020584593 0.205148 -0.04071936
000370 11 f6 17 3e ed 19 f2 bd 8e d1 ab be 5e 0d 47 3d
       0.1483996 -0.11821351 -0.33558315 0.048596732
000380 d9 e3 6f 3e 81 49 b0 3e bc c9 47 3d e1 d7 28 be
       0.2342676 0.3443108 0.048776373 -0.16488601
000390 08 be 98 3d e9 e2 0a bd fb c4 61 bb 88 f1 7e be
       0.074581206 -0.033907805 -0.0034449685 -0.24896824
0003a0 4d 16 9a bd 8d e0 96 bd e5 0c 82 bd 5a d2 1b 3e
       -0.07523785 -0.073670484 -0.06350116 0.15216962
0003b0 d9 c6 8d 3d 5d be 82 bd 05 db d6 3b 5c ac c1 3d
       0.06922693 -0.06383965 0.006556871 0.09456703
0003c0 98 83 b4 3d 5c 1f 65 bd 69 82 ab bd 21 e1 9c 3d
       0.08814162 -0.05593811 -0.08374483 0.076601274
0003d0 80 c8 93 3d 66 42 ee bc f6 90 3c 3e 72 b7 fa bc
       0.07215977 -0.029084396 0.18414673 -0.030605052
0003e0 58 cf 42 bc 97 cb 33 3e 80 f2 48 bd 0f b9 8a bc
       -0.011890255 0.17558132 -0.04905939 -0.016933946
0003f0 38 af 00 3d 8d 7e e3 bd 27 41 77 3e a5 5f 0d 3c
       0.0314171 -0.11108122 0.24145947 0.00862876

body.2.bias f4 [128]
000000 0b 13 b4 bd 80 e9 5c 3d eb fe 9e bb 24 95 42 3d
       -0.08792695 0.05393362 -0.004852166 0.047505513
000010 84 1e 0d 3e 5f c8 a7 bd 07 11 db bd ae 8c 08 3e
       0.13781172 -0.08192515 -0.10696607 0.13334915
000020 57 5f 01 be cd ce b3 bc cb 21 12 3e 59 9d 17 be
       -0.12634026 -0.021949196 0.14270703 -0.14806117
000030 19 0f c3 bc 2c ca b3 3d a5 51 06 3e 91 d0 f0 bd
       -0.02381091 0.087787956 0.13117082 -0.11758531
000040 df 50 4a 3d e1 e7 d8 3d 24 98 70 3d 19 df 1e be
       0.04939353 0.105911024 0.058738843 -0.15514793
000050 4e 42 82 3d 1b 57 06 3e d1 97 17 be 12 0c c8 bd
       0.06360303 0.13119166 -0.14804007 -0.09767927
000060 e8 83 c5 3c 51 cf 22 bd a7 0b 31 3e 37 fe 12 be
       0.02411075 -0.039748494 0.17289601 -0.14354788
000070 81 65 cd 3d 5d 4c a3 bd ca ee 2b be 63 c1 88 bd
       0.10029126 -0.079735495 -0.1679031 -0.066775106
000080 35 b8 91 3c b5 8a 2a 3d 3d bb 41 bd 13 5d 24 3e
       0.017788032 0.041636188 -0.047297705 0.1605113
000090 9c 9b d5 bd 48 d3 90 bd c7 66 28 be f4 2e 33 bd
       -0.10430071 -0.07071549 -0.16445456 -0.04374595
0000a0 bd ba 15 be cf 07 17 bb 20 a1 cf bd cd 64 ce 3d
       -0.14622016 -0.0023045426 -0.10138154 0.1007782
0000b0 c2 ec ca bd a4 4a 81 bd aa 20 a0 3d 1c 6d 10 3e
       -0.09908439 -0.06313065 0.0781873 0.14104122
0000c0 52 56 00 be 3b ce 4b 3e f2 f6 b7 bd 40 6c aa 3d
       -0.12532929 0.1990289 -0.08982648 0.08321428
0000d0 6a 1a 2b bd 28 1b 6a bd 92 03 1d 3e bc 0b 15 3d
       -0.041773237 -0.057154804 0.15333393 0.036388144
0000e0 8a 56 1b 3e 7b 4f b5 bd 81 ff df 3c e2 3e 26 3e
       0.15169731 -0.0885305 0.027343513 0.16234925
0000f0 cb 40 00 be 24 64 37 bb 83 fb f7 3d 8d 7c 13 bd
       -0.12524717 -0.0027983272 0.12108519 -0.036007453
000100 fe 64 34 3c bb e3 3f 3d f9 a4 eb 3c dd 60 06 3c
       0.011010407 0.04684804 0.028765189 0.008201805
000110 36 56 9f 3b 75 4d 67 3d fe 6e db 3d cc ba 06 3e
       0.004862572 0.056470353 0.107145295 0.13157195
000120 4f 43 0c 3e af b7 0f be cb 9f 89 3d 6d f6 ca bd
       0.13697551 -0.14034913 0.06719931 -0.09910283
000130 34 3b 7a 3d 3d 1c 8c 3d d7 c4 16 bd 0c 4d 44 3d
       0.061091617 0.068413235 -0.036808815 0.04792504
000140 f1 14 3e 3d a5 a4 e2 bc 09 3a f9 bb 3d 0f 2b be
       0.04640669 -0.0276664 -0.0076057953 -0.16705032
000150 bd ec 8f bb 64 ea 82 bc ba a7 89 bd 6c 79 0a 3d
       -0.004392235 -0.015980907 -0.067214444 0.033807203
000160 2f aa ba bd 60 12 33 3e fe b8 c7 bc 8f 9b c3 3d
       -0.09114491 0.17487478 -0.024380203 0.09551155
000170 19 c7 c4 3d d9 f7 1e bd 8c 81 09 be 35 a9 86 3d
       0.09608287 -0.038810585 -0.13428324 0.065752424
000180 71 79 a1 3d 37 f6 8b bd 7f 9e 24 be ae cf bc bd
       0.07884491 -0.06834071 -0.16076086 -0.09219299
000190 c8 67 85 3d e7 97 83 bd 2b 8b 8f bc 79 9d ce bd
       0.06513935 -0.064254574 -0.017522415 -0.10088629
0001a0 2e 8c 2f be 7f 92 48 bd 8c f8 9d bd 34 9b 32 3e
       -0.17143318 -0.048967835 -0.07713422 0.17442018
0001b0 71 79 72 3c da bd b6 bd c7 a5 07 be 4e d8 00 3d
       0.014799462 -0.0892293 -0.13246833 0.031456284
0001c0 00 f8 83 3d 2d 84 6f 3c 2f dc 00 bc 5a b2 b5 bd
       0.064437866 0.0146189155 -0.007864996 -0.088719085
0001d0 48 76 4d 3d 4f cc 88 bd 70 a8 06 be 1b c6 28 be
       0.05016163 -0.06679594 -0.13150191 -0.16481821
0001e0 83 56 c9 3d a1 cb b0 3c 7f 56 a6 bd bd 67 49 bd
       0.09830954 0.021581473 -0.081219666 -0.0491712
0001f0 00 0b df bc 23 fd 94 bd 75 a3 cd 3d 69 a4 6b 3d
       -0.027226925 -0.072748445 0.100409426 0.05752984

mean_head.weight f4 [4, 128]
000000 83 4d d2 3d 31 66 4d bd 9b 6c f2 bc 2b db 8a 3c
       0.102686904 -0.050146285 -0.029592803 0.01695021
000010 af d1 94 3d bd 27 bf bc 74 3b 2a be b9 a7 25 be
       0.072665565 -0.023334378 -0.16624242 -0.16177262
000020 1a 2b 11 3d fa 58 01 3e df 3c 6b 3d 68 a3 0c 3d
       0.035441495 0.12631598 0.057431098 0.034335524
000030 a7 6d 03 3d 3f a3 8a bd b0 fe 88 bd 4c d2 8d 3b
       0.032086994 -0.06769418 -0.06689203 0.004328048
000040 28 98 28 3e f1 a2 08 be 56 d7 9b 3d 68 7e d2 bd
       0.16464293 -0.13343407 0.076094314 -0.10278016
000050 f5 ae 7b 3d da 23 69 bc 89 60 e7 bc 12 45 21 3d
       0.06144615 -0.014229739 -0.028244274 0.03937251
000060 57 65 3a bd fd 9a 03 be 9d a5 6c 3d 1a 62 06 3e
       -0.0455068 -0.12852092 0.05777513 0.1312336
000070 1a dc 88 3c 31 9f f1 bc f9 f4 04 3e 74 ad d1 bc
       0.016706515 -0.029494854 0.12984075 -0.025595404
000080 f1 1c 8c 3d 44 9f 88 3d e6 f4 d0 bc f3 55 b2 bc
       0.06841458 0.066710025 -0.025507402 -0.0217695
000090 e3 09 67 be 45 3f 88 3c 7f 88 84 be d4 08 63 bb
       -0.22562365 0.016631732 -0.25885388 -0.0034642713
0000a0 e9 ae 0f be 57 ee a8 3d 0b ac 6a bd d0 47 50 bd
       -0.14031567 0.08248585 -0.05729298 -0.050849736
0000b0 dc d3 99 3d e6 17 cb 3d d4 b1 c8 bd 12 44 4b 3c
       0.07511112 0.09916668 -0.09799543 0.012406366
0000c0 be 5b 18 3e 79 4c 21 bd 05 e5 cc 3d 67 ac 8d bc
       0.14878747 -0.03937957 0.100046195 -0.017294122
0000d0 a9 ca a1 3d ec cc a1 bd ac c3 ff bd 70 08 a9 3b
       0.078999825 -0.07900414 -0.12488493 0.0051584765
0000e0 f1 97 a4 3c ef e3 a9 bc 6d ec 01 3e c6 2b 50 3d
       0.020091983 -0.02073857 0.12687846 0.050822996
0000f0 d8 31 cf bc 19 ec d0 3d c1 d6 f9 3c 45 3f 97 3d
       -0.025292322 0.10201282 0.03049791 0.073851146
000100 81 fd 02 3d 40 9d 6d 3d 75 4d ec bc 7f 81 bb bd
       0.03198004 0.058011293 -0.028845528 -0.09155559
000110 68 d6 a2 bd 27 35 bf 3c b2 e0 0c bd a3 36 95 bd
       -0.07951051 0.023340775 -0.034393974 -0.07285812
000120 92 c6 5d bd d7 2e ec bd 2c 71 8f 3d 2e 6f 97 bd
       -0.05414445 -0.115323715 0.07004008 -0.07394253
000130 71 10 00 3c 48 32 5d 3d f1 b3 93 bd cf 04 f7 bd
       0.00781642 0.05400303 -0.072120555 -0.12061464
000140 1e 93 14 3e 59 eb 73 3d 45 e7 ba bd f4 40 6b bd
       0.14509246 0.059550617 -0.091261424 -0.05743499
000150 79 b2 fe 3d d4 3f 63 3d b0 d5 3a bd da 01 db 3d
       0.12436385 0.055480793 -0.045613945 0.106937125
000160 47 95 84 3d 7c c1 91 3c c1 80 19 be bf 35 97 bd
       0.06473785 0.017792456 -0.14990522 -0.07383298
000170 7e 7b 23 3d a0 92 89 3d a5 b7 47 be 97 1c 1b bd
       0.039912693 0.067174196 -0.19503649 -0.037869062
000180 d3 14 50 3d 11 3d 8e 3b 99 ae 30 bd da 34 22 3d
       0.05080111 0.004340776 -0.04313526 0.039601184
000190 a4 1e fd 3d bd b8 e6 bd fc 9a 5f bd 26 d3 9f bd
       0.1235936 -0.11265705 -0.054591164 -0.07803945
0001a0 56 14 ea bd 75 e3 b8 3d e4 13 eb bc cd 74 fa 3d
       -0.1142966 0.09027759 -0.028696008 0.12229309
0001b0 c1 a6 10 3c 50 fd 0b bc bf 08 0e 3d c3 0a 82 bc
       0.00882882 -0.008544281 0.03467631 -0.015874272
0001c0 f6 59 1c 3e 65 5a 44 bd 84 b5 15 bd 65 8d 2c bd
       0.15268692 -0.04793777 -0.03655006 -0.04212703
0001d0 f8 18 93 3d 68 6e e8 3c 88 87 c9 3d 8c 50 2a be
       0.07182497 0.028372958 0.09840304 -0.16632289
0001e0 e1 ed 87 bc f9 23 e6 bd c1 83 b4 bc 1d 28 8b 3c
       -0.016592922 -0.1123733 -0.022035481 0.016986901
0001f0 01 84 3d 3c 81 c8 cd 3c 7f 62 a1 3d ee 66 bf bb
       0.011567117 0.025120022 0.07880115 -0.0058411276
000200 7a b9 3a 3e 7b 3d fe 3b ae 18 b7 bd ea c1 51 be
       0.18234816 0.007758794 -0.08940254 -0.20484129
000210 cc d3 90 be 79 fd cb 3d 12 7f 94 3d f1 29 92 3d
       -0.28286588 0.099604554 0.07250799 0.07136906
000220 6f 31 08 be 64 f7 43 bd d9 77 97 3c af db 7b 3d
       -0.13300107 -0.047843352 0.018489765 0.061488803
000230 dc e2 5a 3e 5a c7 c8 3d 17 b3 6e 3d 1e f9 56 3c
       0.21375602 0.09803648 0.058276262 0.013120918
000240 0e e1 9b bd 1a e1 1b be b6 66 4e bc 4c 81 0b 3e
       -0.07611285 -0.15222588 -0.01259773 0.13623542
000250 d8 1b 2c bc c1 a4 04 3d 89 9f 70 3d 12 f5 b2 3c
       -0.010504685 0.032383684 0.058745895 0.021845374
000260 69 a3 d9 3d ed 3d 8a bc 58 16 07 3e 01 da 64 be
       0.10626871 -0.016875232 0.13192117 -0.22348787
000270 b8 a0 5c bd 60 60 d7 bd e4 a4 8a 3e d5 a1 91 3e
       -0.05386421 -0.10516429 0.27078927 0.2844378
000280 f4 d0 cc 3d ba a7 63 39 0e 4b 61 3d e1 c0 1a be
       0.10000792 0.0002171089 0.05500322 -0.1511264
000290 6b 84 62 be 50 e4 e0 3d d2 1b a8 bd c9 aa c1 bd
       -0.22120826 0.10981047 -0.08208431 -0.09456403
0002a0 bd 3d bf 3d 83 59 9d 3e 52 94 21 bd b3 ff 0d be
       0.093379475 0.30732355 -0.03944809 -0.13867073
0002b0 37 10 5a 3e e1 24 c1 3d 1f 43 fa bc 04 4e 66 3d
       0.21295248 0.09430862 -0.030549584 0.056226745
0002c0 0c 6d 95 be 7c 99 3c bd d3 05 1c be ed 3a 51 bc
       -0.2918476 -0.04604481 -0.15236597 -0.012770397
0002d0 dd 9e fe 3a fb 91 26 bd 31 4f 01 3e 39 22 da bd
       0.0019426007 -0.04066656 0.12627865 -0.10651059
0002e0 ab 0b 4f bd db bb 66 3c 03 c0 b4 be 93 3b 26 be
       -0.050548237 0.014082874 -0.35302743 -0.16233663
0002f0 c3 9b 1d 3d d8 77 54 3d 78 ef 0e 3e 98 f9 61 3e
       0.038478624 0.051872104 0.13958538 0.22067869
000300 6b da b0 3d e1 e3 1c be 65 7a 2b bc 72 f0 55 3d
       0.0863541 -0.15321304 -0.010466193 0.05223126
000310 c4 44 d8 bd a3 aa 10 bc e0 8e fe 3d 6e a7 a0 3d
       -0.10559991 -0.008829745 0.12429595 0.07844435
000320 70 af 27 bd 9c 1e b7 3b 64 ac 10 be 39 2a b2 3c
       -0.040938795 0.0055883657 -0.14128262 0.021748649
000330 a7 2d e9 3d b1 d3 c4 bd 36 8f 19 3e 23 af f1 bd
       0.113856606 -0.096106894 0.14996037 -0.11800983
000340 99 65 8c bd 7a 41 65 3d a7 58 37 3e 31 72 2f bd
       -0.06855316 0.055970646 0.17904912 -0.04283351
000350 ea 75 07 bc fa 95 1d 3e fa 5c 58 3e 63 c2 7f be
       -0.008267859 0.15389243 0.21129218 -0.24976496
000360 4d 79 2f be ee 3c a3 3d 9c 08 c1 bd f4 0b a9 3c
       -0.17136116 0.07970606 -0.0942547 0.020635583
000370 a3 f7 82 3d 2a 39 30 3d 6c 5f 9c bc 35 d9 fb 3d
       0.06394889 0.043023266 -0.01908847 0.12297288
000380 e9 02 58 3d b8 e3 09 be ac 2e a9 bd 23 3d 24 be
       0.05273715 -0.13465774 -0.08260855 -0.16038947
000390 8b d6 5b be 0e 43 21 bd 42 84 2e 3e 48 b2 1d bd
       -0.2146856 -0.03937059 0.1704264 -0.0385001
0003a0 cd ac f1 bd 97 89 4a 3d 5e 7e 17 bd ca 4f 0c 3c
       -0.11800537 0.049447622 -0.036985748 0.008563945
0003b0 6d 7b 23 3e a9 cb d3 3c 76 13 ff bd 9b 09 3a bd
       0.15965052 0.025853949 -0.12454884 -0.045419317
0003c0 c3 2f 5d bd ad 4f 89 3e ed 2c 8e bb 60 66 15 be
       -0.054000627 0.268186 -0.0043388517 -0.14589834
0003d0 84 0e 92 bc 0a a0 0d 3e 83 77 76 3c dc a9 ee bc
       -0.017829187 0.13830581 0.015043142 -0.02913373
0003e0 d8 44 8d 3c a9 9e 88 3d df 1e 5b bd a3 34 92 bd
       0.017244741 0.06670887 -0.053496238 -0.07138946
0003f0 dd 17 ae 3d 07 9c 1b 3e fe cb 3e 3b db 33 2a 3d
       0.08500645 0.15196238 0.0029113288 0.04155336

mean_head.bias f4 [4]
000000 97 7f a8 3d fa 9d 98 bc 19 55 55 3d 3b 22 38 bd
       0.08227461 -0.018630017 0.05208311 -0.04495452

value_head.weight f4 [1, 128]
000000 57 34 5d 3e 36 4d 0c bf 66 f8 1d bf c2 3a cc be
       0.21601997 -0.54805315 -0.6170715 -0.3988858
000010 17 89 5f be cc fa 1e bf 54 f9 ba be e9 0e 01 bf
       -0.2182964 -0.62101436 -0.36518347 -0.50413376
000020 d8 0a d4 3e e3 44 b4 3e 4d 97 10 3f 52 f4 c7 3e
       0.41414523 0.35208806 0.56480867 0.3905359
000030 f8 61 01 3f 39 c7 fd 3e 3e 1d 00 bf c1 01 cb be
       0.50540113 0.49566057 -0.5004462 -0.39649776
000040 9a f6 b3 3e 3d 3e 22 bf e9 51 e8 be 09 1b da 3e
       0.3514908 -0.6337622 -0.45374992 0.4259875
000050 3c 70 23 3f 37 65 a6 be 29 39 f3 3e ad 4e b3 3e
       0.6384313 -0.32499096 0.47504547 0.35020962
000060 b9 e0 ff be e9 01 b8 3e b3 34 ee be f4 19 b2 3e
       -0.49976137 0.35938957 -0.4652458 0.34785426
000070 74 eb bd be 6b e4 e2 be 2a c0 be 3e 44 b0 b7 3e
       -0.370937 -0.44314894 0.37255985 0.35876667
000080 d4 51 c1 be 2a d8 06 bf 7d c6 27 3f c1 c8 a6 be
       -0.37757742 -0.5267359 0.65537244 -0.32575038
000090 8a 0a 05 3f 0f fe a7 3e e2 7b 83 3e 74 62 e4 3e
       0.51969206 0.3281102 0.25680453 0.44606364
0000a0 c1 a2 f1 3e 9b ba 99 3e fd 33 cf 3e 14 3f 13 bf
       0.47194484 0.3002518 0.4046935 -0.57518125
0000b0 04 e0 d0 3e 7b a9 38 3e 46 74 01 bf 64 13 2c 3f
       0.4079591 0.18033402 -0.50568044 0.6721709
0000c0 5a c3 a4 be cf d2 ef be e8 50 d3 be 93 5b 10 bf
       -0.3218029 -0.46840522 -0.41272664 -0.5638973
0000d0 36 d1 07 bf 09 35 e8 3e 79 b2 b9 3e d1 67 1e bf
       -0.53053606 0.45352963 0.36268976 -0.6187716
0000e0 a4 03 e0 be 39 38 d8 3e bf dd 99 be 9e be e8 be
       -0.43752778 0.42230394 -0.3005199 -0.4545793
0000f0 e6 c3 b5 3e e1 36 13 3f 9f b4 f9 3e cb 15 00 3f
       0.3550102 0.57505614 0.48770615 0.50033253
000100 20 60 b8 3e 1e 0f f3 be 95 84 14 3f 09 09 03 bf
       0.36010838 -0.4747247 0.58014804 -0.5118566
000110 c6 b1 2c 3f 53 3a b5 be 4e d6 04 bf 0c ea e8 be
       0.6745876 -0.3539606 -0.51889503 -0.45491064
000120 f6 54 fb be ab f0 32 bf 37 55 9e 3e 40 6c b5 be
       -0.49088258 -0.6989848 0.3092439 -0.3543415
000130 3b 8b 26 bf 35 12 91 be d7 4c 58 3e 46 ff 1c bf
       -0.650562 -0.28334203 0.21123062 -0.61327016
000140 75 45 9f be d4 4b 0f 3f c5 ae a1 3e f4 a4 ec 3e
       -0.3110768 0.5597508 0.3157865 0.462196
000150 2e 63 cf be d8 a8 d1 3e f9 8e 09 3f 09 94 0c bf
       -0.40505356 0.4094913 0.53733784 -0.54913384
000160 b1 c4 14 3f e1 f9 d7 be d6 dd cd be db a3 02 3f
       0.5811263 -0.4218283 -0.4020831 0.51031274
000170 19 f3 0b bf 11 92 0e 3f 55 5f 88 3e f6 cb 3b bf
       -0.5466781 0.5569163 0.26635233 -0.73358095
000180 06 33 2b 3f 66 88 15 3f 47 40 e3 3e 18 7e b0 3e
       0.6687473 0.5841125 0.44384977 0.34471202
000190 6c 1a 07 bf 8d 9a aa 3e 90 31 96 3e 6f cf e7 3e
       -0.5277469 0.33321038 0.29334688 0.45275447
0001a0 0a 14 ae 3e 2f 21 bc 3e 67 50 f0 be af d9 e9 be
       0.33999664 0.36744067 -0.46936342 -0.45673892
0001b0 b8 7e 0a 3f ad f6 9f be e8 cd 07 3f c6 b8 d5 3e
       0.5409961 -0.31242886 0.53048563 0.41742533
0001c0 c1 5d e4 be 48 49 96 be 96 67 21 bf 6a 05 a2 be
       -0.4460278 -0.29352784 -0.63048685 -0.31644756
0001d0 62 24 ef be 48 47 8d 3e 6e db c9 3e b4 0c 18 bf
       -0.46707445 0.27593446 0.39425224 -0.59394383
0001e0 8a 95 d7 be 69 b6 26 3f 13 c5 0a 3f 51 a7 b8 3e
       -0.42106277 0.65122086 0.5420696 0.36065152
0001f0 dc dd 3c 3e 3b 0e 2e bf 58 df fc be 4e 3d fb be
       0.18444008 -0.67990464 -0.49389148 -0.4907021
