checkpoints/init_model.pt (torch, 27254 bytes, 8 tensors)

log_std f4 [6]
0.0 0.0 0.0 0.0 0.0 0.0
00000000: 0000 0000 0000 0000 0000 0000 0000 0000
00000010: 0000 0000 0000 0000

body.0.weight f4 [64, 18]
-0.21818753 0.09468343 -0.03727692 0.008630045 0.16300943 0.116546914 -0.09719159 0.21420206
0.0076845223 0.08665617 0.21129763 0.08063366 -0.046160214 0.23132338 -0.1341351 -0.16424675
-0.020862129 -0.20769736 -0.04679334 -0.11506949 0.025428908 0.09531459 0.19907595 -0.05956718
-0.023267701 0.15259534 0.17671755 0.043755483 -0.11413058 -0.13036597 -0.21046978 0.22508416
-0.21696989 -0.07545699 0.14992353 -0.1281816 0.0032777041 -0.117962904 0.17564566 0.014516218
0.22217304 -0.081458114 -0.04104308 0.061807565 0.21926425 -0.052541833 -0.056710944 -0.1124476
0.09994445 -0.12554288 0.0071484707 -0.23323895 -0.19371065 0.12957633 -0.007231135 -0.033132397
-0.053542204 0.008103182 -0.0036264835 0.06973348 0.15066403 0.08004746 0.1340855 0.061600093
0.04396672 0.020254033 -0.10035049 -0.007731474 -0.008449459 0.14843158 0.20931451 0.14494517
0.032501206 -0.234619 0.059888903 0.075589925 0.060103513 -0.027825573 0.19137552 -0.13342454
-0.16398539 -0.025138179 -0.18125995 -0.05091199 -0.10587097 0.19577509 0.04837708 0.1374996
0.06150928 0.23554893 0.09354246 0.07033196 0.10307512 -0.019489573 -0.18726534 -0.07874669
-0.18336084 -0.10442469 0.20590714 0.03163208 0.06814915 -0.16828017 0.06080773 -0.05675874
0.071531825 0.012898341 -0.13188887 0.026530093 0.21452296 0.06429625 0.074524336 0.11753815
-0.14068924 -0.16203496 0.1592137 0.16625482 0.040582694 0.19667259 -0.15337431 -0.08964309
0.059964683 -0.1289654 -0.21154934 0.19543396 -0.19082056 -0.18907136 0.18176062 -0.07028827
0.020587921 -0.21023668 -0.00566153 0.16038562 0.06178669 -0.20179082 0.20445506 0.00974806
0.17131275 -0.17033674 0.21723944 0.13769202 0.044433624 -0.09231242 0.22565699 0.04360527
0.10526139 -0.21417275 -0.1789758 -0.0006494267 -0.1888625 0.23553531 -0.21176897 0.011181643
0.049720243 0.030606113 -0.17559321 0.17626455 0.071180046 -0.19405 -0.21840365 0.22383663
-0.21072309 0.111996 0.15574314 0.23464353 -0.21212888 -0.23067729 0.07038943 0.1430396
-0.070327245 -0.09994639 0.14893502 0.14169618 -0.12639095 -0.19129542 0.18648556 -0.12173491
-0.032504212 0.035834458 -0.22350569 -0.20436378 0.013615343 -0.114523105 0.054313604 0.03115026
-0.1828435 -0.12882218 0.18209916 -0.1319633 0.0025240623 -0.20641099 0.19349517 0.23165737
-0.15668723 0.07047346 -0.032804944 -0.23029886 0.016893974 -0.11471774 -0.12181485 -0.12567687
-0.13187106 0.1579071 -0.19099937 -0.108169384 0.007314164 0.043984845 0.16971463 -0.013550352
-0.16907664 -0.01868086 -0.01832087 -0.0320218 0.13023396 0.21498613 0.20400423 -0.1589341
0.040186234 -0.05337148 -0.050969113 -0.09417663 0.2046964 -0.20446925 -0.12502053 -0.23536596
-0.07571063 0.14835753 -0.015367444 0.14824042 0.10431609 0.11289458 0.11380801 -0.13358323
0.12588334 -0.17307048 -0.22791582 -0.066509046 0.003971919 -0.08508777 -0.14959373 -0.19736423
0.055558454 -0.120763056 0.18745558 -0.10842544 -0.16550986 0.12582247 0.1832661 -0.17810991
0.18489024 0.15807398 -0.16693805 0.0022100683 0.067494355 0.02000104 -0.13017197 -0.16654237
00000000: 8d6c 5fbe 63e9 c13d afaf 18bd 0865 0d3c
00000010: f2eb 263e 26b0 ee3d 620c c7bd c957 5b3e
00000020: 72ce fb3b ca78 b13d 685e 583e 4323 a53d
00000030: 7e12 3dbd 09e0 6c3e b65a 09be 4d30 28be
00000040: 0ee7 aabc 9eae 54be 60aa 3fbd 8ea9 ebbd
00000050: 4950 d03c 4c34 c33d 91da 4b3e b7fc 73bd
00000060: e89b bebc f441 1c3e 72f5 343e f338 333d
00000070: 4bbd e9bd a87e 05be 6485 57be 767c 663e
00000080: 5b2d 5ebe 3289 9abd 8e85 193e 0a42 03be
00000090: c0ce 563b 8996 f1bd 75dc 333e 6ed5 6d3c
000000a0: 5481 633e 83d3 a6bd ca1c 28bd ee29 7d3d
000000b0: cf86 603e 1b36 57bd bc49 68bd ed4a e6bd
000000c0: adaf cc3d 508e 00be b83d ea3b 31d6 6ebe
000000d0: 165c 46be a8af 043e 28f3 ecbb d6b5 07bd
000000e0: 124f 5bbd 35c3 043c 4caa 6dbb 6dd0 8e3d
000000f0: ac47 1a3e ecef a33d b64d 093e 6150 7c3d
00000100: 7316 343d c9eb a53c 8f84 cdbd 4e58 fdbb
00000110: 9a6f 0abc 73fe 173e 8b56 563e 826c 143e
00000120: fc1f 053d f73f 70be 114e 753d e4ce 9a3d
00000130: 1a2f 763d 75f2 e3bc f2f7 433e 71a0 08be
00000140: c9eb 27be 95ee cdbc 359c 39be 1789 50bd
00000150: e1d2 d8bd 4479 483e 0c27 463d b2cc 0c3e
00000160: 28f1 7b3d bd33 713e 3093 bf3d 340a 903d
00000170: 0c19 d33d 99a8 9fbc 7cc2 3fbe f245 a1bd
00000180: f2c2 3bbe 9ddc d5bd 52d9 523e a490 013d
00000190: c891 8b3d a351 2cbe 8711 793d da7b 68bd
000001a0: 477f 923d 9053 533c e00d 07be a355 d93c
000001b0: e8ab 5b3e c1ad 833d 37a0 983d d7b7 f03d
000001c0: d710 10be 7eec 25be eb08 233e b43e 2a3e
000001d0: 0a3a 263d 8a64 493e 280e 1dbe cc96 b7bd
000001e0: 879d 753d 810f 04be 64a0 58be d71f 483e
000001f0: 7766 43be ec9b 41be 751f 3a3e 4cf3 8fbd
00000200: 00a8 a83c 4948 57be 5b84 b9bb 213c 243e
00000210: 0a14 7d3d 41a2 4ebe ab5c 513e 54b6 1f3c
00000220: 9c6c 2f3e c16c 2ebe 0474 5e3e 23ff 0c3e
00000230: 0800 363d 4b0e bdbd a012 673e 719b 323d
00000240: 4993 d73d 1a50 5bbe 6f45 37be 4a3e 2aba
00000250: 2c65 41be 2b30 713e f7d9 58be 3633 373c
00000260: 74a7 4b3d acb9 fa3c b5ce 33be b27e 343e
00000270: d8c6 913d 0bb5 46be 35a5 5fbe 6e35 653e
00000280: cbc7 57be 295e e53d 217b 1f3e 6546 703e
00000290: 5038 59be ab36 6cbe 5528 903d f978 123e
000002a0: bb07 90bd b1b0 ccbd 6c82 183e ce18 113e
000002b0: a16c 01be f2e2 43be 12f6 3e3e 2750 f9bd
000002c0: 2323 05bd 27c7 123d adde 64be bd44 51be
000002d0: e312 5f3c 178b eabd f177 5e3d d42e ff3c
000002e0: 543b 3bbe f6e9 03be 3478 3a3e 6321 07be
000002f0: bd6a 253b 675d 53be 9923 463e 9737 6d3e
00000300: 9e72 20be 6454 903d 7a5e 06bd 77d3 6bbe
00000310: 3b65 8a3c 22f1 eabd 107a f9bd 70b1 00be
00000320: 3509 07be 66b2 213e 5795 43be e987 ddbd
00000330: a8ab ef3b 7429 343d acc9 2d3e 4c02 5ebc
00000340: 6d22 2dbe 9a08 99bc a615 96bc 4a29 03bd
00000350: 0d5c 053e 5325 5c3e 7ce6 503e 9fbf 22be
00000360: 529a 243d 0e9c 5abd fdc4 50bd addf c0bd
00000370: ef9b 513e 6360 51be 6205 00be c603 71be
00000380: 2d0e 9bbd 09eb 173e bbc7 7bbc 56cc 173e
00000390: ada3 d53d 4635 e73d 2d14 e93d 0bca 08be
000003a0: 90e7 003e 6339 31be c462 69be e535 88bd
000003b0: df26 823b 7f42 aebd 192f 19be d919 4abe
000003c0: 4391 633d 9f52 f7bd 5bf4 3f3e 280e debd
000003d0: 6b7b 29be 9bd7 003e 1caa 3b3e 7262 36be
000003e0: de53 3d3e 25de 213e cff1 2abe cbd6 103b
000003f0: 7b3a 8a3d 39d9 a33c cd4b 05be 158a 2abe

body.0.bias f4 [64]
0.110317804 -0.22892763 -0.004941634 0.053212333 0.005562766 0.10145033 -0.031727053 -0.04126356
-0.14453717 0.107535996 -0.098337114 -0.20849442 -0.09558613 -0.04799725 0.19245176 0.08007958
-0.093191765 -0.12039837 0.092376396 -0.100894585 0.009697343 0.11194144 -0.059881654 0.114580706
-0.056403834 0.012409943 0.16244118 0.030268714 0.05865661 0.15055579 -0.10218754 0.0539478
-0.094537884 -0.098942176 0.1497523 0.18806514 -0.17434937 -0.01213183 -0.07859781 0.16071527
-0.018880721 -0.016207403 0.17171232 0.1269417 -0.038965803 0.15525876 0.05949188 0.06701282
-0.094441734 0.0801798 -0.12293154 0.087176345 0.09017147 0.00071351806 -0.06282673 -0.18440971
-0.122961126 0.04522076 0.0074199806 0.22887464 -0.14089309 -0.078542255 -0.21035264 -0.05401127
00000000: 4dee e13d 016c 6abe 6eed a1bb 2df5 593d
00000010: dd47 b63b 31c5 cf3d 3af4 01bd fb03 29bd
00000020: 8d01 14be d53b dc3d f864 c9bd 907f 55be
00000030: a9c2 c3bd c498 44bd 1312 453e c300 a43d
00000040: 53db bebd 6c93 f6bd d62f bd3d d2a1 cebd
00000050: 9be1 1e3c 8e41 e53d 7746 75bd 4aa9 ea3d
00000060: b507 67bd 1353 4b3c fb56 263e 18f6 f73c
00000070: ea41 703d 4c2b 1a3e b347 d1bd 5ef8 5c3d
00000080: 149d c1bd 32a2 cabd ab58 193e 2694 403e
00000090: a488 32be 95c4 46bc e3f7 a0bd 8b92 243e
000000a0: beab 9abc 63c5 84bc 5bd5 2f3e 01fd 013e
000000b0: 9b9a 1fbd 27fc 1e3e c2ad 733d 043e 893d
000000c0: ab6a c1bd 4f35 a43d 88c3 fbbd 8389 b23d
000000d0: d2ab b83d 630b 3b3a 4dab 80bd e6d5 3cbe
000000e0: 0bd3 fbbd 6739 393d 4f23 f33b 1d5e 6a3e
000000f0: 4746 10be c3da a0bd af66 57be ec3a 5dbd

body.2.weight f4 [64, 64]
-0.09078391 0.06534317 -0.07550518 0.07223159 -0.060781613 0.09384705 -0.05040276 0.0646265
-0.044603273 0.08641218 -0.10166545 0.09063429 -0.07832278 -0.087957636 0.10875805 0.06384061
0.026756108 0.034819216 -0.024754956 -0.11153266 -0.10240975 0.11560653 0.013103813 0.06452973
0.0017222762 -0.062444195 0.11153811 -0.033822834 -0.09937686 -0.095908314 0.06107767 -0.10254663
0.0034386367 -0.04444532 -0.109162495 0.027082741 0.01693666 -0.106900185 0.047641277 -0.026380539
0.08351773 -0.079796076 -0.01596938 -0.080020785 -0.0039854646 -0.0028032362 0.008427635 -0.10527669
-0.12495451 0.065378934 -0.08370279 0.07646708 -0.04735595 0.08913481 0.11231308 -0.059948325
0.073441476 0.059410334 -0.054702893 0.09122315 0.12282564 0.123938635 -0.08554207 0.020076066
-0.042252913 -0.039515987 0.075343296 -0.00074876845 -0.018736467 -0.022434428 -0.11516641 0.06646018
-0.08412391 0.05212404 0.11877632 -0.08768037 0.023580596 0.047931552 0.10360272 -0.00530383
0.0081965625 -0.09025346 -0.002655521 0.085086346 0.06173362 0.038702354 0.06944509 0.083581015
-0.08454111 -0.07507919 0.007786721 -0.07189979 -0.053624555 -0.005545005 -0.034153968 0.043589547
-0.031965703 0.029070646 -0.10442145 0.099922135 0.036067262 0.105832115 0.056120917 0.11897841
-0.0008390099 -0.009704217 -0.011466637 0.0076991916 -0.08491406 -0.113325104 0.07966904 0.03132175
-0.039467126 0.021555245 0.034732535 0.11796065 0.11950883 -0.11828518 0.09111744 0.09673622
0.009661198 0.10048048 -0.04253328 0.11633772 0.042267263 -0.033962816 0.064230144 -0.09041707
-0.11158164 0.03671579 -0.06908421 -0.09519528 -0.04142995 -0.03402999 -0.08555421 -0.10127404
-0.08822346 -0.038601786 -0.0365583 0.015306234 0.056117475 0.10232276 0.09996545 -0.0755561
0.10246621 0.102289915 -0.023053959 -0.09621458 0.048133492 0.11525145 -0.02267225 -0.00900504
0.076958835 -0.009077594 -0.09640938 -0.052518457 0.06823331 -0.014966324 -0.09581368 0.06438884
-0.11160651 0.008152783 0.07198943 0.021005854 -0.11724576 0.1172037 0.029546022 -0.011282995
-0.11151932 -0.016402602 -0.06325427 0.07994522 -0.021335706 -0.05733739 -0.08173312 -0.10664323
0.054857746 -0.08009288 -0.0076333433 0.07649936 0.050585344 -0.02671896 0.0012691617 -0.07399055
0.004941091 -0.033154055 0.04262206 0.074980944 0.07282452 -0.109170854 0.11278209 -0.098642364
0.12035042 -0.037112445 -0.10679665 -0.04235488 0.08172737 0.11399934 0.02990286 -0.12344681
0.038213447 -0.043117315 -0.03621787 -0.008117512 -0.00067539513 -0.06476985 0.056730613 -0.019308656
-0.06322202 -0.006633058 -0.0132867545 0.013716757 -0.10263255 -0.10833199 -0.031563073 0.004968509
-0.10986084 0.09522237 -0.0911334 0.07604806 0.0023171157 0.11154997 -0.11389434 -0.023404032
0.024298564 -0.07973187 0.06459527 0.04123807 0.08163491 0.0993125 -0.06832647 0.024827167
-0.025783807 -0.07804598 0.04170221 0.014431372 -0.0237851 0.120072916 -0.110621065 0.053937465
-0.06691429 0.011587083 0.10437608 -0.11816639 0.097761914 -0.09268683 -0.09089959 -0.11395016
-0.060871303 0.0037718862 0.03217314 0.11251606 0.07953675 0.050240546 -0.065890804 -0.009809747
00000000: eaec b9bd a4d2 853d 76a2 9abd 28ee 933d
00000010: 24f6 78bd e232 c03d 2073 4ebd e65a 843d
00000020: ecb1 36bd def8 b03d fa35 d0bd 789e b93d
00000030: b267 a0bd 2223 b4bd 8abc de3d debe 823d
00000040: a02f db3c 989e 0e3d e8ca cabc 3c6b e4bd
00000050: 34bc d1bd 1ec3 ec3d 60b1 563c 2a28 843d
00000060: 00be e13a 7cc5 7fbd 186e e43d d089 0abd
00000070: 1886 cbbd 946b c4bd 942c 7a3d f803 d2bd
00000080: c05a 613b 4c0c 36bd 9690 dfbd a0dc dd3c
00000090: c0be 8a3c 7cee dabd 8023 433d 001c d8bc
000000a0: 580b ab3d 206c a3bd 38d2 82bc f0e1 a3bd
000000b0: 8098 82bb 80b6 37bb 1014 0a3c 4e9b d7bd
000000c0: 26e8 ffbd 64e5 853d 5e6c abbd c69a 9c3d
000000d0: 50f8 41bd 508c b63d 6604 e63d 608c 75bd
000000e0: 7c68 963d 4058 733d 2410 60bd 34d3 ba3d
000000f0: 028c fb3d 8ad3 fd3d ae30 afbd 9076 a43c
00000100: 6411 2dbd 84db 21bd 964d 9a3d 0049 44ba
00000110: 387d 99bc 68c8 b7bc 5edc ebbd 461c 883d
00000120: 2849 acbd 0480 553d 0041 f33d c491 b3bd
00000130: 182c c13c e053 443d aa2d d43d c0cb adbb
00000140: e04a 063c ced6 b8bd 4008 2ebb c041 ae3d
00000150: 64dc 7c3d 5c86 1e3d 3a39 8e3d 862c ab3d
00000160: e423 adbd 1ec3 99bd c027 ff3b 3240 93bd
00000170: 6ca5 5bbd e0b2 b5bb 08e5 0bbd f48a 323d
00000180: 78ee 02bd 9025 ee3c eada d5bd faa3 cc3d
00000190: 44bb 133d 82be d83d 0cdf 653d f4aa f33d
000001a0: 00f1 5bba 70fe 1ebc 90de 3bbc 8049 fc3b
000001b0: 6ce7 adbd fe16 e8bd 8629 a33d 3c4b 003d
000001c0: 48a8 21bd a094 b03c b443 0e3d 5a95 f13d
000001d0: 0cc1 f43d 803f f2bd c89b ba3d a41d c63d
000001e0: 004a 1e3c b6c8 cd3d 6037 2ebd 7842 ee3d
000001f0: 7020 2d3d 981c 0bbd 188b 833d 962c b9bd
00000200: ea84 e4bd 4c63 163d 067c 8dbd bef5 c2bd
00000210: 74b2 29bd 0863 0bbd 0c37 afbd c468 cfbd
00000220: 80ae b4bd e81c 1ebd 28be 15bd 00c7 7a3c
00000230: 70db 653d 988e d13d b0ba cc3d 28bd 9abd
00000240: ced9 d13d 607d d13d a8db bcbc 260c c5bd
00000250: a027 453d f408 ec3d 28bb b9bc e089 13bc
00000260: 989c 9d3d 30ba 14bc 4872 c5bd 981d 57bd
00000270: e8bd 8b3d 5035 75bc f639 c4bd 4cde 833d
00000280: f491 e4bd 4093 053c 326f 933d 7814 ac3c
00000290: 8c1e f0bd 7e08 f03d 800a f23c 50dc 38bc
000002a0: 3e64 e4bd c05e 86bc 748b 81bd 52ba a33d
000002b0: 38c8 aebc 9cda 6abd b263 a7bd c467 dabd
000002c0: 84b2 603d bc07 a4bd 2021 fabb b2ab 9c3d
000002d0: 9432 4f3d b8e1 dabc 005a a63a 5c88 97bd
000002e0: e0e8 a13b 8ccc 07bd 7894 2e3d 9c8f 993d
000002f0: 0625 953d f894 dfbd 4cfa e63d 0205 cabd
00000300: 487a f63d 3803 18bd 34b8 dabd 507c 2dbd
00000310: ae60 a73d 7c78 e93d d8f6 f43c aed1 fcbd
00000320: b485 1c3d c89b 30bd 3059 14bd 50ff 04bc
00000330: 000d 31ba 0ea6 84bd 5c5e 683d 302d 9ebc
00000340: 8c7a 81bd 205a d9bb b0b0 59bc 40bc 603c
00000350: 0431 d2bd 2add ddbd 4848 01bd e0ce a23b
00000360: b8fe e0bd f203 c33d 26a4 babd 16bf 9b3d
00000370: c0da 173b 5074 e43d 7041 e9bd d0b9 bfbc
00000380: c80d c73c 764a a3bd 864a 843d 40e9 283d
00000390: 3430 a73d 5a64 cb3d c0ee 8bbd 5862 cb3c
000003a0: 9038 d3bc 92d6 9fbd f0cf 2a3d 9071 6c3c
000003b0: f8d8 c2bc cae8 f53d 4c8d e2bd 88ed 5c3d
000003c0: 5c0a 89bd c0d7 3d3c 20c3 d53d 3801 f2bd
000003d0: 6637 c83d 98d2 bdbd 9029 babd b45e e9bd
000003e0: 3054 79bd c031 773b fcc7 033d d26e e63d
000003f0: 2ae4 a23d 08c9 4d3d c2f1 86bd 10b9 20bc

body.2.bias f4 [64]
-0.017569855 -0.058216006 0.031168684 0.038288772 0.05515963 -0.022984907 -0.047020093 0.11834203
0.06576271 -0.077546224 0.022134542 -0.039515376 0.0008170903 0.09808174 -0.072700456 -0.0062532723
0.10049005 -0.025111973 -0.12276174 0.10266155 -0.015775785 -0.050575674 -0.06868234 0.072059035
-0.0101863 0.04936713 0.029351503 -0.06895532 0.049260378 0.05551213 0.04922545 0.021941364
0.029999763 0.08400285 0.11830586 -0.10388169 -0.0101926625 -0.018617585 0.10351835 -0.06196092
0.0066180974 -0.053262904 0.08337286 -0.05265118 -0.057747513 0.101924926 -0.110329136 0.120572016
-0.0726175 0.047397286 0.123025045 -0.030179217 0.006848693 -0.07630442 -0.05838032 0.116518125
0.083215326 -0.08052522 0.048516184 -0.08440137 0.11392769 0.026333928 0.0320158 -0.124677375
00000000: a8ee 8fbc e873 6ebd 7855 ff3c b0d4 1c3d
00000010: 10ef 613d d84a bcbc 2498 40bd 4e5d f23d
00000020: 9aae 863d 8ed0 9ebd 8053 b53c e0da 21bd
00000030: 0032 563a 14df c83d fae3 94bd 40e8 ccbb
00000040: bacd cd3d a0b7 cdbc 826a fbbd 3840 d23d
00000050: 383c 81bc 7028 4fbd 54a9 8cbd b093 933d
00000060: 70e4 26bc 3035 4a3d 9072 f03c 7238 8dbd
00000070: 40c5 493d b060 633d a0a0 493d 60be b33c
00000080: 10c2 f53c b009 ac3d 584a f23d ecbf d4bd
00000090: 20ff 26bc e883 98bc 6e01 d43d bcca 7dbd
000000a0: a0dc d83b 342a 5abd 64bf aa3d c4a8 57bd
000000b0: a888 6cbd 04be d03d 3ef4 e1bd 76ee f63d
000000c0: 7cb8 94bd a823 423d 8ef4 fb3d 683a f7bc
000000d0: 006b e03b 7e45 9cbd 3420 6fbd 0ea1 ee3d
000000e0: cc6c aa3d 68ea a4bd e8b8 463d a0da acbd
000000f0: ec52 e93d 40ba d73c 0023 033d da56 ffbd

mean_head.weight f4 [6, 64]
-0.12474905 -0.08148119 0.008275807 0.09797153 -0.062296376 -0.013897404 -0.054255217 0.106173605
0.10252684 0.022056341 -0.09795967 -0.08557381 -0.05215317 0.013229385 0.0064281523 -0.03267646
0.038297355 0.07118735 0.071135476 -0.09608154 -0.05690752 -0.040018126 -0.10303922 0.011820167
0.02136603 0.040653065 -0.066198766 0.094806135 -0.0991243 0.06606133 -0.042950526 0.0024728775
0.024893045 -0.08381678 0.110435545 -0.0029456317 0.06633112 0.052078143 0.043012068 0.01628229
-0.04454629 -0.076860204 -0.049096093 0.082251355 0.12394449 -0.0040890425 -0.0066550374 -0.09887153
-0.086020306 0.018196866 -0.06640455 0.087258264 0.112632856 -0.04975824 -0.07365005 0.022005498
-0.039132237 -0.119299635 -0.07552859 -0.019939974 -0.097888336 0.049826115 -0.012149975 -0.05680214
-0.052308515 0.006373793 0.106643796 0.049167037 -0.0050358027 0.011123002 0.015157327 -0.061376512
-0.06959905 -0.028840855 -0.066059515 -0.10699639 0.031053036 0.028427795 0.061740115 -0.0075689703
0.10204464 0.05237417 0.012012243 0.00021132827 0.08092651 -0.091947466 0.0014817119 -0.07065363
-0.10381004 0.034793556 -0.03696382 0.12412885 -0.045321286 0.092859596 0.05559078 0.051909044
0.117609724 -0.051996335 0.103708535 0.08260876 0.072149515 0.095446035 -0.062952295 -0.01873739
-0.09551361 -0.08852647 0.023012042 -0.06386629 0.061509147 0.12381999 0.08020638 0.0016451478
-0.061375722 -0.09236047 0.05601798 -0.022507936 -0.049259365 -0.02508974 -0.04359801 -0.10286464
-0.047675043 0.033957124 -0.11762883 0.042966396 0.0027602762 0.05821149 0.10406141 -0.09175107
-0.03543672 0.07518083 -0.029394016 -0.10906246 0.03726083 -0.0026858747 0.029260397 -0.09509592
0.07901062 0.043195277 -0.12062663 0.114419356 -0.046538115 -0.03542891 -0.08793762 0.046564564
-0.0006597489 0.05181992 -0.055492878 0.03221263 -0.03780088 0.08121438 -0.007238522 0.083183154
0.071341634 0.025687367 -0.11987716 -0.056554303 0.07452929 -0.054905936 -0.103270695 -0.086662576
-0.050692484 0.01929997 0.07640605 -0.10145119 -0.102230534 0.04899022 0.028106824 0.011358157
0.055989057 -0.08265996 -0.11112802 0.060830623 0.057432175 -0.012875676 0.02664283 -0.091643244
-0.112765744 0.10388693 -0.050657436 0.019687131 -0.09824556 0.08558662 0.060717 0.091270834
0.08784303 -0.0037813038 0.09655438 0.054592088 -0.060393512 -0.046571374 0.10215661 0.0045074522
0.022269025 0.08487703 -0.026287436 0.08039361 0.11218269 0.10790852 0.037349492 -0.11429638
0.013393715 -0.11852506 -0.03294924 -0.030301258 -0.08395369 -0.08916058 -0.10744324 -0.09284328
0.07034573 -0.11174293 0.09146209 0.04483366 0.11471248 0.0845131 -0.009303004 0.10503383
-0.029576764 0.10179369 0.03726743 -0.014365643 0.121292055 0.09554382 0.08621065 0.08420651
-0.08726986 0.00028406084 -0.006171927 0.117241636 -0.033230424 0.04574892 -0.05269319 0.006277159
-0.011721417 -0.04972166 0.10473974 0.09513681 0.09278414 -0.12126632 0.05698654 -0.06996231
-0.059938356 -0.100082174 0.054107487 -0.042808875 0.038255975 -0.034616932 0.013003856 -0.1219562
-0.1185648 -0.072835594 0.068887874 0.041534036 -0.021948412 -0.12409817 0.037594125 0.01408574
00000000: 6e7c ffbd 9cdf a6bd 4097 073c 4ca5 c83d
00000010: 7c2a 7fbd f0b1 63bc b83a 5ebd 8c71 d93d
00000020: 98f9 d13d 80af b43c 149f c8bd 5241 afbd
00000030: 909e 55bd 10c0 583c 40a3 d23b c0d7 05bd
00000040: b0dd 1c3d acca 913d 7aaf 913d 66c6 c4bd
00000050: dc17 69bd 0cea 23bd 3a06 d3bd 60a9 413c
00000060: d007 af3c d483 263d 3893 87bd b829 c23d
00000070: ae01 cbbd 2a4b 873d e4ec 2fbd 0010 223b
00000080: 80ec cb3c 22a8 abbd 082c e23d 800b 41bb
00000090: 9cd8 873d e44f 553d 6c2d 303d 7062 853c
000000a0: 2c76 36bd e268 9dbd fc18 49bd 6673 a83d
000000b0: 9cd6 fd3d 60fd 85bb 8012 dabb 287d cabd
000000c0: 6a2b b0bd 9811 953c 1cff 87bd 76b4 b23d
000000d0: 0eac e63d 4ccf 4bbd d6d5 96bd e044 b43c
000000e0: 2049 20bd 5e53 f4bd bcae 9abd 2859 a3bc
000000f0: ae79 c8bd 7816 4c3d b010 47bc 5ca9 68bd
00000100: 7441 56bd 40db d03b 1068 da3d 6063 493d
00000110: 6003 a5bb 403d 363c 7056 783c f065 7bbd
00000120: f289 8ebd a843 ecbc 364a 87bd ec20 dbbd
00000130: f062 fe3c 68e1 e83c 34e3 7c3d 2005 f8bb
00000140: c8fc d03d 4c86 563d 00cf 443c 0098 5d39
00000150: ccbc a53d f44e bcbd 0036 c23a dab2 90bd
00000160: 5c9a d4bd b083 0e3d 6067 17bd 4437 fe3d
00000170: d0a2 39bd 2c2d be3d 28b3 633d 949e 543d
00000180: 5edd f03d 1cfa 54bd 2465 d43d c82e a93d
00000190: 20c3 933d 3679 c33d 22ed 80bd 287f 99bc
000001a0: a49c c3bd 5e4d b5bd c083 bc3c 54cc 82bd
000001b0: 04f1 7b3d 5695 fd3d 3e43 a43d 00a2 d73a
000001c0: 1c65 7bbd 7c27 bdbd 1c73 653d 9062 b8bc
000001d0: 30c4 49bd 0089 cdbc d493 32bd b2aa d2bd
000001e0: e846 43bd a016 0b3d 62e7 f0bd 88fd 2f3d
000001f0: c0e5 343b 2c6f 6e3d 261e d53d fce7 bbbd
00000200: 1826 11bd 68f8 993d b8cb f0bc 245c dfbd
00000210: d09e 183d 8005 30bb 80b3 ef3c a6c1 c2bd
00000220: 52d0 a13d 88ed 303d 180b f7bd b254 ea3d
00000230: c09e 3ebd e81d 11bd a418 b4bd 7cba 3e3d
00000240: 00f3 2cba 2041 543d 804c 63bd 64f1 033d
00000250: 18d5 1abd ba53 a63d 2031 edbb ee5b aa3d
00000260: 901b 923d 506e d23c 2882 f5bd 7ca5 67bd
00000270: d0a2 983d 0ce5 60bd 967f d3bd 267c b1bd
00000280: eca2 4fbd f81a 9e3c c67a 9c3d a4c5 cfbd
00000290: 3e5e d1bd f8a9 483d 4840 e63c 9017 3a3c
000002a0: c854 653d a049 a9bd 1697 e3bd 8829 793d
000002b0: 003e 6b3d 80f4 52bc 1042 da3c 74af bbbd
000002c0: baf1 e6bd acc2 d43d 2c7e 4fbd e846 a13c
000002d0: f834 c9bd 0a48 af3d 64b2 783d 34ec ba3d
000002e0: 0ce7 b33d c0cf 77bb 4ebe c53d f49b 5f3d
000002f0: 305f 77bd a0c1 3ebd 7c37 d13d 40b3 933b
00000300: 886d b63c 02d4 ad3d c058 d7bc 68a5 a43d
00000310: 0ac0 e53d 24ff dc3d c8fb 183d 3814 eabd
00000320: 5071 5b3c 44bd f2bd c8f5 06bd 583a f8bc
00000330: eaef abbd d299 b6bd 340b dcbd 9e24 bebd
00000340: 6c11 903d 7ad9 e4bd 7a50 bb3d 80a3 373d
00000350: 60ee ea3d 3415 ad3d a06b 18bc fa1b d73d
00000360: f84a f2bc 3679 d03d bca5 183d e05d 6bbc
00000370: f867 f83d 7aac c33d 368f b03d 7674 ac3d
00000380: 8aba b2bd 00ee 9439 e03d cabb 621c f03d
00000390: a01c 08bd 3863 3b3d d0d4 57bd a0b0 cd3b
000003a0: 300b 40bc f0a8 4bbd ca81 d63d 16d7 c23d
000003b0: 9c05 be3d 7a5a f8bd b86a 693d 6648 8fbd
000003c0: ec81 75bd e2f7 ccbd d09f 5d3d 5c58 2fbd
000003d0: 4cb2 1c3d 7cca 0dbd 200e 553c 2cc4 f9bd
000003e0: 1ad2 f2bd d42a 95bd 1615 8d3d 981f 2a3d
000003f0: 28cd b3bc 2e27 febd 4cfc 193d e0c7 663c

mean_head.bias f4 [6]
0.031064034 0.031240702 0.05753243 0.07934101 0.0028724223 0.08002657
00000000: 007a fe3c 80ec ff3c 20a7 6b3d 8a7d a23d
00000010: 403f 3c3b f8e4 a33d

value_head.weight f4 [1, 64]
-0.072065994 -0.027679488 -0.10466172 0.09027758 0.1022701 0.01165539 -0.08443345 0.002793461
-0.03989111 0.047318667 0.029502377 -0.0023477823 0.07738973 -0.020782098 -0.066519216 0.085131675
-0.11658491 -0.092174485 -0.03349772 0.090347886 -0.09347808 -0.07375069 -0.022161976 0.021588415
0.02052331 -0.122254625 0.052721903 0.031068787 0.010905787 -0.044264123 -0.09611535 -0.11133304
0.08851445 0.0428019 0.024327174 -0.10721198 0.07514919 0.11873017 0.11771552 0.040368557
4.1022897e-05 0.051221296 -0.0034811199 -0.1240755 0.0613624 0.08619505 -0.062112555 0.029245809
0.09950803 0.01652585 -0.011535838 -0.07034235 -0.08217615 -0.042530388 -0.042770803 -0.11421493
0.016596705 0.07609475 -0.032183796 0.014073357 -0.029117718 0.046324342 0.071073264 -0.04474646
00000000: 5697 93bd 18c0 e2bc e258 d6bd 74e3 b83d
00000010: fc72 d13d 40f6 3e3c 72eb acbd 8012 373b
00000020: dc64 23bd 38d1 413d f8ae f13c 40dd 19bb
00000030: 827e 9e3d 383f aabc 3a3b 88bd 8459 ae3d
00000040: 12c4 eebd fac5 bcbd e834 09bd 5008 b93d
00000050: 7071 bfbd 9a0a 97bd 088d b5bc 30da b03c
00000060: 8020 a83c a260 fabd ecf2 573d f883 fe3c
00000070: 30ae 323c 4c4e 35bd 20d8 c4bd 9402 e4bd
00000080: 1047 b53d 0c51 2f3d c849 c73c f491 dbbd
00000090: d2e7 993d ce28 f33d d614 f13d 8059 253d
000000a0: 0010 2c38 6ccd 513d 8023 64bb 4c1b febd
000000b0: 2457 7b3d 0887 b03d bc69 7ebd e894 ef3c
000000c0: deca cb3d 3861 873c d000 3dbc a60f 90bd
000000d0: f84b a8bd 5834 2ebd 7030 2fbd 84e9 e9bd
000000e0: d0f5 873c 90d7 9b3d 28d3 03bd f093 663c
000000f0: 4888 eebc 98be 3d3d dc8e 913d 1048 37bd
