checkpoints/local_optimum_biped_ppo_mp_0.pt (torch, 27284 bytes, 8 tensors)

log_std f4 [6]
00000000: ad04 41c0 7552 3ac0 c57c 33c0 c83a 20c0
00000010: 7abf 22c0 00bf 27c0
-3.0159104 -2.9112828 -2.8044903 -2.5035877 -2.5429368 -2.6210327

body.0.weight f4 [64, 18]
00000000: 253c d3be e30b 943f 25f0 c43e a1f7 063f
00000010: 4eda c2be d8ed c73e 7639 a2be 345d 8ebe
00000020: 0e1d 88be 28f4 8ebe 22f3 b3be c393 f6be
00000030: 7276 0d3f 9b04 e23d 5eb9 333d 31c7 f0be
00000040: 4d10 3bbf 0f50 763e caa8 893e 0b36 edbd
00000050: e370 3cbd 8041 bc3e 9bea 69bd c99d afbd
00000060: 7c35 b93e 966d 1e3f 5053 aebe d4c2 3ebe
00000070: 5c8c 24bd 433b debd 64c5 cabe ea9c bfbd
00000080: db2b a43d 7e8d 413e 158f 0140 73a7 48bf
00000090: e4a9 d73f 70bd e1bf 3750 4cbe 631f 233f
000000a0: 3f93 8f3e 5e40 d23e b82f 223f bed0 f53d
000000b0: 6392 a6be 54ca a13d a1b4 6dbc b7b9 c63c
000000c0: 31b7 a63d abb1 90bc cae6 70bc 9ac4 dd3e
000000d0: 3938 353f 689c 0fbf 9884 903f 7ce3 30bf
000000e0: 4615 0bbf 8abe 923f da73 1c3f f18f abbd
000000f0: c893 103f 3481 943f a19d 08be f40d d03c
00000100: 55c4 c8bd f2be a6bd 7369 eebb ea22 61bd
00000110: 62ea 87bc 7040 c93e 0d03 c73d b7e6 d9be
00000120: 47be 1bbe 4cf4 c03e d56c c3bc f327 353f
00000130: 75e5 bc3e 32e8 273e 9197 d8be e361 93bf
00000140: ffb9 4fbc 1258 b53d 308b 133e ca7f 613e
00000150: 2cd0 713e 538d 573d 0aad 593e b959 0a3f
00000160: 3e58 09bf f793 dd3e 070f 8ebb 55ab c43f
00000170: 9bbb d73e 0077 653f 7401 373f 0453 d7bd
00000180: b622 babe 9cd3 953e ab39 203f 81e5 553e
00000190: b3d9 143e b757 6c3e 8568 6e3d 99c0 3d3e
000001a0: 7e1c f03d d4e1 a8be dbf5 0b3f cedf e7be
000001b0: d00e 663f 1191 9dbe 9e9b f2be 8af0 403f
000001c0: 493b 613f 3e6c 0abf f73e bc3e 7b67 d83e
000001d0: 6cd7 143f 5861 5b3c 7e5c 54bd 024f d63e
000001e0: cc1a cd3d 7dd6 5d3e 0749 043d 22dc 353e
000001f0: 9f11 5f3d 5fa9 29bf f781 953f e0bb dc3e
00000200: 58e3 b3be fac6 1f3e 4d31 573d d725 8cbf
00000210: 3635 453e 1c1c 703e 5e2c 61bd 838a 803d
00000220: 0b49 8c3d af0a a03d 02ab 32bd caad a7bb
00000230: ff30 1f3d 6d82 59be a16d 10bf 97ca 5fbe
00000240: b060 dabe cbaf dfbf 675a b03e ce63 0f3f
00000250: a8dd c63d 1d53 33bd 8577 b5bd cf34 03bf
00000260: 3b5e 15be 6869 34bd c791 99bb 8725 9bbd
00000270: a3e6 843d 5343 1cbe 15a6 da3b cd6f 15bf
00000280: 2d92 023f 87ef adbf 74a3 bb3e e7db ecbe
00000290: 9fa0 4a3f 5451 803c 27b8 48be 0f26 b33d
000002a0: 5f04 8b3e 159e 4b3c 0b0f e33d e8e7 103c
000002b0: 4971 ff39 10d5 543d 5bd5 c23d 41a6 853d
000002c0: 19c3 63bd 9d29 09bf 334e 583f bb9d a53e
000002d0: 396b 96bf 4e92 c6bf 8168 1e3e a74a 1dbe
000002e0: 5941 2abf e867 c0be 766e 7fbe fadc a33d
000002f0: eb11 33bd 9bda 1d3e 8f8a 763b cc1f 893d
00000300: 713f 5cbe de09 ddbc d892 97bd e542 1bbf
00000310: 6a42 65bf f345 0b3f 0fee 5b3f 4f1a 04bf
00000320: 98de 0ebb 2355 073f 24eb a6bd 51b9 bc3f
00000330: d2e2 2fbf a955 27be 1c98 023f 6f91 23bd
00000340: 09ec 0bbe 1208 fe3d a223 733c e5a7 2d3d
00000350: e1fa 9d3d 9351 8c3e 0334 a7bf 6203 ffbe
00000360: a92f 673e b373 07c0 e4f5 28bd ee5e b3be
00000370: a139 07bf 7fa7 20bc e9a8 5a3f ea3e d13e
00000380: c724 b93e 1970 c63b 5854 173b bbf7 5f3d
00000390: c11a df3d 5871 163e a234 303d 8f4f 613f
000003a0: 105f 9cbf cdc2 f7be 535b c2bf 8215 88bf
000003b0: 36bd 26be a1cb c7bf f3e3 3bbf fe5f 9dbf
000003c0: de99 a33f f44c 8b3f 6e0e 303f 9ad5 2c3d
000003d0: 5e7f 7dbe 86b2 92bc 1ba0 45bc 991c 4f3e
000003e0: 0bb5 d6bd 6bee 53bf 8e7e 8bbf 9f00 163f
000003f0: eb91 213f e077 c13e a53f 64be 83af 0c3f
-0.41256824 1.1566128 0.38464466 0.527216 -0.38057178 0.39048648 -0.31684464 -0.27805483
-0.26584667 -0.2792065 -0.35146433 -0.48159608 0.5525886 0.11036035 0.04387795 -0.4702697
-0.7307175 0.24053977 0.26886588 -0.115825735 -0.046006095 0.36768723 -0.057108503 -0.08575017
0.36173618 0.61885965 -0.34047937 -0.18629009 -0.04017292 -0.10851147 -0.39603722 -0.09356101
0.08016177 0.18901631 2.024358 -0.7838051 1.6848722 -1.7635937 -0.19952475 0.6371977
0.28042027 0.41064733 0.63354063 0.12002705 -0.3253356 0.07899919 -0.014508397 0.024258478
0.0814041 -0.017662844 -0.014703462 0.43314058 0.70788914 -0.5609803 1.1290464 -0.69097114
-0.54329336 1.1464398 0.61114275 -0.08377064 0.56475496 1.160193 -0.1334138 0.025397278
-0.09803072 -0.08141889 -0.007275754 -0.054964937 -0.016591255 0.39306974 0.09717379 -0.42558834
-0.15209304 0.37686384 -0.023855606 0.7076408 0.36893812 0.16397169 -0.42303136 -1.1514248
-0.012678622 0.08854689 0.14408565 0.22021404 0.23614568 0.05262501 0.21257415 0.54043156
-0.5365027 0.4327695 -0.0043352875 1.5364786 0.4213532 0.89634705 0.7148659 -0.10513881
-0.36354607 0.29263008 0.62587994 0.2088833 0.1453617 0.23080336 0.058205146 0.18530501
0.117241845 -0.32984793 0.5467202 -0.45287937 0.8986635 -0.3077474 -0.47384351 0.75367033
0.87981087 -0.54071414 0.36766788 0.4226645 0.5814121 0.013389908 -0.05184602 0.41857153
0.10014877 0.21663852 0.032296207 0.17759755 0.054460164 -0.66274065 1.1680287 0.43112087
-0.35134387 0.15603247 0.05253725 -1.0949048 0.1925858 0.23448223 -0.054973952 0.06276419
0.06849869 0.07814538 -0.043620117 -0.005117153 0.038865086 -0.2124116 -0.5641728 -0.21854626
-0.42651892 -1.7475523 0.34443972 0.56011665 0.09710246 -0.043780435 -0.08860687 -0.51252455
-0.14586727 -0.044045836 -0.0046865675 -0.07575517 0.06489303 -0.15260057 0.0066726306 -0.5837372
0.51004297 -1.3588723 0.36648142 -0.46261522 0.7915134 0.01566378 -0.19601499 0.087474935
0.27151772 0.012427826 0.110868536 0.008844353 0.00048721794 0.051961005 0.095133506 0.06525851
-0.05560598 -0.5357912 0.8449432 0.323469 -1.1751472 -1.5513399 0.15469553 -0.15360509
-0.6650596 -0.37579274 -0.24944481 0.08001132 -0.04371826 0.15415423 0.0037619208 0.06695518
-0.21508576 -0.026982244 -0.07401055 -0.6064895 -0.89554465 0.5440361 0.85910124 -0.51602644
-0.0021800157 0.52864283 -0.08150318 1.4744054 -0.68705475 -0.1634127 0.5101335 -0.03993362
-0.13664259 0.12403883 0.0148400385 0.042396445 0.07713867 0.27405986 -1.3062748 -0.49807268
0.22576775 -2.1164367 -0.041250125 -0.35033363 -0.5282231 -0.009805559 0.85413986 0.40868312
0.3616087 0.0060558436 0.0023091044 0.054679614 0.10893775 0.14691675 0.043018945 0.8801202
-1.2216511 -0.4839081 -1.518412 -1.0631564 -0.16283116 -1.5609018 -0.733947 -1.229492
1.2781332 1.0882859 0.6877202 0.042195894 -0.24755618 -0.017907392 -0.012062098 0.20225753
-0.1048375 -0.8278567 -1.0897996 0.585947 0.6311328 0.3778677 -0.22289903 0.5495531

body.0.bias f4 [64]
00000000: ac5a 033e 52b7 c3bc 4f1f 98be 5644 6ebe
00000010: e272 adbd c367 323d c959 41bf 2807 abbe
00000020: ee52 eebd 3f9e 89bf 311b 063e dc9b 25bd
00000030: 1cfd ab3e 246f fcbd 6672 e9bd f14a 17bf
00000040: 7e9c 0bbd ca94 863d 1086 783e 79a6 bb3d
00000050: afb0 353e 6f36 303e 6784 a93d 983d 7f3c
00000060: 12d4 d83e 767e 9a3c 4b62 9abe 301b 823e
00000070: 81cd 243e b88a 0f3f c47d 4d3e 5617 2dbe
00000080: 0cbd 2f3e 977d d1be 82dd c83e 5394 ee3e
00000090: 3637 84be 2ce8 673e f9c1 9fbd df54 e23d
000000a0: 4743 eebd 4ddc f73e 0a9d b2be 90a3 023f
000000b0: b2b5 ee3d 941f 11be c8fb f5be d014 f2bd
000000c0: 23c8 633e a8b0 bb3e 0e7c cbbe e0f5 a1bd
000000d0: 4f9c 133f ec39 a7bd 722c ee3d 7586 00bf
000000e0: fba9 3bbd ed2e 813e 6059 113f d648 aa3e
000000f0: 4c15 fdbd 71e3 5dbf 1c72 1bbe 1259 073e
0.12827557 -0.023891125 -0.29711387 -0.23268256 -0.08469178 0.043555986 -0.75527626 -0.33403897
-0.11636911 -1.0751418 0.1309631 -0.040431842 0.33591545 -0.12325886 -0.11398773 -0.59098727
-0.03408479 0.06571348 0.24269891 0.091626115 0.1774318 0.17208265 0.08277207 0.01557865
0.42349297 0.01885913 -0.30153117 0.25411367 0.16094019 0.56071043 0.20067507 -0.16903433
0.1716196 -0.4091613 0.39231497 0.46597537 -0.25823373 0.2264716 -0.07800669 0.11051344
-0.11633926 0.48410264 -0.34885436 0.51030827 0.116557494 -0.14172202 -0.48043656 -0.11820376
0.22244315 0.36658216 -0.39743084 -0.07908225 0.57660383 -0.081653446 0.11629571 -0.50205165
-0.045816403 0.25231114 0.56777 0.33258694 -0.12357578 -0.86675173 -0.15180248 0.13217571

body.2.weight f4 [64, 64]
00000000: cb45 e3bd bc01 3b3d 1ebf 85bf 6413 63bf
00000010: 8d55 babd 66ae 82bc 5fe6 68be 3f53 9fbe
00000020: 7460 7dbe d83d 03be e269 4f3e 9ead 8c3e
00000030: 6c2a 1c3f e832 143f aac2 eabe ec5a 0abf
00000040: ea04 b3be d8d2 103f 239b 803f 6738 0bbf
00000050: 9b88 0f3f 0494 dfbe 8ce4 68be 1d19 fabc
00000060: ef33 76bd 735e 79bd b0fd da3e 8df8 3b3d
00000070: 0aad 813e 4086 f73e af9d d4bd 6c2b c13e
00000080: 97b7 263e a30a 72be 5899 513e 1568 8dbd
00000090: 3a5d a73e 9727 b5bc eedd bbbe 446c 25bd
000000a0: 34e2 d13e 4ac6 81bd 5456 8e3d f409 863d
000000b0: ed96 dc3c d910 403d ecae 60be 7baa adbe
000000c0: 5a4f 07bf 1d0b af3e 8b1d ddbc 08a0 e23e
000000d0: 13d0 fb3e 293b 9f3e 936d 333f fbb1 bcbe
000000e0: 757a 11be dc35 c7bd b749 f3be 68da ee3b
000000f0: 73b7 bfbc 7273 e8be fdf5 f0bd 229e 253e
00000100: 7e8f 293e df4d 05be 4d86 0b3e 4c70 95bb
00000110: de82 703d c60b 2abe 84ee 85bd 3d72 28be
00000120: c391 04be d734 15bf 7101 a6ba 2ce9 d23e
00000130: 197a 183e 9538 47be ecca 4f3e 78a9 c13e
00000140: eb7c ac3e 7301 e83d 807a 253e 7497 e0bb
00000150: cae1 8bbe 781b 0c3d 2033 3cbe 10f2 263e
00000160: 7e52 16be 9ab7 e7bd cbb2 933e 7045 d7bd
00000170: 5871 81bd 4a55 22be c266 a53d d655 0f3d
00000180: cb89 87bd 7c46 3a3d d3b1 6dbc 163e 9e3d
00000190: 8757 b7be 3fd3 033d 3da8 a7bb d934 c63e
000001a0: 2897 e6bd 9b67 6cbd d620 763e 69e2 fa3d
000001b0: b179 8b3d 1fd5 dfbd 662d c2bd 1637 40be
000001c0: bcd6 433e 44ad 773e fe82 503e d882 90bb
000001d0: ffbb 143d 75a2 bc3d 9278 85bd 37d9 c3be
000001e0: 57d5 20be 3175 9abd a926 bbbd 2a5b 76be
000001f0: e59e 53be a955 8dbe 49a3 a23c 4eee 8cbc
00000200: db3d a03c 7579 a5be c5fa be3d 407d 9e3e
00000210: 2aba 2c3d b80c 70be 0875 083e e1ba a53b
00000220: 247d a33e 738a 95be 1151 1abe a8cb a4be
00000230: cffd c23e 8e06 ed3c 94de a5bc b444 91be
00000240: 3ee1 a2be 7fa8 a3bd 14fe 39be a678 d33e
00000250: eb26 c93d d69e 853e 2741 b2bd bdaa 5bbd
00000260: 8543 03bf 931c fabd 1260 f2bd b5a2 03be
00000270: 6cc4 863e 2287 843d 0444 7ebe 60b5 6ebd
00000280: a0eb a43e 6fc0 34bd f261 8a3e 3ad4 0fbe
00000290: e78f f3bd 452d c0bd 1a93 dd3d 85ef 02be
000002a0: cd03 cabc edd3 3cbe a8f0 35bd 63ea 60be
000002b0: ad06 d13d 5eb5 023e 54a0 39be 94e0 863e
000002c0: c2c2 7c3d 4c93 e2bd a476 8e3d 2592 4b3e
000002d0: 4e63 84bc 81a0 05be d0a0 98bd c386 ccbb
000002e0: 58ca 9cbe 8999 ab3e 5fec 0f3d 640c 7abe
000002f0: ff0d 41be c4d1 3a3e 01e3 2dbe 83e6 383e
00000300: 6050 fdbd ac7f 483e 225a c43d 8f98 d33d
00000310: da11 d3bd 586c a9bd d368 8c3e 1851 f03d
00000320: a373 463e c05e 92bd a40e ab3d efce 1bbd
00000330: c10f 103c 5878 a43e 6600 203e 98ec 54bd
00000340: e23d 21bc 87e5 7cbd 3fa5 eb3c d983 20be
00000350: 3ec6 133e ea6a 2fbe 72a0 adbd af35 3cbe
00000360: ddf0 933d e5fa 1e3e 3929 c7be 2969 55bd
00000370: 2563 2fbd eeb0 b2bd a98a 273d 9743 00be
00000380: 1b01 17be 7f7b 98be 2441 f8bd c2aa a0bd
00000390: f100 8a3e 4bc1 5ebe 29ce c83d b0e7 b8be
000003a0: aa59 c43c 98ce ec3e f8f7 853e 485a 2cbe
000003b0: 2a5d 25be 9423 77be 7cde 513e 5927 ac3c
000003c0: 5e82 05be d3b2 9f3c 1935 8a3d 4fa6 0abe
000003d0: e6f7 83bd 25be cc3d 6a11 763e ddee c73e
000003e0: 1bee 893d 7c38 93be 5a16 c0bd e75d dd3c
000003f0: b54f d93e 5c2f 35be 34f4 b6bd f021 8dbe
-0.11097296 0.04565595 -1.0448949 -0.8870146 -0.09098349 -0.0159523 -0.2274413 -0.311182
-0.24743825 -0.1281656 0.20255235 0.2747621 0.6100223 0.57890177 -0.45851642 -0.54044986
-0.34964687 0.5657172 1.0047344 -0.5438294 0.5606782 -0.43667614 -0.22743434 -0.030529553
-0.06010812 -0.06088109 0.42771673 0.045891333 0.2532733 0.48344612 -0.10381638 0.3772844
0.16280971 -0.2363687 0.20468652 -0.06904618 0.32688314 -0.022113604 -0.36692756 -0.040386453
0.40992892 -0.06336649 0.069500595 0.06544867 0.026927436 0.046891067 -0.21941727 -0.3391913
-0.52855456 0.34188166 -0.026991626 0.4426272 0.49182186 0.31099823 0.7008907 -0.36854538
-0.1420687 -0.0972707 -0.47517177 0.0072892196 -0.023402905 -0.45400578 -0.117656685 0.16173604
0.16558644 -0.13017987 0.1362545 -0.004560506 0.058718555 -0.16606054 -0.06539634 -0.16449828
-0.12946229 -0.5828375 -0.0012665224 0.4119352 0.14890327 -0.19455178 0.20292252 0.37824607
0.33689055 0.113284014 0.16160011 -0.006853992 -0.273207 0.034205884 -0.18378878 0.16303277
-0.14679906 -0.11314316 0.28847346 -0.10511291 -0.06320447 -0.15852848 0.0807624 0.03499397
-0.06618079 0.045477375 -0.014507729 0.07726686 -0.35808966 0.03218388 -0.005116491 0.38712195
-0.112592995 -0.057715993 0.24035963 0.122502156 0.0681032 -0.109293215 -0.09481315 -0.18771014
0.19124883 0.2418719 0.2036247 -0.004410129 0.0363121 0.09210674 -0.065171376 -0.3825166
-0.15706383 -0.07541884 -0.09138233 -0.24058214 -0.20666082 -0.27604416 0.019853251 -0.017203476
0.019560745 -0.32319227 0.09325174 0.30954933 0.042169727 -0.23442352 0.13325894 0.005057678
0.31931412 -0.2920719 -0.15069987 -0.32186627 0.38084266 0.02893379 -0.020247735 -0.2837273
-0.3181247 -0.079911225 -0.1816333 0.41302985 0.09821876 0.26097745 -0.08703833 -0.053629626
-0.512749 -0.12212481 -0.1183473 -0.12855037 0.26321733 0.06471087 -0.24830633 -0.05827844
0.32211018 -0.04412883 0.2702785 -0.14045802 -0.118926816 -0.093836345 0.10819073 -0.12786682
-0.024660015 -0.18440218 -0.04441896 -0.21964411 0.102063514 0.12764499 -0.18127567 0.26343215
0.061709173 -0.11063251 0.06956223 0.19879968 -0.016160633 -0.13049509 -0.074525476 -0.006241651
-0.30623126 0.33515576 0.03513753 -0.24418789 -0.18852995 0.18244082 -0.16981126 0.18056683
-0.12368846 0.19579953 0.09587504 0.103318326 -0.10306139 -0.08272618 0.27423725 0.117342174
0.1938005 -0.071469784 0.08352402 -0.038039144 0.0087928185 0.32123065 0.15625152 -0.051983446
-0.009841414 -0.06174233 0.028765319 -0.15675296 0.14431092 -0.17130628 -0.08477868 -0.18379854
0.072236754 0.15525396 -0.38898638 -0.05210224 -0.04281916 -0.08725153 0.04090372 -0.12525783
-0.14746515 -0.2978172 -0.121217996 -0.078450695 0.26953843 -0.21753423 0.09804947 -0.36114264
0.023968536 0.4625137 0.26165748 -0.16831315 -0.1614882 -0.24134666 0.20495027 0.021014856
-0.13038012 0.01949445 0.06748409 -0.13540004 -0.06443767 0.09997205 0.2403008 0.39049426
0.06734868 -0.28754032 -0.09379263 0.027022315 0.42443624 -0.17693847 -0.08933297 -0.27564955

body.2.bias f4 [64]
00000000: 024c 713e 7d4c a63e edb1 9f3c b6d8 e7bd
00000010: d51c e83d 4d99 59bd a7e7 a3bd 00b4 be3c
00000020: eca4 d9bc 9337 11be 44c2 15be 89f2 2f3e
00000030: fe3d 8dbd fe00 783e fc4a 833c 860b 07bd
00000040: 6b49 27bf 5369 cf3d 8165 7ebe af56 ad3c
00000050: 7742 46be 45a5 653d ed8a 71bd 87c8 6a3e
00000060: 6d8b 853d 541f 6a3d 3c62 05be 0fe0 703d
00000070: 7083 cebd 6561 273e 9cf3 413e 6ca3 193d
00000080: ecb2 873d 764a 913d b884 8c3d 856d fabd
00000090: 96b4 1dbd 2d78 eabc 7387 dc3d eddb a0be
000000a0: e6ee bdbe a006 2f3e 9c36 8ebd 0481 30be
000000b0: ba0a 2a3d b26c a1bc c5de 6abe 4dc4 b3be
000000c0: 2798 b1bd 0567 3cbe 8508 9cbe 9771 afbc
000000d0: 5e17 e83d 33b2 a3bc 2730 113e 62f9 6b3d
000000e0: 15e9 733e 6bb3 3b3e c0ff 14bf 0b7c 3abe
000000f0: 864a 6bbe 650a bd3e ce7c a33c ab29 763d
0.23564151 0.3248023 0.019494021 -0.11320631 0.11333624 -0.053124715 -0.080031686 0.02327919
-0.026567899 -0.14181356 -0.14624888 0.17182364 -0.0689659 0.24219128 0.016026966 -0.032969974
-0.653464 0.10127511 -0.24843408 0.021159498 -0.19361292 0.056065816 -0.05897038 0.22928058
0.06520734 0.057158783 -0.13025755 0.05880743 -0.100836635 0.16345747 0.18940586 0.037509367
0.066259235 0.070942804 0.068612516 -0.122279204 -0.0385023 -0.028621757 0.107680224 -0.3141779
-0.37096328 0.17092371 -0.0694401 -0.17236716 0.041514136 -0.01970515 -0.22936542 -0.35110703
-0.08671599 -0.18398674 -0.3047525 -0.021416469 0.11332582 -0.019982433 0.14178525 0.057610877
0.23819382 0.18330161 -0.58202744 -0.18211381 -0.22977647 0.36921993 0.019956972 0.06009833

mean_head.weight f4 [6, 64]
00000000: 21a2 623d fc8e 0fbe dacf f43d 78c4 113e
00000010: 29cc 823e ec1f 0f3e d860 3e3c 8852 a93d
00000020: 53e8 ff3b 8a77 d8bd 107b 893e 8bb6 b0bc
00000030: c90b 02be 0b24 563e 3a55 3dbd 517b a03d
00000040: 53f3 b5bd 6c4a 183c 6be2 66bb 1a66 9b3d
00000050: 2b55 9f3b b3be 603d 7e8b c83d 1c70 53be
00000060: 11c0 c5bd 436a 103e 4687 09be 30e3 29be
00000070: 5ab8 923d 1987 41bd 2461 813d a34d e1bd
00000080: f99c 933c 5883 51be c17c f8bd ee0d 203c
00000090: de4f 8b3e 0f5a b93c c033 c73d 1322 893d
000000a0: 00a7 c9bc 9fa8 803b 40ca ba3d 0856 68bd
000000b0: f09c 31be a96a bcbd 6d85 08be ae9e 9b3a
000000c0: 2d5d 753c 9ded 5dbd 7c51 f73d 0463 003d
000000d0: e5bb 70bd 9cc7 a73d 0e24 0d3e e818 523e
000000e0: b9ce 143c 53f3 c33d 9da5 66bc 400e e93c
000000f0: ed0b 2dbd bbb8 00bd a60f d8bb adea c3bd
00000100: 0a07 ea3d cfb9 703e e777 e33c 1033 bdbd
00000110: a98a 1e3e bc25 2ebe 30b0 15be 7ccb a23d
00000120: f002 5b3b 6326 babd d147 1fbd eab2 29be
00000130: 438d 73bd 4fb0 603d 1fdb 2f3d 3b5e a63d
00000140: 07c6 e7bd 14d7 7d3d b01d d4bd 7d00 933e
00000150: 7f4a 963c b4bb d93d 9a03 36be a2cd ffbd
00000160: fa9c a4bc 6a57 8439 2f3b edbd 7541 2c3e
00000170: 93a2 8bbd 1bd0 1c3d fdc9 9e3d d2f2 e7bd
00000180: 9aa4 453d a79e bbbd fb79 213d 907f 8abd
00000190: 7dba c33d 56b5 76bd b57d 603e 55da eabd
000001a0: c9a8 c13c 1274 a1bd 2c6c 313e 516b a9bc
000001b0: 8c5b 65bd c1c8 423c 690f c8bd e177 21bd
000001c0: 95b4 d53d 0826 31bd 62f5 103d 7e64 57bd
000001d0: a36f 583d 2890 a8bd 7bca b9bd e19b 763e
000001e0: b0bb 923c 72ac d63c be09 df3c b357 bebb
000001f0: f008 bbbe bdb2 72bc 1f2f ca3d c7ab 0a3e
00000200: ea74 203c 443d 24be 3761 0abd 61f7 a93d
00000210: adc8 473e 507d 19be 77ff c43d ac16 fabd
00000220: fd95 0cbd 6dbe 36bd 76e8 7c3e 572d 873d
00000230: 0a54 64ba de19 143e 849d 463e 2ebf 453d
00000240: 55e9 6fbd c7ea 02be b3cc 993d c20c 8bbd
00000250: d284 68bd ac7a a03d 0c9a 3e3d bd91 25be
00000260: 175e 33bc 0327 c03c 4bf6 5b3e 2d98 bebd
00000270: 23a5 d4bc ac6f 13be ca8a ea39 55c3 9bbd
00000280: 06dc 73bd a30f 12be 1c88 afbd 7dc5 643b
00000290: 5e25 a13d 716a 53bc 9f12 4e3e 6293 e13d
000002a0: decf bdbc 1d4a 81be fa8b 86bd 6e83 b1bd
000002b0: 7a4f 78bd 8d19 1bbe 6cd8 f13d ce0d 843b
000002c0: db0c 06be f075 be3d 70b4 3abd 3c27 bd3d
000002d0: b26e 16be 3028 4dbd 0686 2bbe 1029 333e
000002e0: a598 85bd b876 323c ca0a 91bd befc 7b3d
000002f0: 1393 5c3d 99e5 adbc ec01 d6bd e649 193e
00000300: 1cd7 adbc c9d2 7c3d 42fe 213e 000a ee3d
00000310: e672 90be 9881 c6bd 7b2c 67bd ae6a 91be
00000320: 5853 023d 152e 253d e17d 83be 1bbf 65be
00000330: 30f6 f7bd 764c 403b 4584 7cbd 939b fbbd
00000340: acb5 813d 25c4 31be c8de 45be 7cc8 0a3e
00000350: 306a 62bd 1b2b 0f3d b5f9 2e3e b888 43bd
00000360: 6acb 7e3e be60 633e fc1a 84bd 3ce3 663e
00000370: ef97 7cbe 1feb 03bd 8a59 893c e823 933c
00000380: afcd 9d3d dcb6 843d 2a2d 403d 762e 003e
00000390: 0c1e 85be 7b56 d13b 2923 cfbc a474 cc3d
000003a0: 9587 02bd 899c dd3d 4fea b23d a491 f03c
000003b0: 195f a43d 60ad 0fbe aee0 00bd 4a64 0e3e
000003c0: 5024 d13c f87f bd3d 1a98 17be e2c2 74bd
000003d0: b16b 23bc 8510 7f3e b343 123e 107b 98bd
000003e0: 86a6 59bd 45fe e63c 3b4c ac3d 874a 37bd
000003f0: e311 313c b762 613d 12ba b9bd fb43 533e
0.0553304 -0.14019388 0.11953707 0.14235103 0.25546387 0.13977021 0.011619769 0.08267695
0.0078096776 -0.10569675 0.26851702 -0.021571418 -0.12699808 0.20912187 -0.046223857 0.07836021
-0.08884301 0.009295087 -0.003523017 0.07587834 0.0048624477 0.054869365 0.09792231 -0.20648235
-0.096557744 0.14103036 -0.13430509 -0.16590571 0.071640685 -0.04724798 0.06317356 -0.11001136
0.018019186 -0.2046026 -0.1213317 0.009768946 0.2720937 0.022625951 0.097266674 0.06695952
-0.024615765 0.003926351 0.091206074 -0.05672267 -0.17345023 -0.09200031 -0.13332148 0.0011872852
0.014975828 -0.054181684 0.12076089 0.03134443 -0.05877294 0.08192369 0.13783285 0.20517313
0.00908249 0.09567895 -0.014077571 0.028449178 -0.0422477 -0.031426173 -0.0065936623 -0.09566245
0.11427124 0.2350838 0.027767135 -0.09238255 0.15482582 -0.17006582 -0.14617991 0.07948968
0.00334185 -0.09089353 -0.03888685 -0.16572157 -0.05946089 0.05485564 0.04293358 0.08123442
-0.113170676 0.061972693 -0.10357225 0.2871131 0.01834607 0.10631505 -0.17774811 -0.12490393
-0.020094384 0.0002524213 -0.11583554 0.16821845 -0.06818118 0.038284402 0.0775337 -0.11325611
0.04825268 -0.0916112 0.03942297 -0.06762612 0.09557054 -0.06023153 0.21922953 -0.11467425
0.023640053 -0.07883467 0.1732642 -0.020681055 -0.05599551 0.011888684 -0.09768564 -0.039420966
0.10434834 -0.04324916 0.035390265 -0.05258607 0.05284084 -0.082306206 -0.09071823 0.240829
0.017911762 0.026205275 0.027226325 -0.0058087944 -0.36530256 -0.014813122 0.09872269 0.1354209
0.0097934995 -0.16038996 -0.033784118 0.08299137 0.19510145 -0.14989209 0.096190386 -0.122113556
-0.034322727 -0.044615198 0.24698052 0.06600445 -0.00087100326 0.14462993 0.19396025 0.048278026
-0.058572132 -0.12784873 0.075097464 -0.06789543 -0.056767292 0.07835898 0.04653363 -0.16168876
-0.010947726 0.023456102 0.21480672 -0.09306369 -0.02595765 -0.14398068 0.00044735364 -0.07605616
-0.059536003 -0.14263777 -0.08570883 0.0034907751 0.07868455 -0.012903796 0.20124291 0.11014439
-0.023170408 -0.25251856 -0.06569667 -0.08667646 -0.06062267 -0.15146466 0.11808857 0.004029966
-0.13090841 0.092998385 -0.045582235 0.09235999 -0.14690664 -0.050087154 -0.16750345 0.17496133
-0.06523255 0.010892563 -0.07082136 0.06152033 0.0538512 -0.021227645 -0.10449585 0.14969596
-0.021220736 0.061724458 0.15819648 0.11623001 -0.2821266 -0.09692687 -0.056438904 -0.28401703
0.031817764 0.04032715 -0.25681975 -0.22436182 -0.121075034 0.002934245 -0.06164958 -0.12285533
0.06333479 -0.1735998 -0.19323266 0.13553041 -0.05527705 0.034953218 0.17087443 -0.047737807
0.24882284 0.22204873 -0.06450459 0.2254762 -0.24667333 -0.03220665 0.016766328 0.017961457
0.07705247 0.0648019 0.04691807 0.12517723 -0.25999486 0.006388483 -0.02528532 0.09983185
-0.031867582 0.10820872 0.08736097 0.029366322 0.08025951 -0.14030981 -0.03146427 0.13905445
0.02553001 0.09252924 -0.14804116 -0.059756167 -0.009974406 0.24908645 0.14283638 -0.07445347
-0.053137325 0.028197417 0.08412977 -0.04474881 0.010807487 0.055025782 -0.09068693 0.20631401

mean_head.bias f4 [6]
00000000: df32 29bd c6f9 c23d 3abf 293d 0eba 2dbe
00000010: 32cb 053c 0a0b 163e
-0.04130828 0.09520297 0.041442133 -0.16965505 0.008166121 0.14652649

value_head.weight f4 [1, 64]
00000000: 1c7d 0c40 2e0e 7f3f c588 d4bd ed64 53bf
00000010: 1359 bc3e 837f e1bd 4128 aebd 8263 25be
00000020: 6af7 6c3f d225 02c0 241f 08be 9338 033f
00000030: c98e 7dbe d261 cc3f ccd1 653d 2f5b 3440
00000040: 4f6e ffbf 36d2 b2bf 2822 c13f 61b3 313f
00000050: ab77 2cc0 f964 86bf 2103 cabf 4cfc 9840
00000060: e8b4 d73f c003 e7bf 2b3c 893e e940 813d
00000070: c021 1bbf ac5e 963f ee09 b6bf 506a f9be
00000080: dd87 9dbf 6801 a73e 053e 83bd 1654 97bf
00000090: bfdc 263e 2f6c d83e 91ea b63e d2c6 8dbf
000000a0: 9a99 e6bf 6dd1 4b3d f10a 91be f803 fbbe
000000b0: 23d9 56be 3ab7 803e 082d b4bf 395a d9bf
000000c0: 686c 19c0 ecb3 803e 1761 87bf 957c a53f
000000d0: 00a3 8d3e a3cd 2bbf 7c40 fd3e 09af a53d
000000e0: 1d48 64c0 89d3 f83f 6a41 90c0 13e3 fdbf
000000f0: b2dc c6be a591 0a40 a970 5e3d 03f4 243f
2.195136 0.9963101 -0.10377649 -0.82575876 0.36786708 -0.11010649 -0.085037716 -0.1615124
0.92565024 -2.0335584 -0.13293129 0.512582 -0.247615 1.5967352 0.05610828 2.8180654
-1.9955539 -1.3970401 1.5088549 0.69414335 -2.694804 -1.0499564 -1.5782205 4.780798
1.6852083 -1.804802 0.26803717 0.06311209 -0.60598373 1.1747642 -1.422178 -0.48713923
-1.2307087 0.3261826 -0.06408314 -1.1822536 0.16295145 0.42270038 0.35725835 -1.10763
-1.8015625 0.04976027 -0.2832866 -0.49026465 -0.20981269 0.2513979 -1.4076242 -1.6980659
-2.3972416 0.2513727 -1.0576504 1.2928644 0.27663422 -0.6711065 0.4946326 0.08090026
-3.5669014 1.9439555 -4.507985 -1.9834923 -0.38840252 2.1651394 0.05430666 0.6443483
