checkpoints/local_optimum_biped_ppo_mp_1.pt (torch, 27284 bytes, 8 tensors)

log_std f4 [6]
00000000: d384 1bc0 6bbc 05c0 0def e8bf 16db 16c0
00000010: 506c 2fc0 6685 bdbf
-2.429982 -2.0896251 -1.8197953 -2.357122 -2.7409859 -1.4806335

body.0.weight f4 [64, 18]
00000000: 2c66 1c3f 1794 d7be 645b c7bd 511f b5bc
00000010: abf0 9d3d 6f55 c43d e28d 6c3e 6245 7d3e
00000020: c42d 3a3f 092d 37be e0e9 67bd f925 4dbe
00000030: cacb e8bd 4c27 893e 915e d7bd 6a41 833d
00000040: f3a6 b0be 5369 0abe 2a94 333e 2fb2 18be
00000050: 736f 4dbd 4799 433e 2d60 c63e 952d e4bd
00000060: 2610 933e 6155 4fbb f7d8 e0be fee0 17bd
00000070: 18fd 9fbd 7bfa 203e 0062 a8bd fd51 813d
00000080: 1149 95bb f8e2 ce3e 545a 10bf ce8d 7cbf
00000090: fb44 a13e 7cf6 a23f e1ac 8ebd da37 183f
000000a0: 079e 963e 06e7 b23e c02e c03e 3843 623d
000000b0: 477c 483e 91c5 f3bd 8996 2b3d 9178 95bd
000000c0: 0ffb 34bd 433e b2bd 57eb 143d 722c 973e
000000d0: f5d8 183f fb52 09bf 5567 26bd ab31 fd3e
000000e0: 63de c43d 224b 013f a0b5 b93e 0af7 38be
000000f0: 6e9b ffbb c0c7 acbe 1c97 8bbe 7aaa eb3d
00000100: 7aad fb3b 7f01 0cbd 87a8 583e 40da 01be
00000110: 0739 4a3c 91f5 ff3e 0fb5 d6be 31d1 bdbe
00000120: cf78 11be b6d3 823e c959 213d ca54 d13e
00000130: f3c8 44be 9b8f aa3e 8e55 393e 0643 9abc
00000140: 1349 a4be 1d82 ae3d 0c59 893e 4ebb cb3c
00000150: ce43 9f3c 27b9 babd c5af b03d 0553 92be
00000160: d0c7 21bf 6218 81bf 4e79 3e3f bbee 7cbe
00000170: da5c d5bd d9a6 e7bc 84c6 28bd f337 a43d
00000180: 107a 433f 8095 723e ff92 093f fbed 8b3e
00000190: a669 5f3e 283c 003d 1d25 283c bf73 34be
000001a0: e6bf 243e 5ad0 fa3e 41b6 ffbd 1f08 6fbe
000001b0: 7763 0c3f 39c4 dabe c5cd 6b3d 27ec 1d3f
000001c0: b7eb d33d fe3a 5b3d 8550 353f b719 023f
000001d0: d8a3 b5be eb21 37be ae12 753e 0e3e cc3d
000001e0: ba4f be3e 45da bbbd 3c26 933e 84e1 f43e
000001f0: e5f2 03bf 9cf5 b6be b5bb 1ebf 394c 14bf
00000200: 0d9e 78be d804 a4be 0334 c4be 5132 93ba
00000210: 13d0 773e 8768 94bd 24f5 8e3e f5a9 843e
00000220: 2dc8 af3e 7a30 823e 222b 56bb c6b7 f7bd
00000230: c27c 4d3e ce79 9f3d bd5e acbe b575 333e
00000240: 7138 bd3e 222b c7be 222a 913d 611c 2f3f
00000250: 21ce deba 4121 8ebe cbf4 0b3e f5aa 573e
00000260: 3a0a 1ebc 4051 f1bd 63d8 223e 99d5 623c
00000270: ed3f a73e 29d0 813e 778b 9b3d 7c1a 493e
00000280: cf89 04bf 4fb1 51bf f2e1 943f cb2f 95be
00000290: 2692 0dbe 4c03 5b3e 2a22 a53e 3024 223e
000002a0: 1dfb 163f 3932 483e f47a e6be b94c 233e
000002b0: ff53 c1bd c00d ef3d 29dc 233e 28ef 903d
000002c0: 3412 e23c ade2 313e 6965 e5be 0960 94be
000002d0: 1593 163f 5260 6bbe 870a 55be 0d38 ccbd
000002e0: 03a2 4d3e d4b2 e1bd 8097 063f 44d9 6d3e
000002f0: 821b 2c3f 282f 21bc f24c e6bc 7249 2b3c
00000300: d7f2 e83d b26c 01bd 5c83 023d bc11 1cbe
00000310: d34d 3cbe 7f82 69bf 51a8 25be 4006 91bd
00000320: 73c6 863e 4f44 133f 8760 333e 4a4c 8cbc
00000330: c6ae 2bbf 6b7c 913d 438f 74be 6e47 0d3e
00000340: e2d3 d8be 7d25 2ebe 58bb 103d 5379 0b3c
00000350: af36 c6bd ba95 50be 5452 4e3f ee71 583f
00000360: 353c ab3e f2fb 5ebe d938 bb3d 69bb 993e
00000370: 4d1e 4d3e c20e 5d3d 3807 803d 9383 d23d
00000380: 5fd7 443e d0b9 233e 5c5c 933e 5510 66bd
00000390: 6168 6a3d 29a7 45bd beb3 1b3e fbc0 b93e
000003a0: 68be 80bf 3ac7 86bf 1377 123f c06c e83e
000003b0: 9ccc 47be 20d9 c03e dd20 1d3e 204d 66bd
000003c0: 9ede b63e 0db1 d93d 895d a6bd 66bc 5cba
000003d0: 30bb ad3e e7d6 be3e 7063 1c3e 95cb d7ba
000003e0: c91f 83be 6b25 c53e 57b5 fa3e 75fb 883f
000003f0: 33a9 843f de3d c03c 9e99 aabd fe86 da3e
0.610934 -0.4210517 -0.09734228 -0.02210966 0.077119194 0.09586608 0.23100999 0.24733499
0.7272608 -0.17888273 -0.056619525 -0.20034017 -0.11366995 0.26787794 -0.10516084 0.06408961
-0.34502372 -0.1351674 0.17536989 -0.14911722 -0.050155114 0.1910144 0.3874525 -0.111415066
0.28723258 -0.0031636583 -0.4391553 -0.037079804 -0.07811946 0.1572055 -0.08221817 0.06314466
-0.0045558293 0.40407538 -0.5638783 -0.98653877 0.3149794 1.2731471 -0.06966568 0.5946022
0.2941744 0.34941882 0.37535667 0.055239886 0.19578658 -0.11902917 0.04189161 -0.07298387
-0.04418474 -0.08703282 0.03635725 0.29526097 0.5970605 -0.53642243 -0.04062589 0.49451956
0.096127294 0.5050527 0.3627138 -0.18062988 -0.007800511 -0.33746147 -0.27263725 0.11507125
0.007680592 -0.034181114 0.21158038 -0.12680912 0.012342698 0.4999204 -0.41935012 -0.37073663
-0.14206241 0.25552148 0.039392266 0.40885 -0.19217281 0.33312687 0.18099043 -0.018830787
-0.32087 0.08520911 0.2682575 0.024869587 0.019441511 -0.09117346 0.086272754 -0.28578964
-0.63195515 -1.0085566 0.74403846 -0.24700443 -0.10418101 -0.028277801 -0.041204944 0.08018484
0.7635813 0.23689842 0.53739923 0.27330002 0.21817645 0.03130737 0.010262755 -0.17622279
0.16088828 0.48987085 -0.12485934 -0.23342942 0.5483927 -0.4272783 0.057569284 0.61688465
0.103476934 0.053523056 0.7082599 0.5082049 -0.35476565 -0.17884032 0.23932907 0.099727735
0.37170202 -0.09172491 0.28740108 0.47828305 -0.515425 -0.3573426 -0.6200517 -0.57928807
-0.24279042 -0.32034945 -0.38320932 -0.0011230205 0.24200468 -0.072464995 0.27921402 0.25910917
0.3433241 0.2542761 -0.0032679518 -0.12095599 0.20067123 0.07786904 -0.3366603 0.1752537
0.36957124 -0.38900095 0.07088114 0.6840268 -0.0016998687 -0.27759746 0.136676 0.21061309
-0.009645993 -0.11783075 0.15902857 0.013844871 0.3266596 0.25354126 0.0759496 0.19639009
-0.5177278 -0.81911176 1.1631453 -0.29138026 -0.13825282 0.21387976 0.32252628 0.15834117
0.5897692 0.19550408 -0.4501568 0.15947236 -0.09439849 0.116725445 0.16001953 0.070768654
0.02759657 0.17371626 -0.44803932 -0.2897952 0.5881818 -0.22985962 -0.20804797 -0.09971628
0.20081334 -0.11020437 0.5257492 0.23227412 0.67229474 -0.009837903 -0.028112862 0.010454522
0.11374443 -0.0315978 0.031863555 -0.1524114 -0.18389063 -0.91214746 -0.16177489 -0.0708127
0.2632328 0.57526106 0.17517291 -0.017126221 -0.6706356 0.07103809 -0.23882775 0.1379678
-0.42349154 -0.17006488 0.035334915 0.008512813 -0.09678399 -0.20369616 0.8059437 0.8454884
0.33444372 -0.21775797 0.09141702 0.30025795 0.2003109 0.053969152 0.06251377 0.10279002
0.19222783 0.1598885 0.28781402 -0.05616792 0.05722845 -0.04825512 0.15205285 0.36280045
-1.0058107 -1.0529549 0.5721294 0.4539547 -0.19511646 0.37665653 0.15344568 -0.056225896
0.35716718 0.10629473 -0.08123309 -0.00084204075 0.33931875 0.37273332 0.15272307 -0.001646387
-0.25610188 0.3850511 0.48966476 1.0701739 1.0364136 0.023467 -0.083300814 0.42681116

body.0.bias f4 [64]
00000000: 5269 2bbe 3324 32be b534 edbe 0215 6c3d
00000010: aab6 8ebe 49fb 103e dd78 93bc 3441 1ebd
00000020: 63f1 6a3e 1ce1 b03e 77da 48be 3d6d f6bd
00000030: d8ea 70be f266 8bbe eacc 6f3d 750b 42be
00000040: cd02 0dbd ce4c e7be 8956 39be 2f51 d6be
00000050: 94d2 5b3c 5bd0 08bf 79d2 b5bd c188 e13d
00000060: 9859 893c 1a60 833d ff29 a53e 0c69 c8bd
00000070: 5862 b3bd 45af 6dbe ad7c 5e3d 08ea 743e
00000080: 8d10 053e 9f8f bfbe 7fe5 e6be 23fd fdbe
00000090: 98fc 123d a6d7 a0bd 9b79 da3e 83ed ae3e
000000a0: 8da9 ec3c 820c 553d 349d 493e 2e87 b0be
000000b0: da24 a03d 4314 efbd 532d 9e3e 6f96 a2be
000000c0: a434 a63e f8e6 823d 8e24 e8bd ebb3 813e
000000d0: 5e54 483e 8f4f 24be 9d8b dabe e1d8 98be
000000e0: f3b1 e33d 9ef6 143e e2c0 0b3d 0191 893e
000000f0: 8ed9 043c 265f 6fbc 7634 10bd c842 a33c
-0.16739395 -0.17396621 -0.46329275 0.057637222 -0.27873737 0.14158358 -0.018001968 -0.0386364
0.22943644 0.34546745 -0.19614588 -0.12032554 -0.23527086 -0.2722698 0.05854503 -0.18949683
-0.0344265 -0.45175785 -0.18099417 -0.41858813 0.013416905 -0.53442925 -0.08878035 0.11012412
0.016766354 0.06414814 0.32258603 -0.09785661 -0.08758992 -0.23211391 0.05431812 0.23917401
0.12994595 -0.37414262 -0.45096967 -0.4960719 0.035885423 -0.07853632 0.42670903 0.34165582
0.028889442 0.05201388 0.19688874 -0.34478134 0.07819529 -0.116737865 0.30893955 -0.31755397
0.32462037 0.0639171 -0.11335097 0.2533258 0.19563434 -0.16045974 -0.4268464 -0.29852965
0.111179255 0.14547202 0.034119494 0.26868442 0.00810851 -0.0146100875 -0.03520628 0.019929305

body.2.weight f4 [64, 64]
00000000: f00a d9bd 4df4 93bd bcb5 d9bd 2aa5 733e
00000010: a956 9cbe 22ad 0e3d a8cd b73d 03d3 05be
00000020: c4b1 073d 9091 863e 4a63 0cbe cdd6 3c3d
00000030: 5e94 303e b3dc e9bc 82b6 7b3e 2814 3e3e
00000040: 88e6 7bbc a212 6cbe 3621 d3be 8d20 78bd
00000050: 5292 f7bc a1b6 23be ff6b 99be 3fca 993d
00000060: 0b3a 77bd a50e da3d 4fc6 39be 5061 2f3e
00000070: 6db0 a13d 46c5 68bd 699d 12be 7131 02be
00000080: a040 bcbd 8932 f0bc 5d0c 88be 5f0d 4ebe
00000090: 1858 0d3c 29bd 573e b25d 8bbd 1d25 093e
000000a0: 2ed7 f73c 2b80 bbbc 12b0 9a3d 086e 28be
000000b0: 62cd 2f3e f6e1 853d 3599 043e 0bc2 34be
000000c0: b0f6 3f3e ee25 84bd 5974 b73d a8ce 7a3e
000000d0: c4a6 053f c95c 783c 1cd9 ccbc b758 9ebe
000000e0: 5406 813e 7b57 153e c9d7 b13e dd80 503e
000000f0: eb06 86be 92b2 2f3d b05a e13d 3d2c c23e
00000100: db93 fabe 6d6c acbe 6f19 88be 2912 be3d
00000110: ad9f 99bd 545d b0bd 429d 70be 7d23 823e
00000120: a499 e5bc 5e95 70bd f2b7 c9be cfc7 c5bd
00000130: fbed d13c ad75 8f3d c46a c4be 0112 79be
00000140: b257 f8bc 3fc3 8bbe bbb2 6a3e 3b71 2abe
00000150: 3004 193e 32be 8fbe 9a31 ef3d 690d 11be
00000160: e580 103e cdf1 7c3c 4662 b13c bd1e 4bbe
00000170: 9079 14be 1d96 75be cc78 bcbc ea78 653c
00000180: ae25 653e d92f 16be 8025 26be 31aa 8bbe
00000190: 30fb 83bd d85e acbe 1f76 1b3d f9dc a53d
000001a0: 35aa d2bd 53c0 f43c 9d9c 48be e3a4 f9be
000001b0: d472 2dbe a125 8abc 14dd aa3e f82b afbc
000001c0: dea7 41be 181b 55be 0ecc a43d 1139 de3d
000001d0: ddd1 69be c274 2cbd 6988 5ebd c153 933d
000001e0: f62e d43c 0cf1 c7bb e35a 97bc 32f4 cb3e
000001f0: 1c77 9b3d 3096 293e 1ea0 2c3d 16d9 e1be
00000200: 3e7a 7e3d 0860 a7bd abe0 c6bd 3b40 0ebd
00000210: 4fa1 21be 3566 ba3c 665a 8ebe 4645 6e3d
00000220: 70ed 9bbd 139c 2e3d 739e eebd 727e 94bd
00000230: cb2e 8abd c53c 573e 8fc4 b7be 1d00 843d
00000240: 6ac4 393e 81aa 69bc 2c0b 9dbd 8197 933c
00000250: 4e3c be3d 8d26 91bc d83d 23be 926c 5d3d
00000260: c180 45be e071 b43d 19f2 9cbd b1d2 733e
00000270: ace2 583d 8e19 17be 8ce6 c7bd 028e 43bc
00000280: 66e2 61be b43a 323e c2ff 04bc d7f4 a0bd
00000290: af47 90be 8836 3e3d 19be cbbe 9f42 b6bd
000002a0: c6f0 843e efd7 bbbb 7439 91be 3291 513e
000002b0: 8825 793d f578 1ebe d0ed 4d3d aa8c 43bc
000002c0: 95cf 233c 1ffe 3bbe 0f38 423e c66f 233e
000002d0: eb54 273e 709b 573d 95eb 5f3e 1899 4bbe
000002e0: 6966 cdbd af6a 8bbd 705e 053e 00d2 a2bc
000002f0: ab72 7bbd ab6f d8bb c9e4 9a3e 358a a13e
00000300: 8538 b63e f8af 98bb 8298 c53e 4b9c 66be
00000310: 5bbe dc3d 9b6e 753e ea84 a93d 9fad 16be
00000320: 591d babd ce8c 153d ecac 0b3e cee5 5f3e
00000330: fa10 8d3e 2bde 74bd 3a06 213f ff0b ed3d
00000340: e131 d1bc bfd8 1cbe 258f 2cbe e5a1 11be
00000350: 9e45 f43d db56 e83d 22d2 b43c a1ce d7bd
00000360: 372f 0a3c 72d7 283e 5fb5 013e 3b3d 303e
00000370: a96d c0be 95b1 983e 8865 153d 6627 6fbd
00000380: 976d 70be 960a 1ebc 923d aebb b0f2 e73e
00000390: 3042 7dbe cd8c f83e 0372 47be acb5 6c3d
000003a0: 4295 2d3e 68b8 fc3c 50ac 52bc 4ff5 2d3e
000003b0: 6953 f63d d960 973e be25 80be 705c 823d
000003c0: 4399 873e cf07 4c3d 1be9 c33e cf36 76bd
000003d0: c12b a6bc b8db 29be c037 64be 71cb a93e
000003e0: 3c35 113f 5426 5f3d 1392 723e 6a14 08be
000003f0: a985 a5be aef2 4ebd 2202 3cbe dcfd 033e
-0.10597789 -0.07224331 -0.10630366 0.23793474 -0.30534866 0.03483308 0.08974773 -0.13068776
0.033128515 0.2628293 -0.13709751 0.046103287 0.17244098 -0.02854762 0.2458134 0.18562376
-0.015374787 -0.23053983 -0.41236275 -0.060577918 -0.030221138 -0.15987636 -0.29965207 0.075092785
-0.06035809 0.106473245 -0.18142055 0.17126966 0.07894979 -0.05682876 -0.1431786 -0.12714173
-0.09192014 -0.029320972 -0.26571932 -0.20122288 0.00862696 0.21068253 -0.0680498 0.13393064
0.030253973 -0.022888264 0.07553114 -0.16448224 0.17168191 0.06537239 0.12949069 -0.17652147
0.18746448 -0.06452547 0.089577384 0.24492896 0.5220759 0.01515884 -0.02500587 -0.3092706
0.2520014 0.14584152 0.34734944 0.20361657 -0.26177153 0.042894907 0.110036254 0.37924376
-0.4894093 -0.33676472 -0.26581904 0.092808075 -0.07501159 -0.08611551 -0.23497489 0.254177
-0.028027363 -0.058736198 -0.39398152 -0.09657251 0.025626173 0.07004867 -0.38362706 -0.24323274
-0.030315254 -0.27297398 0.22919743 -0.16644756 0.14943004 -0.28074795 0.116793826 -0.14165272
0.1411167 0.015438509 0.021653306 -0.19835944 -0.14499497 -0.23983045 -0.02300682 0.014005879
0.22377655 -0.1466669 -0.16225243 -0.27278283 -0.064443946 -0.3366611 0.037954446 0.08098788
-0.10286371 0.029876864 -0.19590993 -0.4875861 -0.16938335 -0.016863646 0.33371794 -0.02138327
-0.18911693 -0.20811117 0.08046733 0.10850728 -0.22833963 -0.042103536 -0.05432931 0.07193709
0.025901299 -0.006101733 -0.018475955 0.39834744 0.07591078 0.16561198 0.042144887 -0.44110936
0.062128298 -0.081726134 -0.09710821 -0.034729224 -0.1578419 0.022753814 -0.27803344 0.058171533
-0.07613647 0.042629313 -0.116513155 -0.0725068 -0.06747206 0.21019275 -0.3589215 0.06445334
0.18141332 -0.014261843 -0.076681465 0.018016579 0.09288846 -0.017718578 -0.1594156 0.05405862
-0.19287397 0.088107824 -0.07663364 0.23810841 0.052950546 -0.14755842 -0.0976077 -0.011935713
-0.2205902 0.17405206 -0.008117618 -0.078591995 -0.2817969 0.046438724 -0.3979347 -0.08899426
0.25964946 -0.0057325284 -0.28364146 0.20465544 0.06082681 -0.15475829 0.050275624 -0.011935392
0.009998222 -0.18358658 0.18966697 0.15960607 0.16340987 0.05263847 0.21867211 -0.1988262
-0.10029299 -0.06807458 0.13024306 -0.019875526 -0.061388653 -0.0066051087 0.30252674 0.31550756
0.35589996 -0.004659649 0.38592917 -0.22520559 0.10778495 0.23967974 0.082773045 -0.14714669
-0.09087629 0.036511235 0.13640183 0.21865007 0.27552015 -0.05978219 0.62900126 0.11574554
-0.02553648 -0.15317057 -0.1685148 -0.14221914 0.11927341 0.11344691 0.022072855 -0.10537458
0.008434108 0.16488436 0.12666844 0.17210858 -0.37583664 0.29822984 0.03647378 -0.058387183
-0.23479305 -0.009646079 -0.0053173983 0.45302343 -0.2473228 0.48544922 -0.19477086 0.057790443
0.16951469 0.03084965 -0.012858465 0.16988109 0.12027628 0.29566076 -0.25028795 0.06365287
0.26484117 0.049812134 0.38263783 -0.060110863 -0.020284535 -0.16587722 -0.22286892 0.33163026
0.56721854 0.054479912 0.23688535 -0.13289037 -0.32328537 -0.050524406 -0.18360189 0.12889808

body.2.bias f4 [64]
00000000: 7861 b63e 2c7d b13e d28a 263d 3d57 92be
00000010: f824 8fbe dd9f d73c 3881 c23d 691b 053e
00000020: 46c8 d0bd 3c98 b33c bae6 1ebd 78f2 bfbe
00000030: d0cd de3c d439 0bbe 2707 67be a669 5f3e
00000040: 68fb b0be 9b14 3dbe 9e71 51be 2a37 a13e
00000050: 0323 2dbe f970 273e 1d5d ba3d 06e4 f1bd
00000060: f5a2 163e 1ec2 da3d beab 693e a87a 323d
00000070: 5678 09be 97fc 123b 88be 643d 6bf8 d13e
00000080: a0bd 493d dec5 c63e 0da4 503d 653b 773d
00000090: b0fe 8fbe fce5 233e 70a7 853d 2fab 6abe
000000a0: 5cb8 943e d74e dfbd 4995 cd3c b3a6 0dbe
000000b0: 047e 43be 3f7d 8e3d 05ce 56be 1fbd b8bd
000000c0: 5034 b53e a07d cd3c 4ba8 1dbe 58f5 8dbd
000000d0: 0f0d 223f 9c6e 87ba c499 de3d 6571 50be
000000e0: d30b e1bd 904d afbd f461 bbbd 582e 9c3b
000000f0: d807 bfbe 38aa 253e 6807 c9bd d096 42be
0.35621238 0.3466581 0.040659733 -0.28582183 -0.27957892 0.026321346 0.09497303 0.12998737
-0.10194449 0.021923177 -0.038794257 -0.37489676 0.027197748 -0.13596278 -0.22561322 0.21817645
-0.34566808 -0.18464892 -0.20453498 0.314874 -0.16907887 0.1635169 0.09099791 -0.1181107
0.147106 0.10681556 0.2281942 0.043574005 -0.13424811 0.0022428387 0.055845767 0.4100984
0.049253106 0.38822836 0.0509377 0.060359377 -0.28124 0.16005701 0.06526077 -0.22916864
0.29046905 -0.109037094 0.025095599 -0.13833122 -0.1909104 0.069574825 -0.20977028 -0.09020447
0.35391474 0.025084317 -0.1539623 -0.06931561 0.63301176 -0.0010332647 0.10869172 -0.20355757
-0.109885834 -0.08559716 -0.091495425 0.004766267 -0.37310672 0.16178215 -0.09815866 -0.19002843

mean_head.weight f4 [6, 64]
00000000: 6154 8e3d ed6a 343e cc59 ee3d 6739 88bc
00000010: f5ee 8b3d 052f df3d c275 903c 7a2c e0bc
00000020: 1d5d 683e 42ed d4ba 42c8 0fbe fe5f 32bd
00000030: 6aaa 74be 282e 263d 9eb0 1d3d b89b 233e
00000040: e8b1 efbc a930 cdbd 4353 fb3b 1a82 9b3d
00000050: 3ddc 733c fd2d a0bd aa3b 68be 2783 8f3a
00000060: fc4e 0dbd e92d db3c 430b 263e 977d 8e3b
00000070: 85fc 8fbd 7b80 65be 51c2 373d 484e 073d
00000080: ddb0 33be db6b 00bc c684 e23c 8dbe d1bd
00000090: c56f 7b3e 10c2 03bc 9f25 32be f5e4 29be
000000a0: 4c61 e53c 4ffd 2a3d a026 54be 0aa6 053e
000000b0: daab bebd 2541 ea3a 4c10 35be 26cc 1f3e
000000c0: 7025 79bd 07e8 eb3c 10db 0a3d dd7b 913c
000000d0: 1f01 593c 6d8f b9bd 6a33 c4bc cdfc 85bd
000000e0: 6ce1 c1bd c939 b93c 3e38 1b3e 6dd3 b6bd
000000f0: db3f fdbd 5f76 14bc 8ee5 283e d645 1d3d
00000100: 647b 8b3d 5148 153d 3ae8 c63d ae38 b2bc
00000110: 8f23 16bd 83ec e83c 5014 69bc 8791 07bc
00000120: 2c9f 503e 660c 8f3b 2203 2cbe c088 a0bc
00000130: fc59 15bc 7de9 413e a17c bbbd 4c78 d0bc
00000140: b5f7 793d 3819 cdbd a6b4 9bbc bf16 303e
00000150: a8e0 c4bd 33e6 f3bd 4ba1 aabd 9910 4a3b
00000160: e51d 053e 39c3 01bc d7a5 243e 356c b4bd
00000170: 28d1 fb3c ad0d 8cbe adae 7e3d e9ae 553d
00000180: e417 89be b5a3 b23d 1b4b da3c 152b a8bd
00000190: 72c5 d03e fd89 1f3d 42c9 d8be 0ac5 4abe
000001a0: 7981 2cbe a71f 96be 46a8 81be f86e 8d3d
000001b0: 7d25 4fbd 2c1f 093e 45df 18bc 26a2 253e
000001c0: 993c 34be 6287 383b dcc2 f2bd 3b35 65bd
000001d0: ac53 34bb 79e4 84bd 49b9 5b3d d4e0 5f3d
000001e0: a8a4 0b3e 4e4d 1bbc 14e5 83bb 62c8 563d
000001f0: bd12 513b 7792 d13d e6c9 31be ce40 8ebd
00000200: 187c ce3d c450 7abd 84b2 73bd 05da c8bd
00000210: 675b 8ebd 170a 22be 0a7f 753d 8f59 043d
00000220: 2325 7a3e b8f6 9f3d b4db 70bd 0c32 de3d
00000230: 9a72 203d 9cd5 133e a81b 3fbe 9fd6 993d
00000240: ab22 c13d afbc debc 44d5 a03e e752 6dbd
00000250: 385e 8bbd deb5 15ba d5a4 e5bd f5e3 c33c
00000260: 3560 5bbe 767d 003e b3f5 0b3e f6a7 9ebb
00000270: b157 6b3d d71e 103e 4c51 9a3d 7546 febb
00000280: 3ea1 aebc c04e 66be 723a 16bc e12d 3c3e
00000290: 31f2 063e 5148 9a3d a0b2 22bd 08fa ffbd
000002a0: fba3 3ebe 4ad9 52bd 5ca1 e1bd 3b36 8abc
000002b0: a149 88bd 07fb 73be 953a 85bc af30 c23d
000002c0: af13 9a3d a5cb d3bd c51e c03d 2820 12bd
000002d0: 4867 3cbd 9a4a 8bbd 2e62 9abb 5335 a03e
000002e0: aca9 8f3c 574f 0c3e 2e58 c6bd 9050 fdbd
000002f0: f289 b83d 66cc 14be 6ae4 333d 989c 2a3c
00000300: d346 fd3d a150 efbd d345 62bd f52f a6bd
00000310: 81af 6c3d 6b35 6e3e aa76 20bd 3a39 b4bd
00000320: f41c fe3d 397f 13bd c546 edbd 684c f73d
00000330: a6bd a53d 88fd d53c 7765 b83d 2101 02bb
00000340: 5040 f6bd 6679 073e 7e10 b83d 5142 15be
00000350: 550a a53e 77d5 ad3c 3cac 163e 9a37 5c3d
00000360: 9a71 8e3d a239 afbd c595 24bd 3097 f6bc
00000370: da49 fcbd 0de1 8e3e 463b 13be 67a4 3b3e
00000380: 63c6 e1bd 6bb4 763d 5207 b43d 408f 713e
00000390: 934a 2fbd 3bdf e1bc 1d65 04be 7919 153e
000003a0: 2f44 14be f887 e5bd 185a 343e 0b47 71bd
000003b0: b689 1abd b051 4cbe f0ec 923d 4acd 52be
000003c0: 8216 693d c71a 623d 239c f8bd cd98 56be
000003d0: b05e 453d d412 88be 51c2 85be d0b8 253e
000003e0: 1a86 ac3c a7fc c03c 51d1 e93d cb8d 8e3e
000003f0: 895d a23e 88bb a5bd 4e21 ff3d 95a1 4a3c
0.06949688 0.17618914 0.11638221 -0.016628934 0.06832687 0.1089764 0.017634276 -0.027364958
0.2269177 -0.0016245025 -0.14041236 -0.043548577 -0.23893133 0.04057136 0.038498513 0.1597737
-0.029259637 -0.10019047 0.0076698377 0.07593174 0.014884052 -0.078212716 -0.2267901 0.0010949121
-0.034499153 0.02675529 0.16215234 0.0043484676 -0.07030586 -0.22412293 0.04486305 0.03303364
-0.17547937 -0.007838215 0.027651202 -0.10241423 0.24554355 -0.008041874 -0.17397164 -0.16591246
0.028000496 0.04174548 -0.2071786 0.1305162 -0.09310122 0.0017872198 -0.17681998 0.1560522
-0.06082672 0.028797163 0.03390032 0.017759258 0.013244896 -0.090605594 -0.023950297 -0.065423585
-0.09466824 0.022610562 0.15158173 -0.08927045 -0.12365695 -0.009061425 0.16493818 0.03839668
0.06810644 0.03644592 0.097122625 -0.021755543 -0.036655005 0.02843309 -0.014226034 -0.0082744425
0.20373219 0.0043654917 -0.1679807 -0.019596457 -0.009115692 0.18936725 -0.091546305 -0.025447987
0.061027247 -0.10014576 -0.019007038 0.17196177 -0.09613162 -0.119091414 -0.083315454 0.0030832647
0.12999685 -0.00792008 0.16078888 -0.08809701 0.030739382 -0.27354184 0.062178303 0.05216876
-0.2677604 0.08722631 0.026647141 -0.08211342 0.4077564 0.038949955 -0.42341048 -0.19801727
-0.16846265 -0.29321024 -0.25323695 0.06905931 -0.05057286 0.13390797 -0.009330575 0.16175136
-0.17601241 0.0028156866 -0.11853573 -0.055958968 -0.0027515693 -0.0648889 0.0536435 0.054657772
0.1363703 -0.00947888 -0.004025111 0.052437194 0.0031902038 0.10233014 -0.17362174 -0.06945954
0.10082263 -0.06111218 -0.059496418 -0.09807209 -0.06951027 -0.15824161 0.059935607 0.032311972
0.24428229 0.0781073 -0.058803275 0.108493894 0.039171793 0.14436954 -0.18662894 0.07511639
0.094304405 -0.02718958 0.3141271 -0.05794039 -0.0680508 -0.0005710999 -0.1121308 0.02391241
-0.21423419 0.1254786 0.13667946 -0.0048418 0.057456676 0.14074264 0.075350374 -0.007759864
-0.02131712 -0.22490978 -0.009169208 0.18376876 0.13178326 0.075333245 -0.03972113 -0.124988616
-0.18617241 -0.051476754 -0.11017105 -0.016871562 -0.066546686 -0.23826228 -0.016263286 0.09481942
0.075232856 -0.103415765 0.09380869 -0.035675198 -0.045996934 -0.068013385 -0.004711411 0.31290683
0.01753696 0.13702141 -0.09684788 -0.12368882 0.09010686 -0.14531097 0.043919004 0.010413311
0.12367024 -0.116853006 -0.05524237 -0.08114616 0.05778456 0.23262565 -0.039175667 -0.087999776
0.12407866 -0.03601 -0.11585764 0.1207512 0.08092813 0.02612187 0.09003728 -0.0019837099
-0.120239854 0.13229904 0.08987521 -0.14576079 0.32234445 0.021219952 0.1471414 0.053763963
0.069552615 -0.085559145 -0.040181894 -0.030101389 -0.123187736 0.27906075 -0.1437808 0.18324433
-0.110241674 0.060230654 0.08790459 0.23589802 -0.04279573 -0.027572265 -0.12929197 0.14560498
-0.14479135 -0.112075746 0.17612493 -0.058905642 -0.037728988 -0.19953036 0.071740985 -0.20586124
0.05690623 0.055201318 -0.12139156 -0.20956726 0.048186004 -0.26576865 -0.26124814 0.16183782
0.021060038 0.023557974 0.11416877 0.27842554 0.31711987 -0.08092409 0.12457524 0.012367626

mean_head.bias f4 [6]
00000000: 6ae6 c53d febd 8a3c e579 1abd 8200 c23d
00000010: 337b 1b3d b3de a53c
0.096630886 0.016936298 -0.037713904 0.09472753 0.03795929 0.020247793

value_head.weight f4 [1, 64]
00000000: 2e31 4e3f ef48 103f e45e 293e 80c6 84bf
00000010: e229 b7bd 64fc 263f c602 4f3f 91df cb3e
00000020: 44b3 8dbd 6446 51bf cbb4 103e d4be 47bf
00000030: a297 0e3f 3cee 50be d71d 5fbf 7c2a 84bd
00000040: e97c 42bf 81b8 32bf d471 6fbe a818 1c3f
00000050: e370 d73d f2b7 693e d634 ce3d 1664 ae3e
00000060: 5104 8e3d 3bc9 6d3e 021a fb3e a729 dcbb
00000070: 0ed2 d5be c037 0cbd 6074 6f3f a261 843f
00000080: e76e 5d3d 1f51 993f 0115 72bd e6a6 113e
00000090: b889 ac3e cfb5 ed3e 1c6a 6c3d cadc 893d
000000a0: e9c0 983d 4e31 193e af16 203e 9335 cebe
000000b0: 011e 20bf db10 bebd 6926 a2be a515 2ebe
000000c0: ac8c 693f 201c c93e d932 a43b fce6 b8be
000000d0: 814a d13f d3c3 4d3e 3ed9 b73e 2796 6fbe
000000e0: 6fa3 17bf 1336 bcbe b3c4 59be 04ea babd
000000f0: 6d4a 5fbf d8fe 223e 0c52 8dbe 1330 80bf
0.8054379 0.5636129 0.16540104 -1.0373077 -0.089435354 0.6522887 0.80863607 0.39819005
-0.06918958 -0.8174803 0.14131467 -0.78025556 0.55700123 -0.20403379 -0.87154907 -0.06453416
-0.7597185 -0.6981278 -0.23383266 0.6097512 0.10519578 0.22824076 0.100686714 0.34060735
0.06934417 0.23221295 0.4904328 -0.0067188325 -0.41761822 -0.034232855 0.9353695 1.0342295
0.054060843 1.1977881 -0.059102062 0.14223823 0.3369882 0.4642777 0.05771838 0.06731565
0.0745867 0.14960214 0.15633653 -0.4027525 -0.6254578 -0.09280559 -0.3166993 -0.17000444
0.91230273 0.3927927 0.0050109443 -0.36113727 1.6350862 0.20094232 0.3590793 -0.23397122
-0.59233755 -0.36760005 -0.21266441 -0.09126666 -0.8722294 0.15917528 -0.2760166 -1.0014671
