checkpoints/walker_ppo_mp.pt (torch, 29091 bytes, 8 tensors)

log_std f4 [6]
00000000: 43de ca3c 9c94 aabc b227 36bd c393 723d
00000010: e8ea b3bd 09c6 8c3d
0.024764186 -0.020822816 -0.04447145 0.059222948 -0.08785039 0.0687371

body.0.weight f4 [64, 25]
00000000: b16f b7be e720 2b40 92e0 493e 6da8 373e
00000010: e376 2bbf 5b0b 41be 9baa 823d 4bd2 c83e
00000020: 897d 3e3f 6668 8e3e a9c1 1ebe 2a47 853f
00000030: f940 66be f1ee d7be f6a5 893d 3221 2bbe
00000040: 1b5c 2d3d 2423 59bc 52cf cf3e 8290 163e
00000050: 347f 73be 8c96 e73e 515d 5a3d 83cc 543d
00000060: c8cc 5b3e b9fc 623d f36c 52c0 1632 153e
00000070: d29d 2ebe 374b 8a3e 1b0a 0ebf c92a 933d
00000080: bde9 93be 3ba2 37bf f945 d0be 8924 eb3d
00000090: 27b5 93bf 1331 5d3e 2d1f 763e 8e65 b23b
000000a0: 21f1 9c3d eae7 b73c e427 7c3e 9106 debe
000000b0: ab1d 2e3e 39b0 223e 1d5a 0c3c 49a6 773d
000000c0: a2ee abbe d84b 633e 6254 be3f 5bee bfbf
000000d0: 8a76 163d d3e3 273c 4098 b03f d4f3 843f
000000e0: 4764 e13d ef11 7b3f d00d 28bf aea6 a3bf
000000f0: 1450 5a3d 87ce 283d e1b0 94bf a17b 423f
00000100: 2e1a 1dbf 3875 50be 0264 033f 3fb9 0bbf
00000110: dedb d93e 37be ff3e 8d7e 813d bfd6 39bf
00000120: 3f01 933e b014 28bd dcb7 1cbf 33d6 ac3f
00000130: 68c4 f9bf 6a5f 9fbd 8258 6abd 6886 e33f
00000140: 3fbc d63f 2599 3e3e a0ee 133e da7a 03be
00000150: e4b9 b9bf a8f2 1cbf 1ef5 85bc 13a8 93bf
00000160: 73ba 823f 91d3 0f3e 9c50 e13d 879c 413f
00000170: 8463 083e 324f 1fbe 3bb1 193e 3f46 cebd
00000180: 9b92 aabe 6f7c 0ebd 824d ddbd 1d5c f9be
00000190: 6429 3e3e 8c1f ea3e 3e2e 373e 4d70 053f
000001a0: adce aabb 333c 1cbe c597 6b3e 9075 8e3e
000001b0: 10fa 663e bfe6 5abf 16d6 08bd 0367 2c3f
000001c0: 2eb0 3dbf 98b9 433f 0dfe 473d 0ac1 ea3d
000001d0: 5e87 0a3f 4500 82bd e797 35bc d0d5 83be
000001e0: 5541 76bd 596b fdbe 2dac bebe da61 12be
000001f0: 3a14 e7be 4190 db3e d674 4740 96f3 503e
00000200: db0d bf3e d345 d1bd cd17 9f3e c2d5 c43e
00000210: 3082 0fbd 228a aa3e fd4e edbc a76e 9e3e
00000220: 7e6a 143f a3bc 76bd 6c3a 293e ffad 1fbd
00000230: cb0c 92be 2864 153f 09e9 1dbd e099 053e
00000240: 2982 a13d a607 d83d 4639 02be 3bd3 363d
00000250: 1939 a7be 06e0 5a3d 4258 f43d a241 1e40
00000260: b3f1 4a3e 65b2 3c3e 19cb 0ebf bf29 abbe
00000270: cf8b d13e f191 083f 0734 2b3f 9fd3 5fbe
00000280: 990f 013f 03b8 113f 9539 4ebe 0050 153e
00000290: 793d 773e c066 963d 8495 a23e b710 993b
000002a0: 1110 9ebe a737 7f3b 0b01 45be 0094 84bc
000002b0: ccec bb3c d53b f83d 1456 e7bc 032d 50be
000002c0: 1537 5dc0 8157 bdbe f9f9 51be 5992 233c
000002d0: 5783 7fbe a19b ebbe dd4c 74be 1bf8 bbbe
000002e0: 2ed1 c1bd aa6f 13bf c666 3cbe 53fe ef3e
000002f0: 8569 483c cbe0 b43e 2238 b13e 096b c2bd
00000300: 79f4 8bbc f1f8 0ebf 2390 92bd a945 4abe
00000310: 28f5 b73e f6bf b7be 12b2 1b3e f4d4 68bd
00000320: 9e8f 2fbe e1a0 38c0 cd47 a1be 4cb7 d3be
00000330: df92 1a3f 69e4 74be 1444 bbbd 4df1 233e
00000340: b546 6dbf 76d4 16be 03a6 60be 11d3 62bf
00000350: c066 6cbc 76f1 b1bd 93e3 93be a47b a33d
00000360: cf99 bc3b 198d 513d 14bf fabc 2fc0 8fbc
00000370: ac8f b43b 932b 903e 9616 533d 8253 dc3c
00000380: 715b 0e3e efba d83d 6d3e bd3f 6728 423f
00000390: 8a65 4d3f e812 a43a d46a 64bd 688d 473f
000003a0: bbec a2bd 741a 213f 6848 1dbf 44a3 7a3d
000003b0: e1d5 de3e 98a6 0fbf 6909 783f c067 d53e
000003c0: 2a17 3ebd 0111 f9bd 9bbd 3f3e 74cb cdbe
000003d0: 0a66 10be 6e51 a13e be15 b3be d4fe 8cbd
000003e0: c4e6 693d 16e9 5fbe 46c3 ff3d 314b 3f40
000003f0: 682f 353d 60e8 7fbe 74d5 e83c ffdd 3d3f
-0.358274 2.6738832 0.19714573 0.17935343 -0.6697828 -0.18851988 0.06380197 0.3922294
0.744103 0.27814025 -0.15503563 1.0412343 -0.22485723 -0.42174485 0.06721108 -0.16711882
0.042324167 -0.013253007 0.4058786 0.14703563 -0.23778993 0.45232046 0.05331165 0.05195285
0.21464837 0.055416796 -3.2878997 0.14569888 -0.17052391 0.2701051 -0.5548417 0.07185895
-0.28889266 -0.7173192 -0.40678385 0.11481578 -1.1539658 0.21600752 0.2403533 0.005444235
0.07663179 0.022449452 0.24624592 -0.43364385 0.17003505 0.15887536 0.008566407 0.060461316
-0.335805 0.22196901 1.4869502 -1.4994615 0.03673414 0.010247189 1.3796463 1.038691
0.110054545 0.9807424 -0.65646076 -1.2785242 0.053299025 0.041212585 -1.1616479 0.7596989
-0.6136807 -0.20357215 0.51324475 -0.5457954 0.42550558 0.4994981 0.06322966 -0.725933
0.28711888 -0.041035354 -0.6121805 1.3502868 -1.9513063 -0.07781871 -0.057213314 1.7775393
1.6776198 0.18613108 0.14446497 -0.12839833 -1.4509854 -0.61307764 -0.016352233 -1.1535667
1.021315 0.1404555 0.11001703 0.75629467 0.13319212 -0.15557554 0.15009014 -0.10071992
-0.33314976 -0.034786638 -0.10805799 -0.4870309 0.18570477 0.45727193 0.17888734 0.5212448
-0.005212626 -0.15257339 0.23007114 0.27824068 0.22556329 -0.8550834 -0.033407293 0.67344683
-0.74096954 0.7645507 0.048826266 0.114626005 0.54112804 -0.06347708 -0.01108358 -0.25749063
-0.0601209 -0.49495962 -0.37240735 -0.1429514 -0.4513262 0.42883494 3.116506 0.2040542
0.37315258 -0.10218396 0.31072846 0.38444334 -0.035036266 0.33308512 -0.028968329 0.30943796
0.57974994 -0.06023849 0.16526192 -0.038984295 -0.28525385 0.5835595 -0.038552318 0.1304698
0.07886154 0.10548334 -0.1271716 0.04463504 -0.3266075 0.0534363 0.11930896 2.472756
0.19818763 0.18427427 -0.5577865 -0.33430287 0.40926978 0.5334769 0.6687626 -0.21858071
0.50414425 0.56921405 -0.20139153 0.14581299 0.24144544 0.07343817 0.31754696 0.004671182
-0.30871633 0.0038943083 -0.19238679 -0.016183853 0.022940062 0.12120787 -0.028239287 -0.2032967
-3.456487 -0.36980823 -0.20505513 0.0099836225 -0.24952446 -0.46017173 -0.23857446 -0.36712727
-0.09463726 -0.5759226 -0.1839858 0.4687372 0.012232189 0.35327753 0.34613138 -0.094930716
-0.017084347 -0.55848604 -0.07156398 -0.19753136 0.35929227 -0.35888642 0.15204647 -0.056843713
-0.1714463 -2.8848193 -0.31500092 -0.41350782 0.6038036 -0.23915257 -0.09143844 0.16010018
-0.92686015 -0.14729485 -0.21938328 -0.8860331 -0.014428794 -0.08688633 -0.28884563 0.07982567
0.00575564 0.05115995 -0.030608691 -0.017547695 0.005510291 0.28158244 0.05153521 0.026895288
0.1390207 0.1058253 1.4784676 0.758429 0.8023306 0.0012517842 -0.05576594 0.77950144
-0.07955309 0.6293099 -0.6143861 0.06119086 0.43522552 -0.56113577 0.9688936 0.41680717
-0.04640881 -0.12161446 0.18724672 -0.40194285 -0.14101425 0.31507438 -0.34977525 -0.06884542
0.05710484 -0.21866259 0.12488417 2.9889643 0.044234663 -0.24990988 0.028422095 0.74166864

body.0.bias f4 [64]
00000000: 4af2 3ebe 96ef 633d 4bee 87bd 8ee1 763e
00000010: 8de1 ae3e 5bd1 f93e fe04 ee3e 05e8 1bbe
00000020: 3e9c 03be 6651 2f3f efa7 5bbe c1e5 0cbe
00000030: 7121 08be 5902 f4bb ed0a 1cbd 2ce1 073e
00000040: fff9 42bd 2d2a ff3d 6db3 d3bc 5f78 113f
00000050: 2afb 2e3e 33d5 a8be ada7 c0be 1967 b53e
00000060: cc18 9d3d 546b 8ebc 7a15 d03d 4937 65be
00000070: 241b e6bd 381a f93d e6c5 813e 37f2 41be
00000080: 7638 8a3d fb31 7c3e fa9e 2b3e ec86 cfbd
00000090: 133b 2e3e 970f 68be 90ca 283e 5724 173e
000000a0: 3701 34be 0045 6dbd 07bc 5dbe 76a2 613d
000000b0: e598 5fbc 728e 1cbe 7055 703d 42c6 36bf
000000c0: 47be 93bd 0999 edbd 72b0 dbbe cbd4 d4bd
000000d0: 7381 ae3e c9fd e33d b6d5 163e a60a 12bf
000000e0: 663e c5bd 044d 01be c2c8 3abd f103 02bf
000000f0: 85ca 14bc 1c1e 6f3e 9e8e 3b3e 6c54 6dbd
-0.18647113 0.05564841 -0.06637248 0.2410948 0.34156457 0.48792538 0.46488184 -0.15225227
-0.1285257 0.6848358 -0.2145078 -0.13759519 -0.13294007 -0.007446569 -0.038096357 0.1326949
-0.047601696 0.12459216 -0.025842393 0.56824297 0.17087999 -0.32975158 -0.37627926 0.3543022
0.07670745 -0.017385162 0.10160346 -0.22384371 -0.112356454 0.12163204 0.25346297 -0.18940054
0.0674905 0.24628441 0.16759863 -0.10133156 0.17014723 -0.22662197 0.16483521 0.14759956
-0.17578588 -0.05792713 -0.21653758 0.055086575 -0.013647293 -0.15288714 0.05867523 -0.7139627
-0.07214027 -0.11601455 -0.42908055 -0.103921495 0.34083137 0.1113239 0.14729962 -0.570475
-0.09631042 -0.12627035 -0.045601614 -0.50787264 -0.009081488 0.2335133 0.18316123 -0.05794184

body.2.weight f4 [64, 64]
00000000: c702 e5be 7c11 443f 1ec3 2cbe e0d0 0d3f
00000010: 64cd dd3c c4ee 84be b27f 9ebd e9da 173e
00000020: 63af e73e 6728 ebbd c285 0bbf 74a3 1dbf
00000030: 1aef 7a3f a5f2 1bbf b60d 1bbf 4da6 803e
00000040: 4a74 10bf e1f9 1ebd b13b e6bd bd4d 73bd
00000050: d4db 00bf 591e 023f 9d3a ea3d 2653 5bbe
00000060: 28ee fa3d f495 393f 8d19 db3e 2d6b 2cbe
00000070: 25f6 ef3e c33c 353e 1540 95be 4771 3dbe
00000080: 6f93 e63e fd8a 163f ba07 373f 318f 4cbe
00000090: cad6 c0be 36e8 23bf b6ca 29bf b566 ed3e
000000a0: 16c3 7b3e d2e0 8cbe 21dd df3e ad83 46bf
000000b0: 9c3a 6e3e c0e0 b0be f331 4fbf c931 033e
000000c0: 3dc1 17bf 40bc a93e 26ca 563d dc21 163f
000000d0: 2d62 80be d3de 4f3f efab 30bf 3e93 9f3c
000000e0: 51c9 0c3f 68e7 4e3f 390f a83e 1801 4b3e
000000f0: f34b be3e cf77 8abd 915b 953e 6db7 dfbe
00000100: 64af 34bf 9a36 103f c5aa c93e e5da b93e
00000110: e6c9 4abd 76fb 20be 6835 94be eb5a 5a3d
00000120: 5ae5 9c3e 6bfa 9fbd 9782 40be f297 f6be
00000130: 643a e13e 9f79 9abe d579 5cbd 18d8 82bc
00000140: bb25 1abd 1774 b9be 6517 43bd b1a8 eabd
00000150: 8451 40be 7a2d ba3e 8274 123e 3607 edbc
00000160: 634a 45be e925 833e 859a 1c3e dec8 d83d
00000170: 630f dc3e c200 ae3d 3c1b e0be 0255 46be
00000180: f06b d83e b728 903e df88 15bc 664a 12be
00000190: b53f b3be 8168 6ebe 62ee bebe 18b1 1d3f
000001a0: 0310 e43e 1ea0 a3be a03e f63e 4da8 22bf
000001b0: df7c 033f 14af 69be 2ef8 a7be 2436 203e
000001c0: 247f 1cbf 894d f73d 27c6 8b3d cb86 103f
000001d0: bfc5 5cbe 87b6 d13e a488 ebbe eaea 193e
000001e0: dcb6 653e 7fdd e73e 5e21 a53e d122 3c3e
000001f0: b1dc 5a3e dca4 e0bd 31af 403e 4864 f0be
00000200: 8a68 28bc 4097 afbe 99f4 9bbe d212 48be
00000210: 5cdb 903d f0ef 6d3e 348f 353e 0fe6 90be
00000220: 1c50 f8be d385 a63d 4452 c23d 95ad d93e
00000230: 63ff 04bd 10fd 2d3e 9fb5 ea3c 25f2 26bd
00000240: fd3b 4a3e b475 df3e 0fcd 743e 6e96 673e
00000250: 9569 d93e 4b7d 7dbe 90f4 81be 726e b83e
00000260: 7278 893e 6d04 e53c 7a80 32be 3de6 6b3e
00000270: a852 ecbe a300 9dbd fcfb 923e e066 623e
00000280: 4508 51be b832 4abe bfd4 a3bd 3238 583e
00000290: 0617 073e 7491 e33e 772e 873e f9bf f3be
000002a0: 87ec abbe 3050 ec3e 54bb b1bd 6432 a23e
000002b0: 6935 50be 24aa 943e a8d1 7a3e 2aef 8dbe
000002c0: ab65 a13e c1a5 4bbe 3719 9cbe f48a e3be
000002d0: 2ec5 b63e 9f5c a1be a573 073f 685e fabd
000002e0: 2578 91be 3fcd 72be c376 2ebe b7d5 87be
000002f0: f6d0 a5be 7da8 a03e 310d c2bd c54c 443e
00000300: f78b c83e b50b 20bf 7a6b a1be d9c9 99be
00000310: e5e5 733e 7b1e fa3e a0da f03e 1775 4ebe
00000320: 8ffb 27bf 1ae0 8f3e 7c2e 8a3e 7cfd 053f
00000330: f1c8 45be e450 da3d 768d 943d 3d27 0dbd
00000340: f7fb ca3d 7159 be3e e688 ca3e 42e9 8f3e
00000350: c496 bd3e ef57 9ebe 788b b5be f9d9 c33e
00000360: fcb1 473e 7e77 2cbd 7f33 6bbe 5ecf e23d
00000370: 422b 4ebe 10c1 d9be b782 b63e 8c11 aa3e
00000380: 76e0 14be 8994 99bd b5f2 18be e959 51bd
00000390: 0d56 d83e de81 bb3e 9600 9d3e a588 23bf
000003a0: d048 e2be abb2 1f3e 665b cbbe 4df2 0d3f
000003b0: 587e 9cbe 690b d53d 53e5 7b3e 5867 debe
000003c0: 02cb a23e 4409 a7be 0c88 a4be eba5 7ebd
000003d0: 0150 973e 3723 bfbe a7ab 2e3e 7b32 8ebe
000003e0: cde9 e7be 6699 dbbe 06af 6ebe 24a3 82be
000003f0: c150 3fbe 1659 cd3e fe96 afbd f62f 7a3e
-0.4472868 0.7658918 -0.16871306 0.5539684 0.027075477 -0.25963414 -0.077392 0.14829601
0.45250997 -0.114823155 -0.54500973 -0.61577535 0.9802109 -0.6091712 -0.60567796 0.25126877
-0.56427443 -0.03881252 -0.11241854 -0.05940031 -0.5033543 0.50827557 0.11436961 -0.21418437
0.12252456 0.72494435 0.4279293 -0.1683776 0.4686748 0.1769896 -0.29150453 -0.18500243
0.45034358 0.5880583 0.71496165 -0.19976498 -0.3766387 -0.640262 -0.6632494 0.46367422
0.24586138 -0.27515274 0.43723395 -0.7754467 0.23264545 -0.3454647 -0.8093559 0.1281196
-0.59279233 0.33151436 0.052438878 0.58645415 -0.25074902 0.8119938 -0.6901235 0.01947939
0.54994684 0.8082185 0.32824114 0.19824636 0.3716732 -0.06761133 0.29171422 -0.4369463
-0.70580125 0.56333315 0.393881 0.36299816 -0.04950895 -0.15720925 -0.28946996 0.053309362
0.3064373 -0.07811435 -0.18799816 -0.481628 0.4398986 -0.30170915 -0.053827126 -0.015972182
-0.03763364 -0.36221382 -0.047629733 -0.114579566 -0.18781096 0.3636282 0.14302257 -0.028934103
-0.19266658 0.2561486 0.1529332 0.105851874 0.4298049 0.08496238 -0.43770778 -0.19368365
0.4226985 0.28156063 -0.009126871 -0.14286193 -0.35009542 -0.23282053 -0.37291247 0.6159835
0.44543466 -0.31958097 0.48094654 -0.63538057 0.51362413 -0.22820693 -0.32806534 0.15645653
-0.611315 0.120753355 0.06824904 0.5645568 -0.21559809 0.4095957 -0.46002686 0.15031019
0.22433037 0.45286176 0.3225202 0.18372656 0.2137325 -0.109689444 0.1881683 -0.4695151
-0.01027883 -0.34295082 -0.3046005 -0.1953843 0.070730895 0.2323606 0.17730409 -0.2830052
-0.4849862 0.08130994 0.09488347 0.42515245 -0.03247012 0.16991067 0.028651057 -0.04075827
0.19749446 0.43644488 0.23906349 0.22615978 0.42463365 -0.24754827 -0.253819 0.36021763
0.26849705 0.027956212 -0.17431822 0.23037048 -0.46156812 -0.07666137 0.28707874 0.22109556
-0.20413311 -0.1974591 -0.079995625 0.21115187 0.13192376 0.4444691 0.26402637 -0.476074
-0.33578894 0.46154928 -0.08678308 0.3167907 -0.20332874 0.29036057 0.2449404 -0.2772153
0.3152288 -0.19887449 -0.30487987 -0.4444195 0.3569731 -0.31515977 0.52910835 -0.12225038
-0.28411976 -0.23711108 -0.17037492 -0.2653024 -0.32385987 0.31378546 -0.09475172 0.1916991
0.39169285 -0.62517864 -0.3152731 -0.3003681 0.23818167 0.4885138 0.47041798 -0.20161854
-0.6561822 0.28100663 0.2698859 0.5233991 -0.19314934 0.1065996 0.07253544 -0.03446125
0.0991134 0.37177613 0.3955757 0.2810765 0.37029088 -0.30926463 -0.3545797 0.38252237
0.1950149 -0.042106144 -0.22968863 0.110747084 -0.20133689 -0.42530107 0.35646603 0.33216512
-0.1453875 -0.07499034 -0.14936335 -0.051111136 0.42253152 0.36622518 0.3066451 -0.6388038
-0.44196177 0.155955 -0.3971817 0.55447847 -0.30565143 0.10402567 0.24599199 -0.4343822
0.31795508 -0.32624257 -0.32135046 -0.06216995 0.29553226 -0.37331554 0.17057668 -0.2777289
-0.45295563 -0.4289047 -0.23308954 -0.2551509 -0.18683149 0.4010703 -0.08573721 0.24432358

body.2.bias f4 [64]
00000000: a193 103d a647 8a3d d3bc 193e 1dc8 2c3e
00000010: 7750 d03d a580 9a3d bcf3 363d 121b 883e
00000020: 7fb3 64ba fe93 843d 7cb8 77be 6336 d23d
00000030: ef25 1b3e 2492 1dbe b077 d03d cd10 053f
00000040: ffe4 5cbd 3aae c43e 50e2 0b3d 81c6 7cbd
00000050: 00ac e6bd 96bc a8bd d0b5 15bd c183 233e
00000060: f5c9 60be 5c79 ab3c 2bd5 983e 20e2 1bbd
00000070: 8e34 67bd 2637 14bd 3e1c 35be fa99 fdbd
00000080: f066 e93e 9584 8ebc 5b48 4f3e 67ca 7bbd
00000090: f63c 3ebb 75d5 e0bd a44b bfbe 26bd c4bb
000000a0: fbbf 573e ca44 5cbd 62bf 383e 4968 bc3d
000000b0: a980 aa3d ab87 913e 6f2a 8fbd 0ab0 3b3e
000000c0: c8c9 4fbe 77b1 643d 2b71 413e b00e 273e
000000d0: 789a 1cbe 995e 13be 2527 cabe 26a9 36bd
000000e0: f459 00bb e2d1 003e a5e9 f73c 2c09 a23d
000000f0: 5605 c43d 6d37 f0bd 8656 1f3d 5354 073c
0.03529704 0.06751947 0.15013437 0.16873212 0.101715975 0.07544068 0.044666037 0.26583153
-0.0008724257 0.0647354 -0.24191469 0.1026428 0.1515119 -0.1538778 0.101790786 0.5197876
-0.053929325 0.38414174 0.034151375 -0.061712746 -0.11263275 -0.08239095 -0.036550343 0.15968229
-0.2195204 0.020931892 0.29850134 -0.038057446 -0.056446604 -0.036185406 -0.17686555 -0.12382884
0.45586348 -0.017397204 0.20242445 -0.061472323 -0.0029028035 -0.10978214 -0.37362397 -0.0060039936
0.21069328 -0.05377654 0.18041757 0.09199578 0.08325321 0.2842382 -0.069905154 0.18328872
-0.20291817 0.055833306 0.18890826 0.16314197 -0.152933 -0.14391555 -0.3948299 -0.044594906
-0.0019584866 0.12580064 0.030262778 0.07911906 0.0957133 -0.11729322 0.038900875 0.008259851

mean_head.weight f4 [6, 64]
00000000: 1f6f 84bd d660 9bbd 8927 533d eb01 433d
00000010: 50f3 5dbd 9dc5 b7bd f705 a33c 1bc0 603d
00000020: ec14 03bd 4aa8 713d beaa bfbd c2eb 1fbd
00000030: 4aa1 8dbd 33b2 bf3d fa85 713d 83d3 8e3d
00000040: 58aa 98bc de73 15bb 0bae ed3d 6c5c e3bd
00000050: 571f 333d 317e 9a3d 8ec7 4d3c 485c 55bd
00000060: a78f 85bc 41a5 ab3d 45d3 eb3d 9ae6 38be
00000070: c1e3 983c 7388 24bd 38b5 0f3e 892e 883d
00000080: 7ac6 ba3d 08fc e83d d462 683d cfe4 d3bd
00000090: 5391 bcbd 08a8 92bd 0ca8 fb3d d5e7 49bd
000000a0: 5663 823d c755 ec3c 0cb5 84bd 715a b83d
000000b0: c422 a13b 760b e43d ebfa b33b cc9f df3c
000000c0: 3888 54bd 1f9f 29bc f96a 133d f0d5 1dbe
000000d0: 4245 17bc ff82 a83d e0ea a23c 924a 99bd
000000e0: f216 1a3e 7b4d e7bb d20d 9f3b 7ae3 033b
000000f0: c3a7 283d dbdd 8a3d e0d1 4abd ef1f 503d
00000100: a675 aebd b703 013e 096d 463d c3da 563d
00000110: b8e0 a8bd 0b06 8f3e 81b6 3cbd 13b3 2e3e
00000120: 4fe6 9e3d 6fe4 013d 4109 813d c135 1ebe
00000130: 8f39 133e a9bf 32be 2e2e ec3b c360 fd3c
00000140: 8ee4 4cbc f15e bc3d ef67 a7bd be56 973d
00000150: edd2 003e ee14 d23d 6ade d6bc 3b03 013e
00000160: ccb2 133e e33f 5dbd 54c8 893d a6c7 853e
00000170: 8630 c2bd 77a5 213d 2e4e ebbd a6a7 fe3d
00000180: 5408 a7bd d8f5 a33d ef9b b8bd 6086 a0bd
00000190: 9e78 af3c 2468 c0bd 79fc ccbd 6297 36be
000001a0: e985 81bc 213d 8b3d 6c79 d83b 7fde 213b
000001b0: 1f65 443e 9827 ea3d 2b35 443e 42ff 3f3d
000001c0: 12e3 c93d 153c f03d 26bd 57bd 1813 143e
000001d0: 15ef 41be 1e85 ecbd e895 453d 5f74 e53c
000001e0: 4723 bc3d e942 ccbd 5c8e 68bd cd6d 84bd
000001f0: 3a9b 39bd e56d a8bd d967 ed3d 4db0 a7bd
00000200: 337e c83d 4952 f9bd 0a04 96bd 7b63 edbc
00000210: 0f5a c2bd 9437 773e c2d1 b23d 91a2 a5bd
00000220: 4c59 0abd a929 5c3d ffe3 453c 542d b3bd
00000230: c4d4 8cbc cfec 24be dc66 15bd cff0 c63d
00000240: e88f b7bd 288e 2cbe b06d 70bd f4f3 86bd
00000250: 864c 463d 46a7 e63d eba9 fa3c e6f7 c63d
00000260: 419b d5bd 971b 5e3d 8268 733d 172c f4bd
00000270: e7b6 87bb da6b 1c3d 6766 293c 810b 493d
00000280: 9f39 4e3c 011e df3d 33cf 813b eb8a c3bd
00000290: 6f75 d2bc 192b efbc 743a 483d dfb8 ed3c
000002a0: 2c39 e43c 8336 c1bd b0c2 89bd 5e5f e0bd
000002b0: 3c7e 133d caa6 00bd 8caa 9c3c ec98 b9bd
000002c0: 54ea 7b3d 44d1 17bd 18fc 5b3d d504 cb3d
000002d0: 9e4b f03d 0607 2c3d b791 0a3e 2417 b03d
000002e0: 5983 dc3d 3928 2f3c 5b37 57bd 3529 a1bd
000002f0: 2bc8 96bd 4ec5 bd3d c5b8 0dbe d2e1 123e
00000300: 6ac3 b6bd 0922 c23d 7d33 083d a6b0 d13c
00000310: 9634 6f3d 4668 e6bc 4c0a eabb bd2a 17bc
00000320: 1ee2 a73d 2aab 70bd baf6 27bd 9cae 7dbd
00000330: 9bdb 14bd 7a4b 4abd 1aac 86bc 73c6 eb3c
00000340: d00c 283e 5712 ef3d e78c 4dbd 70a2 b2bd
00000350: 0a53 9dbc 8121 b0bd c58b b33d 3a6c bcbd
00000360: 4c16 18be ce6c 15be f593 e93c cbf1 45be
00000370: 9ac3 37be 075c ebbd 95eb ec3d 5015 5c3d
00000380: 51b2 043e 5d1a 2d3c 6158 aabc 5829 ebbd
00000390: 4804 963c eea9 543d c0a4 253d aa0e 49be
000003a0: 2a48 ba3d a1bc 16bd 60bc 0dbd 2767 d43c
000003b0: c77f 693d 95ea b13d 413a 923d fd02 b13d
000003c0: 6dca c4bd 59fe 63bd ea06 543d e3a0 7abe
000003d0: 5678 8c3a 3369 ccbd f440 26bd 0d78 cdbd
000003e0: 688a 143e 12ee db3d 47e5 273d 629f e63d
000003f0: 7118 2dbe 6bd3 a93d 1c30 f93d 847b c53d
-0.06466507 -0.07586829 0.051551376 0.04760925 -0.05418712 -0.089732386 0.019900305 0.054870706
-0.032002375 0.058998384 -0.09358738 -0.039043196 -0.06915529 0.09360161 0.05896566 0.069739364
-0.018635914 -0.0022804658 0.11605462 -0.111016124 0.04373106 0.075436 0.012559785 -0.05208996
-0.01630385 0.08381129 0.11514906 -0.18056718 0.018663289 -0.04016919 0.14033973 0.06649501
0.09119888 0.11376196 0.056734875 -0.10346376 -0.09207406 -0.07160956 0.12287912 -0.049293358
0.06366603 0.028849496 -0.064798445 0.09001625 0.0049174745 0.111349985 0.0054925582 0.027297877
-0.05188772 -0.010352879 0.03599069 -0.15413642 -0.009232821 0.082281105 0.019887388 -0.07484926
0.15047815 -0.007058797 0.0048539424 0.00201246 0.041175615 0.06780597 -0.04951656 0.050811704
-0.085185334 0.12599073 0.048443828 0.05245472 -0.08245987 0.27934298 -0.046072487 0.17060499
0.07758772 0.031711992 0.06300593 -0.15450193 0.14377426 -0.17455925 0.0072076535 0.030929929
-0.012505664 0.09197796 -0.08174121 0.07389592 0.12580462 0.10257898 -0.026229102 0.12598889
0.14423674 -0.054016005 0.06727663 0.26128882 -0.09481911 0.03946444 -0.11489521 0.1243432
-0.08155885 0.08005875 -0.09014117 -0.0783813 0.02141982 -0.09394863 -0.10009093 -0.17831185
-0.015810924 0.06798769 0.0066062715 0.0024699268 0.191792 0.11433333 0.19160907 0.046874292
0.09857763 0.1173021 -0.05267062 0.14460409 -0.18938859 -0.115488276 0.048238665 0.028009592
0.09186416 -0.099736996 -0.05677639 -0.06466255 -0.04531405 -0.08224086 0.11592073 -0.081879236
0.097896956 -0.12173898 -0.07324989 -0.0289781 -0.094898336 0.24142295 0.087314144 -0.08087648
-0.033776566 0.053750668 0.012078284 -0.0874888 -0.017191298 -0.1610596 -0.036475047 0.09713899
-0.08962995 -0.16851103 -0.058698356 -0.06589499 0.048412822 0.112623736 0.030598601 0.097152516
-0.10430003 0.05422553 0.05942584 -0.11922472 -0.0041416767 0.038188793 0.010339356 0.049083237
0.01258698 0.10894395 0.0039614676 -0.09547981 -0.025690762 -0.029195355 0.04888387 0.029018817
0.027859293 -0.094342254 -0.06726587 -0.1095569 0.03600906 -0.031409062 0.019124292 -0.09062371
0.06150277 -0.037064806 0.053707212 0.09913031 0.11733173 0.041998886 0.13532148 0.08598164
0.1076724 0.010690742 -0.052543025 -0.07869188 -0.07362398 0.092661485 -0.13840015 0.14343956
-0.08923991 0.09479148 0.033252228 0.025596928 0.05839976 -0.028125893 -0.0071423408 -0.009226498
0.08197425 -0.058756985 -0.04100678 -0.0619341 -0.036342245 -0.049388386 -0.016439486 0.028781151
0.16411138 0.1167342 -0.050183203 -0.08722389 -0.019204635 -0.0860014 0.08766893 -0.0920033
-0.14852256 -0.14592287 0.028512934 -0.19330518 -0.1794571 -0.11492162 0.11568371 0.053731263
0.12958647 0.0105653675 -0.020794095 -0.11482495 0.018312588 0.05191987 0.04044032 -0.196345
0.090957955 -0.036800984 -0.034603477 0.025928093 0.057006624 0.08687321 0.07140017 0.08643148
-0.09608922 -0.055662487 0.051764406 -0.24475436 0.0010717015 -0.09981003 -0.040589288 -0.100326635
0.14505923 0.10738768 0.04099014 0.112608686 -0.16903855 0.08292278 0.12167379 0.09642699

mean_head.bias f4 [6]
00000000: 1684 b63b 5cf9 a33d 63ac b7bd 16c7 84bc
00000010: f19a 803d 33eb 8dbd
0.005569945 0.08006546 -0.08968427 -0.016208213 0.06279553 -0.06929626

value_head.weight f4 [1, 64]
00000000: c970 9cbe 2c15 26be 9a83 7c3e bca5 a53e
00000010: 54b4 c0be d9b5 e4ba d095 be3e 3507 8f3e
00000020: 8b3e 8a3e 772f 053f 0696 8cbf e7d3 983e
00000030: a603 af3e 6173 293f 0929 92be 696f 3bc0
00000040: 956b c8bd ac10 623f 3f37 92be d527 9a3e
00000050: ba85 cc3e 96e5 67be 10ae a03e c9ad a33e
00000060: 38f4 73bf bff0 a13e f5f0 f03f 9b84 683d
00000070: 6466 ac3e 59f1 a93e 32dc 19be 8643 6fbe
00000080: f71b 0cc0 3dd9 ccbe 3377 de3e 01fc 823e
00000090: 0bd0 a2be 14c4 95be d518 0f40 d435 37bf
000000a0: d003 bf3e 4d2b 76be 2ed5 ad3e d437 bc3f
000000b0: 0cab 163f cda8 c73f a457 3d3f 5d57 bfbe
000000c0: aa45 b5be 7f40 68be cdd4 e43e cb60 c2be
000000d0: b99f 2d40 8cc8 b7be b6cb f5bf e39d 3d3e
000000e0: 5427 71be e8f8 453e 8e5a ed3f 0709 c4be
000000f0: 4099 613e 5c60 91be 38e5 0f3f c915 5c3e
-0.30554798 -0.16219014 0.24659577 0.32353008 -0.3763758 -0.0017449214 0.37223673 0.27935186
0.27000841 0.5202555 -1.0983284 0.2984917 0.3418247 0.6619168 -0.28546932 -2.928675
-0.09786145 0.8830669 -0.28557774 0.30108514 0.39945775 -0.22646174 0.313828 0.31968525
-0.95294523 0.31628987 1.8823534 0.056767087 0.33671868 0.33191946 -0.15025404 -0.23365602
-2.1892068 -0.4000949 0.43450317 0.2558289 -0.3179935 -0.29251158 2.2358906 -0.7156651
0.37307596 -0.24039955 0.33951706 1.4704537 0.58854747 1.5598389 0.73961854 -0.3737134
-0.35404712 -0.22680853 0.44693604 -0.37964472 2.7128737 -0.35895193 -1.9202793 0.1851726
-0.23550159 0.19333231 1.854326 -0.38288137 0.22031116 -0.2839383 0.56209135 0.21492685
