checkpoints/walker_ppo_mp.pt (torch, 27299 bytes, 8 tensors)

log_std f4 [6]
-0.12127516 -0.107898474 -0.101764224 -0.12067853 -0.101476505 -0.11331138
00000000: 1c5f f8bd e0f9 dcbd c369 d0bd 4e26 f7bd
00000010: ead2 cfbd cc0f e8bd

body.0.weight f4 [64, 18]
-0.11778022 0.048845194 -0.309585 0.06888024 -0.019063108 -0.0375166 -0.36572012 0.25652304
-0.10306436 -0.7483452 0.32250345 0.0124967825 0.22162019 0.12383678 0.04207162 0.19368896
0.2546644 -0.002679393 -0.6081528 -0.032328412 -0.19925639 0.2787521 0.21519263 -0.03925093
0.15833566 0.2401448 -0.26996022 -0.8784742 0.40605247 -0.06641573 0.17892788 0.18736443
0.017632559 -0.18224493 0.18000518 0.03087176 0.073147304 -0.27936426 0.47243232 0.22889154
0.33889526 -0.24971208 0.13897742 0.15555403 -0.37206358 -0.9386278 0.3925973 -0.19277479
0.11759563 0.207531 -0.010579426 0.18562254 0.096517585 -0.038363136 -0.0091094915 0.34796894
0.06774688 -0.19997732 -0.12228112 0.23902133 -0.3057276 0.29743117 -0.10210506 0.05412558
-0.21474843 -0.10217929 -0.08758001 0.058157064 0.19226252 -0.19126588 -0.11345733 0.26184648
0.6669058 0.19616142 0.69399667 0.35652792 -0.33877036 0.10635426 0.5054376 -0.29498968
0.21447514 -0.013513823 -0.030644972 -0.07725837 0.31302908 -0.25635117 0.021885507 0.20420411
-0.077049516 0.020367954 0.6417408 -0.26976034 0.9476727 0.086690195 0.10029669 0.13191512
-0.17794813 -0.021154562 -0.12273986 -0.21188144 0.121980414 0.12136418 -0.025572434 -0.019470388
-0.03912432 -0.08707694 -0.011025424 -0.021326337 0.4553193 -0.3623297 0.031553518 -0.28804645
-0.33230495 0.124320135 -0.3278177 -0.27468285 0.34287056 -0.06979193 -0.33915994 -0.11247999
0.15314388 0.08982215 0.010144922 -0.061537385 -0.047152393 -0.033389032 0.5025225 0.0771452
-0.48054123 -0.21193321 -0.8934288 0.13968463 -0.64422023 -0.2146325 -0.06103896 0.22937135
-0.16632277 -0.19470179 -0.3156305 -0.20705874 -0.10740827 -0.049968548 -0.23627347 -0.1295134
-0.5188101 -0.03330328 -0.46798956 0.03226734 0.3191705 0.19855751 0.1557368 0.12701575
0.1596324 0.09403044 0.033737037 -0.133409 0.1251101 -0.034504198 0.014730368 0.069408454
0.05337238 -0.16861863 -0.12857956 -0.058286253 -0.054139245 -0.32891244 -0.089805275 -0.29320118
-0.132324 0.30287337 0.1666342 -0.018236548 0.104771115 0.23914845 0.2770893 0.09395548
-0.034819655 0.33508137 -0.34458557 0.11509569 -0.011966114 -0.24927802 -0.04542156 -0.028814143
-0.32588923 0.46763125 0.2596695 -0.35799372 0.14668144 -0.61005706 0.0688834 -0.067563266
-0.022402136 -0.01715245 0.03516411 0.08129287 -0.06118911 -0.012885011 0.077901304 -0.028161136
0.2910837 0.5766293 -0.16477555 -0.09894846 0.30341107 0.015633572 -0.178647 -0.7753796
0.44452688 -0.15947886 0.09951385 0.11788777 0.0042475285 0.10324256 0.07543695 0.01795004
0.23937714 -0.2884024 -0.10543924 0.009796228 -0.048401672 0.023275375 0.20387849 -0.101682544
-0.27504542 0.2264068 -0.26212838 0.10263288 0.09479496 -0.35487473 -0.10069322 -0.23611042
0.027444722 -0.1010603 -0.30750072 -0.026175743 -0.5856087 -0.013894108 0.053972576 0.045055486
0.3341742 0.33252436 0.23692402 0.013672831 -0.1853498 -0.27782583 0.099833116 -0.060165096
0.025086464 0.062123865 0.0055049597 -0.08826132 -0.49863264 -0.079043485 -0.5947795 -0.28161553
00000000: c236 f1bd e611 483d ed81 9ebe 1511 8d3d
00000010: 3c2a 9cbc 02ab 19bd ab3f bbbe fd56 833e
00000020: 6813 d3bd 8d93 3fbf 2c1f a53e 4ebf 4c3c
00000030: 67f0 623e 239e fd3d 4a53 2c3d 6656 463e
00000040: 5f63 823e c198 2fbb e7af 1bbf cc6a 04bd
00000050: de09 4cbe 98b8 8e3e 755b 5c3e 95c5 20bd
00000060: be22 223e 85e8 753e 3a38 8abe afe3 60bf
00000070: 1ce6 cf3e f804 88bd df38 373e 76dc 3f3e
00000080: 2872 903c 6a9e 3abe 4753 383e c6e6 fc3c
00000090: 41ce 953d d508 8fbe a6e2 f13e 8b62 6a3e
000000a0: ae83 ad3e 86b4 7fbe 1950 0e3e 8e49 1f3e
000000b0: 1e7f bebe e949 70bf 8302 c93e c166 45be
000000c0: fad5 f03d 0283 543e 5455 2dbc d613 3e3e
000000d0: 03ab c53d aa22 1dbd fa3f 15bc fc28 b23e
000000e0: e0be 8a3d dbc6 4cbe 866e fabd 02c2 743e
000000f0: 5488 9cbe e648 983e 751c d1bd c9b2 5d3d
00000100: 03e7 5bbe 6043 d1bd 265d b3bd 1a36 6e3d
00000110: 77e0 443e 34db 43be 515c e8bd be10 863e
00000120: 57ba 2a3f 8ade 483e c4a9 313f d48a b63e
00000130: 4f73 adbe 43d0 d93d 5c64 013f e308 97be
00000140: 5f9f 5b3e 1569 5dbc 2a0b fbbc a339 9ebd
00000150: 5945 a03e 7640 83be 3c49 b33c e21a 513e
00000160: 23cc 9dbd b2da a63c 2049 243f 071e 8abe
00000170: ae9a 723f a18a b13d 5a68 cd3d c214 073e
00000180: 0938 36be 554c adbc 095f fbbd 73f7 58be
00000190: ded0 f93d c98d f83d 487d d1bc 5d80 9fbc
000001a0: d340 20bd 6555 b2bd fba3 34bc 92b4 aebc
000001b0: 9c1f e93e 4783 b9be 433e 013d d37a 93be
000001c0: e023 aabe 8e9b fe3d b9d7 a7be 3ba3 8cbe
000001d0: bb8c af3e 12ef 8ebd 5fa6 adbe e95b e6bd
000001e0: c0d1 1c3e adf4 b73d e336 263c a00e 7cbd
000001f0: de22 41bd f0c2 08bd 51a5 003f 4dfe 9d3d
00000200: 8009 f6be 0505 59be c0b7 64bf 7d09 0f3e
00000210: 9eeb 24bf 9fc8 5bbe fd03 7abd 53e0 6a3e
00000220: 8450 2abe e85f 47be 529a a1be 3507 54be
00000230: def8 dbbd d2ab 4cbd acf1 71be 299f 04be
00000240: bdd0 04bf 0569 08bd 549c efbe c22a 043d
00000250: 516a a33e a952 4b3e 7879 1f3e 6b10 023e
00000260: ad76 233e 0893 c03d d92f 0a3d 5e9c 08be
00000270: dd1c 003e 4654 0dbd a457 713c 0526 8e3d
00000280: ff9c 5a3d 5daa 2cbe 5caa 03be 91bd 6ebd
00000290: 1dc1 5dbd 3667 a8be d4eb b7bd 771e 96be
000002a0: f17f 07be 3812 9b3e 28a2 2a3e d064 95bc
000002b0: 3d92 d63d 55e3 743e a6de 8d3e bb6b c03d
000002c0: 0e9f 0ebd c98f ab3e 856d b0be 4ab7 eb3d
000002d0: 850d 44bc bd42 7fbe f50b 3abd a30b ecbc
000002e0: f4da a6be 5d6d ef3e 67f3 843e f44a b7be
000002f0: a933 163e b32c 1cbf bd12 8d3d 9c5e 8abd
00000300: af84 b7bc 4b83 8cbc 3e08 103d e07c a63d
00000310: 6fa1 7abd a71b 53bc b88a 9f3d 2fb2 e6bc
00000320: ec08 953e fa9d 133f ecba 28be 7da5 cabd
00000330: b258 9b3e fa11 803c 3def 36be 477f 46bf
00000340: 0799 e33e 6d4e 23be ebcd cb3d 256f f13d
00000350: da2e 8b3b d670 d33d b07e 9a3d f60b 933c
00000360: 481f 753e 7ba9 93be 87f0 d7bd 5c80 203c
00000370: d540 46bd 00ac be3c 86c5 503e f03e d0bd
00000380: c1d2 8cbe 2fd7 673e b135 86be 3031 d23d
00000390: dc23 c23d 24b2 b5be 3f38 cebd eec6 71be
000003a0: c1d3 e03c b4f8 cebd bc70 9dbe 836e d6bc
000003b0: 74ea 15bf 1da4 63bc 5912 5d3d 1a8c 383d
000003c0: e118 ab3e a240 aa3e 369c 723e 0204 603c
000003d0: 57cc 3dbe 303f 8ebe 4e75 cc3d ad6f 76bd
000003e0: 2182 cd3c 9875 7e3d f362 b43b 5ac2 b4bd
000003f0: c74c ffbe 8de1 a1bd 7843 18bf e92f 90be

body.0.bias f4 [64]
0.033708192 -0.12172254 -0.3600355 0.17655186 0.040327292 -0.0986402 -0.3604682 0.043930534
0.0012083674 -0.19071484 -0.1335357 -0.3672223 -0.14861162 0.062890075 -0.14730865 -0.017933382
-0.35057437 -0.26110372 0.29546106 -0.094270065 -0.09290236 -0.2511235 -0.21996187 0.16066918
0.11175767 -0.012268716 0.22008531 -0.27407947 -0.16738963 -0.1602486 0.0304911 0.11745174
-0.13482279 0.09611215 0.14603771 -0.06936266 -0.21847197 -0.1585024 -0.05530696 -0.21762022
-0.29059356 -0.27972242 0.2363556 0.0857325 0.2294552 0.14749055 0.17041779 -0.08955514
-0.02523065 0.11680462 0.3222996 -0.13954829 -0.11016908 0.33457038 0.10753827 -0.28402188
0.14570887 0.18815134 0.13201457 0.23973387 -0.2043584 -0.28596333 0.17820017 -0.12600972
00000000: 9a11 0a3d ab49 f9bd 9356 b8be 03ca 343e
00000010: 3b2e 253d e003 cabd 4a8f b8be 81f0 333d
00000020: 1562 9e3a c04a 43be 95bd 08be 9004 bcbe
00000030: a52d 18be 83cc 803d 14d8 16be 07e9 92bc
00000040: 7c7e b3be 63af 85be ac46 973e aa10 c1bd
00000050: 9843 bebd 4293 80be af3d 61be 7686 243e
00000060: 35e1 e43d b902 49bc 0b5e 613e 2554 8cbe
00000070: 3068 2bbe 3618 24be 79c8 f93c 8a8a f03d
00000080: fc0e 0abe 72d6 c43d e98a 153e 030e 8ebd
00000090: 1eb7 5fbe 744e 22be 8d89 62bd d6d7 5ebe
000000a0: aec8 94be c737 8fbe 3407 723e 8594 af3d
000000b0: 4ef6 6a3e c307 173e 0082 2e3e af68 b7bd
000000c0: 82b0 cebc 4337 ef3d 7404 a53e bfe5 0ebe
000000d0: 54a0 e1bd cf4c ab3e 063d dc3d 516b 91be
000000e0: b534 153e bfaa 403e d42e 073e cc7c 753e
000000f0: 5443 51be c969 92be 1b7a 363e b108 01be

body.2.weight f4 [64, 64]
-0.00599571 -0.06994752 -0.060520407 0.10841038 -0.16896403 -0.098075695 0.0738539 0.068284355
-0.03597633 0.034652937 0.12535472 0.10704885 -0.017869188 0.087407656 -0.032750145 -0.10140384
-0.06724647 -0.16738659 0.034517426 -0.06569066 0.015502457 0.066209026 0.15815346 -0.05614088
0.031852067 -0.089553975 -0.08925578 0.04750998 0.008073842 -0.072366305 -0.06279687 0.13590494
6.4199456e-05 0.23330401 0.10862958 -0.103388034 -0.1304285 -0.10067366 0.055794876 -0.10958282
0.0022435698 0.12195423 -0.18009345 0.17800483 -0.022659395 -0.041150432 -0.23589821 0.16872671
0.0773847 -0.15468626 -0.03493977 0.043547686 -0.05548092 0.1779566 -0.17164405 -0.11174716
-0.12106013 -0.026396004 0.057874925 0.09614333 -0.12909913 0.047321197 -0.06876679 -0.043410815
-0.19310763 -0.2538193 -0.2007727 0.045708694 0.05763722 -0.07554913 -0.369904 -0.053055983
0.040093455 -0.036007218 -0.1558888 -0.35362267 0.040357403 0.014250949 -0.1688425 -0.07862119
-0.31931096 -0.26917225 0.1435836 -0.099635996 -0.005358157 0.07674536 -0.15817001 0.087977335
-0.0058900826 -0.045006312 0.33838463 -0.003504275 -0.24190491 0.0017174637 -0.2050697 -0.12359371
0.11281059 -0.1491143 -0.07716479 0.1325829 -0.064293444 -0.020736707 -0.06402048 -0.08699366
0.0933932 -0.06064261 -0.009166969 0.044984497 0.16591072 0.089842334 0.016911246 -0.14298141
0.16021872 0.009795513 -0.08312816 0.029389745 -0.0784541 0.025292385 0.041210987 -0.54811007
-0.08570959 0.04554534 0.017618036 0.11053913 0.11723087 -0.31875348 0.056053348 -0.08810026
0.12981398 0.016901262 0.0682663 -0.13033898 -0.07189343 0.28122362 -0.06387109 -0.07856992
-0.011183747 -0.058058165 -0.03451459 0.2540232 -0.10342263 -0.08136822 0.07853322 -0.10730055
0.16989239 0.11803383 -0.07389974 -0.0152349165 0.026620217 0.094317615 -0.12284179 0.18127853
0.06204548 -0.04716193 0.064184316 0.05493256 0.12719293 0.13867298 0.10823638 -0.06751414
-0.06694319 -0.07619006 -0.008219223 -0.033453852 -0.008505367 0.10637237 -0.07013151 -0.048573557
0.06386691 0.080563374 -0.12337633 0.20310512 -0.017324233 -0.04465491 -0.04539003 0.02239652
-0.021816544 -0.016921045 -0.11442791 0.14198494 -0.005371481 0.069931984 0.07469469 0.091810405
-0.05197074 -0.115915686 -0.069547586 -0.0053482833 0.0726493 0.18123296 -0.13122727 -0.110924855
-0.16481891 -0.022906823 -0.10255571 0.033207748 -0.25304213 0.10141573 0.09545005 0.037041735
-0.06415984 -0.007070683 -0.14153583 0.07874624 -0.03956339 -0.020003805 -0.07017921 -0.050684985
0.10728109 0.050267715 0.100817785 -0.18275788 0.13758095 0.090772435 0.13554597 0.012177997
0.0699311 0.0035387988 -0.102955215 -0.045962553 -0.09718751 -0.15830235 -0.12588377 -0.02663348
-0.06817691 0.1788616 -0.11484614 -0.19912666 0.10204683 -0.31675574 0.04328299 -0.068385795
-0.053668596 0.2768156 -0.016034743 -0.041664623 0.09078363 0.054730278 -0.123494916 0.13331822
-0.0075496407 0.0012900657 -0.1482132 0.10788888 -0.0064333873 0.25263295 0.16021569 0.024617279
0.0017448461 0.16215858 0.06535568 0.04510283 -0.04554282 -0.07182288 0.09249414 0.009531307
00000000: a977 c4bb a540 8fbd 3fe4 77bd 4306 de3d
00000010: e804 2dbe e9db c8bd b740 973d abd8 8b3d
00000020: eb5b 13bd 3df0 0d3d fd5c 003e 6d3c db3d
00000030: 6762 92bc c902 b33d 0425 06bd d1ac cfbd
00000040: 84b8 89bd 6467 2bbe 2562 0d3d d388 86bd
00000050: 04fe 7d3c 9998 873d fbf2 213e fbf3 65bd
00000060: 5077 023d 1368 b7bd bccb b6bd d399 423d
00000070: 2648 043c c934 94bd a59b 80bd aa2a 0b3e
00000080: d2a2 8638 3fe7 6e3e 2f79 de3d 1bbd d3bd
00000090: 0c8f 05be fe2d cebd 2b89 643d f56c e0bd
000000a0: db08 133b 24c3 f93d 6b6a 38be e646 363e
000000b0: 32a0 b9bc 5b8d 28bd 4d8f 71be b2c6 2c3e
000000c0: df7b 9e3d 1366 1ebe 011d 0fbd 0f5f 323d
000000d0: f63f 63bd 413a 363e 75c3 2fbe b2db e4bd
000000e0: 60ee f7bd 6f3c d8bc 420e 6d3d cbe6 c43d
000000f0: 9032 04be dfd3 413d 9ad5 8cbd 8acf 31bd
00000100: 02be 45be 9af4 81be 5c97 4dbe 0a39 3b3d
00000110: 0115 6c3d 81b9 9abd 0f64 bdbe 3b51 59bd
00000120: 0939 243d 4e7c 13bd 50a1 1fbe 080e b5be
00000130: ce4d 253d d07c 693c 0ce5 2cbe 2504 a1bd
00000140: ba7c a3be f2d0 89be 9407 133e f50d ccbd
00000150: 7b93 afbb ac2c 9d3d 52f7 21be 762d b43d
00000160: 9801 c1bb 8a58 38bd c040 ad3e fba7 65bb
00000170: ecb5 77be 851c e13a cbfd 51be b31e fdbd
00000180: 3d09 e73d 6bb1 18be 9308 9ebd d0c3 073e
00000190: 48ac 83bd 07e0 a9bc 2b1d 83bd bb29 b2bd
000001a0: ef44 bf3d 6364 78bd 0e31 16bc aa41 383d
000001b0: 80e4 293e 42ff b73d 7489 8a3c b869 12be
000001c0: 6010 243e 5c7d 203c 193f aabd c3c2 f03c
000001d0: 8bac a0bd fa31 cf3c dacc 283d f150 0cbf
000001e0: 8288 afbd c08d 3a3d b353 903c 5762 e23d
000001f0: bd16 f03d a833 a3be 3298 653d e96d b4bd
00000200: f5ed 043e 8474 8a3c 34cf 8b3d 9577 05be
00000210: dd3c 93bd 8bfc 8f3e d9ce 82bd 44e9 a0bd
00000220: 093c 37bc 66ce 6dbd 2c5f 0dbd 540f 823e
00000230: 3ecf d3bd 62a4 a6bd 06d6 a03d 64c0 dbbd
00000240: 45f8 2d3e b8bb f13d bf58 97bd df9b 79bc
00000250: a412 da3c 9829 c13d 7a94 fbbd 14a1 393e
00000260: 6723 7e3d de2c 41bd 1173 833d f700 613d
00000270: dd3e 023e 4a00 0e3e 09ab dd3d da44 8abd
00000280: 8319 89bd 8909 9cbd eba9 06bc e806 09bd
00000290: 185a 0bbc c2d9 d93d 1ca1 8fbd 11f5 46bd
000002a0: a8cc 823d 69fe a43d bbac fcbd cafa 4f3e
000002b0: 8deb 8dbc 11e8 36bd e5ea 39bd e878 b73c
000002c0: 9cb8 b2bc 019e 8abc 2e59 eabd 8064 113e
000002d0: 4003 b0bb 8038 8f3d 88f9 983d 1807 bc3d
000002e0: 45df 54bd 3465 edbd f76e 8ebd a740 afbb
000002f0: 28c9 943d 2295 393e 7160 06be 922c e3bd
00000300: 4ac6 28be 17a7 bbbc ba08 d2bd d904 083d
00000310: bd8e 81be 0db3 cf3d 517b c33d 13b9 173d
00000320: 3c66 83bd 30b1 e7bb c5ee 10be b545 a13d
00000330: 390d 22bd 05df a3bc 1eba 8fbd 0f9b 4fbd
00000340: 30b6 db3d 85e5 4d3d 8e79 ce3d e224 3bbe
00000350: 05e2 0c3e e6e6 b93d 90cc 0a3e 3986 473c
00000360: 0938 8f3d 31eb 673b 2fda d2bd 3b43 3cbd
00000370: 3f0a c7bd 031a 22be ade7 00be 752e dabc
00000380: 56a0 8bbd 7f27 373e 7434 ebbd dce7 4bbe
00000390: eefd d03d cf2d a2be 8149 313d da0d 8cbd
000003a0: 9ad3 5bbd c6ba 8d3e 4b5b 83bc 86a8 2abd
000003b0: c5ec b93d db2c 603d e7ea fcbd 9284 083e
000003c0: fa62 f7bb 6c17 a93a 33c5 17be d8f4 dc3d
000003d0: 2acf d2bb 1b59 813e 950f 243e 2daa c93c
000003e0: 52b3 e43a e60c 263e 33d9 853d bfbd 383d
000003f0: 1c8b 3abd e017 93bd 916d bd3d 3329 1c3c

body.2.bias f4 [64]
-0.034181044 0.18136635 -0.23008724 0.10323758 -0.108404055 0.10245902 -0.03043041 0.15489547
0.10081774 0.2006855 0.03451304 0.026255671 -0.10367365 -0.07703496 0.0054716 0.09693867
0.2633776 0.21302396 0.08196983 0.13733417 -0.090176195 -0.05398391 -0.07030613 -0.12723407
-0.1121174 0.16249174 -0.1534702 -0.02326812 -0.10398325 0.011850537 0.1188047 0.010891429
-0.1428051 -0.06779664 -0.14915395 0.09702411 -0.05848957 -0.031344663 -0.06923243 0.08071099
-0.1192634 0.17371418 -0.07465475 -0.0003031965 0.2263388 -0.08818313 -0.08959531 0.08964173
0.031002976 0.058817208 0.15592216 0.07024214 0.107875526 0.07821916 0.093095 -0.08289492
-0.14719209 -0.06818063 0.22304341 0.0906392 0.15461811 -0.19779673 0.13380525 -0.03771196
00000000: 6c01 0cbd 1ab8 393e fd9b 6bbe 396e d33d
00000010: f202 debd 09d6 d13d 3249 f9bc eb9c 1e3e
00000020: 8879 ce3d 8080 4d3e 8c5d 0d3d 2216 d73c
00000030: da52 d4bd 81c4 9dbd 1c4b b33b c887 c63d
00000040: 6ed9 863e f422 5a3e ccdf a73d 54a1 0c3e
00000050: 4cae b8bd 3b1e 5dbd a9fc 8fbd a649 02be
00000060: cf9d e5bd 3c64 263e 4b27 1dbe c99c bebc
00000070: 2cf5 d4bd c128 423c e14f f33d f771 323c
00000080: 803b 12be f7d8 8abd d0bb 18be 94b4 c63d
00000090: c292 6fbd 4363 00bd bbc9 8dbd ce4b a53d
000000a0: 5f40 f4bd 21e2 313e 97e4 98bd 58f6 9eb9
000000b0: 5cc5 673e 5b99 b4bd bf7d b7bd 1596 b73d
000000c0: f4f9 fd3c 50ea 703d 0faa 1f3e 1cdb 8f3d
000000d0: d8ed dc3d 5e31 a03d 97a8 be3d d0c4 a9bd
000000e0: 86b9 16be 49a2 8bbd 7e65 643e 0ba1 b93d
000000f0: 3654 1e3e 3a8b 4abe 3e04 093e db77 1abd

mean_head.weight f4 [6, 64]
0.2269001 0.097164586 -0.04002322 0.22521928 -0.1455561 -0.10896326 0.08543122 0.036134712
-0.10112983 -0.10042368 0.16932927 0.13208313 0.016232848 0.022558125 0.3072315 0.0010766666
0.06535269 0.17141418 -0.18545552 -0.10476755 -0.25488243 0.056395303 0.16876622 0.052793574
0.11947322 0.083760634 0.08657597 0.11281527 -0.07103263 -0.0026673852 -0.127825 0.1007666
0.050984282 -0.0007314911 -0.24554825 0.035647508 0.042064294 -0.10218006 -0.05203881 0.17357284
-0.076481834 -0.053832892 -0.0012940337 0.007544535 0.020549016 -0.1372202 0.028771808 -0.0060890284
-0.22914165 -0.062117703 0.08983017 -0.12867363 0.14214952 -0.120347984 0.11020555 -0.1592176
-0.011583809 -0.10682852 -0.052332316 -0.09131038 -0.090683356 -0.06331274 -0.09316215 0.04555373
-0.13433105 0.06838409 0.04610019 0.008713902 -0.14966759 0.02614413 0.22521983 0.10673153
-0.08183855 0.16130728 0.12039234 -0.117342256 0.13019769 -0.100968726 -0.09072229 -0.009427585
-0.08053091 0.12556401 -0.12243974 0.11358847 -0.07700769 -0.100475 -0.19629993 -0.11943996
0.0448984 -0.0072966293 0.017727295 0.049171153 0.12665881 -0.047676936 0.18415496 -0.15355925
0.052210104 0.04323337 0.09232595 0.14487365 0.022479855 0.12223129 0.15563212 -0.26767528
0.014613813 0.024322864 0.16969068 -0.07844421 -0.062334917 0.14740676 0.0031156752 0.12720093
0.16221955 0.09229995 0.046670295 0.07247047 0.1979648 0.0048763067 0.03321559 0.14900999
-0.13472763 -0.0597938 -0.0122509375 0.22331189 -0.091244504 0.093550086 0.027904652 0.22029448
-0.15574622 -0.09549835 -0.14488752 0.05399942 -0.104818575 -0.2878952 -0.102422245 0.1285458
0.06318552 -0.05393328 -0.0048524416 -0.058677968 -0.08252677 -0.022419918 -0.03989394 -0.030575905
0.012020457 0.023217537 -0.104386345 0.11683745 0.213337 0.09576712 -0.075461365 -0.016508147
0.15755066 -0.17046349 -0.025125926 0.14015035 0.177807 0.12317705 0.018546138 0.040527552
-0.09091054 0.120022625 -0.025310053 -0.0042597926 -0.056950998 0.15140401 -0.067976564 -0.093396194
0.16180356 -0.13753876 -0.05644558 0.12576996 -0.04507325 -0.15555473 0.21357696 0.04767066
-0.022468729 0.14780377 -0.0014663127 0.017088337 -0.16601476 0.09490096 -0.024147121 0.026831757
-0.057057094 0.18056364 -0.0187736 0.17990512 0.15345086 -0.08163003 0.14890336 -0.16228083
0.1453507 -0.07142281 0.02072865 0.062816694 -0.21028885 -0.18909465 -0.08646282 0.16699548
-0.11795692 0.08556042 -0.035096824 0.0084631285 0.13410652 0.23780702 0.0023150013 0.13621633
-0.009723792 0.0110405665 0.062103607 0.12443014 0.022480609 -0.05433771 0.07355669 0.07457763
0.048682757 -0.08737273 -0.044032585 -0.38088238 -0.17196216 -0.15524727 -0.1497669 0.12148796
0.021814266 -0.07266828 -0.05078651 -0.06114731 0.10277441 -0.1030847 0.030387836 -0.15898186
-0.02467529 0.12681647 -0.072734684 -0.04829047 0.01489832 0.11130579 -0.07056506 0.061908733
0.026620472 0.10004113 -0.19081078 0.07037592 0.08856761 -0.0046193455 -0.036852732 -0.027517604
0.040543564 -0.020708963 0.15441948 0.22169101 0.058153465 0.019489074 -0.13019417 -0.11270065
00000000: 8058 683e 3afe c63d 63ef 23bd e29f 663e
00000010: a90c 15be 2128 dfbd 90f6 ae3d fe01 143d
00000020: 281d cfbd eeaa cdbd a764 2d3e cd40 073e
00000030: c0fa 843c d1cb b83c 724d 9d3e f01e 8d3a
00000040: a2d7 853d 3387 2f3e 0de8 3dbe 5f90 d6bd
00000050: f37f 82be c3fe 663d 0dd1 2c3e 133e 583d
00000060: 60ae f43d b28a ab3d be4e b13d b10b e73d
00000070: 8e79 91bd 4ccf 2ebb 8fe4 02be b85e ce3d
00000080: e5d4 503d 89c1 3fba 0071 7bbe 1f03 123d
00000090: 9c4b 2c3d c843 d1bd a626 55bd 14bd 313e
000000a0: 82a2 9cbd e17f 5cbd 919c a9ba 2638 f73b
000000b0: 6956 a83c 7483 0cbe dbb2 eb3c 7986 c7bb
000000c0: 1ca4 6abe 226f 7ebd e1f8 b73d 05c3 03be
000000d0: a58f 113e 0179 f6bd 73b3 e13d f009 23be
000000e0: 04ca 3dbc e9c8 dabd 695a 56bd f000 bbbd
000000f0: 32b8 b9bd 1caa 81bd cccb bebd 8c96 3a3d
00000100: 148e 09be f50c 8c3d 8ed3 3c3d c1c4 0e3c
00000110: 7642 19be 372c d63c 07a0 663e 0f96 da3d
00000120: f89a a7bd bc2d 253e 4290 f63d 2351 f0bd
00000130: 8b52 053e b1c8 cebd 9ccc b9bd 2876 1abc
00000140: 64ed a4bd da93 003e b0c1 fabd 12a1 e83d
00000150: 35b6 9dbd d6c5 cdbd d902 49be f09c f4bd
00000160: 62e7 373d 9018 efbb d538 913c b167 493d
00000170: d9b2 013e e448 43bd 1e93 3c3e a33e 1dbe
00000180: 43da 553d 7915 313d 6315 bd3d c259 143e
00000190: ac27 b83c 6654 fa3d 075e 1f3e bc0c 89be
000001a0: c66e 6f3c be40 c73c 65c3 2d3e 5ca7 a0bd
000001b0: e652 7fbd ccf1 163e 5b30 4c3b f640 023e
000001c0: e21c 263e c207 bd3d 5a29 3f3d 666b 943d
000001d0: 49b7 4a3e 6dc9 9f3b 120d 083d 1396 183e
000001e0: 0af6 09be 58ea 74bd 28b8 48bc dfab 643e
000001f0: 66de babd 3097 bf3d 4c98 e43c e094 613e
00000200: f07b 1fbe a494 c3bd 655d 14be 7f2e 5d3d
00000210: 1fab d6bd 0067 93be c1c2 d1bd 83a1 033e
00000220: 6967 813d 25e9 5cbd 3b01 9fbb 4f58 70bd
00000230: cc03 a9bd faa9 b7bc d467 23bd 527a fabc
00000240: 73f1 443c b432 be3c 82c8 d5bd 7948 ef3d
00000250: 0475 5a3e 8d21 c43d 7d8b 9abd 183c 87bc
00000260: f654 213e fb8d 2ebe e3d4 cdbc 9383 0f3e
00000270: 0a13 363e 4044 fc3d 12ee 973c 3800 263d
00000280: 4e2f babd 6cce f53d 0757 cfbc bb95 8bbb
00000290: 7345 69bd a709 1b3e 4c37 8bbd 8146 bfbd
000002a0: d5af 253e f6d6 0cbe 7b33 67bd d7c9 003e
000002b0: ba9e 38bd bd49 1fbe ebb3 5a3e 4f42 433d
000002c0: 5710 b8bc df59 173e 4a31 c0ba d7fc 8b3c
000002d0: c6ff 29be 6f5b c23d 2fd0 c5bc 46ce db3c
000002e0: b3b4 69bd ade5 383e 18cb 99bc 0c39 383e
000002f0: 3922 1d3e a52d a7bd 1f7a 183e f22c 26be
00000300: d0d6 143e 1f46 92bd 21cf a93c 0aa6 803d
00000310: f655 57be 07a2 41be 6b13 b1bd dd00 2b3e
00000320: 6693 f1bd 4d3a af3d b0c1 0fbd efa8 0a3c
00000330: 3853 093e af83 733e 47b7 173b 4b7c 0b3e
00000340: 8a50 1fbc 7ee3 343c 5a60 7e3d 3bd5 fe3d
00000350: 4129 b83c 3891 5ebd e4a4 963d 28bc 983d
00000360: 9267 473d 79f0 b2bd 835b 34bd 0403 c3be
00000370: d916 30be 24f9 1ebe 7f5c 19be aece f83d
00000380: d5b3 b23c 1bd3 94bd 8405 50bd 9a75 7abd
00000390: 647b d23d 121e d3bd e9ef f83c 24cc 22be
000003a0: d523 cabc 2ddc 013e ecf5 94bd 3acc 45bd
000003b0: 1518 743c 4af4 e33d 6a84 90bd 0394 7d3d
000003c0: 2d13 da3c 5de2 cc3d e763 43be 4021 903d
000003d0: ef62 b53d e15d 97bb e4f2 16bd 996c e1bc
000003e0: 0211 263d d8a5 a9bc 2420 1e3e f802 633e
000003f0: 5432 6e3d 8da7 9f3c 9f51 05be 99cf e6bd

mean_head.bias f4 [6]
0.044997785 0.05675897 0.14063057 -0.0041021695 0.062457476 0.06358954
00000000: 994f 383d 187c 683d 7601 103e 7e6b 86bb
00000010: 69d3 7f3d 3c3b 823d

value_head.weight f4 [1, 64]
-0.028130509 0.48576295 -0.31783384 -0.06518406 -0.02519579 0.112823 -0.119409405 0.2839956
0.17321254 0.35925215 0.03501427 -0.32122642 -0.3291047 -0.016816095 0.41530073 0.46092972
0.48135954 0.42489332 -0.16693251 0.073206514 -0.109920464 0.4129186 -0.13900734 -0.25732028
-0.29639462 0.26630428 -0.28319964 -0.05048181 -0.28944603 0.14144364 0.4099477 0.13981098
-0.36520875 -0.5215661 -0.31110254 -0.11102894 -0.33083954 0.06146493 0.14431386 0.024050789
-0.20888396 0.16475688 -0.33502358 -0.47779924 0.3508573 0.13770384 -0.11204081 -0.02978048
-0.2598349 0.4098065 0.30081847 0.18076046 0.2523189 0.12589295 0.58380556 -0.27896184
-0.4927544 -0.020356428 0.37783295 0.3776354 0.29955432 -0.48002008 0.3081341 -0.31914684
00000000: f471 e6bc ecb5 f83e 1ebb a2be 387f 85bd
00000010: 6767 cebc bf0f e73d eb8c f4bd df67 913e
00000020: a15e 313e e6ef b73e 206b 0f3d ca77 a4be
00000030: 6980 a8be e8c1 89bc 4ca2 d43e fbfe eb3e
00000040: c274 f63e 9e8b d93e 5bf0 2abe 4ced 953d
00000050: fb1d e1bd 116a d33e f157 0ebe 7cbf 83be
00000060: 09c1 97be 0959 883e 8bff 90be 04c6 4ebd
00000070: 4532 94be 9ad6 103e aae4 d13e 9c2a 0f3e
00000080: a4fc babe 5b85 05bf d548 9fbe 2463 e3bd
00000090: cd63 a9be a7c2 7b3d 03c7 133e 2906 c53c
000000a0: ade5 55be 07b6 283e 3688 abbe 1aa2 f4be
000000b0: 91a3 b33e 3c02 0d3e a775 e5bd 31f6 f3bc
000000c0: 1409 85be 28d2 d13e e104 9a3e 4519 393e
000000d0: f12f 813e 15ea 003e 4874 153f 16d4 8ebe
000000e0: 4e4a fcbe 86c2 a6bc 5273 c13e 6d59 c13e
000000f0: 2f5f 993e 31c5 f5be c1c3 9d3e 3767 a3be
