checkpoints/walker_ppo_mp.pt (torch, 27299 bytes, 8 tensors)

log_std f4 [6]
000000 33 f2 6d bf 76 f1 2d bf 15 e3 63 bf 72 44 60 bf
       -0.9294769 -0.67946565 -0.89018375 -0.8760444
000010 ec b6 2a bf ac 67 86 bf
       -0.66685367 -1.0500388

body.0.weight f4 [64, 18]
000000 48 10 54 3f 38 25 0e bf cc b5 f9 3d 8f c7 74 be
       0.82837343 -0.5552554 0.12192878 -0.2390425
000010 36 d4 32 3f 8d 52 47 be 91 06 2a be 8a 4f c1 3e
       0.6985506 -0.19465084 -0.16604067 0.37755996
000020 ec 65 79 bc ac 21 7d 3e b0 5e 8a 3e 3e 23 eb 3d
       -0.015222054 0.24719876 0.27025366 0.11481331
000030 aa a7 c0 3d d7 66 12 3c 72 a1 74 3b 31 cd 70 be
       0.094069794 0.008935652 0.0037327674 -0.23515774
000040 df 7b 42 be 8d e7 8b b9 84 ac c2 bb f4 f4 a1 be
       -0.18992566 -0.00026684665 -0.0059409756 -0.31632197
000050 0b 35 ed be c8 2f b4 be cd 45 c2 bd 00 5e 3a 3e
       -0.4632953 -0.35192704 -0.0948597 0.1819992
000060 a0 1a 1c bf f6 87 08 3e ff 18 c4 3e 2d 92 ad 3e
       -0.60978127 0.13333115 0.3830032 0.33900586
000070 38 a9 63 be 91 0e c8 3b 68 27 83 bd 29 5c 26 bd
       -0.2223252 0.006105252 -0.064040005 -0.040615235
000080 a1 d7 02 bd f6 39 bb 3d a1 a2 99 3c a1 1a f6 bc
       -0.03194392 0.091419145 0.018754305 -0.030041995
000090 6a 0e 96 3a 47 ab 2f bf 31 6a c4 be 39 7a 25 be
       0.0011448388 -0.68620723 -0.38362268 -0.16159905
0000a0 d7 01 4f be bb b5 ac be 1e 92 ac be 07 d1 b4 bd
       -0.20215546 -0.337324 -0.3370523 -0.08828931
0000b0 7a 2f c5 3c 6e 53 8a be 7c 10 37 be 77 55 22 3e
       0.02407049 -0.27016777 -0.17877382 0.15852915
0000c0 4b 5e 1d bd f2 0d 14 3e a3 bb 8b 3d 07 35 05 3e
       -0.038420003 0.14458445 0.06822898 0.1300851
0000d0 54 a0 59 3e c6 a8 31 3d db 8a 06 bf 1b 67 9e 3e
       0.21252567 0.043373846 -0.52555627 0.30938038
0000e0 a6 86 87 be 65 27 ea bd 98 c8 07 bf 11 72 27 3c
       -0.26469916 -0.11433295 -0.53040457 0.010220067
0000f0 57 4c 2c be d2 bd be be 27 8f 65 3e 5e e3 60 3e
       -0.16825996 -0.37254196 0.2241789 0.21961734
000100 dd e5 fb be d2 02 75 3d 7e 6e c8 bd 56 ef 14 be
       -0.4919881 0.059817143 -0.097867 -0.14544424
000110 b7 5f 04 bc e0 87 03 3c 07 3d af bc 5c 93 bd 3d
       -0.008079461 0.008028001 -0.021391405 0.09256622
000120 77 64 ab 3d 0c 4e 72 be ee 0f 87 bd 20 44 8c be
       0.083687715 -0.23662585 -0.06594835 -0.27395725
000130 9a 5f 51 be a8 d5 2a be b0 d8 66 bd 7d 67 c3 be
       -0.20446625 -0.16683066 -0.056358993 -0.38164893
000140 cf f2 c6 be b7 06 e7 bd b4 71 97 bc 4d ed c4 bd
       -0.38857123 -0.11280578 -0.018486835 -0.09615574
000150 d9 15 18 3e e9 dd cb 3d 50 12 20 bd 53 e4 81 3e
       0.14852084 0.099544354 -0.039079964 0.2536951
000160 05 e9 10 be 7a f9 80 bd 19 b7 cb be 57 1b 7e 3e
       -0.1415139 -0.06297584 -0.3978813 0.24815117
000170 36 8b 69 3d 3d 88 4f 3e 2d d8 15 3f 5d 57 30 3d
       0.057017528 0.20266815 0.58532983 0.043052066
000180 08 ce 64 3e d3 22 9f 3e 87 12 96 3d ac 70 00 bf
       0.2234422 0.31081256 0.073277526 -0.50171924
000190 30 27 d9 3e 86 83 02 be b2 1a c3 3d 2d 05 18 3d
       0.4241271 -0.12745485 0.09526576 0.03711431
0001a0 7c ad b3 bc 4c 23 62 bd 34 c4 58 bd 6c fa 8f bb
       -0.02193331 -0.055209443 -0.05292149 -0.0043938663
0001b0 ca 1b 62 3e ca 52 15 bf 91 b4 c2 bc 26 6d f1 be
       0.22080913 -0.5832945 -0.023767741 -0.47153586
0001c0 cf 0d 75 bd cf df d6 bd 10 a6 8b bc 4b 4c f7 3e
       -0.059827622 -0.10491907 -0.017046958 0.48300394
0001d0 e6 93 f1 3d ce 28 d2 3d 0e fb 95 3e 16 24 51 3e
       0.117957875 0.10261689 0.29293102 0.20423922
0001e0 46 8c 32 bc 65 25 f4 bc 7e ae 36 bc 58 1a 56 be
       -0.010897702 -0.029802987 -0.011150001 -0.20908487
0001f0 a4 3f f1 bd 6b b8 cc bc 89 22 bc be 8e 2f ed 3e
       -0.117797166 -0.024990281 -0.36745098 0.46325344
000200 02 1b 27 3d 38 87 56 bc da c6 36 3f a5 3f 3d 3e
       0.04079724 -0.013093762 0.71397173 0.1848131
000210 65 15 ac 3d ea d6 64 3e 72 15 9a 3d 47 9b ca bd
       0.08402518 0.22347608 0.075236216 -0.09892898
000220 3e 7d 03 bb a3 28 e1 bd 36 02 bf bc 61 ec 2d 3d
       -0.0020063664 -0.10994079 -0.023316484 0.042461757
000230 fc 87 5e 3c 46 2e 03 3e 03 c9 cc 3c 5c f7 70 bb
       0.013582226 0.1281062 0.024998194 -0.0036768531
000240 3e 9f 5d be ba cf 8c bd 43 c0 e0 3c 3a 99 8e bd
       -0.21642777 -0.06875558 0.027435428 -0.069628194
000250 c0 e7 bd be 7d a5 9f 3c d9 c0 9f bd 17 0a f7 3d
       -0.37090874 0.01948809 -0.07800455 0.12062471
000260 e0 b9 c4 bb a0 88 0c bf 25 28 8d bc ce 66 06 3e
       -0.0060036033 -0.54895973 -0.017231056 0.13125154
000270 4c db db bd 95 6b c9 bc bf e3 7f bd 86 1b fb 3d
       -0.10735187 -0.024587432 -0.062473055 0.12261109
000280 f4 cb 4f 3d 90 2f 9c 3b bd 26 53 3d d8 ae 2d bd
       0.050731614 0.004766412 0.051550616 -0.042403072
000290 1d 75 12 3f 3c 5e 11 3f bc d9 16 3e 8a eb c9 be
       0.5720995 0.56784415 0.14731497 -0.39437515
0002a0 92 67 00 3f bc 9e 95 3e 87 36 f9 be 7a b6 5f be
       0.50158036 0.29222667 -0.48674414 -0.21846953
0002b0 55 86 77 3d e2 39 7e 3e 48 f8 8a bd bf 62 82 bd
       0.060430843 0.24826768 -0.06785637 -0.063664906
0002c0 62 b1 4b bd db fb c2 bd 57 3a 0e be 09 36 8c bd
       -0.049729712 -0.09520694 -0.13889442 -0.06846244
0002d0 e5 ba 09 be fb fa f1 3e 06 28 b4 be ba 9c b2 3d
       -0.13450201 0.47261795 -0.35186785 0.087212995
0002e0 16 b6 d0 be 38 0e e8 3e 63 dd 94 be 3e 9e 71 3e
       -0.4076392 0.45323348 -0.29075155 0.23595521
0002f0 d8 ff ee 3e 35 a6 cc 3d f8 80 8b be 35 8b 50 3d
       0.46679568 0.09992639 -0.27246833 0.05091401
000300 34 d8 69 bb 81 e3 87 bb 44 b8 ae bc d0 8b 88 bd
       -0.0035681846 -0.0041469936 -0.0213281 -0.06667292
000310 bb e3 db bc 4c 84 97 3b ec f0 6b be 6e 40 08 be
       -0.026841989 0.0046239253 -0.23041123 -0.13305828
000320 5f 77 82 bf e8 57 25 bf 68 e6 35 bf de 03 9c bc
       -1.0192679 -0.6458726 -0.710547 -0.019044813
000330 0d ca 7e bf e7 b4 23 bf 12 d4 e2 3c 8e f8 ea 3d
       -0.99527055 -0.6394791 0.027689014 0.11473189
000340 a8 01 fa be f0 f0 ef bd 34 20 d2 bd 77 ad 29 3e
       -0.4882939 -0.11715877 -0.102600485 0.16570078
000350 52 c2 ef 3b 7f 4d 89 bd 00 e3 c4 3d ef 45 6d 3d
       0.007316866 -0.06704234 0.09613609 0.057928022
000360 a8 b2 93 3e 09 98 e4 be 74 0f 13 bd 0e b4 79 be
       0.2884724 -0.44647244 -0.03590341 -0.24385092
000370 64 30 2d be 19 99 d0 bc 4d 80 77 be 01 ff 1f be
       -0.16912991 -0.025463628 -0.24170037 -0.1562462
000380 60 08 28 3e 58 54 45 3e d0 1c 18 bd 0e 90 bb 3d
       0.16409445 0.19270456 -0.037136853 0.091583356
000390 bd 76 0c bd be 52 9b bc 7e d9 a3 3c aa 23 ad bd
       -0.034292925 -0.018960353 0.02000117 -0.08454068
0003a0 c0 c2 0d bd aa ef 1e 3c 78 1a 73 bd 7e 38 c2 3e
       -0.034609556 0.009700695 -0.059351414 0.37933725
0003b0 5b 9f f7 be 20 f0 e7 be 94 ba 08 bf d8 78 d3 3e
       -0.48363766 -0.45300388 -0.53409696 0.41303134
0003c0 a8 49 c2 bc 3c 5a dc be 60 a4 cd 3d b7 c5 4f be
       -0.023716763 -0.43037593 0.10041118 -0.20290266
0003d0 0b e1 d4 bc 1f 00 12 be 1d 05 73 bd ce 38 31 be
       -0.025986215 -0.14257859 -0.05933105 -0.17306826
0003e0 4d d3 2b bd d2 63 6e 3e 2a 50 e0 bd 31 49 0d bd
       -0.04194956 0.23280266 -0.1095279 -0.03449363
0003f0 05 b9 3b 3d 24 3e 94 be 90 e2 fb bc 2d 46 fc 3d
       0.045830745 -0.2895366 -0.030747682 0.123180725

body.0.bias f4 [64]
000000 97 44 dc be 2d 56 5a 3d 4c 85 80 be 3b d8 01 3f
       -0.4302108 0.05330484 -0.25101697 0.50720567
000010 51 99 88 3d 1a 93 89 3e ea bb ab be f3 18 2a 3f
       0.06669868 0.26870042 -0.33541805 0.6644432
000020 40 ea f4 be 42 70 72 bd d6 5a 1b 3f 0e 78 69 3d
       -0.4783497 -0.05918909 0.6068548 0.05699926
000030 37 a1 d3 be e3 c6 1b 3f c1 4f f7 be 5d 88 aa 3e
       -0.41333935 0.6085035 -0.48303035 0.33307162
000040 de 80 07 bf 81 39 6e be c8 95 a3 3e 8b bb e4 be
       -0.5293101 -0.23264123 0.31950212 -0.44674334
000050 cf c5 33 3e 43 c9 d5 3e ea fc 8a 3e 38 4e d6 be
       0.17555927 0.41755113 0.27146083 -0.4185655
000060 2d e1 12 3f 72 2c 96 be 0e 15 95 be 38 de 19 bf
       0.5737484 -0.29330784 -0.29117626 -0.60104704
000070 d7 7a 03 bf 41 53 6a be c2 10 a6 3e ca 9f 17 bf
       -0.51359314 -0.22883321 0.3243466 -0.59228194
000080 03 2c da 3e 69 19 0b bf 27 df 73 3d ec e4 af 3e
       0.42611703 -0.5433565 0.059538987 0.3435434
000090 f7 3e 0c be 62 c5 38 3f e4 0f aa be 4a ee 01 3f
       -0.13695894 0.7217618 -0.3321525 0.50754225
0000a0 af c1 31 be 24 19 85 3d 8e 71 b6 3e 09 1b c2 3e
       -0.1735904 0.06498936 0.3563351 0.3791125
0000b0 8d 55 05 3f 78 ae a9 be ce 90 e5 be cc 39 bf 3e
       0.52083665 -0.33140922 -0.4483704 0.37348783
0000c0 93 a3 ca be 39 10 01 3f 0d e1 02 3f ea cc aa be
       -0.39577922 0.5041538 0.5112465 -0.33359462
0000d0 60 f4 0c bf 80 e7 0b bf 76 cb 4c bf 21 0e a6 be
       -0.55060387 -0.54650116 -0.79997957 -0.32432655
0000e0 ae 65 a7 3e 67 96 af 3e 81 68 6f be 1a 09 d2 be
       0.32694763 0.34294435 -0.23379709 -0.4102257
0000f0 6a a9 48 be 27 c8 fa be 8b 8c ee be 93 90 d3 be
       -0.19595876 -0.4898083 -0.465916 -0.4132124

body.2.weight f4 [64, 64]
000000 a7 bb f4 be 71 bc b6 3d 98 4a 17 3d 5b 4f 94 3e
       -0.47799417 0.08922661 0.036936373 0.28966793
000010 9e 77 15 3c b0 58 bd 3d f5 54 13 bf 9b ad 4f bc
       0.009122757 0.092454314 -0.5755151 -0.012675668
000020 4a 89 1a be e8 bf 89 be a4 15 f1 3e 65 be 5e 3d
       -0.15091434 -0.26904225 0.47086823 0.054380793
000030 f2 92 58 be 14 9f 0e 3f b6 34 5c be 5e b6 39 3e
       -0.21149805 0.55711484 -0.21504483 0.18135974
000040 4e ab e1 be 2e 8f 3c be 05 df 61 3e 01 80 00 bf
       -0.44076008 -0.18413994 0.22057731 -0.5019532
000050 d6 60 e9 3d 49 7b 0f be f6 e2 2a 3d 34 cb 37 be
       0.11395423 -0.14011873 0.041720353 -0.1794861
000060 fb 4c c3 3e a8 78 93 bd 6d 16 1a be 50 4d 68 bd
       0.3814467 -0.07200748 -0.15047617 -0.056714356
000070 6f 62 d9 be c6 59 0f be 56 91 2e bd 7c 3d 9c bd
       -0.4245791 -0.1399909 -0.042619072 -0.07628915
000080 e5 1b 06 be e1 17 24 be 80 9f 92 bd 2f 96 6a 3e
       -0.13096578 -0.16024734 -0.071593285 0.22908853
000090 5b 62 ee 3d 3a c3 c8 3e 4a 02 0e be 49 b2 31 3e
       0.116398536 0.39211446 -0.1386806 0.17353167
0000a0 9b 4f 32 be 9f 0a f5 3c 6a e8 1b 3e 1e a9 87 bc
       -0.1741318 0.029912291 0.15225378 -0.016560134
0000b0 a0 04 87 3e 89 75 0a bd 74 04 6f 3d 0d bc b1 bd
       0.26370716 -0.033803497 0.058353856 -0.08678446
0000c0 50 d9 bf 3d 7f b6 34 3e a5 a8 31 3e 4d 84 76 3d
       0.09367621 0.17647742 0.17349489 0.060184766
0000d0 64 82 b3 be 4a 6f ce be 5b 2a 02 bc ad f4 2e be
       -0.35060418 -0.40319282 -0.007944669 -0.17085524
0000e0 ea 65 53 3e 1c e1 ac bd 38 ce 55 be 9e e4 d4 bd
       0.20644346 -0.08441374 -0.20879447 -0.10395168
0000f0 60 8f 5d be b3 01 fe be b6 d0 46 3d b9 38 80 bd
       -0.21636724 -0.4961067 0.048538886 -0.06260819
000100 8a 05 14 bd 8c a6 64 3e 6e d4 08 3e 3f ad 38 be
       -0.036138095 0.22329158 0.13362285 -0.18034838
000110 dd 3d e2 bd 6c f5 55 bd 91 77 10 3e c7 47 1a bf
       -0.11046956 -0.052236006 0.14108111 -0.60265774
000120 b3 a9 7c 3e 20 17 b3 bd e2 54 3b be 88 6e 8d 3e
       0.2467411 -0.08744645 -0.18294099 0.2762339
000130 3e b0 c5 3e 6c 0b c2 be df fb 83 3c f7 c5 a5 bd
       0.38611025 -0.3789934 0.016111312 -0.080943994
000140 99 de 81 3e 47 99 22 3e 87 4c f1 bc 2a ea da 3d
       0.2536514 0.15878783 -0.029455436 0.106891945
000150 b4 aa f2 bc 10 f6 8f 3d 81 ff 45 be 30 98 54 3c
       -0.029622413 0.070293546 -0.19335748 0.012975737
000160 1a 4a 84 be 9d f0 98 3d 2f 14 99 3e 05 a6 22 3d
       -0.25837785 0.07467768 0.2989821 0.03970911
000170 e9 7f 8e 3d 8b 8a 0a be 52 f3 0f bd 28 9a c7 3d
       0.06957991 -0.13529412 -0.035144158 0.097462
000180 6f 67 33 be 03 90 47 3e f5 e6 38 3d d6 c1 e3 bc
       -0.17519926 0.1948853 0.045142133 -0.02780239
000190 e7 48 c9 bb ae cd 3c be b6 4e 5a 3e 53 a9 60 3b
       -0.006142724 -0.18437836 0.21319088 0.0034280613
0001a0 ab 46 fe 3d 5b 9f 42 3e 4a 01 2d be ea 8b 2b be
       0.124158226 0.19006102 -0.16895023 -0.16752592
0001b0 0f fa f1 be 78 7a d0 3d b5 08 e4 3d b4 32 d4 bd
       -0.47261092 0.10179609 0.11134473 -0.10361233
0001c0 19 ab e7 3d 2f b9 21 be aa 1a 00 be 54 5e 24 3e
       0.11311931 -0.15793298 -0.12510172 0.16051608
0001d0 5b fa d3 3d 44 f9 87 3d cc a4 fe 3d 1a c8 3d 3d
       0.10350486 0.066393405 0.12433776 0.04633341
0001e0 f0 68 94 be 07 54 0a be eb e2 6b bc 61 f5 bd 3d
       -0.2898631 -0.13508616 -0.014397363 0.09275318
0001f0 29 20 a3 bd 13 21 0e be 8b a6 a0 3e 50 9a 71 bd
       -0.079651184 -0.13879804 0.31377062 -0.058985054
000200 f8 ee c2 3e fe b8 59 3d e8 8a dd 3d 9f f6 c2 be
       0.38072944 0.053154938 0.1081751 -0.38078782
000210 ee ba 98 3d e4 b9 7a 3d 66 0c ee 3e a0 e2 c3 bb
       0.07457529 0.061212435 0.46493834 -0.0059779435
000220 f5 14 75 3d 8a 5c a4 3e 62 7d cf be 89 db 70 bd
       0.05983444 0.32101852 -0.40525347 -0.058803115
000230 4e 6d 07 be a6 f4 12 bf ae 45 a5 3e 8b c1 ff bd
       -0.1322529 -0.57404554 0.32279724 -0.12488087
000240 cb 55 81 3e 11 32 1d 3e e2 f1 9e be 76 7b ff 3e
       0.25260767 0.1535113 -0.31043917 0.4989888
000250 0c 3e 80 be eb 7a f9 3c 4e df ad 3d 95 40 84 3e
       -0.25047338 0.03045412 0.084898576 0.25830522
000260 87 9b 0c bf 3b aa 18 3e 10 20 03 3e 22 20 a1 3c
       -0.54924816 0.14908688 0.128052 0.019668642
000270 d8 90 6a 3e f1 61 11 3e 62 cd 5e bb 4c 29 d6 bd
       0.22906816 0.14197518 -0.003399693 -0.104570955
000280 af c9 b8 bd 56 15 81 bd 07 1f 8b 3d 33 ee b4 bd
       -0.09022843 -0.06302898 0.06793027 -0.088344954
000290 cf d9 82 3c 1e 86 a8 be e6 b6 78 bd c1 d4 91 be
       0.015973 -0.32914823 -0.0607213 -0.2848263
0002a0 4f 36 6b 3c 7d a5 d1 3d 4f 2f 07 3d 92 fe 6e bd
       0.01435621 0.102366425 0.0330041 -0.058348246
0002b0 56 4e aa bd 2d a8 3a bd 41 15 67 3d e3 99 ba bd
       -0.08315723 -0.04557054 0.056416754 -0.09111383
0002c0 99 d8 30 bd 8e 77 85 be 13 22 9b bd 16 cd 47 3e
       -0.043175314 -0.26067775 -0.075748585 0.19511828
0002d0 e1 1b 27 3e 25 03 a9 3e 29 d6 00 3d 45 93 7f 3e
       0.16319229 0.33010212 0.03145424 0.24958523
0002e0 f3 f1 8a be 1e 6c 5c 3e 7d 8e 87 3e 16 e6 48 3e
       -0.27137718 0.21525618 0.26475897 0.19619021
0002f0 06 f1 68 3e 6a 26 1b 3f e8 06 e4 bc 46 eb 00 3e
       0.22748193 0.6060549 -0.027835324 0.1258975
000300 8b 99 42 3d f9 01 d5 3e 6b 34 a1 3d 16 a9 13 be
       0.04750971 0.41603068 0.07871326 -0.1441997
000310 7b 01 eb 3d 15 5c bf bd 67 a1 d0 3e 6b 80 0e bf
       0.11474892 -0.09343735 0.4074814 -0.556647
000320 6e 0d bd bb 2d 76 9a be f4 c9 a5 be a5 9a 08 3f
       -0.005769423 -0.30168286 -0.3238064 0.5336097
000330 dc 9f f1 3d 09 c4 52 be eb e9 54 3e fb 37 06 bd
       0.11798069 -0.20582594 0.20792358 -0.03276823
000340 72 f2 b6 3c 03 68 1c 3e dc 17 39 b8 2b ad 36 bd
       0.022332404 0.15274052 -4.4129658e-05 -0.04459874
000350 d7 8f 42 be b6 1d 93 be 27 5f ee bd 2d 37 88 3e
       -0.19000183 -0.28733605 -0.116392426 0.26604596
000360 b2 04 83 bd 41 2a 15 3e da 37 82 bc 61 62 0c 3e
       -0.0639738 0.145669 -0.015895773 0.13709404
000370 7a e2 e2 3d 5d 0a f8 3d 5d 42 63 bd 89 a3 3a 3c
       0.11078353 0.12111352 -0.05548321 0.011391529
000380 d5 bb af bd b9 76 99 3e a3 f3 ec bc 3a b0 97 bd
       -0.08580748 0.2997339 -0.028924769 -0.074066594
000390 9f d7 0f 3e 67 93 d7 bd 9a 9e c5 3d 78 9e 1c be
       0.14047097 -0.10526162 0.096493915 -0.15294826
0003a0 65 a3 3f be 28 29 92 bd 79 a8 ca bd 2e 94 7e be
       -0.18714674 -0.07136756 -0.09895415 -0.24861214
0003b0 19 f2 96 be e8 13 a6 3e 00 96 e0 3c 86 2e 96 bd
       -0.2948158 0.32437062 0.027415276 -0.073330924
0003c0 91 c9 a9 3e de 6c 83 bc da 1e cd bd 60 cb 0e 3e
       0.33161595 -0.016043123 -0.1001565 0.13944769
0003d0 09 98 d9 bd 16 29 85 bb 2b c0 8b 3e 8b 92 43 bd
       -0.106247015 -0.0040637357 0.2729505 -0.047747176
0003e0 86 da c7 be 23 19 bb be 62 ee 79 3d fe 4e 21 bd
       -0.39033908 -0.36542615 0.061018355 -0.039381973
0003f0 ad f5 c9 3c 4f ba 8d 3e a0 30 98 3e 6a 2d 02 bc
       0.02465328 0.27681205 0.29724598 -0.007945398

body.2.bias f4 [64]
000000 8e 8d 55 3e 8e da 0f be 5e 4d 2d be 04 ce 1d be
       0.2085478 -0.14048216 -0.16924044 -0.1541062
000010 aa 29 e1 bd ec 76 28 3e 55 d6 89 be 1f 6e 8c be
       -0.10994275 0.16451615 -0.26921335 -0.27427766
000020 b5 7a 9d be e5 25 29 3d 9f c6 4e 3e 23 d5 4f 3d
       -0.3075768 0.041295905 0.20192955 0.050740372
000030 6d 23 e0 3d e3 7d 75 3e 92 2e 50 3d 81 4b c6 bd
       0.10944257 0.23973803 0.050825663 -0.0968237
000040 20 7e bb be d9 b4 ee bd d8 f9 5b bd 6a 4c ac 3d
       -0.36619663 -0.11655588 -0.053705066 0.08413012
000050 b3 ee 98 3e d8 62 a4 bd c2 05 72 be cf 8f 8f 3d
       0.29869613 -0.080266654 -0.23635009 0.07009851
000060 ef f8 4c bd b0 8e ae be 95 ec 34 3e cb 67 3a be
       -0.05004209 -0.34093237 0.17668374 -0.18203656
000070 a8 db ee 3c a6 80 b4 be 83 69 8c be e8 4a 95 bd
       0.029157475 -0.352544 -0.2742425 -0.07289678
000080 99 bd ff 3d ad 2b d7 3e 5a ce f3 3c 08 43 31 3e
       0.12487335 0.4202551 0.029761482 0.17310727
000090 e9 b6 4b 3e 44 c9 53 3e bd d6 1a be 0d 3e 09 3e
       0.19893993 0.20682245 -0.15120979 0.13402577
0000a0 ba 6f 34 be b5 3b 85 3e 09 fc 1e 3e 07 6f 54 bc
       -0.17620745 0.26022115 0.15525831 -0.012965924
0000b0 7c 43 08 3e 51 32 49 be d8 43 7d be e7 eb 01 be
       0.13306993 -0.196481 -0.24732912 -0.12687646
0000c0 7f 78 0a 3d b2 fd b1 be 09 e4 3d be e0 91 95 be
       0.03380632 -0.34763867 -0.1854402 -0.29212856
0000d0 37 79 ad be 76 2a 0d 3e d9 4c d1 bc c0 6a 2d 3e
       -0.33881542 0.13785729 -0.02554934 0.16935253
0000e0 4e 59 70 3e 75 e4 aa be 2b f2 2e bc 71 b5 62 bd
       0.23471567 -0.33377424 -0.0106778545 -0.055348817
0000f0 87 0d 46 3d 43 87 35 bd 9f 56 19 be ed 3d 90 be
       0.048352744 -0.04431845 -0.1497445 -0.28172246

mean_head.weight f4 [6, 64]
000000 13 32 81 bd 57 ba 0b 3e e6 a9 f0 bd 55 67 4a 3c
       -0.06308379 0.13645302 -0.117511556 0.012353738
000010 56 4c 79 bd 7a 8b 14 bf 0e 32 bb 3c f4 37 04 be
       -0.060863815 -0.58025324 0.022851016 -0.1291197
000020 c1 5e 84 3c cf 61 bc 3d 41 4d f4 bd e1 6f ea be
       0.016158463 0.09198343 -0.119287975 -0.45788482
000030 84 b9 40 bd 54 1e c0 bd 20 12 3b bd 99 0e 8b bd
       -0.04705192 -0.09380785 -0.045671582 -0.06789894
000040 a5 c9 42 bc b0 4a ae ba 2d 49 1b bb 8f a1 d2 3d
       -0.011888896 -0.0013297405 -0.002369474 0.10284721
000050 5e bd 8a bd 1f b3 3e 3e e2 d6 84 bd f9 ce 03 be
       -0.067744 0.18623017 -0.06486298 -0.12871923
000060 4a db d9 3d 98 ea 25 3d 22 a7 3f 3d 00 0b 1c be
       0.10637529 0.04050693 0.04679025 -0.15238571
000070 5a 20 2d bd 83 b5 91 3b a3 4f 40 bd 65 c0 99 bc
       -0.04226718 0.0044466867 -0.046950947 -0.018768499
000080 c8 68 e6 bd 83 f1 0e 3e 24 9e 1b bc b0 32 15 be
       -0.11250454 0.13959317 -0.009498153 -0.14570117
000090 8a 06 a1 bc 1e 8f 6f bc bd ee 45 3d b8 9c 8c bb
       -0.019656438 -0.014621524 0.04832338 -0.0042911433
0000a0 d8 b6 51 3e 39 35 18 bd 9f 74 7f bd b5 0d cb bd
       0.20479906 -0.037160132 -0.062367078 -0.09914724
0000b0 1b 3c 76 3d 96 15 03 3d a0 cd 10 bc 12 4f 04 bd
       0.060115915 0.032003008 -0.008838087 -0.03230197
0000c0 aa 09 28 be 88 93 7c bd 1d fa d5 bd fd 9f 4e bd
       -0.16409937 -0.061664134 -0.10448096 -0.050445545
0000d0 a7 30 34 3d b0 00 c5 bd ad f9 b7 3d 23 7e a1 3d
       0.04399171 -0.09619272 0.08983169 0.07885387
0000e0 81 34 e8 3d 32 e0 8b 3d 09 1e 62 3b dc 4f ae bd
       0.11338139 0.06829871 0.0034502766 -0.08511326
0000f0 88 ad 1b bd 26 ed 85 bd bc ff 8e 3d d0 ce 90 3d
       -0.03800729 -0.06539373 0.06982371 0.07070696
000100 13 c3 b0 bd 25 7a 0b 3e b7 69 d3 3c 7e 14 d7 3d
       -0.086309575 0.13620813 0.025807245 0.105019554
000110 77 2b 5f 3c 77 f1 00 be ca 51 f6 3d 72 57 d8 bb
       0.013621203 -0.12592112 0.12027319 -0.006602221
000120 5c a9 75 3c 20 4f b5 bd 54 73 12 3c 18 f7 64 be
       0.014993992 -0.088529825 0.008938629 -0.22359884
000130 d5 cc 32 bd 48 90 70 3e b0 80 99 3e 94 78 29 3e
       -0.043652374 0.23492539 0.29980993 0.16549903
000140 85 ed 85 3d 18 1b 89 be 62 41 62 3d aa 7d 0c 3e
       0.06539444 -0.26778483 0.055238135 0.13719812
000150 23 76 1b be c2 92 dc 3d 2c 66 11 3d 2b cc f0 3c
       -0.15181784 0.10770179 0.03549783 0.02939423
000160 59 fc 58 bd 27 2a f6 bd 4a eb b2 3d 51 8c 1f bc
       -0.052975032 -0.12019759 0.08736284 -0.009738044
000170 08 33 b6 3d 75 f9 79 bc b6 cd 50 3d a7 5c 5a bc
       0.08896452 -0.015257229 0.05097743 -0.013327754
000180 04 4b 83 bd af 4f 7d 3d 2d 87 13 be 21 d2 73 3e
       -0.064107925 0.06184357 -0.14407034 0.23810627
000190 3d 80 92 bb c8 c6 44 3d 1d e7 a2 bc bb 48 7b be
       -0.0044708536 0.048041135 -0.019885594 -0.24539463
0001a0 c2 11 2a 3d fd 16 fe bd 74 2c 1c bd e9 b1 a4 be
       0.04152084 -0.124067284 -0.03812833 -0.32166985
0001b0 bf ee e1 3d 3f a1 5f 3d 12 34 61 bc af 40 f9 3d
       0.11031865 0.054597136 -0.013745325 0.121705405
0001c0 d0 d2 45 3d 75 0f fe bd f4 72 be 3d 04 d0 81 bd
       0.04829675 -0.12405292 0.09299269 -0.06338504
0001d0 e9 e9 a9 bc 48 58 2e 3c 0a d2 ef bd 02 cf 12 bd
       -0.02074142 0.010641165 -0.11709984 -0.03584195
0001e0 68 8c d2 3d fb 2e a6 3d fb 99 55 3c 61 d2 57 3e
       0.102806866 0.081144296 0.0130372 0.21076347
0001f0 d1 f9 15 3c ee 7b e8 bd a5 95 fc bc a4 5c 69 3d
       0.009153799 -0.11351763 -0.030833075 0.056973115
000200 69 34 01 3c 04 9c 8f 3d 81 23 2e 3e 74 a9 8b 3d
       0.007886031 0.070121795 0.17005731 0.0681943
000210 fe a4 7b 3d 4c 3d ab bc 37 f7 24 3d 41 46 97 bd
       0.061436646 -0.020903252 0.040274825 -0.07386447
000220 d0 29 a6 bd 66 37 3d 3d 7b 98 5f 3d d1 58 4e 3c
       -0.08113444 0.04619541 0.054588776 0.012594418
000230 18 05 8d bd 9e 56 aa 3d 24 23 c1 3c b6 df a7 bd
       -0.06885737 0.08317302 0.023576327 -0.08196966
000240 a2 02 2c 3d 9a d3 67 bd 9f d4 02 bd d2 91 7c 3d
       0.0419947 -0.056598283 -0.031941053 0.061662503
000250 70 57 51 bd 65 11 2f 3d 23 de b7 3d 45 b9 44 be
       -0.051108778 0.042741198 0.08977916 -0.192113
000260 9f d3 8f bc 6e 69 98 bd fb 47 5d bc f1 94 f1 3d
       -0.017556963 -0.07441984 -0.013505931 0.117959864
000270 11 d8 27 be 7f 5f aa bd 9c a7 1d 3e 16 b4 61 3d
       -0.16391017 -0.08318996 0.15395969 0.055103384
000280 2c 8e fb bd 42 d6 7f bd 69 85 98 bd 13 f9 5a be
       -0.122829765 -0.06246019 -0.07447321 -0.21384077
000290 a6 ed 2c 3c 0f 3b 9a 3d f4 e7 30 3e d1 4b 9c 3d
       0.010554707 0.07530796 0.17275983 0.07631648
0002a0 3a 42 88 3d f9 d5 fc bd cf 77 ed 3b e8 b5 6d bd
       0.06653257 -0.123454995 0.0072469483 -0.058034807
0002b0 e0 c3 12 bc e9 e0 20 3e 70 25 06 3d 85 35 ae bc
       -0.008957833 0.15710796 0.032750547 -0.021265754
0002c0 21 04 21 be 5e be 62 bd a3 44 fc 3c 24 21 03 3e
       -0.15724231 -0.05535733 0.030794447 0.12805611
0002d0 d1 ed a4 3d 52 cd a7 3d 18 63 36 bd 33 a7 53 bd
       0.080531724 0.081934586 -0.044528097 -0.051673125
0002e0 ae 05 7d bc e6 98 43 3d 4a 5b a8 bd da 56 17 3e
       -0.015443249 0.047753237 -0.08220537 0.14779225
0002f0 4d 5f dd bd 65 89 97 3d e3 3d 19 bc 93 94 31 bd
       -0.10809193 0.07399253 -0.009353134 -0.043354582
000300 fb 4e 01 3e fb ff df bb 30 3f ce bd 86 7e 01 3d
       0.12627785 -0.006835935 -0.10070646 0.031614803
000310 73 be 07 3d 33 27 1a bf 41 3b b7 3d 7f 05 08 be
       0.03314061 -0.60216063 0.08946849 -0.13283347
000320 aa 92 13 be 89 e4 85 3d d2 5d 61 be 12 2b be be
       -0.14411417 0.0653773 -0.22008446 -0.37142235
000330 22 01 a5 3c e0 10 ef bd c7 6e 33 3e e4 02 eb 3b
       0.020142142 -0.116731405 0.17522727 0.0071719754
000340 b7 57 07 bc 2d 43 2f bd ce e7 46 bb 20 27 d8 3d
       -0.008260659 -0.042788673 -0.0030350569 0.105543375
000350 4e e2 a0 bd 9c 8f 01 3f f9 23 d4 bd 5d f5 80 3d
       -0.07855664 0.50609756 -0.10358424 0.06296799
000360 2e ed 93 bc a0 7a 4a bd 66 c7 15 bd bd c5 05 be
       -0.018057432 -0.04943335 -0.036567114 -0.13063712
000370 be 7d e0 3c fb 97 14 be b4 0c 21 3e d2 d9 e3 3d
       0.027403709 -0.14511101 0.15727502 0.1112553
000380 68 ee 21 bd 69 77 8c 3d 26 7b 5a bd 17 83 ad bd
       -0.039534003 0.06858713 -0.0533401 -0.08472269
000390 23 cb 1a 3e 2b ef ad 3d 54 79 b2 bd 81 f5 72 3d
       0.15116553 0.08492883 -0.08714548 0.059316162
0003a0 2f 8e de 3d 68 94 02 be 41 4a 8d 3d d7 57 9b 3c
       0.10866963 -0.12751925 0.068989284 0.018962784
0003b0 a7 79 b2 bd 15 8a 32 bd 60 e4 e3 3d 87 5a 39 bd
       -0.087146096 -0.043588717 0.111275434 -0.04525235
0003c0 1c 3d 2a be 84 db bc 3d c4 ab e4 bd c3 d1 32 3d
       -0.16624874 0.09221557 -0.11165574 0.043657076
0003d0 9b 6e e0 bc 53 f7 91 3d 9b 98 0e 3d 03 c4 93 bb
       -0.02739649 0.071272515 0.034813505 -0.0045094504
0003e0 36 39 d4 bd d7 d3 4a bd 7d 69 00 3d a6 5b 01 3d
       -0.103624746 -0.049518432 0.0313506 0.031581543
0003f0 f1 b3 93 3c 97 1e 9d 3b 1c 8d 74 3c 30 81 b0 bc
       0.018030139 0.0047949064 0.014926221 -0.021545976

mean_head.bias f4 [6]
000000 51 4e 0f be a0 a2 22 be 55 78 62 3c 59 1e b8 bd
       -0.13994719 -0.15882349 0.013822635 -0.08990163
000010 18 f1 00 3d b3 ca 01 3c
       0.031479925 0.007921862

value_head.weight f4 [1, 64]
000000 4a fe 45 40 99 91 49 c0 ed 33 49 c0 99 7a 42 c0
       3.0936456 -3.1495116 -3.1437943 -3.0387328
000010 8d 86 4a c0 b0 66 45 40 bc 8b 44 c0 b2 ce 42 c0
       -3.1644623 3.0843925 -3.0710287 -3.0438657
000020 92 aa 4a c0 a0 1f 42 40 f1 99 48 40 7b 8f 47 40
       -3.1666608 3.0331802 3.1343958 3.1181324
000030 cb 3a 40 40 ee 6f 41 40 d2 6f 41 40 69 ec 40 c0
       3.0035884 3.0224566 3.02245 -3.0144293
000040 2f 7c 40 c0 31 70 41 c0 b6 92 46 c0 10 63 43 40
       -3.0075796 -3.0224726 -3.1027045 3.0529213
000050 ce b1 4a 40 38 ab 48 c0 b0 a2 47 c0 e9 dc 40 40
       3.1671023 -3.1354504 -3.1193047 3.0134833
000060 f6 b5 42 40 7a 77 49 c0 67 2e 48 40 8d bb 47 c0
       3.042356 -3.1479173 3.1278322 -3.1208222
000070 d3 bd 41 40 5e 7d 49 c0 05 98 4a c0 50 1c 45 c0
       3.027211 -3.1482768 -3.1655285 -3.079853
000080 61 a2 47 40 a7 d3 46 40 ef a6 42 c0 94 d8 40 40
       3.1192858 3.1066682 -3.0414388 3.0132189
000090 10 4a 4b 40 a1 e3 47 40 00 7e 4a c0 42 b6 40 40
       3.1763954 3.1232684 -3.1639404 3.0111241
0000a0 ac 71 46 c0 fe c1 47 40 4f f3 44 40 0f 7c 42 c0
       -3.100688 3.1212153 3.0773504 -3.038822
0000b0 3a 2a 43 40 6b f1 46 c0 cb 20 48 c0 bc 89 42 c0
       3.0494523 -3.108485 -3.1270015 -3.0396566
0000c0 52 23 47 40 3a 11 48 c0 0a ba 48 c0 04 19 49 c0
       3.1115308 -3.1260514 -3.136355 -3.1421518
0000d0 9e b8 47 c0 98 0e 42 40 dc 77 45 c0 d4 53 47 40
       -3.1206431 3.0321407 -3.0854406 3.1144915
0000e0 04 01 47 40 10 28 48 c0 2c b3 43 c0 68 4a 44 c0
       3.109437 -3.1274452 -3.0578108 -3.0670414
0000f0 b9 59 41 40 3c 27 42 c0 5b 3d 47 c0 bd 98 46 c0
       3.0211012 -3.0336447 -3.1131198 -3.1030724
