checkpoints/walker_ppo_mp.pt (torch, 27299 bytes, 8 tensors)

log_std f4 [6]
00000000: 48c6 8bbf ce7d a5bf 4711 aabf 334f 97bf
00000010: 276b 93bf 7cfa 9fbf
-1.0919886 -1.2929018 -1.3286523 -1.1821045 -1.1517075 -1.2498317

body.0.weight f4 [64, 18]
00000000: c0f7 aebe 15a3 9b3e 74db 813e ff2a 1ebf
00000010: ce91 9f3b 751c 03bd cc60 2a3e 06e0 d8bd
00000020: d009 313e 0f0c 0d40 e83c ddbe cd24 e3bd
00000030: 20e3 2abe e071 6dbe c1af 4c3d b7e5 a73a
00000040: 7831 62bd c910 c8bc 89b7 92bc 3026 c23d
00000050: c098 a43e 206b 883f 11ec 933d cff4 2ebd
00000060: 5321 aebe 3157 123e 4c6c 593e 27b1 40be
00000070: 9752 e03c a023 953e 0191 a83e 8d47 5f3e
00000080: 8c9d 21bf fa4d 203e f37b c4be 0a65 d43e
00000090: 9b5d 523e c34a 90be fb97 4b3f bf4c e93e
000000a0: 2057 9e3e 05ef bebe cf1e 523f 1ffc 083e
000000b0: 066e 27be 387f 483e f9c3 2dbf 4a48 1ebc
000000c0: a038 53be 02f2 d93e 98f2 51be 83f1 5f3d
000000d0: a7b3 243f cf6c c63c 1ab8 b2be 07c4 2cbe
000000e0: 5521 63bf 4a73 223d 89aa b6be bfd7 c73e
000000f0: 3d3b 363e 148f 03bf e126 263e cc2e 873d
00000100: b2ee b4bd fd7e 70be c0f8 343e e0d1 653e
00000110: b31e 99be d8bc c3be aab7 46be e778 993c
00000120: 40a0 d7bc d4e7 cd3d bc31 48be 0a26 2a3f
00000130: 1261 a7be acc8 0b3e 1f07 8bbe f9fd ab3e
00000140: 4437 643e 4e93 ffbd 92ba a03d b25f 773d
00000150: 2850 753e ac09 d4bd 7dc6 6abe 8b33 8a3e
00000160: 217c a13e 51d6 653f 5653 f63e 81df ccbe
00000170: a6cd adbd 1e75 03bf 86cc 9a3e 3797 edbe
00000180: ef57 e13e e4c8 49bc 4ae9 c83d 2c92 ae3e
00000190: 8895 9f3e b319 1a3f 084a 513d 762a 843e
000001a0: 72db babe 389d 1f3f d579 9dbc e76c a6be
000001b0: 2503 383e 7c97 9cbe 2327 e1be ca0c a0bf
000001c0: 8b3e 22bf c731 9c3e 70bd 10bf c411 f23d
000001d0: 5e6c 61bd 985f d5be 7f93 1abf b43d 143e
000001e0: b74d 9ebe df49 01be 322d 2a3d 1f9d 893c
000001f0: 8e93 ab3d 149a 86bd 0fb2 e13e 967c 61bd
00000200: 0bc4 873f 9989 933f bdd9 523e 2f4d 20be
00000210: 1642 34be cb60 d63e b887 243e 6df5 2d3f
00000220: 3acb d93e ac44 1fbe 3fda f7bc 2d3b d63d
00000230: 4658 2a3e 7f82 ad3d a0e7 473e e699 193e
00000240: 1140 c63e 511d 53bd 4b7e 2b3f a5b3 bfbe
00000250: 6fc2 ba3d aab8 d0be 4ebf 963e b9e2 e2bd
00000260: a464 e0bd dbff 9e3e 73df f2be 511c 493e
00000270: 73b4 113e 8341 cb3d b578 1a3f b7dc febe
00000280: a5ca abbd 03b1 213d 1fa5 163f e92d 86be
00000290: 7102 543f 42ea 143f b2ae eabe 7b51 df3e
000002a0: a1ec 1fbf 9717 b03f 5adb 45be f484 c13f
000002b0: d096 afbf 6158 973e 76f7 a8bd cff1 c3bd
000002c0: 34c3 343d 3494 193e f03c 383d e3e0 06bd
000002d0: 02d0 0e3f befb ae3e 6274 c73f cc81 e9be
000002e0: 03c1 493f 7eca 5fbe 72d3 4f3d db43 4d3f
000002f0: ed0b dd3d 7f12 143e 0e0d ca3e feeb 27bd
00000300: 4546 883e fcf8 fd3d 8fed 833d 4e6d 02be
00000310: 690b ddbd 700d 5dbd 50e9 a73e 9d1a 5ebe
00000320: bce5 363e 9d44 2f3d fdd9 3fbe 5ddf ba3d
00000330: 2c4b 5bbc 0e3d 8cbe 6bf7 8ebe eeb0 d73e
00000340: 8545 2cbf 71ef 253e 32ff 90be 504a f6bd
00000350: b48b 74be e748 91be 4d1d f83c 5e06 3d3f
00000360: a8a6 8c3e b5d7 a2be 60c0 eb3e b3bf 9bbe
00000370: bfc5 dbbe 4916 b63e eb0b bfbe 6b90 583e
00000380: 5319 4cbe d6bb 633e 3b1a 4fbf 8b20 493e
00000390: 7cc8 773e ff8c b0be 846c cb3e 79f3 c3be
000003a0: cd44 c93e af94 c53d 5b59 f4be 9cf2 da3e
000003b0: a27e 91be 6725 953f 6d4e 753b 9d59 72be
000003c0: 1d59 e33e 7906 943f bb96 97be 1b47 19bd
000003d0: e191 233e f127 46bd 9231 9a3e 0671 073e
000003e0: 51f8 28bd 3d75 28be db82 a93c 1b38 0bbd
000003f0: bcf5 67be 635b fc3d a729 cc3d b518 03bf
-0.34173393 0.3039786 0.25362742 -0.61784357 0.004869676 -0.03200956 0.16638488 -0.10589604
0.172889 2.203861 -0.4321053 -0.110910036 -0.16688204 -0.23187971 0.0499723 0.0012809549
-0.05522296 -0.024422066 -0.017909782 0.0947994 0.3214779 1.0657692 0.072227605 -0.042713936
-0.340098 0.14291073 0.21232718 -0.18817578 0.027383132 0.29128742 0.3292313 0.21804638
-0.6313102 0.15654746 -0.38375816 0.41483337 0.2054352 -0.2818204 0.7952878 0.45566365
0.30925846 -0.37291732 0.8207826 0.13377427 -0.16350564 0.1957978 -0.67877156 -0.00966079
-0.2062707 0.4256745 -0.20502698 0.054673683 0.6433663 0.024221806 -0.34906083 -0.16871653
-0.88722736 0.03966073 -0.35676983 0.3903179 0.17796035 -0.51390195 0.16225769 0.06600723
-0.0883459 -0.23485942 0.17673016 0.22443342 -0.29906234 -0.38230014 -0.19406 0.018734409
-0.02632153 0.10053983 -0.19550222 0.66464293 -0.32691246 0.13650769 -0.2715387 0.33592203
0.22286707 -0.12479268 0.078480855 0.060393997 0.23956358 -0.10353407 -0.2292728 0.2699245
0.31540015 0.89780146 0.48110455 -0.4001427 -0.0848649 -0.5135058 0.30234164 -0.4640443
0.440124 -0.012315962 0.09810121 0.34095895 0.3116877 0.60195464 0.051095992 0.25813645
-0.36495548 0.6234927 -0.019223133 -0.3250496 0.1796995 -0.30584323 -0.4397517 -1.2503903
-0.63376683 0.30506727 -0.5653906 0.11819795 -0.055034988 -0.41674495 -0.6038131 0.14476663
-0.30918667 -0.12625836 0.041547008 0.016798554 0.08377753 -0.06572357 0.4408116 -0.055050455
1.0606703 1.1526366 0.20590873 -0.15654443 -0.17603335 0.41870722 0.16067398 0.67952615
0.42537862 -0.1555354 -0.030255435 0.10460506 0.16635236 0.08472156 0.19521952 0.15000114
0.38720754 -0.05154163 0.6698958 -0.37441745 0.091191165 -0.40765887 0.2944283 -0.110784
-0.10956696 0.31054577 -0.47436103 0.19639708 0.14228992 0.09924605 0.60340434 -0.49777767
-0.08388261 0.039475452 0.58845705 -0.26206902 0.82816225 0.5816995 -0.45836407 0.43616852
-0.6247044 1.3757199 -0.19321957 1.5118699 -1.3717899 0.29559615 -0.082503244 -0.09567606
0.044131473 0.14997941 0.04497999 -0.032929312 0.55786145 0.3417644 1.5582392 -0.4560684
0.7881014 -0.21854588 0.05073876 0.80181664 0.1079329 0.1446018 0.39463085 -0.040996544
0.2661611 0.124010056 0.06441795 -0.12737009 -0.10793192 -0.053967893 0.3279519 -0.2168984
0.17861074 0.042790044 -0.187355 0.091246344 -0.013384622 -0.2739033 -0.2792314 0.42127174
-0.6729358 0.16204621 -0.283197 -0.12025893 -0.23881418 -0.28375933 0.03028741 0.7383784
0.274709 -0.31805196 0.46045208 -0.30419692 -0.42924306 0.35563877 -0.3731378 0.21148841
-0.19931535 0.22239622 -0.808994 0.1964132 0.24197572 -0.3448257 0.39731228 -0.38271692
0.39310303 0.096475 -0.47724423 0.4276322 -0.28416926 1.1652039 0.0037430779 -0.23666997
0.44403926 1.1564475 -0.29607186 -0.037421327 0.15973617 -0.048377935 0.30115944 0.13226709
-0.041252438 -0.16450973 0.02069228 -0.033989053 -0.22652334 0.12322118 0.09968882 -0.51209575

body.0.bias f4 [64]
00000000: 658c 393d 65b9 b23e 6dbb 60bd 1cdd 0a3e
00000010: 0442 16bd deff bbbd 2fcc 7ebe 010c bbbd
00000020: 3fc0 5bbd a48d d1be d4e4 5c3e 2bbd 94be
00000030: b334 4ebe 7e05 613e acf6 d1bd be92 4d3c
00000040: 885b 43be 5adc e4bd c35e fd3d 6ac0 96be
00000050: 3774 c4bc ca04 6c3e 19d0 44be 8405 cb3c
00000060: e611 03bf 6357 87be 14c4 943e 52a9 793d
00000070: e022 4a3e b081 ae3e 49df 7bbe 2af3 973e
00000080: 2c51 e03e 927d f33e 1cc4 173e 3045 143d
00000090: b15c f1bd b7c0 53bd a05a eb3c 512b af3e
000000a0: 4399 44be 899c 5dbe 78dc a3be 7d2d 70be
000000b0: c250 903e 4155 3a3d 8982 e1bc d955 80be
000000c0: 1f71 71be 4958 493e fa48 2c3e 0a45 d03e
000000d0: 46f3 bdbd cdc9 26be fe51 f93d f119 4d3e
000000e0: 9627 99be 52b3 283e 30bd 09be 20f1 983d
000000f0: 3f2a 5fbe 7352 7bbe d9f7 5a3e 9707 aa3e
0.045299906 0.3490707 -0.054866243 0.13560909 -0.03668405 -0.09179662 -0.24882577 -0.09133149
-0.053650137 -0.40928376 0.21571666 -0.29050574 -0.2013729 0.21974751 -0.10252127 0.012547193
-0.19077885 -0.11174841 0.1237159 -0.29443675 -0.023981197 0.23048702 -0.19220008 0.024782903
-0.51199186 -0.26433858 0.29055846 0.060952492 0.19739866 0.3408332 -0.24596895 0.29677707
0.4381193 0.4755674 0.14820904 0.036198795 -0.117852576 -0.05169746 0.028729737 0.34212735
-0.1919909 -0.21641745 -0.32004142 -0.23454852 0.28186613 0.04549146 -0.027528064 -0.25065497
-0.23578309 0.19662584 0.16824713 0.40677673 -0.09274916 -0.16287918 0.12173842 0.20029427
-0.29913014 0.16474655 -0.13451076 0.07467866 -0.2179346 -0.2454317 0.21383609 0.33208916

body.2.weight f4 [64, 64]
00000000: fe7c 76be 335c 073e 8d02 b0bd 8dde 67bd
00000010: b7ff c03d 7834 a1be b504 2c3e 6f9f bc3d
00000020: cd6a 943c 19b2 023f 874f b13e 39b0 ee3d
00000030: c2b7 cb3d 948b dabd 3be7 b8bd e52b 28be
00000040: 9da4 71be 758a 87be 826b 4fbe 3f22 b53e
00000050: 1965 fdbe 96a6 1d3d 19bf 7b3e b37e 27bf
00000060: 7f9a fb3d f028 523e 0ffa dfbe 952a a93e
00000070: 3e69 303d e1d0 03be 91bc ef3d 5ea0 2cbe
00000080: 5fdf 0cbf 5b3e b3be 842b c4be 7f8d 90bd
00000090: 6870 a03d 4944 8f3e d788 fa3d 8f7f cb3d
000000a0: d7e3 ecbd a6a9 0ebe 6018 9f3e 365e ab3b
000000b0: 7520 5fbe 6bd4 61be 32b3 1ebc 69ab f53d
000000c0: 297c c53e 252c 00bc b318 e1bb d8b3 85be
000000d0: 3fb4 043f 6f8b 23bd 4df2 bdbd c146 a8bc
000000e0: 7073 bfbd 14dc 2fbe 5e3e 283e 4ba1 523e
000000f0: d1bd 213d dd17 283e 2022 e63d 6706 42bc
00000100: 1570 2b3c bda7 e8bd a917 b93d f4ab 96be
00000110: ad85 5cbe e999 073e 5954 1bbe 3776 a4be
00000120: 9763 92be 58a3 253e ad8f 1ebe a1ad 84be
00000130: cfdf b33e dfc4 523e e3c6 bdbe f53a 3cbe
00000140: e8e3 9ebe 6f3d 7ebd 135b eabc 37d8 c2be
00000150: 04de 673e 3ac5 143c c33d 343e e97e 063e
00000160: 6047 733c 72da 27bd f6ed ec3c b781 123e
00000170: 49ae f2bd 9bfb 4cbc d041 9a3e 65a6 b9bd
00000180: af56 053e 655d babb 6c88 403c 2c45 bb3d
00000190: 06cb 0c3e 806a 5dbe df39 77bd a9b0 0ebe
000001a0: 6077 4fbe 5a40 7dbe 5296 84be f4f7 a4bd
000001b0: 93d5 13be 0c2e f13d 40a7 68bd 0ed3 8cbe
000001c0: 80bd 2fbe 9acb 273c c74a bb3e c835 6fbd
000001d0: 7712 9a3d e760 2fbe b46f 01be 0ff5 2f3e
000001e0: 6628 993d e583 14be a07d 363e 66ca debd
000001f0: 2d2b 293e d512 9f3d 7b3c 8a3d 2d18 ca3b
00000200: bcde 7f3e 6e69 35be 3df9 18bd 1f22 573e
00000210: 3497 263d 8705 94be c475 2bbd d6e1 08be
00000220: f0e1 103e b377 7fbe f401 fabe fe47 2b3e
00000230: 9f7c b1be abb1 433d de6b 6cbd a751 7bbb
00000240: 5de5 e63d fd35 723e 820c 24be 0bf8 323e
00000250: 9f98 28be 1b83 9f3d 80aa bc3c 99a3 5a3c
00000260: 1f51 763d e6be 353e afad 1d3e becf c8bd
00000270: bcee 193e 6872 9b3e 8407 373e 8eb1 0abd
00000280: 5125 243e 2963 c03e b640 123e 12f6 623e
00000290: 8b79 15be e8c5 803e a722 1dbe 2076 213e
000002a0: fcdd 203e c86b a53d 8b62 1abe 3847 f8bc
000002b0: 88c9 57bd e592 8cbe e407 bd3d a78c 453e
000002c0: a327 68be 8ce0 3cbd a7c7 52be 7c8f 683e
000002d0: 3557 8d3d efe4 c63d d576 09be f61c 2cbe
000002e0: e639 debd 94fa e4be 670f 773e c0c3 813d
000002f0: 4aba e03d 8a76 01be 0fae 4c3d 5335 363d
00000300: 54d3 30bf b7d9 173d c050 52bd 1bdb d03d
00000310: 49ed d83d efa1 a0bd b699 163f 84bc a4be
00000320: 2002 11bd 690e a1be 012e 8f3c 909e 7bbd
00000330: f22f a33c 9ebd 9fbe 2f63 18bc 7c98 e93d
00000340: a9ff e1be c600 b83d 08fc 2e3e 0fc0 c9ba
00000350: 195a 05be d712 50be ab0a 803e 1e90 8cbe
00000360: fd08 693d f568 b7bd de87 02be 80ac 0fbc
00000370: 3a24 d93c 2c54 a4be 0056 973e af1d 3ebc
00000380: 9785 7ebe 9fd9 3fbe dc3b f8be 345d 293d
00000390: e3e3 9b3e a665 573e d820 5fbe 0231 923e
000003a0: eafe 173e 325d 513e 6d4a e33e 6be9 e2bd
000003b0: 241b 293e e284 9039 3d08 3bbe c379 f9bd
000003c0: c784 90bd cb01 15be c586 263e 17dc c8be
000003d0: 59fc 2fbe 3bc0 13bf 3482 8437 7b19 3cbe
000003e0: 8015 a63d d4b3 993e 3d91 48bd 285b 9e3d
000003f0: 057b 653c 3cfc b3be 25c2 3fbe 54e1 5dbe
-0.24071118 0.13218765 -0.085942365 -0.056608725 0.09423774 -0.31485343 0.1679867 0.09210097
0.018117333 0.51053005 0.34630987 0.116547056 0.099471584 -0.10671154 -0.09028479 -0.16422994
-0.23597951 -0.26472822 -0.20255855 0.3537769 -0.49491194 0.038488947 0.24584617 -0.654277
0.12285327 0.20523429 -0.43745467 0.330403 0.043069117 -0.1287265 0.11705888 -0.1685805
-0.5502834 -0.3500851 -0.3831445 -0.07058238 0.0783394 0.27981785 0.122331314 0.09936439
-0.115668945 -0.13931903 0.31073284 0.0052297367 -0.21789725 -0.22053687 -0.009686278 0.119955845
0.3857129 -0.007823025 -0.0068693995 -0.26113772 0.51837534 -0.039927896 -0.09274731 -0.02054155
-0.0934819 -0.17173797 0.16430041 0.20569341 0.039487664 0.16415353 0.112369776 -0.011842347
0.010463734 -0.113601185 0.09037716 -0.29428065 -0.21535368 0.13242306 -0.15168895 -0.3212144
-0.28591606 0.16175592 -0.15484495 -0.25913718 0.3513169 0.20582913 -0.370658 -0.18381865
-0.31033254 -0.062070306 -0.02860788 -0.38055584 0.22643286 0.009080226 0.17601685 0.1313435
0.01484856 -0.04097981 0.028922062 0.14307295 -0.118496485 -0.012511159 0.30128336 -0.0906494
0.13021348 -0.005687403 0.0117512755 0.09144053 0.13749322 -0.21622658 -0.060357925 -0.13934578
-0.20260382 -0.2473158 -0.25895935 -0.08055106 -0.14436941 0.11776361 -0.056800127 -0.27504772
-0.17162132 0.0102414135 0.36580488 -0.0584009 0.07523053 -0.17126809 -0.12640268 0.17183326
0.074784085 -0.14503439 0.1782136 -0.10878448 0.16520377 0.07767264 0.06749817 0.0061674328
0.2498731 -0.17716 -0.037347067 0.2100911 0.040671542 -0.28910467 -0.041860357 -0.133674
0.14148688 -0.24948005 -0.48829615 0.16726682 -0.3466539 0.04777686 -0.057720058 -0.003834823
0.11274216 0.23653407 -0.16020396 0.17477433 -0.1646447 0.07788678 0.02303052 0.013344669
0.060135957 0.17748603 0.15398286 -0.09805249 0.15032476 0.30360723 0.1787396 -0.033860736
0.1602986 0.37575653 0.14282498 0.22164181 -0.14597146 0.2515099 -0.1534525 0.15767717
0.1570968 0.08077198 -0.15076654 -0.030307397 -0.05268243 -0.27455822 0.09230021 0.19291936
-0.2267137 -0.046112582 -0.20583974 0.22710985 0.06901399 0.09711634 -0.13424237 -0.16807923
-0.10850887 -0.44722426 0.2412697 0.063361645 0.10973032 -0.12642875 0.049970683 0.044484448
-0.6907246 0.037072863 -0.05134654 0.10198041 0.105921336 -0.078433864 0.58828294 -0.32175076
-0.035402417 -0.31456307 0.017477991 -0.061430514 0.019920323 -0.31199354 -0.009300991 0.11406037
-0.44140366 0.089845225 0.1708833 -0.0015392321 -0.13022651 -0.20319687 0.2500814 -0.27453703
0.056893338 -0.08955566 -0.12747142 -0.008769155 0.026506532 -0.32095468 0.295578 -0.011603757
-0.24855648 -0.1873536 -0.4848317 0.04134865 0.304473 0.2103487 -0.21789873 0.28553015
0.14843336 0.20445707 0.4439272 -0.11079677 0.1651426 0.00027564826 -0.18264861 -0.12181427
-0.07056575 -0.14551465 0.16262348 -0.39230415 -0.17186107 -0.57715195 1.5796257e-05 -0.18369095
0.081095695 0.3002001 -0.048966635 0.077322304 0.014006381 -0.35153377 -0.18726404 -0.21667987

body.2.bias f4 [64]
00000000: 9955 5fbe 29c2 bbbd bdea 853e b760 42bd
00000010: 75bb 6abc 4ded 1f3e 4ff6 593e 8f27 08be
00000020: a6b1 edbd fe37 803d 37f0 0d3e 30aa f2bd
00000030: a2ca f1bd 7e2b 0cbe 2820 23be 812f 06be
00000040: 0e48 5ebe c255 d0be f5ed 3c3e 1c67 153c
00000050: 8e53 1b3e c9a8 a3be de1f 81bd 5f8d 51bd
00000060: eca2 ac3d fce5 94bd ab11 62be 222f 6f3e
00000070: eec6 bfbd 244c 093d 7074 3abe 4bec 063f
00000080: fd03 343e 0c4b 4ebe 8f75 2ebe 8f5f d1bd
00000090: fe2f a1bc eee0 583b 6289 fb3d c34c da3d
000000a0: ac61 ac3b 9494 02be 61b6 25be e3fc f4bd
000000b0: 8a7b bebd 3841 a2bd fd2f 383e 1276 de3d
000000c0: 7e71 043e a09f 8dbd 9238 81be c599 973c
000000d0: 2da7 38bd 44ca 92be 9cff db3c 7433 6dbd
000000e0: 4c2d a43e 0ae1 79bd 5516 db3d 2ba5 dc3d
000000f0: 3063 e53d c41f 95bd de6b 68bd 9ed5 a6bd
-0.21809997 -0.091678925 0.26155654 -0.047455516 -0.01432692 0.15617867 0.21285366 -0.1329634
-0.116061494 0.0626068 0.13861166 -0.11848867 -0.11806227 -0.13688466 -0.15930235 -0.13104059
-0.21707174 -0.40690428 0.18450148 0.0091188215 0.15168592 -0.3196471 -0.06304906 -0.051160213
0.084295124 -0.072704285 -0.22077052 0.23357823 -0.09364115 0.03351988 -0.1820848 0.52704304
0.17579646 -0.20145816 -0.17037033 -0.102233045 -0.019676205 0.0033093053 0.12282063 0.106591724
0.005260667 -0.1275199 -0.16182853 -0.11962297 -0.09300907 -0.07922596 0.17987056 0.10862364
0.12933919 -0.06915212 -0.25238472 0.01850594 -0.045081306 -0.2866994 0.026855282 -0.057910398
0.3206581 -0.06100563 0.10697619 0.10773691 0.11200559 -0.072814494 -0.056743495 -0.08146213

mean_head.weight f4 [6, 64]
00000000: fd8e 2bbe b8a8 583d ea4a aabe aff4 67bd
00000010: 77dc c0be eaae 17be 020c 513e 6729 dc3d
00000020: 3db7 74be 318e c5be ef22 39be 7548 a83d
00000030: 6fbf b33d 54de a9bd c055 6e3e 0d9a d13b
00000040: b68b 083e ab88 15be fc6c fb3c 4c6e 8d3e
00000050: 6b9b 3cbe 2e63 0ebe 4089 703e 7f98 643e
00000060: cf8d 6cbd bb60 b9bd 6243 23be 98ab 833e
00000070: 0ae5 083d 2d4b 983e 7f9e 813c 4e3c aa3d
00000080: da37 29bd fc5b 88be 6dd8 dc3d 6bd7 18bd
00000090: 6053 d6bd 3394 a33e abf9 99be cb18 973d
000000a0: f8ed a8be 9857 4d3e 8a80 07bd 4eb3 ff3d
000000b0: e0ef 003e ce3e b43e 404f 1c3e 1fc1 843e
000000c0: 0d7b e1bd 9c36 2a3e c1b2 33be 0cb5 6cbe
000000d0: b325 e4bc 2261 203e 190a 9a3e 198c 73be
000000e0: 1c17 1abd 5ea8 65ba cea0 86bd ad14 143e
000000f0: 9d59 27bd 50fa 0cbc 9a70 c7be 19ea 9ebe
00000100: 853c 88be 49b0 83be 5025 983e 9fd6 02be
00000110: 2321 3cbd 2630 743e 4135 e0be 10f3 5abe
00000120: 66dd 293e 9a91 55bd 2d3d a1be 8d8f 62be
00000130: 0f6a 07be 1cc3 983e 49cc 9abd 8a11 2a3d
00000140: 85e0 c5be 8b1b 43be 9e15 92be b711 a13d
00000150: 2b1e 503e d30b f33e c7aa 0f3e 8a98 f53b
00000160: e222 8e3d 807f e2be a517 093a e718 0a3e
00000170: e702 163e 6d72 0c3f 0868 03be 00e9 2fbe
00000180: ae2a a53e 1c6b 8fbe 6809 a4be a75a 753e
00000190: 7b98 f0bd 44b6 0a3e 955d ae3e b74b 2fbe
000001a0: b1a2 ea3d a870 b2bd d4ab a3be 9702 773d
000001b0: 10a6 3cbb 177b d7be 7a3d 64bd 18f4 dcbd
000001c0: 2d38 283e 34cc 593e f34b 38be f75c e2bd
000001d0: a50c 973e 5796 013e 9189 b1be 1931 a13e
000001e0: a580 81bd b95e b63d 1d3b 1c3e f6d5 c1be
000001f0: bb5b f3bd 79da a1bd 0b66 84be c856 a73e
00000200: 8a29 833e f600 3bbd d1d5 edbd 37d2 ddbd
00000210: e9e2 d5be 66b2 973e 7eff 39be 47a0 94be
00000220: 9a71 533d fb38 b9bc 9977 91be 36e0 953e
00000230: f7ca 26bd cf22 ac3d 1cd5 b33a 5aeb 1ebe
00000240: 0e27 923e 6039 3cbd 6d58 123e 2681 633d
00000250: 9513 2abe 4bbd d7bd 0c5b 55be 0c2f 65bc
00000260: 1848 ef3d c930 043e dd23 ff3c 83d2 993e
00000270: 7255 98be dd1e 79bd c22a 07be 55c6 51bd
00000280: a9d6 ccbe c2ce 99be c604 453e 18ef 293e
00000290: 143c 1c3e 8c9e 943e c54b 563e fc4b b03b
000002a0: 11fb 753d 4ad2 1abe 77b0 debd 4853 ca3a
000002b0: 38e6 eabd 905e ae3e 39ff 993e 386f 6b3e
000002c0: 0353 43bd 4dc1 a13e 9605 d43c 7501 bf3e
000002d0: d57a 3abe a9b1 173c 0d92 003e 72cc 71be
000002e0: cfee 903e d110 96bd 3ef0 1e3e 23e6 a6be
000002f0: 9d0b 143e ef3c 63be 2134 dc3e a529 47bd
00000300: fa1f cabe ff43 c4be d505 8d3e 6855 f83d
00000310: 8026 b43d 431e a23e adb3 74be 84fe a7bc
00000320: f029 953e 48dd 983e 2c5e 0e3e 214f 963b
00000330: 39d0 84bd 1eca 293e 04f8 e0be 7f81 a23e
00000340: 190d dabe 00ef a2bb 54f7 74be 5420 9f3d
00000350: fc4e 6e3d 8dd4 803e a888 3a3d b4b3 cc3e
00000360: 2141 b0be b5c1 5ebe 7b7c c83d 197f bfbd
00000370: a8fa 31be e5c6 19be f5f5 bebd 57ff 613c
00000380: 6a2b 783e d952 8bbd ba1b 033d f0aa 75bc
00000390: d13e fd3e 1dc9 dc3d d8a9 b0be 71cd f7be
000003a0: eecb b6bd 6462 1f3e 2384 c8be 327c 953e
000003b0: 7cf5 82bd 2af7 3d3d abd7 d2bd 6614 22be
000003c0: 68dc c93e a8d0 85bd 0586 0fbe 41c4 273c
000003d0: c6be 713e 0001 9bbe bba8 d6bd 907a dabe
000003e0: a57c 0f3d 406c e7bd 547c b73e e61d cabd
000003f0: 2cfe 573e 0f57 fdbe f365 53be f206 113d
-0.16753764 0.052895278 -0.3326028 -0.056629833 -0.376682 -0.14812818 0.20414737 0.10750084
-0.23898025 -0.38585046 -0.18079732 0.08216945 0.087767474 -0.08294359 0.23274899 0.006396538
0.13334545 -0.14602916 0.030691616 0.27623212 -0.18418662 -0.13905022 0.23489857 0.22323798
-0.057752427 -0.09051653 -0.15943673 0.25716853 0.033421554 0.29744855 0.015822647 0.083122835
-0.04131303 -0.26632679 0.107834674 -0.037314814 -0.10465121 0.31949005 -0.30073294 0.07377776
-0.32994056 0.20052946 -0.03308157 0.124853715 0.12591505 0.35204166 0.15264606 0.2592859
-0.11009798 0.16622394 -0.17548658 -0.23115939 -0.027850008 0.15662053 0.3008583 -0.23783912
-0.037619695 -0.00087607454 -0.0657364 0.14461012 -0.040856946 -0.008604601 -0.38953096 -0.31037977
-0.26608673 -0.25720432 0.29715967 -0.12777184 -0.04593004 0.23846492 -0.4379063 -0.21381783
0.16588363 -0.05214081 -0.31491986 -0.22125073 -0.13224052 0.29836357 -0.075584956 0.041520633
-0.38647857 -0.19053476 -0.28532118 0.07864707 0.20324008 0.4746996 0.1402999 0.0074949907
0.06940247 -0.442379 0.00052296586 0.13486062 0.14649545 0.548621 -0.12832654 -0.17178726
0.32259125 -0.28011405 -0.32038426 0.23960362 -0.11747833 0.13546091 0.34055772 -0.17118727
0.11456812 -0.08712894 -0.31967032 0.060305204 -0.0028785504 -0.42086098 -0.05572269 -0.10788745
0.1642768 0.21269304 -0.17997722 -0.11052888 0.29501835 0.12655006 -0.34675267 0.3148277
-0.06323365 0.08904786 0.15256925 -0.37858552 -0.118827306 -0.079029985 -0.25859103 0.32683396
0.2561763 -0.045655213 -0.11613048 -0.10831111 -0.4177468 0.29628295 -0.18163869 -0.29028532
0.05162201 -0.022610178 -0.28411558 0.29272622 -0.040720906 0.08405077 0.0013720128 -0.15519467
0.2854542 -0.045953155 0.14291544 0.055543087 -0.16609032 -0.10534152 -0.20835513 -0.013988268
0.11683673 0.12909235 0.03114503 0.3004342 -0.2975269 -0.06082045 -0.13199905 -0.051214535
-0.40007523 -0.30040556 0.19240102 0.16595113 0.15257293 0.29027212 0.20927341 0.005380152
0.06005389 -0.15119281 -0.10873502 0.0015436197 -0.11469692 0.3405652 0.30077532 0.22991645
-0.047686588 0.3159279 0.02588157 0.373058 -0.18210919 0.009258666 0.12555714 -0.23613146
0.28307196 -0.07327426 0.15521333 -0.32597455 0.14457555 -0.22191213 0.4300852 -0.0486237
-0.3947752 -0.38333127 0.27543512 0.12125665 0.08796406 0.31663713 -0.23896666 -0.020507105
0.29133558 0.29856324 0.13903111 0.0045870696 -0.06485028 0.16581008 -0.4393922 0.31739423
-0.42588118 -0.0049723387 -0.23922473 0.07769838 0.058180794 0.25162163 0.04554048 0.39980853
-0.3442469 -0.21753581 0.09789368 -0.09350414 -0.17380774 -0.15017278 -0.09324256 0.013793788
0.24235311 -0.06802911 0.032008864 -0.014994368 0.49461988 0.10780547 -0.3450458 -0.48398927
-0.08925615 0.15564877 -0.39163312 0.29196316 -0.06394479 0.046378292 -0.10295042 -0.15828094
0.3942597 -0.06533939 -0.14015968 0.010239662 0.2360793 -0.302742 -0.104814015 -0.42671633
0.03503098 -0.11299944 0.35837042 -0.09868984 0.21093053 -0.49480483 -0.2064436 0.035407014

mean_head.bias f4 [6]
00000000: 2b17 a5bd db66 adbc e0a4 ee3c 91a0 2bbd
00000010: 27e8 13be 4672 943d
-0.080610596 -0.02116721 0.029131353 -0.041901175 -0.14444028 0.072483584

value_head.weight f4 [1, 64]
00000000: f8e3 1bbe 68da 39bd 8fa1 db3e da3e 95bf
00000010: 1e06 013d a2bb 2ebe 505e 9e3c ddcd 003e
00000020: 1b32 1e3d 0eb3 753e 29da e83c b63b 0cbf
00000030: 939a 28bf 1b9d 1dbf 6f8c 1dbe 0708 2bbf
00000040: 0936 6e3d f6bd bcbf 9a0c 3fbe 1f0f 22bf
00000050: 4248 703f b59a 473d d961 143e 76f5 b33c
00000060: 9efa b63e 6eb0 c4be 1491 88be 3af3 4cbd
00000070: 959a a4bd 236f 87bc 7c17 abbe e5ef f53f
00000080: 399d bc3e 811b 9dbe 180f 5ebf 8316 66bf
00000090: 10c2 cf3d 81cf 88bc 8310 e93d 07e9 093f
000000a0: c4ef 2cbf e878 60be 18d0 603c 2651 47bf
000000b0: ff47 1ebe 24c9 e93e 5994 213f f875 af38
000000c0: d11a 173f cb6d a13d 55f8 54bf f5d0 69bd
000000d0: 9f07 bdbd affe c2bf b8ec 8abc fad0 6d3d
000000e0: 2c2f 2a3e 849a 94bd 2e8c 293f cf3a 20bd
000000f0: 5f29 aa3e 8905 203d 952e eebc b607 7bbc
-0.15223682 -0.045374304 0.42896697 -1.1659806 0.031499974 -0.17063764 0.019332081 0.1257853
0.038622003 0.23994085 0.02842434 -0.5477861 -0.6586086 -0.6156785 -0.15385602 -0.66809124
0.058157 -1.4745471 -0.18657151 -0.6330432 0.93860257 0.048731524 0.14490451 0.02196763
0.3573808 -0.38415855 -0.26673186 -0.050036646 -0.08037297 -0.016532486 -0.33416355 1.9213835
0.368387 -0.30685046 -0.8674178 -0.898781 0.10144436 -0.016700508 0.113801025 0.53871197
-0.67553353 -0.21921122 0.013721488 -0.778582 -0.15457152 0.4566127 0.63116986 8.366624e-05
0.59025294 0.078822695 -0.83191425 -0.057084043 -0.09229969 -1.5233973 -0.01695858 0.058060624
0.16619557 -0.07256034 0.6622952 -0.039118584 0.3323469 0.03906778 -0.029074946 -0.015321663
