checkpoints/walker_ppo_mp.pt (torch, 27299 bytes, 8 tensors)

log_std f4 [6]
000000 c0 c4 05 c0 53 09 02 c0 4f fd 16 c0 7b 9e 11 c0
       -2.0901337 -2.031819 -2.3592107 -2.2752979
000010 6c ca 09 c0 25 37 0c c0
       -2.1529799 -2.1908658

body.0.weight f4 [64, 18]
000000 c1 1b 97 be 38 12 c8 3e 2c 35 8a be b3 c2 28 3f
       -0.29513362 0.390764 -0.26993692 0.6592209
000010 f6 cf 8f bf 1d 90 4c be 96 8f 17 3e a2 f9 fb bc
       -1.123534 -0.1997685 0.14800867 -0.030758683
000020 df 88 25 be 5c 3e d7 be 36 f0 d9 bc 42 bb dd bd
       -0.16165493 -0.42039764 -0.0266038 -0.10826732
000030 a1 fd 12 bc f6 3d 53 be f5 ab 4b be 35 f8 4d 3e
       -0.008971603 -0.20629105 -0.19889815 0.20114215
000040 59 cd b7 be d0 99 5c 3d d4 c1 1c bf 57 11 12 3f
       -0.35898855 0.053857625 -0.6123326 0.5705771
000050 90 a5 69 bf 5c 01 af be f0 42 6b 3e 2c 6f 98 bd
       -0.91268253 -0.34180725 0.22974753 -0.07443079
000060 1e 8d c5 3e 18 0a d3 3d 5d c8 1a 3e 06 ee 99 bd
       0.38584226 0.103046596 0.15115495 -0.075161025
000070 d4 83 b2 3e 7f 14 6f bd a7 d8 4c bd aa 05 e2 bd
       0.34866202 -0.058369156 -0.050011303 -0.110362366
000080 c8 c9 38 3d dd 15 40 3e 6b df fb 3d 9b 73 29 3d
       0.04511431 0.1875834 0.12298473 0.041370016
000090 f1 99 60 be b9 57 94 3e 08 2a 06 bf 14 83 1c be
       -0.21933724 0.28973177 -0.52407885 -0.15284377
0000a0 a1 ab 3c 3f 12 ac 55 be 66 2a 78 be c0 35 7f be
       0.73699385 -0.20866421 -0.24234924 -0.24922848
0000b0 cb c3 0d 3d 32 56 8f be 68 10 c8 3e 78 64 e1 bc
       0.03461055 -0.2799545 0.39075017 -0.027513728
0000c0 86 db 00 3f 60 34 9f be 56 68 a1 be 59 9a 81 3f
       0.50334966 -0.31094646 -0.31524915 1.0125228
0000d0 86 0b 28 be 98 32 b3 bd 5c 16 bc be d8 b8 44 3e
       -0.16410646 -0.08749884 -0.3673581 0.19211137
0000e0 82 0f 0f 3f 20 4d 12 bf 60 c6 8c 3f 20 96 b0 3c
       0.5588304 -0.57148933 1.0998039 0.02155596
0000f0 13 fb d0 3e 51 85 1f 3f f0 31 03 3e 94 b0 b3 bf
       0.40816554 0.623128 0.12812018 -1.4038262
000100 c2 7b d0 3e e9 b6 e4 bc 5a ec da 3d 9b 61 bc bd
       0.4071942 -0.02791925 0.10689612 -0.09198304
000110 55 bc 1c 3d f0 d2 d5 bd 5f 60 3d be b3 9e aa bd
       0.038265545 -0.10440624 -0.18493794 -0.08331051
000120 5f 3b 4b 3f 60 c2 a1 bd a4 e2 b0 3f 8d 8b 12 be
       0.7938747 -0.07898402 1.3819165 -0.14311047
000130 5f c4 b0 be f8 06 b8 be 0e 10 ca 3f 5e 66 1e bf
       -0.3452482 -0.35942817 1.578615 -0.6187495
000140 5a 47 f3 be 8b 50 79 3f 14 7a 44 bf 62 59 7a 3e
       -0.47515374 0.97388524 -0.76748776 0.2444816
000150 b9 f0 5b be 99 71 c6 3e 92 d9 7b 3e fd ca 51 3d
       -0.21478547 0.38758543 0.24594715 0.051218975
000160 8e 52 aa bb 59 7d 4f be 33 81 03 bf a5 69 ca 3d
       -0.0051978296 -0.2026266 -0.5136902 0.09883431
000170 33 1c 38 bf 35 c6 f9 be 6e 1e 92 3f 5b a3 af be
       -0.7191803 -0.48784032 1.1415536 -0.34304318
000180 b0 73 c2 bf b6 ab 5f 3f be 46 a7 3d 9c 06 bf be
       -1.5191555 0.87371385 0.0816779 -0.3730973
000190 17 55 07 3f e5 5e 63 bf 60 5e 01 bf 75 17 e4 3e
       0.5286421 -0.8881667 -0.5053463 0.44549146
0001a0 fd aa 0f 3d 71 d9 91 3e aa d0 14 be 96 62 4e 3e
       0.035075177 0.28486207 -0.14532724 0.20154795
0001b0 0b c0 5c 3d 22 00 dc bd 60 0f 86 3e f1 0c df 3b
       0.053894084 -0.10742213 0.26183605 0.0068069627
0001c0 20 2f f8 3e 3c 1d 0b bd 4c 81 d6 be 9a 47 2d 3f
       0.48473454 -0.033963427 -0.4189552 0.6768738
0001d0 bf 95 30 3e e1 e1 03 be ad 3c b1 3e 2a e2 3a be
       0.17244624 -0.12879135 0.34616604 -0.18250337
0001e0 4c c0 8f be 1a fb 8e 3f c7 c3 a4 bd 1a fa 3a 3e
       -0.28076398 1.117038 -0.08045154 0.18259469
0001f0 36 a0 8f be 11 25 d0 be 6c 73 59 be 49 27 5f bd
       -0.2805192 -0.4065328 -0.21235436 -0.054480825
000200 a1 d0 82 3e e8 b4 91 3f 22 7c 10 3e 47 15 c7 3e
       0.25549796 1.1383333 0.14109853 0.3888342
000210 69 24 91 3f 1d 81 30 3f b0 f3 16 3f c9 e1 6f bd
       1.1339236 0.6894701 0.5896559 -0.058564935
000220 ba a4 f1 3e a6 7e af 3b ba 3e 72 bd c7 e3 aa bd
       0.4719599 0.005355674 -0.059141852 -0.08344226
000230 33 28 1c 3e a1 9f f3 bd 08 a8 06 3f bc dd cf be
       0.1524971 -0.11895681 0.52600145 -0.40598857
000240 f4 db 28 3e b0 8f 17 3e 0a 89 3a 3f b9 aa 5a 3e
       0.16490155 0.14800906 0.72865355 0.21354188
000250 4d ac 1a bc e9 0d da bd e2 c4 22 3f 5b 49 27 3f
       -0.009440494 -0.106471844 0.6358167 0.65346307
000260 a8 47 0b be 17 6e ff 3e 59 af 2a be 96 5d dd bb
       -0.13601553 0.4988868 -0.16668452 -0.006755541
000270 df 31 33 be 12 09 09 bf a9 34 a9 be 76 4b 15 3c
       -0.17499493 -0.53529465 -0.3304799 0.00911223
000280 59 2c 8c bd 73 c0 76 be de 79 93 3e 72 d2 83 be
       -0.06844396 -0.24096851 0.28803915 -0.25746495
000290 04 46 5f 3c 09 cf 80 be e6 f4 16 be 0c 5d f3 be
       0.013627533 -0.25157955 -0.14741859 -0.47531927
0002a0 6d 6a a1 bf e4 b8 5c 3e 90 30 15 3e 38 33 13 3f
       -1.2610604 0.21554905 0.14569306 0.5750003
0002b0 54 9b e7 be cd 33 a5 bd 5a 6c 10 bf 3b 09 1b be
       -0.45235693 -0.08066521 -0.5641533 -0.1514024
0002c0 75 0f 6f be c5 69 09 bf fc 7d 01 3d 75 a4 f5 bd
       -0.2334574 -0.53677016 0.03161429 -0.11994258
0002d0 7b 04 11 3f 31 bd 8d be 10 62 03 3f c7 8c 76 be
       0.5664746 -0.27683404 0.51321507 -0.2407714
0002e0 41 dc 38 3f 31 3e 1a be 5a dc 16 3f fe 48 ed be
       0.7221108 -0.15062787 0.5892998 -0.4634475
0002f0 78 2b af bd 9d a9 8c 3e 9b 6a 9e 3d 13 af a7 be
       -0.08553213 0.27473155 0.07735177 -0.3275076
000300 b4 3b 72 3e 2c 10 68 3e 6f f4 f2 bd 5d 9a cc be
       0.23655587 0.22662419 -0.11863028 -0.3996152
000310 f8 a2 9e 3c 64 56 38 3f af ec dc be d8 77 7e 3e
       0.019364819 0.7200682 -0.43149325 0.24850404
000320 c4 b4 07 bf f7 49 15 3f 0d ab da be ad 75 92 3e
       -0.530102 0.58315986 -0.42708626 0.28605404
000330 d7 01 f5 be d6 34 b6 3e f7 f1 b4 bd b1 86 2b 3f
       -0.47852966 0.35587186 -0.08835214 0.670024
000340 52 dd a4 3a f4 02 69 bd 62 73 f5 bc 4c 26 61 3e
       0.0012578166 -0.056887582 -0.029962245 0.21987265
000350 b2 e0 10 bc 85 23 8e 3d b3 50 21 be c8 77 a2 bd
       -0.008842634 0.069403686 -0.1575344 -0.07933003
000360 04 47 a7 bf ad 9b 85 bc fc f9 61 bf ec 44 83 3e
       -1.3068547 -0.016309584 -0.8827207 0.2563852
000370 54 3e 58 bf 2b 2d f5 bd 17 33 bc bf d9 6b 54 bf
       -0.84470105 -0.11971506 -1.4703091 -0.8297706
000380 7d 37 8f 3d 53 d0 98 bf 98 ce 16 3f b6 fa 42 be
       0.069930054 -1.1938576 0.5890899 -0.19040951
000390 c0 d8 90 3e 51 e5 05 bf 9a 92 85 3e 47 70 4c be
       0.28290367 -0.52303034 0.2608841 -0.19964705
0003a0 7b 1c 0d be 3e ef 01 3f cd 4a 2f 3d 88 86 0a bf
       -0.13780396 0.5075568 0.042795945 -0.5411153
0003b0 76 d3 00 be bc 80 21 bf 82 34 30 be 8c 10 b9 3e
       -0.12580666 -0.6308706 -0.1720753 0.36145437
0003c0 47 49 b3 bb b6 18 d8 be c2 10 9d be 80 15 4a bd
       -0.005471382 -0.42206353 -0.30676848 -0.04933691
0003d0 0a 25 03 bf c3 3e 8f be 4c 06 37 bf 93 85 d6 3c
       -0.5122839 -0.2797757 -0.71493983 0.02618674
0003e0 77 14 44 3c 02 7d 1d bf e0 ac 8c be 43 80 65 3e
       0.01196777 -0.6151887 -0.27475643 0.22412209
0003f0 1b 22 ec 3e 7e 19 9b 3d f4 fc 25 3f 95 d0 c0 3e
       0.4611977 0.075732216 0.648391 0.37659135

body.0.bias f4 [64]
000000 db 71 b7 3e 53 e7 71 3e eb 12 a3 3e 2f 56 13 be
       0.35829052 0.236234 0.3185037 -0.14388345
000010 cf c5 09 3e 85 48 20 3d a0 d2 59 3e 5a 12 14 3d
       0.13454364 0.03913166 0.21271753 0.036150314
000020 74 50 0b be 52 18 17 3e c4 cf 77 be d1 c3 ac 3d
       -0.13604909 0.14755371 -0.2420035 0.084357865
000030 5f 59 26 3e c1 23 03 bf d4 f2 1d bc fb 0e b1 bd
       0.1624503 -0.5122643 -0.009640414 -0.086454354
000040 bc 50 b7 be 82 94 b1 3e 59 cc 53 be b1 18 9e bd
       -0.35803783 0.34683615 -0.20683421 -0.07719553
000050 01 60 8f 3e 04 5f 1f 3e 55 c6 45 be 64 92 1b be
       0.28002933 0.1556359 -0.19313939 -0.15192562
000060 da 50 67 bc f9 8d 2c be 26 8f ad be 6a 0f 16 bd
       -0.014118398 -0.16851033 -0.33898276 -0.036635794
000070 4a 54 7c be 69 6b 5f 3e dc f0 b9 3e 43 1e c4 3d
       -0.24641529 0.21818317 0.36316574 0.095760845
000080 e3 47 ae 3d 7a f8 84 be d1 4c 5a be 5e cc 34 3e
       0.08509805 -0.25970823 -0.21318366 0.17656085
000090 66 44 a2 3e af ea 83 3e 78 eb 94 bd b1 68 d6 3e
       0.3169281 0.25764987 -0.072714746 0.41876748
0000a0 8f b6 fa bd ac 9f 34 3e 0c 69 51 bd a1 6d 4e 3d
       -0.122418515 0.17639035 -0.05112557 0.05039752
0000b0 08 94 02 3e 91 33 8a 3d b7 c6 0b 3e 92 34 67 bd
       0.12751782 0.06748117 0.13650022 -0.05644662
0000c0 6f 42 6b bd f8 bb 02 be 31 c1 32 be 62 b1 d0 3e
       -0.057436403 -0.12767017 -0.17456509 0.40760332
0000d0 7e 1d 9b 3e 94 25 1d be f1 81 a6 3d fd 83 69 be
       0.30295938 -0.15346366 0.08130253 -0.22804256
0000e0 37 4c 40 be b7 58 83 be 76 83 0c 3e 2e 23 7d 3e
       -0.18779074 -0.25653622 0.13722023 0.24720451
0000f0 11 12 82 be 30 50 3c 3e a0 7c 52 3e 05 b2 06 3e
       -0.2540441 0.18389964 0.20555353 0.13153847

body.2.weight f4 [64, 64]
000000 e2 f2 dc 3d 0e b9 28 3e a0 5d ef 3d b2 9c 75 3d
       0.10788514 0.16476843 0.116877794 0.05996389
000010 9a 8b d0 bd ce 19 70 3e 5c d3 77 3d eb 22 e1 3d
       -0.10182877 0.23447344 0.060504302 0.10992988
000020 2e a9 ec 3d 8e f6 34 3d fa 82 30 3e 83 36 51 3e
       0.11555706 0.044180445 0.17237464 0.20430951
000030 e4 90 8d bd 8c f8 07 be 3a 40 91 bd 93 89 bb ba
       -0.06912401 -0.13278407 -0.07092328 -0.0014307968
000040 e5 42 f2 bc 19 d2 20 3e 5a a3 a3 bc d1 ae 5f 3c
       -0.029572913 0.15705146 -0.019975353 0.013652519
000050 a5 9b 4e 3d 24 d3 00 3e 0d b8 4d 3b aa 89 bc be
       0.050441403 0.12580544 0.003139022 -0.3682378
000060 1a 12 66 be 3d 9e 80 be f3 45 d1 bd 2e bd 85 bd
       -0.22467843 -0.25120726 -0.1021842 -0.06530224
000070 b8 9c 69 3d 1d d8 05 3e 79 d1 8b 3e 53 ad 5c 3e
       0.057034224 0.13070722 0.27308252 0.21550493
000080 fa a0 06 3e 76 b8 65 3e 85 a6 2a 3e 96 0d b5 3d
       0.13147345 0.22433648 0.16665085 0.08840482
000090 e8 d9 08 3e a0 8d 4c 3e 19 3e c9 bd ac d6 5e 3c
       0.13364375 0.199759 -0.09826297 0.013600986
0000a0 04 69 72 bd a4 b0 ce be 27 93 8e bd 45 15 34 3e
       -0.059182182 -0.4036914 -0.06961661 0.17586239
0000b0 d9 42 ff bd dd f2 a1 3c 5b f9 0d be c6 bd 86 3e
       -0.12463922 0.019769127 -0.13864653 0.2631666
0000c0 f3 9e 38 3d 71 dd 2d be b8 79 27 be b9 e7 eb bd
       0.04507346 -0.16979004 -0.16355026 -0.11518807
0000d0 73 f7 28 3d 12 b1 a8 3d 6f 64 7b 3d 87 3c b2 be
       0.04125161 0.082368985 0.061375078 -0.34811804
0000e0 a8 54 37 be a6 8d 48 bd ee 88 ea 3d 8a e2 c2 be
       -0.17903388 -0.04896321 0.114518985 -0.3806346
0000f0 19 3b 63 be 81 c9 8f 3d f9 90 0a bd e8 38 ab be
       -0.22190513 0.07020856 -0.033829663 -0.33441854
000100 11 8f a4 bd 72 7c 93 be 1e 5f 76 3e 08 29 f9 bd
       -0.080351 -0.28805882 0.24059722 -0.12166029
000110 db 3b 17 3e 41 40 bb bd fc f5 f3 3d e4 85 bc 3e
       0.14768927 -0.09143115 0.11912152 0.368209
000120 82 32 a1 3e df 9f bb 3d 32 5d 8b bc de f7 34 be
       0.31483847 0.09161352 -0.017012212 -0.17672679
000130 2c 38 af bd 06 72 b4 bd f7 c3 17 3e 95 ae e7 bd
       -0.08555636 -0.08810811 0.14820848 -0.11312596
000140 e1 39 cb bd c5 1c a1 be c5 5a b1 3d 2e b9 2a 3e
       -0.09923149 -0.31467262 0.08659891 0.16672203
000150 40 c1 5f 3d a3 9c 9e 3c 79 23 56 3e 79 fc d9 bd
       0.054627657 0.0193618 0.20911969 -0.106438585
000160 f2 76 27 3e b3 b8 b4 be 7a 7b ea 3d 2e 52 9e 3d
       0.16353968 -0.35297164 0.114493325 0.07730518
000170 f8 28 71 bd f8 9d d0 bc be 88 c1 3d 07 62 97 3d
       -0.05887696 -0.02546595 0.094499096 0.07391744
000180 2d 84 f9 bd b6 90 90 3c 96 4e 06 be 56 e4 ca bd
       -0.12183414 0.017647129 -0.13115916 -0.09906833
000190 7c b1 dc 3b f6 64 06 3e 38 19 1f be 0d 62 1f 3c
       0.006735025 0.13124451 -0.15536964 0.009727967
0001a0 68 57 10 3d d2 df 03 be fe 1b a6 3c 07 98 40 be
       0.035239607 -0.1287835 0.02027702 -0.18807994
0001b0 6f ef fc bd 65 62 6b 3d e1 9d d5 bd 9f 77 38 3e
       -0.12350356 0.057466883 -0.10430504 0.18014382
0001c0 ae c5 4b be 41 4b 3b 39 f5 57 99 3d cf 04 e6 3d
       -0.19899628 0.00017861744 0.074874796 0.11231386
0001d0 80 fb 14 be ba 4c 10 be b8 a1 eb bd e5 34 7d 3d
       -0.14549065 -0.14091769 -0.11505455 0.061818022
0001e0 9c 91 d3 3c 13 48 2e 3d d9 b7 1d bd f4 86 23 bd
       0.025826268 0.042549204 -0.03850541 -0.039923623
0001f0 62 85 7f be d5 fa 6d be 09 46 bc bb 27 ac 15 be
       -0.24953225 -0.23240216 -0.0057456535 -0.14616452
000200 b3 d0 49 be 57 cb 19 bf 78 02 99 3e 40 1f 46 3d
       -0.19708519 -0.60075897 0.29884696 0.048369646
000210 65 a7 04 be 01 a4 a6 3c ad 20 6e be b7 c4 3b be
       -0.12954481 0.020341875 -0.23254652 -0.1833676
000220 5d 59 2d be 32 8b 22 3e 2b 5d 21 3e bc 83 3d 3c
       -0.1692862 0.15873411 0.15758197 0.011567052
000230 60 4f ff 3b 8b 51 0d 3d 1d 0b 6e 3e 90 69 b2 3d
       0.0077914447 0.034501594 0.23246427 0.08711541
000240 ce d3 20 3e 9a 09 ae be c5 ad fe 3d 6c d7 1d 3e
       0.15705797 -0.339917 0.12435488 0.15414208
000250 25 a4 9e 3e d0 25 00 bd 1f de 71 3e 1a 31 5b 3e
       0.30984607 -0.03128606 0.23619889 0.2140545
000260 c9 39 9e bd a7 2e 5d 3e 5d 20 1b be cc 00 86 3e
       -0.077258654 0.21599828 -0.15149064 0.26172483
000270 1e f1 31 3e f3 c3 64 3e 2e 03 ac 3d 58 eb 89 be
       0.17377135 0.22340374 0.08399044 -0.26937366
000280 e4 63 2d 3e 95 f2 a4 be 52 86 7e 3e 99 93 22 3e
       0.16932636 -0.32216325 0.24855927 0.15876617
000290 8c b8 df bd 1a d1 71 3d a5 60 24 3e f8 7b 6c be
       -0.109238714 0.059037305 0.16052492 -0.23094165
0002a0 60 3d 18 3e 13 c2 02 3e 60 54 06 be 13 81 fa bd
       0.14867163 0.12769346 -0.13118124 -0.1223165
0002b0 c0 b2 82 3e 4d 25 05 3e fc b6 fa 3c 74 d9 7c 3d
       0.25527 0.1300251 0.030604832 0.061730817
0002c0 df 72 f5 bd d7 8a dd 3c 2b 93 f7 3e 4d 57 37 3c
       -0.119848005 0.027043743 0.48354468 0.011190248
0002d0 ec 43 ab bc aa f4 fb 3d 45 74 a8 3d 48 a9 ee 3e
       -0.020906411 0.12302525 0.08225302 0.46613526
0002e0 86 21 f3 3c 74 1b b7 3d 26 7d 3d 3e 99 de fc 3e
       0.029679071 0.08940783 0.18504772 0.4938858
0002f0 54 a0 d8 3e 63 ac 00 be 9e 49 68 3a ac d1 d3 3d
       0.4230982 -0.1256576 0.00088610675 0.10342726
000300 89 ae c1 3e 3f 89 a1 3f db 05 ac 3e 4e f3 60 bd
       0.37828472 1.2620009 0.33598217 -0.054919533
000310 2d 34 5a bd 70 dc 9b 3d 51 a5 2b 3e f1 b0 f1 bd
       -0.053272415 0.076104045 0.16762282 -0.11801327
000320 fa 4c 51 3e c8 9e af ba e6 ea d1 be e8 59 98 3e
       0.2043952 -0.0013398761 -0.40999526 0.29756093
000330 1d 14 6c bd f3 60 0e bf 85 86 3e 3e 60 42 92 be
       -0.05763637 -0.5561668 0.18606003 -0.28566265
000340 fd 29 21 bf b2 61 07 3f 78 f4 16 be 4a 1b ee be
       -0.62954694 0.52883446 -0.14741695 -0.46505195
000350 ea ba 9f bd 66 a6 36 3d 05 fa 89 be 2d 73 98 be
       -0.07799323 0.044592284 -0.26948562 -0.29775372
000360 31 76 3e 3d 91 0e be be d2 1b 9c bd 01 f5 29 be
       0.046499435 -0.37120488 -0.07622494 -0.16597368
000370 3a e7 6c be 13 05 c7 3c dd 2e 5d 3d cc e6 ca 3e
       -0.23135081 0.024294412 0.05399977 0.3962921
000380 f5 e6 a3 bc bb 61 36 3e 67 06 c8 3d cc 96 d4 3d
       -0.02000759 0.17810719 0.09766846 0.10380325
000390 31 aa 4e 3e 73 ad 6a 3e 80 70 8f bd 18 70 40 3e
       0.2018211 0.22917728 -0.070038795 0.1879276
0003a0 cd 84 7d 3c 4a 90 38 3c dc c5 68 3e d5 f3 b3 bd
       0.015473557 0.01126487 0.22731727 -0.08786742
0003b0 88 60 57 bd 62 7a fe bb 29 43 3c 3e 49 db 19 be
       -0.052582294 -0.007766054 0.18384995 -0.15025057
0003c0 23 e3 b3 3e f7 7d 70 be b3 aa 1c bf 92 41 ce 3e
       0.3513423 -0.23485552 -0.61197966 0.402844
0003d0 d7 4a 98 3e 40 67 b1 be 7e 7c 01 3d c1 ca 2c bf
       0.29744598 -0.34649086 0.031612866 -0.6749688
0003e0 bb 8c 08 be 09 09 27 bd f3 06 e1 bc 04 76 cd 3c
       -0.13334934 -0.0407801 -0.027469134 0.025080688
0003f0 22 a9 01 bf 34 bc 08 3f bb 57 e7 3e a0 28 8c be
       -0.506487 0.53412175 0.4518412 -0.27374744

body.2.bias f4 [64]
000000 27 e4 91 3e d7 5e 0c be 16 ad 96 be cc a4 85 3e
       0.2849438 -0.13708054 -0.2942893 0.26102293
000010 c4 df 2d bc fd 3d 30 3d ca ba 36 be 4e b0 0f bf
       -0.010612432 0.043027867 -0.17844692 -0.56128395
000020 a7 48 d3 3d a8 91 44 bd e4 b9 04 3e 04 58 a5 3e
       0.10316592 -0.04799047 0.12961537 0.32293713
000030 37 cf 8b 3d 23 b6 19 bd f5 5f 2b be 7e 93 17 3e
       0.068266325 -0.037527215 -0.16735823 0.14802358
000040 84 1b 4e 3d e0 2d a2 bd 58 b0 85 be 1e 11 c2 3d
       0.05031921 -0.07918906 -0.26111102 0.09475921
000050 51 a0 37 be 2f 3c 0e 3e 07 c7 c2 3d c9 fe cc bd
       -0.1793225 0.13890146 0.09510618 -0.10009534
000060 d5 07 16 be 8c 34 bd bd 56 06 be 3d aa 42 2a be
       -0.14651425 -0.09238538 0.09278552 -0.16626993
000070 f0 e1 66 3e fb 4d ce 3d cb 27 75 bc 1c 49 38 3e
       0.22547126 0.10073467 -0.014963101 0.17996639
000080 99 11 74 3d 7d 8a a9 be 35 cc 66 3e 95 6b fa 3c
       0.059587095 -0.3311347 0.22538836 0.030568877
000090 54 92 f2 be 58 9a 44 3e 17 ae 04 3e 53 c7 12 bf
       -0.47377264 0.19199502 0.12957035 -0.57335395
0000a0 97 14 95 3d 85 78 e4 bc ee 5b 9f bd 73 37 14 3e
       0.07279318 -0.0278895 -0.07781206 0.14474277
0000b0 eb 2e e6 3d 8f a9 3f be dc 02 cb bc 9b 22 5f 3e
       0.11239418 -0.18717025 -0.024781637 0.21790545
0000c0 ab 4e a2 bd e9 6e fe 3d 82 ba fb be 0e 44 88 3e
       -0.07925161 0.12423498 -0.49165732 0.26614422
0000d0 11 3b 81 3e 4d 1b aa 3e be 39 83 3c 04 25 7d bd
       0.25240377 0.33223954 0.016018745 -0.06180288
0000e0 e5 9a 23 3d a7 35 0d be d4 7a 28 be 21 2e 51 3d
       0.03994264 -0.13789998 -0.16453105 0.051069383
0000f0 60 47 76 bb 19 6c 01 3c d4 31 1f bf f7 85 e5 bd
       -0.0037579164 0.007899308 -0.62185407 -0.112071924

mean_head.weight f4 [6, 64]
000000 9c 0d 13 3e 98 22 b6 bd 18 97 17 be 81 d6 13 be
       0.1436066 -0.08893317 -0.14803731 -0.14437295
000010 94 c0 32 be 71 c6 17 3d 81 3e c1 be 2c 62 8b 3d
       -0.17456275 0.037054483 -0.37743 0.06805834
000020 6a b4 e7 bd 18 ca 84 be 1a 05 2b bd ba 96 94 3c
       -0.11313708 -0.25935435 -0.041752912 0.018138278
000030 1a 9d 44 be 3f c5 e4 bd b9 13 c7 3e 7c 4e 92 3e
       -0.19200554 -0.11170434 0.38882235 0.28575504
000040 ee f3 0d 3d f3 ff 95 3e 9f f1 7f 3c a5 37 c4 be
       0.034656458 0.29296836 0.015621572 -0.38323703
000050 f8 2c d8 bd e0 c0 05 3b 91 3f 9e 3e 6e 1a 8d 3d
       -0.10555452 0.0020409152 0.30907872 0.06889807
000060 3e 6d 10 3d 23 b2 54 be 2f b8 a5 3d 31 2c 69 be
       0.03526043 -0.20771079 0.08091771 -0.22770764
000070 e3 11 5b be fb de 52 3e 9d e7 26 be 83 d4 b1 3e
       -0.21393542 0.20592873 -0.16299291 0.34732446
000080 29 18 9a 3e 8d f3 84 be ce 9a 99 be 14 ac a0 3e
       0.30096558 -0.25967064 -0.3000092 0.31381285
000090 61 89 15 3e 37 4b 2c 3e 3c de 75 3e 5c 02 2f 3e
       0.14603187 0.16825567 0.24010557 0.17090744
0000a0 bf cc 20 3e b4 af 68 be af 5d 91 bd 16 38 7a 3e
       0.15703104 -0.22723275 -0.07097947 0.24435458
0000b0 1b 95 b9 be 64 30 3c 3e 00 f9 7c be 29 3b aa 3d
       -0.3624657 0.18377835 -0.24704361 0.08312065
0000c0 95 84 17 3d ff 80 9f be de 7c 89 be 4c d2 c1 be
       0.036991674 -0.31153104 -0.2685308 -0.37855756
0000d0 9a c5 5e 3e b0 b4 49 be e5 79 5b bc 24 48 d9 bd
       0.21755067 -0.19697833 -0.013395761 -0.10609463
0000e0 98 ca 93 be 69 5c 3e 3e 54 df ba bd 26 0f 3f be
       -0.28865504 0.18589939 -0.09124628 -0.18658122
0000f0 89 79 13 bd 54 bf 1e 3e af f5 3c be 02 4f d9 3d
       -0.036004577 0.15502673 -0.18453096 0.10610773
000100 fe 26 08 be 0b bc d5 bd 0d 79 f3 3d 45 8a 89 3d
       -0.13296124 -0.10436257 0.11888323 0.06715826
000110 90 c2 5b be 22 3d aa bc 04 0e 2c 3d 2f d0 94 bd
       -0.21460938 -0.020781104 0.042005554 -0.0726627
000120 10 20 2d 3d bb 89 1c 3e a9 fa 86 3e fd 68 81 3e
       0.042266905 0.15286915 0.26363114 0.25275412
000130 3a 52 47 3e e5 ba e8 3d 49 34 83 bb 85 82 b2 3e
       0.1946496 0.11363772 -0.0040040356 0.34865203
000140 fa 72 cb bd ae de d2 3d a8 20 9a 3d 18 ad a7 be
       -0.099340394 0.10296379 0.0752576 -0.32749248
000150 f8 4a 78 3e 76 21 68 3e 8c 13 64 3e b5 49 c2 bd
       0.24247348 0.22669014 0.22273082 -0.09486715
000160 c6 23 a5 bd 40 9a 88 be 19 a6 97 bb c0 a1 1b 3c
       -0.08063464 -0.26680183 -0.0046279547 0.009499013
000170 ff 6f 94 be 26 2f 31 bd 7d 45 a5 be b5 de ec bc
       -0.28991696 -0.043257855 -0.32279578 -0.028914789
000180 00 2d 10 be 5a 11 03 be bb 2b 98 3d 21 1b 0b be
       -0.14079666 -0.12799588 0.07430216 -0.13584568
000190 cf c9 11 3d 38 fb 84 be 53 a9 6e 3e 04 72 04 3d
       0.03559285 -0.25972915 0.2330678 0.032335296
0001a0 42 17 22 be d6 c2 28 bd 0b 8f 73 3e 34 e4 ae 3c
       -0.15829185 -0.041201435 0.23785035 0.02134905
0001b0 33 75 09 be 1a 87 b1 be ea 50 8e 3e 28 f2 b3 be
       -0.13423614 -0.34673387 0.27796108 -0.35145688
0001c0 5d 07 ab bd 26 fd a6 3e 44 b1 d9 3c 70 14 3e 3e
       -0.08351014 0.32615012 0.026573785 0.18562484
0001d0 08 ee 49 3e 98 c4 12 3e 06 5f 38 be d0 55 13 3e
       0.19719708 0.14332807 -0.18004999 0.14388204
0001e0 3e d7 1b be 6d a5 32 be 21 59 cf 3d a9 ff 7c be
       -0.15218827 -0.17445917 0.10124422 -0.24706902
0001f0 f7 b9 0c 3b 60 d8 f5 3d 41 4f 86 3d 50 00 8d be
       0.0021473148 0.12004161 0.06558085 -0.275393
000200 56 a0 93 3d 92 1f 8d bd cf 2c 05 bd 54 1a e0 be
       0.07208316 -0.06890787 -0.032513436 -0.43770087
000210 0d d0 9a bc f9 05 85 3e ce 53 04 3e e3 b5 8a bd
       -0.018898034 0.2598112 0.12922594 -0.067729734
000220 28 04 83 be c0 09 cd bc 68 e5 08 bd 5f d9 0b be
       -0.25589108 -0.025029063 -0.033421904 -0.13657139
000230 db 3b 34 be 3f 22 2a be e5 16 8e bd 30 5e 3d bd
       -0.17600958 -0.16614626 -0.069379605 -0.046232402
000240 33 12 9e 3d 5c c7 62 3d e7 ad a8 3d 18 3c 1d 3c
       0.07718315 0.055365905 0.08236294 0.009596847
000250 3b 1f de bd a8 b2 b1 bd a7 c7 41 3e b3 bc 21 be
       -0.108458005 -0.08676654 0.18923818 -0.1579464
000260 23 9e 51 3e e4 c0 57 bd 64 71 69 3e 5c a4 95 3e
       0.2047048 -0.05267419 0.22797161 0.2922696
000270 91 f8 9a 3e c0 6c 39 3d 7e 88 8e 3e 5b 6e f4 3d
       0.30267766 0.045269728 0.2783851 0.11935111
000280 e7 24 ff 3c 93 ea 28 3e 99 c2 9a be f5 16 29 bc
       0.031145526 0.16495733 -0.3022659 -0.010320415
000290 7f ee 58 be 91 1e 04 3e 6e 50 fc 3d 1b 63 bf 3d
       -0.21184729 0.12902285 0.12320028 0.09345075
0002a0 fb 7d de 3d ec a0 60 be f8 28 68 bb d7 5b 7f 3e
       0.108638726 -0.21936387 -0.003542481 0.24937378
0002b0 52 b0 45 3e 6b 30 72 be ce b5 9e be ae 8a 07 be
       0.19305542 -0.23651282 -0.3099808 -0.13236496
0002c0 ca 13 03 3e df 15 04 3d 6d ff 46 be e7 42 9a 3d
       0.12800518 0.03224742 -0.19433375 0.07532292
0002d0 c9 f6 17 3e 39 ab 33 bd 5b be be bd 37 e8 28 3c
       0.14840235 -0.043864463 -0.09313651 0.010309271
0002e0 60 37 cf 3d 42 9b 3d be 97 4b 23 bc e4 f3 25 3e
       0.10117984 -0.18516257 -0.0099667525 0.16206318
0002f0 c8 4a c2 3e c9 f9 42 be e8 08 ca bd 70 56 4f be
       0.3794768 -0.19040598 -0.0986498 -0.20247817
000300 36 79 48 3e 90 8f 58 3d 7d 61 17 3e 60 9a 1c 3e
       0.19577488 0.052871287 0.14783283 0.15293264
000310 62 49 b5 bd fb 05 c1 bd 44 90 b5 bd f6 f7 54 be
       -0.08851887 -0.09424969 -0.08865407 -0.20797715
000320 46 cf a6 3b 8d aa 15 be 71 fa 42 be 8a 3d 15 be
       0.005090627 -0.14615841 -0.19040848 -0.14574257
000330 84 42 af 3e 11 25 18 bd 08 86 18 3e 2e 20 73 bc
       0.34230435 -0.037144724 0.14894879 -0.014839215
000340 f3 4b d0 3d 72 57 8a be 7b 00 f2 3d a3 11 d4 bd
       0.10170736 -0.2701984 0.11816498 -0.103549264
000350 0f 7b a9 3d 9b af 86 3d 9c 2a 0d be 28 4a 1d 3c
       0.08275425 0.06576463 -0.13785785 0.0096002
000360 06 3e f1 bd 76 6b 3c 3e 9a 5c 37 3d 1a a7 ca 3d
       -0.11779408 0.18400368 0.044766046 0.09895153
000370 91 10 8e bd 15 47 1c be 51 2b 8f bd ea cd 58 be
       -0.069367535 -0.1526149 -0.06990684 -0.211723
000380 b1 66 8d 3e 73 b2 1d 3e 87 9a 43 3d d3 b0 46 3e
       0.2761741 0.15400104 0.04775479 0.1940339
000390 95 e2 60 be ab 62 d7 3c a4 ae c3 3d 97 e9 f7 3c
       -0.21961434 0.026292166 0.095547944 0.030262752
0003a0 fb 75 b7 3d 96 90 18 3e eb 32 89 be 4e 89 92 3e
       0.0895805 0.14898905 -0.2679666 0.2862038
0003b0 bc 7f de bd 3a 19 54 bd 37 51 91 3e 82 26 80 3e
       -0.10864207 -0.05178187 0.28382275 0.2502938
0003c0 64 e8 b2 3e 28 09 27 3e 95 53 ce 3d 80 7a 16 bd
       0.34942925 0.16312087 0.10074536 -0.03673792
0003d0 2f b3 64 be 4c 58 6e 3e bd a5 c8 be 3f d8 cb bd
       -0.22333978 0.2327587 -0.39188948 -0.09953355
0003e0 f7 8e 0b be 20 7a ac 3d 7e 0d 83 3e cc e7 88 bd
       -0.13628756 0.08421731 0.2559623 -0.06684837
0003f0 f1 80 cf 3a 4e fe 29 be d4 5c 04 be ae 96 51 3d
       0.0015831274 -0.16600916 -0.12926036 0.05116909

mean_head.bias f4 [6]
000000 53 c3 13 3d e3 77 8c bd 56 13 b1 3d 5f 8e 32 3d
       0.036074948 -0.06858804 0.08646266 0.043592807
000010 37 0a f8 bd de b4 8a 3d
       -0.12111323 0.06772779

value_head.weight f4 [1, 64]
000000 be 3f ef 3e 91 62 c7 be 47 e1 06 bf c4 60 21 3e
       0.4672832 -0.38942388 -0.52687496 0.1575957
000010 95 7c ea bc 2a 60 bb bd c1 3d af be 27 6c c6 bf
       -0.028623858 -0.09149201 -0.34226802 -1.5501755
000020 7f 2a c4 3d 78 74 13 be a9 42 65 3e 59 8e 83 3e
       0.09578418 -0.14399898 0.2238871 0.2569454
000030 8d 1f 9b 3b 63 ee 8b bd cd 3c b7 bd 80 c8 ce bd
       0.0047339858 -0.06832578 -0.08947144 -0.10096836
000040 8d 64 42 bc ed 74 27 be 96 d9 3f bf 7e df 83 3e
       -0.0118647935 -0.16353197 -0.74941385 0.25756449
000050 83 db 9a bf 71 f6 cd bd b2 df b2 bc 46 12 22 bf
       -1.209824 -0.100567706 -0.021835182 -0.63309133
000060 89 02 30 be b6 9c 82 be 86 4b ee 3d b2 31 1b bf
       -0.17188467 -0.25510186 0.11635499 -0.60622704
000070 3b 34 8c 3e 94 15 58 3d f7 6a c4 bc 2b e7 92 3e
       0.273836 0.052754954 -0.023976786 0.28691992
000080 43 96 8e bd 91 d1 8c bc a5 77 58 3d b5 09 c9 3c
       -0.06962254 -0.017189773 0.052848477 0.024540761
000090 89 da 3f be 9b 86 85 3d 5a ed 5c 3e c9 0c 49 bf
       -0.18735708 0.065198146 0.21574917 -0.78535134
0000a0 5c f5 f2 bd 69 f2 72 3c 20 f8 6e 39 6b 2e c9 3c
       -0.11863205 0.014828303 0.00022789882 0.024558267
0000b0 f1 18 52 3e f0 85 f9 bd ef 95 1c 3c ec 35 3f 3e
       0.20517327 -0.1218375 0.009557231 0.18672913
0000c0 63 60 46 3e 7f ce 5f bc 9f 3d 5d bf 3c 1c d0 3d
       0.19372706 -0.013660072 -0.8642215 0.10161635
0000d0 50 7f 8f bc 90 e1 56 3f 1e 0d 7d bb 6d c1 20 be
       -0.017516762 0.8393793 -0.0038612555 -0.15698786
0000e0 df e1 29 3d b0 99 20 be d5 04 2e bd ff 04 b3 bd
       0.041475173 -0.15683627 -0.042485077 -0.08741187
0000f0 43 0c 46 bd 8d 08 4e bc d4 60 d1 bf 51 89 be 3c
       -0.048351537 -0.012575281 -1.6357675 0.023258837
