checkpoints/walker_ppo_mp.pt (torch, 29091 bytes, 8 tensors)

log_std f4 [6]
0	0xbdafca2a	-0.085834816
1	0xbd08d5b9	-0.033406947
2	0xbe9e6ccf	-0.3094239
3	0xbd8fa6d4	-0.07014242
4	0xbe44523a	-0.19171992
5	0xbe8c328b	-0.2738231

body.0.weight f4 [64, 25]
0	0x3dbb8f8e	0.0915824
1	0x3ea0c039	0.31396654
2	0xbe9e07b7	-0.3086526
3	0xbe6183ac	-0.22022885
4	0xbe14d56e	-0.14534542
5	0xbd18c600	-0.037298203
6	0xbe049074	-0.1294573
7	0x3e0f891d	0.14017148
8	0xbe48b5b9	-0.19600572
9	0x3db08fbc	0.08621165
10	0x3e137735	0.14400943
11	0xbea05cb7	-0.31320736
12	0x3eff77bc	0.49896038
13	0xbdfca85e	-0.12336801
14	0xbec0138d	-0.37514916
15	0xbdd9afab	-0.10629209
16	0x3e4cfbb5	0.20017894
17	0xbe99f682	-0.30070883
18	0xbe0e8121	-0.13916446
19	0x3d4739f8	0.048639268
20	0x3cd52b18	0.026021525
21	0x3db7dbca	0.08977468
22	0x3dc9d7b8	0.09855598
23	0x3e2bd613	0.16780882
24	0xbdb5d5b1	-0.08878649
25	0xbe59f360	-0.21284246
26	0x3df81fb1	0.1211542
27	0x3e110d3d	0.14165206
28	0x3bf06421	0.007336155
29	0xbe0842f6	-0.13306794
30	0xbe15504c	-0.14581412
31	0x3ddd2cb2	0.107995406
32	0x3d8242ee	0.06360422
33	0x3da80a4b	0.08205088
34	0x3df3c39c	0.11902544
35	0x3e2726e8	0.16323435
36	0x3eb61c88	0.35568643
37	0xbe13105e	-0.14361712
38	0x3ee8c792	0.4546476
39	0x3e2d8a55	0.169473
40	0xbd0ae166	-0.033906363
41	0xbca3e6ce	-0.020007517
42	0xbe23b2db	-0.15986197
43	0xbeb70d70	-0.3575244
44	0x3d0eb0a2	0.03483642
45	0xbdae428b	-0.08508786
46	0xbc472c96	-0.012156626
47	0xbe5b5e80	-0.21422768
48	0x3df33efa	0.11877246
49	0xbd4af352	-0.049548455
50	0xbe214c88	-0.1575185
51	0xbb77bad4	-0.0037800567
52	0x3d96bdf0	0.073604465
53	0x3dfe0071	0.12402428
54	0xbec7422e	-0.3891768
55	0xbe68944b	-0.2271282
56	0xbe09bb7b	-0.13450424
57	0x3e7f2077	0.24914728
58	0xbc4a8799	-0.012361431
59	0x3eaf8be0	0.34286404
60	0xbe76ef61	-0.24114753
61	0x3c9b816a	0.018982608
62	0x3e0007ba	0.12502947
63	0x3e0e235f	0.1388068
64	0x3f072025	0.52783424
65	0xbe008800	-0.1255188
66	0xbd181e78	-0.037138432
67	0x3f0571a7	0.52126545
68	0x3f1e76b8	0.618999
69	0xbe224d34	-0.15849763
70	0xbe970522	-0.29496104
71	0x3d43659f	0.047704335
72	0xbe83261a	-0.25615007
73	0xbe825719	-0.25457075
74	0x3e66cf41	0.22539999
75	0x3d0eb826	0.034843586
76	0x3f04697c	0.51723456
77	0xbd568a58	-0.05237803
78	0xbe4cd266	-0.20002136
79	0x3d979661	0.074017294
80	0x3eb76544	0.35819447
81	0xbe2dcbd5	-0.16972287
82	0xbe695dea	-0.22789732
83	0x3cb4df59	0.022079157
84	0x3e222534	0.15834504
85	0xbe3237a3	-0.17404036
86	0xbf01801a	-0.5058609
87	0x3dacd632	0.08439292
88	0xbd9d5327	-0.07681876
89	0x3ec3b254	0.3822199
90	0xbd954630	-0.07288778
91	0x3e9148f5	0.28375974
92	0x3f02eabe	0.5113944
93	0xbf130033	-0.5742218
94	0xbd975537	-0.073893
95	0x3dee9f29	0.11651451
96	0x3ea75d63	0.32688436
97	0x3e6b8831	0.23001172
98	0xbcf86032	-0.030319307
99	0xbe0548c4	-0.13016039
100	0xbe88c966	-0.26716155
101	0x3ff27923	1.8943218
102	0x3e38699b	0.18009035
103	0x3e3bd57b	0.18343155
104	0xbd88ce25	-0.06679944
105	0xbe08ec4c	-0.1337139
106	0x3e166ec0	0.14690685
107	0xbec471a9	-0.38367966
108	0x3da63cc5	0.081170596
109	0x3ebd4083	0.3696328
110	0x3d6fff0d	0.058592845
111	0xbedb82ee	-0.4287333
112	0x3f0713a2	0.5276433
113	0x3e21b5e5	0.15792044
114	0xbe764c3d	-0.2405252
115	0xbd750187	-0.05981591
116	0x3e2d4bc5	0.16923435
117	0x3d9eb927	0.07750159
118	0xbcc6c384	-0.024263151
119	0xbdd140b5	-0.1021742
120	0xbd132998	-0.03592834
121	0x3dfb9494	0.122841984
122	0x3dcec35a	0.10095854
123	0xbe42d88f	-0.19027923
124	0x3d8bed2a	0.06832345
125	0x3eaaa52f	0.3332915
126	0xbda8001a	-0.08203144
127	0xbe3c99ce	-0.18418047
128	0x3df7dfd9	0.121032424
129	0x3dcb3a8f	0.099232785
130	0x3de23a4e	0.11046277
131	0x3b0c3035	0.0021391038
132	0xbe3e4926	-0.18582591
133	0x3d071cfe	0.032986633
134	0x3d36abc3	0.0445974
135	0xbd60e73f	-0.054908033
136	0xbebe9129	-0.37220123
137	0xbe75b04d	-0.23993035
138	0xbeb9e400	-0.36306763
139	0xbcac10fb	-0.02100419
140	0x3e56fdf8	0.20995319
141	0x3de837d7	0.113387756
142	0x3e1a7b71	0.15086152
143	0xbea1d041	-0.31604198
144	0x3ea95053	0.33069095
145	0xbdd8955a	-0.105753615
146	0xbd01ed2e	-0.031720333
147	0xbe215880	-0.15756416
148	0xbdb2e023	-0.08734157
149	0x3e881d5f	0.26584908
150	0xbe6d0cbf	-0.23149393
151	0x3f60edaf	0.87862676
152	0xbe9fd13b	-0.31214318
153	0x3d088082	0.03332568
154	0x3e21d292	0.15802982
155	0x3d29e078	0.041473836
156	0xbdf2a0ed	-0.118471004
157	0xbe93cad8	-0.28865695
158	0xbe808ca0	-0.25107288
159	0x3ebc93ee	0.3683161
160	0xbc9daf9d	-0.019248778
161	0xbec2641f	-0.3796701
162	0x3ee87b64	0.4540664
163	0xbdb192a2	-0.08670546
164	0x3f0c634f	0.5483903
165	0xbe7a88b7	-0.24466215
166	0xbd9dc58d	-0.077036954
167	0x3f5cac2e	0.86200225
168	0xbc776902	-0.015100719
169	0x3ea6ce0e	0.32579082
170	0xbe66fb66	-0.22556838
171	0x3dc50780	0.09620571
172	0xbe0ff01b	-0.14056437
173	0xbe17d50a	-0.14827362
174	0x3d8921a3	0.06695869
175	0x3f117792	0.56823075
176	0xbfc63068	-1.5483522
177	0xbe645d92	-0.22301319
178	0xbe82e937	-0.25568554
179	0x3e6a233f	0.22865008
180	0x3ecbf342	0.39834028
181	0x3cb9714b	0.02263703
182	0x3e700eb1	0.23443104
183	0x3d07f963	0.033196818
184	0xbf1aa197	-0.60402817
185	0xbdc8d2d6	-0.09805839
186	0x3cb014e8	0.021494344
187	0xbe8cd33e	-0.27504915
188	0xbe76eb27	-0.24113141
189	0xbd38efd6	-0.0451506
190	0xbeca4dd2	-0.39512497
191	0x3d3e6d75	0.046491105
192	0xbd994578	-0.07483953
193	0xbe13eb81	-0.14445306
194	0x3e1599d7	0.14609466
195	0xbd7a676a	-0.06113378
196	0x3d673826	0.05645003
197	0xbd86b2ba	-0.06577058
198	0x3c6404a6	0.013917124
199	0x3d33b890	0.043877184
200	0xbe8670dd	-0.26257983
201	0x3faff438	1.3746405
202	0x3d8a3f6c	0.06750378
203	0x3dcfd0e0	0.101472616
204	0xbcbab8ad	-0.022793138
205	0x3dbb568d	0.091473676
206	0x3d872421	0.06598688
207	0xbeef353e	-0.46720308
208	0xbd8a1b15	-0.06743447
209	0x3e5f8ce2	0.21831086
210	0xbbb5e41f	-0.005550876
211	0xbe540948	-0.20706666
212	0x3ef36447	0.47537443
213	0x3d67ab2b	0.056559723
214	0xbcc21964	-0.023693748
215	0x3d055195	0.032548506
216	0xbd8b9122	-0.06814791
217	0x3e765c3b	0.2405862
218	0xbe170826	-0.14749202
219	0x3c8a5bce	0.016889479
220	0xbebb28a9	-0.3655446
221	0x3b8ab115	0.0042325356
222	0xbe49f28a	-0.19721428
223	0x3cbfaf1c	0.023398928
224	0x3e5585fd	0.20851894
225	0x3ea6199d	0.32441416
226	0xbe92e0df	-0.28687188
227	0xbebf6947	-0.37385008
228	0xbce3c706	-0.027804863
229	0x3e67442c	0.225846
230	0x3d44ba27	0.04802909
231	0xbcd31768	-0.025767997
232	0x3c3d031b	0.011536385
233	0xbecd7717	-0.4012992
234	0x3e11cf73	0.14239292
235	0xbde2789e	-0.11058162
236	0xbeef4da0	-0.4673891
237	0x3c95608e	0.018234517
238	0xbea476b1	-0.32121804
239	0x3ee07b21	0.4384394
240	0xbe81964d	-0.25309983
241	0xbd3a3d8f	-0.045468863
242	0x3ec0a0cb	0.37622675
243	0xbea9ee6f	-0.33189723
244	0x3e836806	0.256653
245	0x3cf968cd	0.03044548
246	0x3d50ee06	0.051008247
247	0x3e1c9d91	0.15294482
248	0x3db34e0d	0.087551214
249	0xbe0a55ac	-0.13509244
250	0x3df25e80	0.11834431
251	0x3f07d051	0.5305224
252	0x3ec56545	0.38553825
253	0x3e1282e0	0.14307737
254	0x3edd8d7f	0.43272015
255	0x3e12f20b	0.14350145

body.0.bias f4 [64]
0	0x3de97649	0.11399514
1	0x3e2824a7	0.16420232
2	0xbdab704c	-0.08371028
3	0x3dc76bce	0.09737359
4	0x3d97b458	0.07407445
5	0xbc08285b	-0.008310403
6	0xbdf33409	-0.11875159
7	0xbe517dd0	-0.2045815
8	0x3e02c65d	0.12770982
9	0xbe316084	-0.17321974
10	0x3ba59def	0.0050542275
11	0xbd162240	-0.036653757
12	0x3cc5fd02	0.024168495
13	0x3d2b516c	0.041825697
14	0x3e0db901	0.13840105
15	0xbe1a14d7	-0.15047012
16	0x3e867987	0.26264593
17	0xbdd2775f	-0.102766745
18	0xbe4ba330	-0.1988647
19	0xbe37ae6f	-0.17937635
20	0x3d58263f	0.05277085
21	0xbc81d76f	-0.015849797
22	0x3e0014a9	0.12507881
23	0xbd56a952	-0.05240757
24	0xbd01b6ae	-0.031668358
25	0xbc0e5038	-0.008686118
26	0xbe903a06	-0.28169268
27	0xbe7968e0	-0.24356413
28	0x3d87bd97	0.06627958
29	0xbd98f322	-0.07468249
30	0x3cda3e2b	0.026640972
31	0xbe4e5e71	-0.20153214
32	0xbe5c0eac	-0.21489972
33	0x3cfd46ca	0.030917544
34	0x3ca78e96	0.020453732
35	0x3dbde4a6	0.09272127
36	0xbe209c6a	-0.15684667
37	0xbd4c1b2b	-0.049830597
38	0x3e2f1c21	0.17100574
39	0x3e20debe	0.1570997
40	0xbd9ccd7a	-0.07656379
41	0xbc51bb5d	-0.012801019
42	0x3d575de9	0.052579794
43	0xbd7a5340	-0.06111455
44	0xbe2e96da	-0.17049733
45	0xbda2ef52	-0.07955803
46	0x3dc2436e	0.094855174
47	0x3c7bf715	0.015378733
48	0xbe40c85c	-0.18826431
49	0xbd99d686	-0.0751162
50	0x3e06ac84	0.13151747
51	0xbdd0071b	-0.10157605
52	0xbccd420a	-0.025055904
53	0x3e1f1655	0.15535863
54	0xbd031452	-0.0320018
55	0x3e78b528	0.24287856
56	0xbe0e22d2	-0.1388047
57	0xbe2e6205	-0.17029579
58	0xbec02dd8	-0.37534976
59	0xbb2da98e	-0.0026498768
60	0xbd1bef2e	-0.038069896
61	0xbc0d1709	-0.008611449
62	0x3c33dba0	0.010977656
63	0x3e3962ff	0.1810417

body.2.weight f4 [64, 64]
0	0x3df91662	0.12162472
1	0xbd4b694b	-0.049660962
2	0xbe4342d9	-0.19068469
3	0x3e5acbb4	0.21366769
4	0x3e9a182d	0.3009657
5	0x3db321cc	0.087466806
6	0x3d92e0fe	0.0717182
7	0xbe636339	-0.22205819
8	0x3cc0acc3	0.02351988
9	0x3c9d73d9	0.01922028
10	0x3e255b82	0.16148189
11	0x3be7d702	0.0070751915
12	0xbd5edb6b	-0.054408472
13	0xbc61ef12	-0.013789909
14	0x3e745b5b	0.23862974
15	0x3dc02e96	0.093838856
16	0x3e3050a4	0.17218262
17	0x3d4815fb	0.048849087
18	0xbe4e839d	-0.20167394
19	0xbdd24fc1	-0.10269118
20	0xbdb27809	-0.08714301
21	0xbe263fb0	-0.16235232
22	0xbd8e372f	-0.06944119
23	0xbe8a43ef	-0.27004954
24	0x3e0d11c4	0.13776308
25	0x3e471b53	0.19444017
26	0xbe2a4878	-0.16629207
27	0xbee24cdc	-0.44199264
28	0x3e0f18bf	0.13974284
29	0xbe6b9417	-0.2300571
30	0xbdfd22c6	-0.12360148
31	0xbe10b8ac	-0.14132947
32	0xbde149f6	-0.11000435
33	0x3ec5aaba	0.38606817
34	0x3df0f75f	0.11765932
35	0x3db327e4	0.08747843
36	0xbdecc49e	-0.11560939
37	0xbbcd1dae	-0.0062596416
38	0x3e6c719e	0.23090217
39	0x3db097ca	0.086227015
40	0x3c5ad6e2	0.013356896
41	0xbd4855a0	-0.048909783
42	0x3e273cbe	0.16331765
43	0x3db05fc8	0.08612019
44	0x3c8f98d4	0.017528929
45	0x3d00fe4e	0.031492524
46	0x3e6ce6b2	0.23134878
47	0x3cc83eed	0.024444068
48	0xbe2bbe6f	-0.16771863
49	0x3e1538da	0.14572468
50	0x3e766802	0.24063113
51	0xbe9248e6	-0.28571242
52	0xbd9a959a	-0.075480655
53	0xbacc54d5	-0.0015589247
54	0x3d87c550	0.06629431
55	0xbd64c07d	-0.055847634
56	0x3e1b6ee0	0.15179014
57	0xbd4cfa01	-0.05004311
58	0xbeac81ca	-0.3369277
59	0x3d683c0b	0.056697886
60	0xbd68a261	-0.05679548
61	0x3def8c4f	0.116966836
62	0x3e572347	0.21009551
63	0x3d263c22	0.04058469
64	0x3db5e151	0.08880866
65	0x3de40e61	0.11135555
66	0xbdffb431	-0.12485541
67	0xbce9eea7	-0.028556181
68	0x3e7e4d24	0.24834114
69	0x3d7f8f73	0.062392663
70	0x3d859074	0.06521693
71	0xbe8877e1	-0.2665396
72	0x3e82648e	0.25467342
73	0xbc851df5	-0.016249636
74	0x3c9781f0	0.018494576
75	0x3d43f7ad	0.047843624
76	0xbdc8d03d	-0.09805343
77	0xbe30eb40	-0.17277241
78	0x3e603e3a	0.21898738
79	0x3df6d216	0.120517895
80	0x3dea6037	0.11444133
81	0xbc171475	-0.009221186
82	0xbdc71647	-0.09721046
83	0x3de03ce7	0.10949116
84	0xbc0e994f	-0.008703544
85	0xbd0e35c2	-0.034719236
86	0x3d742c03	0.059612285
87	0xbe480ce1	-0.19536163
88	0xbd4bea93	-0.049784254
89	0x3e2bbe8d	0.16771908
90	0xbe5cffd4	-0.21581966
91	0xbe4d903a	-0.2007455
92	0x3deec4e1	0.116586454
93	0xbd10f2aa	-0.035387672
94	0xbde0f373	-0.10983934
95	0x3daec5c2	0.08533813
96	0xbe8b27d8	-0.27178836
97	0x3e8860c8	0.26636338
98	0xbc7dba88	-0.015486367
99	0xbdd44f00	-0.103666306
100	0xbd1de0be	-0.03854441
101	0x3d67847c	0.05652283
102	0x3daf6793	0.08564677
103	0x3df6a4a7	0.12043124
104	0xbdf3d737	-0.11906283
105	0x3d3845e5	0.04498853
106	0x3bbbd659	0.0057323393
107	0x3e10afca	0.14129558
108	0xbcaa3bfa	-0.020780552
109	0xbca7952a	-0.02045687
110	0x3ec28134	0.379892
111	0xbc0833de	-0.008313147
112	0x3d2f5aae	0.04281109
113	0xbe0ec036	-0.1394051
114	0xbcc4a1a1	-0.024002852
115	0xbe45504d	-0.19268914
116	0x3e46f2f8	0.19428623
117	0x3d1317e8	0.03591147
118	0x3dbf5ba1	0.09343649
119	0xbb93db55	-0.0045122304
120	0xbc5f7571	-0.01363884
121	0xbcea0932	-0.028568838
122	0xbe82bf75	-0.25536695
123	0xbe091e90	-0.13390565
124	0xbc34c8bc	-0.011034187
125	0x3ca97426	0.020685267
126	0x3dceb537	0.10093158
127	0xbd9df3bb	-0.077125035
128	0x3e88e7f5	0.2673947
129	0x3c32c4df	0.010911196
130	0x3eeea5f3	0.46610984
131	0x3cf76740	0.0302006
132	0x3e183fbc	0.14868063
133	0x3d496134	0.049164966
134	0x3e491c7f	0.19639777
135	0xbe108958	-0.14114892
136	0x3da6b2ef	0.081395976
137	0xbe02b2f0	-0.12763572
138	0xbe1553a7	-0.14582692
139	0xbe0f8369	-0.14014973
140	0x3e270868	0.163118
141	0xbdf4f856	-0.11961429
142	0x3d6b300a	0.05741886
143	0x3e36a384	0.17835814
144	0xbd4641ce	-0.0484026
145	0x3d916677	0.07099622
146	0xbd4e082a	-0.050300755
147	0xbd9026ee	-0.07038675
148	0xbd5465d4	-0.051854923
149	0xbe4ca250	-0.19983792
150	0xbe37d195	-0.17951043
151	0x3e25d60f	0.16194938
152	0x3cb8c467	0.02255459
153	0xbd9198b7	-0.07109206
154	0xbd432d8e	-0.047650866
155	0xbe7dc328	-0.24781477
156	0xbd9612c1	-0.07327796
157	0xbdee672b	-0.116407715
158	0xbdb45cda	-0.088067725
159	0xbd85e348	-0.06537491
160	0x3e06b0f0	0.13153434
161	0x3dc091c7	0.09402805
162	0xbd901442	-0.07035114
163	0x3e184556	0.148702
164	0xbd533f5f	-0.051574107
165	0x3d6744b4	0.056462005
166	0xbd414274	-0.047182515
167	0x3dfce7ba	0.12348886
168	0xbe187c6d	-0.14891215
169	0x3b82390e	0.0039740866
170	0x3e34150b	0.17586152
171	0xbca66a7b	-0.020314446
172	0x3db29481	0.08719731
173	0x3e1a9928	0.15097487
174	0xbe7646ee	-0.24050495
175	0xbe1e319c	-0.15448612
176	0xbb40f3e7	-0.0029442252
177	0xbe9a8685	-0.30180755
178	0x3ebfe355	0.37478128
179	0x3d32a62c	0.043615505
180	0xbd589fd4	-0.0528868
181	0xbd8809e0	-0.066425085
182	0x3e4abcfe	0.19798657
183	0xbd13edf0	-0.036115587
184	0xbe9d81e3	-0.30763158
185	0x3da429c8	0.08015782
186	0xbd7bddee	-0.061490946
187	0xbe091ab3	-0.13389091
188	0xbe2c667b	-0.16835968
189	0xbe1603d7	-0.14649902
190	0x3e13782f	0.14401315
191	0xbca0eb81	-0.019643547
192	0xbe1aa647	-0.15102492
193	0x3db9e17e	0.09076212
194	0x3e4e1750	0.2012608
195	0xbe4d5cf3	-0.20054989
196	0x3da052cb	0.078282915
197	0xbe49358b	-0.19649331
198	0x3caa6e9f	0.020804701
199	0xbe4e3394	-0.20136863
200	0xbe0f3d7f	-0.13988303
201	0x3ccad0b7	0.024757726
202	0x3daac482	0.08338262
203	0x3d2585d0	0.040410817
204	0xbc4477d8	-0.011991464
205	0x3e398041	0.18115331
206	0x3875e9b7	5.8630216e-05
207	0x3e0e2a31	0.13883282
208	0x3db6ee5d	0.08932183
209	0xbe24a3b6	-0.16078076
210	0xbdd694cb	-0.10477599
211	0xbd92e924	-0.07173374
212	0x3bf2ebce	0.007413364
213	0xbe2385e9	-0.15969051
214	0xbda6df87	-0.08148103
215	0x3db9dfd8	0.09075898
216	0xbcbda68c	-0.023150705
217	0x3da05ec0	0.07830572
218	0x3ada2f91	0.0016646256
219	0x3d50d6e4	0.050986186
220	0x3b242de4	0.0025051767
221	0x3bc331ee	0.00595688
222	0xbe121f4e	-0.14269754
223	0x3db842f0	0.08997142
224	0xbdab6c3a	-0.08370252
225	0x3c2debed	0.010615331
226	0xbd020219	-0.03174028
227	0x3d6b556f	0.057454523
228	0xbe1645cb	-0.14675061
229	0xbda2aad9	-0.07942743
230	0xbd8665e2	-0.06562401
231	0xbddab8d4	-0.106797844
232	0x3d9da5c0	0.0769763
233	0xbe694b33	-0.22782592
234	0xbd234506	-0.039860748
235	0xbdfa3e1d	-0.122188784
236	0xbcb37bfb	-0.021909704
237	0xbe0ee617	-0.1395496
238	0x3e7a7c63	0.24461512
239	0x3c794e43	0.015216413
240	0x3d9b77b2	0.075911894
241	0xbe3cc4a0	-0.18434381
242	0xbccb4f21	-0.024818005
243	0x3d693547	0.056935575
244	0x3cfef025	0.03112037
245	0xbd20e41e	-0.03928005
246	0xbd3c3b7e	-0.045955174
247	0xbdf6242a	-0.120186165
248	0xbb36ae88	-0.0027875025
249	0xbd87c48e	-0.06629287
250	0xbe1cbbde	-0.1530604
251	0xbe50bcb8	-0.2038449
252	0x3e1d2cda	0.15349141
253	0xbda45b42	-0.080252185
254	0x3e8c7021	0.27429298
255	0x3c9b655b	0.018969228

body.2.bias f4 [64]
0	0x3e2b69f1	0.16739632
1	0x3ce5cbe3	0.028051322
2	0x3db39d65	0.08770255
3	0xbdc9e271	-0.098576434
4	0x3c8fd889	0.017559307
5	0xbcf6cc85	-0.03012682
6	0xbcddd0bf	-0.027077077
7	0xbe72031c	-0.23633999
8	0xbc9cb3b0	-0.01912865
9	0xbd5dddd3	-0.054166626
10	0x3e915e77	0.28392383
11	0x3bc27312	0.0059341276
12	0xbe7a7609	-0.2445909
13	0x3ce7e3f5	0.02830694
14	0x3dcc063e	0.09962128
15	0xbdd114d5	-0.102090515
16	0xbd791ba0	-0.06081736
17	0xbe2b6d71	-0.16740967
18	0xbb43e9c5	-0.0029893976
19	0xbd8c8430	-0.0686115
20	0x3cc8f782	0.024532083
21	0x3c343539	0.010999017
22	0xbd0df609	-0.034658466
23	0xbc9fdb6b	-0.019513806
24	0xbd0ab801	-0.033866886
25	0x3d94413b	0.07239004
26	0xbd25ee63	-0.040510546
27	0x3dd36de6	0.10323696
28	0x3b937299	0.004499745
29	0x3dcbdeaa	0.09954579
30	0x3db1f9f9	0.086902566
31	0x3d288b41	0.041148428
32	0x3dc5defb	0.09661671
33	0xbe11f6a3	-0.1425424
34	0xbe34592c	-0.17612141
35	0x3ddc6bac	0.10762724
36	0xbc6fbde7	-0.014632679
37	0x3d543a9d	0.05181371
38	0x3da8a314	0.0823423
39	0xbda01cf4	-0.07818022
40	0x3da425f8	0.080150545
41	0xbd75b87e	-0.0599904
42	0xbd362b22	-0.04447473
43	0xbd805643	-0.06266453
44	0x3d520ed8	0.051283687
45	0x3da00902	0.07814218
46	0x3c911346	0.017709386
47	0xbd1a25b6	-0.03763362
48	0xbb1036c9	-0.002200531
49	0x3d2f247d	0.042759407
50	0x3d8e930e	0.06961642
51	0x3dcaa7a1	0.09895254
52	0xbd358166	-0.044312857
53	0xbd8039a4	-0.06260994
54	0x3de793a1	0.11307455
55	0xbd78de8b	-0.06075911
56	0xbc83739c	-0.016046338
57	0xbd85d0c4	-0.065339595
58	0xbd6d773c	-0.05797504
59	0xbceb92d8	-0.028756544
60	0x3ca51a3e	0.020154115
61	0xbd2fbde1	-0.042905692
62	0x3e3159b8	0.17319381
63	0xbc98c358	-0.018647835

mean_head.weight f4 [6, 64]
0	0xbdcde633	-0.10053673
1	0xbd71028a	-0.058840312
2	0x3e0b669e	0.13613364
3	0xbe5859f6	-0.21128067
4	0x3d363484	0.044483677
5	0xbdcf5dea	-0.101253346
6	0xbd85de8a	-0.065365866
7	0xbdcfada1	-0.10140539
8	0xbc850c5a	-0.016241241
9	0xbda7fca2	-0.08202483
10	0x3e0c29a7	0.13687764
11	0xbe055c5b	-0.13023512
12	0xbdc56c3b	-0.09639784
13	0x3def96e3	0.11698701
14	0x3e0ec933	0.13943939
15	0x3c648e92	0.013950007
16	0xbcc488ca	-0.023991007
17	0xbdc4ae37	-0.09603541
18	0xbdb06e48	-0.086147845
19	0xbca91ceb	-0.020643672
20	0xbe129641	-0.1431513
21	0x3e126261	0.14295341
22	0xbe38f19d	-0.18060918
23	0x3d291388	0.041278392
24	0xbdd7dd07	-0.105402045
25	0x3da14cdf	0.0787599
26	0x3e24e32d	0.16102286
27	0x3d6bb5a1	0.05754626
28	0x3aada288	0.0013247291
29	0x3b885b9f	0.0041613127
30	0x3e02941b	0.1275181
31	0x3da6df67	0.08148079
32	0x3d95fd4c	0.07323703
33	0xbe1c70d4	-0.15277416
34	0x3c1f4800	0.009721756
35	0x3e02c126	0.12768993
36	0xbdd3eab6	-0.10347502
37	0xbc5ca427	-0.013466871
38	0xbde09a54	-0.10966936
39	0xbdcacee3	-0.09902742
40	0xbbafeddb	-0.0053689308
41	0xbda7d8b1	-0.081956275
42	0xbac6ec6e	-0.0015176663
43	0xbc75ecf8	-0.015010111
44	0xbe0d2686	-0.13784227
45	0x3d43627e	0.04770135
46	0xbdb14282	-0.086552635
47	0x3da23f0e	0.07922183
48	0xbd72d04f	-0.05928069
49	0x3b850186	0.0040590195
50	0x3dac6c79	0.08419127
51	0xbdb8a798	-0.09016341
52	0xbbe258d3	-0.0069075613
53	0x3d1a4a57	0.037668552
54	0x3d68bd39	0.05682108
55	0xbc600d96	-0.013675114
56	0x3dd51701	0.10404778
57	0xbda28651	-0.07935775
58	0xbdc5fce5	-0.096673764
59	0x3db7c763	0.08973577
60	0xbe3e0f38	-0.18560493
61	0x3d060611	0.03272063
62	0x3d207f06	0.03918364
63	0x3e148046	0.14502057
64	0xbdf75430	-0.12076604
65	0xbe4b1be2	-0.19834855
66	0x3dd24bee	0.10268389
67	0x3c074687	0.008256561
68	0xbb37f1d3	-0.0028067722
69	0x3cb22ec1	0.02175081
70	0xbd9eafad	-0.07748351
71	0xbd338c8f	-0.04383522
72	0x3dfdb36e	0.12387739
73	0x3d796e65	0.060896296
74	0x3c9b0ec3	0.018927937
75	0xbe96a5c1	-0.29423335
76	0xbddc0b8f	-0.10744392
77	0x3e2ec47d	0.17067142
78	0x3dc1a672	0.09455575
79	0xbd97c50a	-0.07410629
80	0xbe225de8	-0.15856135
81	0x3c7f9ba6	0.015601074
82	0x3d9458e5	0.07243518
83	0xbd212418	-0.039341062
84	0xbdecac54	-0.115563065
85	0xbdcd5472	-0.10025872
86	0xbdac4f09	-0.08413512
87	0x3e1144bf	0.14186381
88	0xbd31d652	-0.043417282
89	0xbbccc328	-0.0062488504
90	0xbe1c54bc	-0.15266699
91	0x3e107b31	0.14109494
92	0x3dc1c8f5	0.09462158
93	0x3cdd13e8	0.026987031
94	0x3c926a1e	0.017872866
95	0xbdf67dd5	-0.12035719
96	0xbd508aab	-0.050913494
97	0xbd235823	-0.039878976
98	0x3d979a4e	0.07402478
99	0xbddd5608	-0.10807425
100	0xbda3321b	-0.07968541
101	0xbca60154	-0.020264305
102	0xbe1185fc	-0.14211267
103	0xbd71d68d	-0.059042502
104	0x3d0311f8	0.03199956
105	0x3e2fe27a	0.17176238
106	0x3d5e8749	0.054328237
107	0x3e2c147d	0.1680469
108	0x3c6513e8	0.013981797
109	0xbbba5368	-0.0056862123
110	0x3e18b8b3	0.14914207
111	0xbd29106b	-0.041275423
112	0xbd94a4f8	-0.07258028
113	0xbd3195f9	-0.043355916
114	0x3cb81f14	0.022475757
115	0x3a9bffe2	0.001190182
116	0xbdf745a4	-0.1207383
117	0xbdb0569c	-0.086102694
118	0xbd88bbd0	-0.066764474
119	0xbdbf0ddf	-0.093288176
120	0xbd58d467	-0.052936938
121	0xbc95b778	-0.018275961
122	0x3ac66ef3	0.0015139267
123	0x3e123fea	0.14282194
124	0xbc6623d4	-0.014046628
125	0x3d16d42d	0.03682344
126	0x3a84734d	0.0010105163
127	0x3e519463	0.20466761
128	0x3d7b8eb3	0.061415385
129	0x3cb4d9fe	0.022076603
130	0x3d7ee0af	0.062225994
131	0xbbce6c7e	-0.0062995544
132	0xbe1ea97c	-0.1549434
133	0xbdee7fc0	-0.1164546
134	0x3d8266cc	0.06367263
135	0x3d8e3db2	0.06945361
136	0xbe08d324	-0.13361794
137	0xbc53c185	-0.012924557
138	0xbe160c81	-0.14653207
139	0xbd2e77e9	-0.042594824
140	0x3d3bbb72	0.04583306
141	0xbdee8435	-0.1164631
142	0x3ca26615	0.019824067
143	0x3d5ddd52	0.054166146
144	0xbdc398b9	-0.09550614
145	0x3e009583	0.12557034
146	0x3c0ce466	0.008599376
147	0x3db00abd	0.08595798
148	0xbcb64ded	-0.022253955
149	0xbd08ed70	-0.033429563
150	0xbb85285a	-0.004063648
151	0xbe2c8188	-0.16846287
152	0xbdc8e2f9	-0.098089166
153	0xbe094b66	-0.13407668
154	0xbd328620	-0.043584943
155	0xbb9c0182	-0.004760922
156	0xbde101fc	-0.109867066
157	0x3cce242a	0.025163729
158	0xbd81854f	-0.06324255
159	0x3d3127b6	0.043250762
160	0xbdfdcc0a	-0.12392433
161	0xbc1021cd	-0.008797121
162	0xbd81ca1c	-0.063373774
163	0x3da7d153	0.08194222
164	0xbdf09f86	-0.11749177
165	0xbcfc7b71	-0.03082058
166	0x3ddb275c	0.107008666
167	0xbdaf9ec3	-0.08575203
168	0x3d2f190d	0.0427485
169	0x3d17d6fb	0.037070256
170	0xbdcd4af5	-0.100240625
171	0x3e1334e6	0.14375648
172	0x3db40dd1	0.08791698
173	0x3dc9ebf4	0.098594576
174	0x3db582ac	0.08862814
175	0x3ddb171f	0.106977694
176	0x3dd528a7	0.104081444
177	0x3cf2ad29	0.029623585
178	0x3da75174	0.08169833
179	0xbdc4c539	-0.0960793
180	0x3e01cec3	0.1267653
181	0x3dfbf557	0.12302654
182	0xbdedf17b	-0.11618324
183	0xbd53d6b6	-0.051718436
184	0x3e118af1	0.14213158
185	0xbd8e7481	-0.06955815
186	0xbddfeacc	-0.10933456
187	0x3ddf5055	0.10903994
188	0x3d080ca0	0.033215165
189	0xbd7b65bb	-0.061376315
190	0xbe308e3e	-0.17241761
191	0xbdc0e603	-0.09418871
192	0xb99b1cad	-0.0002958527
193	0xba960798	-0.0011446355
194	0x3d24972e	0.04018324
195	0xbdeaa657	-0.11457508
196	0x3d15671a	0.03647528
197	0x3dabd35f	0.08389925
198	0x3cf32c87	0.029684318
199	0xbde6c124	-0.112673074
200	0x3b758b73	0.0037467151
201	0xbde24746	-0.110487506
202	0xbc2e0b0e	-0.010622753
203	0x3d0034fe	0.031300537
204	0xbdbf6107	-0.09344678
205	0x3d3e7f0b	0.046507876
206	0x3e581720	0.21102571
207	0xbe059b7c	-0.13047594
208	0x3d7edbcf	0.062221345
209	0xbe00c98b	-0.12576883
210	0xbd696f80	-0.0569911
211	0x3dbdc168	0.09265405
212	0xbe0cb85a	-0.137422
213	0x3e0cdd18	0.13756216
214	0xbe07ac3c	-0.13249296
215	0xbd3ac301	-0.045596126
216	0x3ba3d2f5	0.0049995133
217	0x3d78d9b0	0.060754478
218	0x3e80cae2	0.25154787
219	0x3cabde83	0.020980125
220	0xbc84b51f	-0.016199647
221	0xbd6791eb	-0.056535643
222	0xbd00572c	-0.031333134
223	0x3d02b477	0.031910386
224	0x3d510841	0.051033262
225	0xbe2e276e	-0.17007229
226	0xbda4a514	-0.08039299
227	0xbcc2f8a9	-0.023800211
228	0x3d548a51	0.05188972
229	0xbdbe73b2	-0.09299411
230	0xbe3b121d	-0.18268628
231	0x3d32ece7	0.04368296
232	0xbccd3ecf	-0.025054364
233	0x3c1604bc	0.009156402
234	0x3d874013	0.06604018
235	0xbcb48623	-0.022036618
236	0xbd50f428	-0.051014096
237	0xbd04a89c	-0.03238736
238	0x3d965503	0.073404334
239	0x3dc2ee30	0.09518087
240	0x3da3ca53	0.07997575
241	0x3c9aa5ac	0.018877827
242	0xbd34be3b	-0.04412673
243	0xbde9a858	-0.11409062
244	0xbe1b450a	-0.15163055
245	0xbdd4e629	-0.10395462
246	0xbd9b16d7	-0.07572716
247	0xbd71599b	-0.058923345
248	0x3d8d87ab	0.06910642
249	0xbc5d16b3	-0.013494181
250	0xbc5fd91b	-0.013662602
251	0xbbab2cbc	-0.0052238386
252	0xbcafc62d	-0.021456802
253	0xbd28b4b8	-0.04118797
254	0x3e078b61	0.13236763
255	0x3d0f9431	0.035053436

mean_head.bias f4 [6]
0	0x3d39f3ae	0.045398407
1	0x3de1b5dc	0.11021015
2	0x3c94c391	0.01815966
3	0xbdb88a9e	-0.09010814
4	0x3daa76a3	0.083234094
5	0xbde449a5	-0.11146859

value_head.weight f4 [1, 64]
0	0x3f0ade8f	0.5424585
1	0x3eeae0d0	0.45874643
2	0xbe845c5f	-0.25851724
3	0x3de09ee8	0.10967809
4	0x3e5ff911	0.21872355
5	0xbeaa9c75	-0.33322492
6	0x3f15501f	0.5832538
7	0xbe924493	-0.28567943
8	0x3ebfc4ff	0.37454984
9	0xbe2280ea	-0.1586949
10	0x3e95385c	0.2914456
11	0x3eb3a228	0.35084653
12	0xbe8a5ac5	-0.27022377
13	0x3ea11d3f	0.31467625
14	0x3db4b9da	0.08824511
15	0xbea0d6c5	-0.31413856
16	0xbb44c0a0	-0.003002204
17	0xbe9265fd	-0.28593436
18	0x3ecd6686	0.40117282
19	0xbea8c9d5	-0.32966486
20	0x3eff04ae	0.49808258
21	0xbe1b40d5	-0.1516145
22	0x3f058a5c	0.52164245
23	0x3e771c8c	0.24131984
24	0x3eea0e13	0.45713863
25	0x3e924551	0.2856851
26	0x3d85c55e	0.065317854
27	0x3e869ebd	0.26292983
28	0x3ee8a20b	0.4543613
29	0x3e47a384	0.1949597
30	0xbe2810c9	-0.16412653
31	0x3ee05404	0.438141
32	0x3e84d68b	0.25944933
33	0x3e794412	0.24342373
34	0xbe9920af	-0.29907748
35	0xbed06c72	-0.40707737
36	0x3e54f477	0.20796381
37	0x3e7b8a6f	0.24564527
38	0x3e09da30	0.13462138
39	0xbeabfec5	-0.3359281
40	0x3e9aee2f	0.30259845
41	0xbeff01b2	-0.4980598
42	0xbe1fabd0	-0.15592885
43	0xbe800d39	-0.25010088
44	0xbebaba0c	-0.36470068
45	0x3f0f3cf5	0.5595239
46	0x3ea3e47e	0.32010263
47	0xbe33adf9	-0.17546834
48	0x3e8e3abf	0.27779195
49	0x3f073075	0.52808315
50	0x3ebdc67b	0.3706549
51	0x3e94cea2	0.29063898
52	0xbef7bcc5	-0.48386207
53	0x3e6ea6ce	0.23305818
54	0x3f0fd889	0.5618978
55	0xbea58f9b	-0.32336125
56	0xbe479de9	-0.19493832
57	0xbe963ced	-0.29343358
58	0x3ead5e24	0.33860886
59	0xbf04e637	-0.5191378
60	0x3df496ca	0.11942823
61	0xbe83fda4	-0.2577945
62	0x3e6e2cdb	0.23259299
63	0x3ecef105	0.40418258
