checkpoints/walker_ppo.pt (torch, 27254 bytes, 8 tensors)

log_std f4 [6]
0	0xbe93feac	-0.28905237
1	0x3e1346ca	0.14382473
2	0xbecd7d1a	-0.40134507
3	0x3af8011b	0.0018921228
4	0x3aafae77	0.0013403435
5	0xbe8cc181	-0.27491382

body.0.weight f4 [64, 18]
0	0x3fdbc57a	1.716964
1	0x3e16536e	0.14680263
2	0x4057af6e	3.3700824
3	0x406becb7	3.686323
4	0x3f1477c5	0.57995254
5	0x3c99174f	0.018687872
6	0x4039b28d	2.9015229
7	0x3fed3669	1.853223
8	0x3d53e903	0.05173589
9	0x3eda370c	0.42620122
10	0x3f193dca	0.5985991
11	0x3e9878e5	0.29779735
12	0xbe4cee78	-0.20012844
13	0xbe9a5d2b	-0.30149207
14	0x3e2dc32a	0.1696898
15	0xbde71c32	-0.11284675
16	0x3e545948	0.20737183
17	0xbe30744f	-0.17231868
18	0xbd11414b	-0.03546266
19	0xbfaf8ba8	-1.3714495
20	0xbe233ced	-0.1594121
21	0xbe91ee9b	-0.28502354
22	0x3e2f5987	0.17123996
23	0xbe0315dd	-0.12801309
24	0xbebdc0ca	-0.3706115
25	0x3e738e7e	0.23784825
26	0xbf25db4d	-0.6478775
27	0xbec4552a	-0.38346225
28	0xbec47ecb	-0.38377985
29	0xbe6a830c	-0.22901553
30	0x3d954cd2	0.07290043
31	0x3d6dcfb7	0.05805942
32	0xbd1222c5	-0.03567769
33	0x3dfeffe1	0.12451149
34	0x3d871e18	0.06597537
35	0x3ce3f304	0.02782584
36	0xbf911d71	-1.133711
37	0x3f5c3059	0.8601127
38	0x3e88d82d	0.2672743
39	0x3f1270ae	0.57203186
40	0xbf244ea8	-0.6418252
41	0xbbd24a6f	-0.0064175646
42	0xbcf18aac	-0.02948507
43	0x3f08ff22	0.535143
44	0x3c8f1c30	0.017469496
45	0xbdffee71	-0.12496651
46	0x3d613065	0.054977793
47	0xbe8b3f4f	-0.27196738
48	0x3ea47663	0.32121572
49	0x3df8972a	0.12138207
50	0x3d242289	0.040071998
51	0xbd71a295	-0.05899294
52	0x3d3daec3	0.046309244
53	0x3c9ec3bc	0.019380443
54	0x3f64329a	0.8913971
55	0x3e619881	0.22030832
56	0xbef16c9e	-0.4715318
57	0x3e9dc9e8	0.30818105
58	0x3daf98fe	0.08574103
59	0x3e43f228	0.19135344
60	0xbdfbc53a	-0.12293477
61	0x3e71f10e	0.23627111
62	0x3f6343b0	0.8877516
63	0xbf2429da	-0.6412636
64	0xbfd438d1	-1.6579839
65	0x3c8830e6	0.01662488
66	0x3e0a0313	0.13477735
67	0x3e8a0869	0.2695954
68	0x3d95bbd2	0.073112145
69	0xbf2ec90b	-0.6827552
70	0xbd9a9914	-0.075487286
71	0x3c84f660	0.016230762
72	0x3fb432d2	1.4078009
73	0xbe91f93d	-0.28510466
74	0xbeb7062a	-0.3574689
75	0xbdd0fc1a	-0.102043346
76	0x3f0eadc8	0.5573392
77	0x3f38ba0d	0.7215889
78	0x3e1cb737	0.15304266
79	0x3f06e002	0.5268556
80	0x3eba7383	0.36416253
81	0x3f6d664c	0.9273422
82	0xbf850d70	-1.0394726
83	0x3dcd3666	0.10020141
84	0xbc73a384	-0.014870528
85	0x3dd90cd8	0.10598153
86	0x3ca6ab81	0.020345451
87	0xbd96e8b2	-0.07368602
88	0xbe7f548c	-0.24934596
89	0xbb8ed380	-0.004358709
90	0x4005ff26	2.093698
91	0xbfb19459	-1.3873397
92	0x3e1cb296	0.153025
93	0xbeae57d0	-0.3405137
94	0xbe8ba655	-0.2727534
95	0xbe2123d6	-0.15736327
96	0x3e3e7537	0.18599401
97	0x3f513ff3	0.81738204
98	0xbc8ac9a3	-0.016941851
99	0xbc15f15a	-0.009151781
100	0xbe52e595	-0.20595391
101	0xbe2ee8f4	-0.17081052
102	0xbcb54522	-0.022127692
103	0xbd515e88	-0.051115543
104	0xbabb25b9	-0.001427821
105	0x3e4376e1	0.19088317
106	0x3d2f416b	0.042786997
107	0x3c4c493c	0.012468632
108	0xbfbac8a8	-1.4592485
109	0x3f0d065c	0.5508783
110	0x3dc74296	0.09729497
111	0x3ed72db5	0.4202706
112	0x3e69bde3	0.22826342
113	0x3cac829b	0.021058371
114	0x3e2fc053	0.1716321
115	0x3f2b58b8	0.6693225
116	0xbe94d6bf	-0.29070088
117	0x3e81b626	0.2533428
118	0xbf0bdd71	-0.5463477
119	0x3e6e1b15	0.23252518
120	0xbf251891	-0.6449061
121	0xbbcbbfae	-0.0062179184
122	0xbe36e538	-0.17860878
123	0x3eb5a0d8	0.35474277
124	0x3f0987ac	0.53722644
125	0x3d974e58	0.0738799
126	0xbe978d47	-0.29599974
127	0x3f8acc92	1.084368
128	0x3db03216	0.08603303
129	0xbe4d93ad	-0.20075865
130	0x3e16702f	0.14691232
131	0xbefec814	-0.49762022
132	0x3de42aa2	0.11140944
133	0x3cbcf8dd	0.023067886
134	0x3eb5026e	0.35353416
135	0xbfb2b47b	-1.3961328
136	0x3f6bfdae	0.9218396
137	0x3d9482de	0.072515234
138	0xbeffcde5	-0.49961773
139	0x3e3739e7	0.17893182
140	0xbe8dc82f	-0.2769179
141	0xbee426b1	-0.4456077
142	0x3e44385e	0.19162127
143	0xbe93cc05	-0.28866592
144	0xc019a166	-2.400476
145	0x3fa1ff30	1.2656002
146	0xbe1b948c	-0.15193385
147	0xbedd90a5	-0.43274418
148	0x3ead41d2	0.3383928
149	0xbe84c7ee	-0.25933784
150	0xbf389398	-0.7210021
151	0x3f97c573	1.1857132
152	0xbe9197f1	-0.28436235
153	0x3e0cddf2	0.1375654
154	0x3cee742e	0.029108133
155	0x3d6be40f	0.05759054
156	0xbd98f88c	-0.074692816
157	0xbd09377b	-0.033500176
158	0xbb8e62ff	-0.0043452973
159	0x3c492d7f	0.0122789135
160	0x3cd71470	0.026254863
161	0x39880a25	0.000259475
162	0x40054ab4	2.0826845
163	0xbfa04290	-1.2520313
164	0x3e701971	0.23447205
165	0xbebae845	-0.36505333
166	0xbec49ad4	-0.38399374
167	0xbe82e4f3	-0.255653
168	0xbd4107bf	-0.047126528
169	0xbd48013b	-0.0488293
170	0x3f358904	0.70912194
171	0x3d18e3e6	0.037326716
172	0x3d58e391	0.0529514
173	0x3d351442	0.044208772
174	0xbd858293	-0.06519046
175	0xbe047e35	-0.12938769
176	0xbcff235c	-0.03114479
177	0xbd171780	-0.036887646
178	0x3d0588cc	0.032601163
179	0xbb17c1d9	-0.0023156314
180	0xc0069060	-2.102562
181	0x3ffe7079	1.9878074
182	0xbd693a24	-0.056940213
183	0xbdd10ff3	-0.1020812
184	0x3e915a74	0.28389323
185	0xbee4dc8c	-0.44699514
186	0x3dc9c86a	0.09852679
187	0x3e3cc240	0.18433475
188	0x3e1186e6	0.14211616
189	0x3d9be5ea	0.07612212
190	0x3dd9de60	0.10638118
191	0x3caf0929	0.021366673
192	0xbc42b01a	-0.011882806
193	0xbc0f62b9	-0.008751565
194	0xbbadd302	-0.005304695
195	0xbaf119e0	-0.0018394552
196	0xba469795	-0.0007575688
197	0x3c9f5cc8	0.019453421
198	0x3e932233	0.2873703
199	0x3fa5fdf9	1.2968131
200	0x3ec10e8c	0.3770641
201	0x3ed18078	0.40918326
202	0xbeecd7a0	-0.4625826
203	0xbe5fd0d1	-0.21857001
204	0x3ea208fe	0.31647485
205	0xbf27a217	-0.65481704
206	0x3f6976ae	0.91196716
207	0xbf55bbf5	-0.83489925
208	0x3f10f8cd	0.5662964
209	0xbd58b2aa	-0.052904762
210	0xbeea2c9e	-0.45737165
211	0x3df8a5d8	0.12141007
212	0x3d4a71d7	0.049424972
213	0xbe6946a5	-0.22780855
214	0xbe399020	-0.18121386
215	0xbd9f7796	-0.07786481
216	0xbefa752e	-0.48917526
217	0xbf6af560	-0.9178066
218	0xbeee6227	-0.4655926
219	0x3c22fd78	0.009948127
220	0xbd70417e	-0.05865621
221	0xbf4306ae	-0.7618207
222	0xbed0d1e3	-0.4078513
223	0xbe95d6ea	-0.2926553
224	0xbf6c361b	-0.9227006
225	0xbf05aa92	-0.52213395
226	0x3e929c77	0.28634998
227	0xbd889ff4	-0.06671134
228	0x3e8b93a3	0.27261075
229	0x3e6d1e3e	0.23156068
230	0x3d38a507	0.045079257
231	0xbe19f83a	-0.15036097
232	0xbd79582f	-0.060875114
233	0x3dd8889b	0.105729304
234	0x3f85ee0a	1.0463269
235	0xbecf3367	-0.40468904
236	0xbeadcb1f	-0.33944032
237	0xbddd2bdf	-0.10799383
238	0x3df78784	0.120863944
239	0x3f0a54e6	0.54035795
240	0x3c47f69b	0.012204791
241	0xbe3c0ad0	-0.183635
242	0x3d0f8d51	0.03504688
243	0x3d6ec7f8	0.058296174
244	0x3d65fcd7	0.05614933
245	0x3e90e915	0.28302827
246	0xbe059141	-0.13043691
247	0xbdd1ff0f	-0.10253727
248	0x3bcd030e	0.0062564677
249	0xbe152ea1	-0.14568569
250	0xbda8d4ea	-0.08243735
251	0xbd05030c	-0.03247361
252	0xbf479463	-0.77960795
253	0x3edb029f	0.42775437
254	0x3e640f97	0.22271572
255	0xbc92e598	-0.017931744

body.0.bias f4 [64]
0	0xbe89dc7d	-0.26926032
1	0xbf229488	-0.6350789
2	0x3bf00c99	0.0073257205
3	0x3f0a0c48	0.5392499
4	0x3dbcb625	0.09214429
5	0xbe8268ce	-0.25470585
6	0x3e4845fe	0.1955795
7	0x3f4aaa0a	0.7916571
8	0x3e2ffaeb	0.17185561
9	0xbe57f010	-0.2108767
10	0x3eb16368	0.34646153
11	0x3e1427f6	0.14468369
12	0xbee8bab4	-0.45454943
13	0x3dea4052	0.114380494
14	0x3eaac8b8	0.3335626
15	0x3f13701b	0.57592934
16	0xbe7ebf35	-0.24877627
17	0x3f800ad2	1.0003302
18	0x3e8f2d5f	0.27964303
19	0x3e30c5a6	0.17262897
20	0x3f742bb9	0.95379215
21	0x3cf1a224	0.02949626
22	0x3f5c7cd4	0.8612797
23	0x3ee5af92	0.44860512
24	0xbedb15b9	-0.4279001
25	0xbb45c6ce	-0.0030178311
26	0xbe5d2087	-0.2159444
27	0x3e1bccde	0.1521487
28	0x3dd9ef02	0.1064129
29	0x3e1324be	0.14369485
30	0x3ed84e77	0.42247364
31	0x3ecd730b	0.40126833
32	0x3e87545b	0.26431546
33	0xbe4e24f2	-0.20131281
34	0x3ef80ea1	0.4844866
35	0xbf1959e0	-0.59902763
36	0x3ec98a86	0.39363497
37	0xbe98ee60	-0.29869366
38	0xbe2a8250	-0.16651273
39	0x3f256b50	0.6461687
40	0x3f727d3a	0.9472233
41	0x3f02cfeb	0.5109851
42	0x3e2492f5	0.16071685
43	0xbe8fec0a	-0.2810977
44	0x3f5210b0	0.82056713
45	0x3d44ce55	0.048048336
46	0x3ea37653	0.31926212
47	0xbe5735e2	-0.21016648
48	0x3f1cfdd0	0.6132479
49	0xbe105cf7	-0.14097963
50	0xbf3bf503	-0.73420733
51	0x3ec9b997	0.39399406
52	0x3e593a6b	0.21213691
53	0xbea276ee	-0.3173136
54	0x3ea9f967	0.3319809
55	0xbeee0832	-0.46490628
56	0xbec44977	-0.383373
57	0xbf255c10	-0.645936
58	0x3e8c6a7f	0.27425
59	0xbf70ce0f	-0.9406442
60	0x3b24f578	0.0025170725
61	0x3db51658	0.08842152
62	0xbf54b76e	-0.8309239
63	0x3eeebbe4	0.46627724

body.2.weight f4 [64, 64]
0	0x3ef6754b	0.48136362
1	0x3e607153	0.2191823
2	0x3f38f224	0.7224448
3	0xbd95120f	-0.07278835
4	0xbecf3a74	-0.40474284
5	0x3f37b1a1	0.71755415
6	0x3d0c2029	0.034210358
7	0x3daefc43	0.08544209
8	0xbddba162	-0.10724141
9	0xbe4d430a	-0.20045105
10	0x3f4240ca	0.7588011
11	0xbefc8c6a	-0.49325877
12	0xbdd792b4	-0.10526028
13	0xbf96f3a4	-1.1793103
14	0xbe556f55	-0.20843251
15	0x3da5f06a	0.08102496
16	0x3d4e8f86	0.050429843
17	0xbdc2cde1	-0.095119245
18	0x3c353b9d	0.011061576
19	0xbea20fe0	-0.31652737
20	0xbe3c4aa2	-0.18387845
21	0xbf19b430	-0.6004057
22	0x3d43c484	0.047794834
23	0xbddb042b	-0.10694154
24	0xbe471a18	-0.19443548
25	0xbeeaa9fb	-0.4583281
26	0x3e182901	0.14859392
27	0xbf21b771	-0.63170534
28	0x3ec4f7be	0.38470262
29	0xbe3db3e2	-0.18525651
30	0xbeb91c24	-0.36154282
31	0xba96a196	-0.0011492248
32	0xbdf18cee	-0.11794458
33	0x3eeb21a5	0.45924106
34	0x3ea3d5c1	0.3199902
35	0xba635a85	-0.0008672851
36	0xbe5fabd0	-0.21842885
37	0x3f1fdce7	0.62446445
38	0x3e33d53c	0.17561811
39	0x3bc64d5b	0.006051702
40	0x3bbb38d6	0.0057135625
41	0x3cafd0e4	0.021461911
42	0x3cab7981	0.020931961
43	0xbe5343b8	-0.20631301
44	0x3e9809a6	0.2969486
45	0x3e36c974	0.17850286
46	0x3ee7737f	0.45205304
47	0x3e724b56	0.23661551
48	0xbe1cf3c8	-0.1532737
49	0x3e0b0fe8	0.13580287
50	0xbd9b8795	-0.075942196
51	0x3d020440	0.031742334
52	0x3f855009	1.041505
53	0x3ee03e44	0.43797505
54	0x3f3122e0	0.6919384
55	0xbca9d2cf	-0.020730404
56	0x3e43ff5b	0.19140379
57	0x3dcc6354	0.09979883
58	0x3ccc9608	0.024973884
59	0x3e9b1af4	0.30294
60	0xbf21ec31	-0.63251024
61	0x3eb51ebe	0.35375017
62	0x3dd23403	0.10263827
63	0x3f576715	0.84141666
64	0x3eb20813	0.34771785
65	0x3f39cbdb	0.72576684
66	0xbe9ed25c	-0.31019866
67	0x3d597714	0.053092077
68	0x3fa2ad38	1.2709112
69	0x3f07a2b3	0.52982634
70	0xbf25d47b	-0.64777344
71	0xbf346982	-0.7047349
72	0xbec35d2e	-0.38157028
73	0x3eef37e3	0.46722326
74	0xbf0543a8	-0.5205636
75	0xbe8fd7b3	-0.28094253
76	0xbea12b1f	-0.3147821
77	0x3fa97779	1.3239585
78	0xbe53756d	-0.20650263
79	0xbd584486	-0.052799724
80	0x3db4e896	0.08833425
81	0xbde82ea9	-0.11337025
82	0x3ef4ec9d	0.47836772
83	0x3e189607	0.14900981
84	0xbf8dc156	-1.1074626
85	0xbea0d5ab	-0.31413016
86	0xbdfc0ab4	-0.12306729
87	0xbeed1935	-0.46308294
88	0x3e11bb18	0.14231527
89	0xbe8b3521	-0.27188972
90	0xbe7257e5	-0.23666342
91	0x3f8787b0	1.0588284
92	0x3e3da83d	0.18521209
93	0xbda8b4c3	-0.082376026
94	0xbe32cb65	-0.17460401
95	0x3e593ed3	0.21215372
96	0xbe4afa95	-0.19822152
97	0x3cd04548	0.02542366
98	0x3e2f25f1	0.17104317
99	0x3cec4c47	0.028844966
100	0xbee95c2a	-0.45578128
101	0xbd0aa810	-0.033851683
102	0xbe553be1	-0.20823623
103	0xbeb15d0c	-0.34641302
104	0xbe360382	-0.17774776
105	0x3ea8320d	0.32850686
106	0x3eef86d2	0.46782547
107	0x3dea72e0	0.11447692
108	0xbdd0750d	-0.10178576
109	0xbd8c7914	-0.06859031
110	0x3e8560e0	0.26050472
111	0xbe3ce560	-0.18446875
112	0xbe63c662	-0.22243646
113	0x3f8404d5	1.0313975
114	0x3d3d58be	0.04622721
115	0xbf02262b	-0.5083949
116	0x3f0a2fea	0.5397936
117	0x3f0f687d	0.5601881
118	0x3f979e87	1.1845254
119	0xbdbac59c	-0.09119722
120	0xbd993711	-0.07481206
121	0xbe0d517e	-0.13800618
122	0xbe968860	-0.2940092
123	0x3e85f8ff	0.2616653
124	0x3f1b60f1	0.60694796
125	0x3ea2eb89	0.31820324
126	0x3f4cb89f	0.7996921
127	0xbdcc5e93	-0.09978976
128	0xbdbda3aa	-0.09259732
129	0xbf88661a	-1.0656159
130	0x3e8958a5	0.26825443
131	0xbd77c130	-0.060486972
132	0x3e209a5f	0.15683888
133	0xbe1359d0	-0.1438973
134	0x3ebe53fa	0.37173444
135	0x3d925a6c	0.07146153
136	0xbf01c132	-0.5068542
137	0xbf667251	-0.90018183
138	0xbe17962e	-0.14803383
139	0x3d483df2	0.0488872
140	0xbe5e8a8d	-0.2173254
141	0x3e5ff8bf	0.21872233
142	0x3eb698de	0.35663503
143	0xbe042777	-0.1290568
144	0x3e5c03ba	0.21485797
145	0x3f45f7da	0.77331316
146	0xbdcfe70b	-0.1015149
147	0xbeb6f532	-0.35733944
148	0x3f7f5b80	0.9974899
149	0xbd97021b	-0.073734485
150	0x3f5939b7	0.8485369
151	0x3ec22d66	0.3792526
152	0x3d1274c2	0.03575588
153	0x3ccccdec	0.025000535
154	0xbf2353e8	-0.63799906
155	0xbf36ff7d	-0.71483594
156	0x3e22d642	0.15902045
157	0x3f223629	0.6336389
158	0x3e827aa5	0.25484195
159	0x3e270e34	0.16314012
160	0xbe2a8369	-0.16651691
161	0xbf86787c	-1.0505519
162	0x3e1c593b	0.15268414
163	0xbf07415c	-0.52834105
164	0x3f3d569b	0.73960274
165	0xbf2bb15a	-0.6706749
166	0x3e12ba32	0.1432884
167	0x3f3b10ca	0.73072493
168	0x3e632493	0.2218192
169	0xbf12becc	-0.5732238
170	0xbf02d026	-0.5109886
171	0xbeaccccc	-0.33749998
172	0xbc4e3eff	-0.012588262
173	0xbd89c8d5	-0.06727759
174	0xbf033fbf	-0.51269144
175	0x3dbf9f61	0.09356571
176	0x3f9490e0	1.1606712
177	0xbe183c0d	-0.14866658
178	0xbe13e3f2	-0.14442423
179	0x3f289a09	0.6586004
180	0xbcaceb52	-0.021108303
181	0xbedfd0e0	-0.43714046
182	0x3d8fa143	0.0701318
183	0xbe90a1e1	-0.28248504
184	0xbd817e12	-0.06322874
185	0x3e808366	0.2510025
186	0x3dbefc4e	0.09325467
187	0x3def2e2c	0.116787285
188	0xbecce90f	-0.4002156
189	0xbf35608a	-0.7085043
190	0xbed3a74e	-0.4133858
191	0x3e9cc314	0.30617583
192	0xbea7b3b4	-0.3275429
193	0xbce15078	-0.02750419
194	0xbebd8ecd	-0.3702301
195	0x3d962729	0.07331688
196	0x3f1b521c	0.60672164
197	0xbece688c	-0.40314138
198	0x3e1c8cc9	0.1528808
199	0x3e91bdde	0.2846517
200	0xbf1396a2	-0.5765172
201	0x3ecbc181	0.3979607
202	0xbf831f73	-1.0243973
203	0xbdd1e49f	-0.10248684
204	0xbe8bba42	-0.2729054
205	0x3fa51f2a	1.2900136
206	0xbc481303	-0.012211564
207	0xbefe08f0	-0.49616194
208	0xbe412eb6	-0.18865475
209	0xbe8c952a	-0.27457553
210	0x3e3c3afe	0.18381879
211	0xbdbe6973	-0.092974566
212	0x3e2fe457	0.17176948
213	0x3eba3092	0.3636518
214	0xbe854283	-0.26027307
215	0xbd45ad42	-0.048260935
216	0x3e229f8c	0.15881175
217	0x3ebd1320	0.36928654
218	0x3da0ffe0	0.07861304
219	0x3f373d23	0.7157766
220	0xbee6fa4f	-0.45112845
221	0xbf6b4984	-0.9190905
222	0x3edf6f8c	0.4363979
223	0x3e87ee9c	0.26549232
224	0xbde00708	-0.10938841
225	0xbcae9f89	-0.021316307
226	0x3e2743d7	0.16334473
227	0x3e9dd355	0.30825296
228	0x3d1aba5c	0.037775382
229	0xbd0113f9	-0.031513188
230	0x3dd9af00	0.10629082
231	0x3ec3c79d	0.3823823
232	0xbe4c29c3	-0.19937806
233	0xbd7443e8	-0.059635073
234	0xbebc78b6	-0.36810845
235	0x3e0d8874	0.13821584
236	0xbe956de5	-0.29185405
237	0xbe19e7bd	-0.15029807
238	0xbd0effe1	-0.034911994
239	0x3e10ca1b	0.14139597
240	0xbd7c6af4	-0.061625436
241	0x3e972dde	0.2952718
242	0x3d28c0fc	0.04119967
243	0x3d18942e	0.03725069
244	0xbf61932b	-0.88115185
245	0xbcab880b	-0.020938894
246	0xbea3271c	-0.31865776
247	0xbf098538	-0.537189
248	0xbe9711cf	-0.29505774
249	0x3d30b940	0.04314542
250	0x3ee4ed65	0.44712368
251	0xbeefdd76	-0.4684865
252	0x3ed2f54f	0.4120278
253	0xbe83e1ef	-0.2575831
254	0x3b17b2c8	0.0023147333
255	0xbf8ec442	-1.1153643

body.2.bias f4 [64]
0	0xbdeacd91	-0.1146499
1	0xbf5267f9	-0.821899
2	0x3f2c6dde	0.67355144
3	0xbc866fc7	-0.016410721
4	0xbe741a63	-0.2383819
5	0x3e3f7ebf	0.18700694
6	0x3dc9e9ad	0.09859023
7	0x3f19e63f	0.6011695
8	0x3f84c8cb	1.0373777
9	0x3b7a79b6	0.0038219518
10	0xbe7e9d40	-0.24864674
11	0x3e8df30b	0.2772449
12	0x3d529a8e	0.051416926
13	0x3da8eb1d	0.08247969
14	0xbf5912a0	-0.84794044
15	0xbf2bce61	-0.67111784
16	0xbf17189c	-0.59021926
17	0xbe2dcae4	-0.16971928
18	0xbf314c97	-0.6925749
19	0x3dba8703	0.09107783
20	0x3f1ff4e1	0.6248303
21	0x3de711fa	0.11282726
22	0xbde55bd4	-0.111991554
23	0xbebc71c8	-0.36805558
24	0xbca7c0c5	-0.020477662
25	0xbf42ae6b	-0.7604739
26	0xbd8fc7c4	-0.07020524
27	0xbf27fb18	-0.65617514
28	0xbe07fa7a	-0.13279143
29	0x3ef4a7b6	0.47784203
30	0x3f528775	0.8223794
31	0x3f25552b	0.6458308
32	0xbecf31f6	-0.40467805
33	0xbc8b4a38	-0.017003164
34	0x3e332ab7	0.17496763
35	0x3e775e60	0.24157095
36	0xbe3a0265	-0.18164976
37	0x3df92379	0.12164969
38	0xbf385c93	-0.7201626
39	0xbecc6f6a	-0.39928752
40	0xbbd7cb1b	-0.0065854914
41	0x3e84bd78	0.25925803
42	0x3f057067	0.5212464
43	0x3f176204	0.59133935
44	0xbdefd636	-0.11710779
45	0xbf23ec0a	-0.6403204
46	0xbd12a1dc	-0.035798892
47	0x3e56ae6d	0.20964976
48	0x3da1ddb0	0.07903612
49	0x3ddfbf06	0.10925107
50	0x3e75cc3d	0.24003692
51	0x3df16348	0.117865145
52	0xbf1da818	-0.61584616
53	0xbe6ee362	-0.23328927
54	0x3ed7091c	0.41999137
55	0x3f327130	0.6970396
56	0xbf4372ff	-0.76347345
57	0x3eeae71d	0.4587945
58	0xbe585518	-0.2112621
59	0xbf540a90	-0.8282862
60	0x3f1ffe87	0.6249775
61	0xbf1fe00a	-0.6245123
62	0x3f28be08	0.65914965
63	0x3f528732	0.8223754

mean_head.weight f4 [6, 64]
0	0x3e1c35eb	0.15254943
1	0x3b6f16ba	0.0036482052
2	0x3d22d28b	0.03975157
3	0x3cf78406	0.03021432
4	0x3d3e5d74	0.046475843
5	0x3d751296	0.059832178
6	0xbd37ac63	-0.044842135
7	0xbe547396	-0.20747218
8	0x3c66c18f	0.014084234
9	0x3e2048a9	0.15652718
10	0x3df831e5	0.121188916
11	0x3db98693	0.09058871
12	0xbb845374	-0.0040382687
13	0xbe336ff0	-0.1752317
14	0xbe207971	-0.15671326
15	0xba71e95d	-0.0009228194
16	0x3c1b9ccb	0.009497832
17	0x3db66aad	0.089070655
18	0x3df5ddc0	0.12005186
19	0x3eac5605	0.33659378
20	0xbc9ef03b	-0.01940166
21	0x3e9225d5	0.2854449
22	0x3cc3f59d	0.023920828
23	0x3e5173ba	0.20454302
24	0x3e49dfb1	0.19714238
25	0xbd4b3396	-0.049609743
26	0x3e68f3d0	0.22749257
27	0x3e8bb2b2	0.2728477
28	0x3d77e604	0.060522094
29	0x3cb32c59	0.021871733
30	0xbaf6fc3c	-0.0018843482
31	0xbcf87364	-0.03032846
32	0x3c9c2e2d	0.019064987
33	0x3e19e5bb	0.15029041
34	0x3e20603f	0.15661715
35	0xbda49ffe	-0.080383286
36	0x3e7571a1	0.23969127
37	0x3f0041af	0.50100225
38	0xbd040aba	-0.032236792
39	0x3e2335bc	0.15938467
40	0x3e8b642d	0.27224866
41	0x3d25a211	0.04043776
42	0x3e1b13e8	0.15144312
43	0xbe79a0ce	-0.24377748
44	0xbc181581	-0.009282471
45	0x3e5cf178	0.21576488
46	0xbd76d64f	-0.060262974
47	0xbe6b7c10	-0.22996545
48	0x3d958ef5	0.073026575
49	0x3d5b38d2	0.053520985
50	0x3ed1264c	0.4084953
51	0x3ea5b8ff	0.32367703
52	0x3d2fd399	0.042926405
53	0x3dd74f89	0.10513217
54	0xbdfcf981	-0.123522766
55	0x3c44677b	0.011987562
56	0xbb4c429f	-0.003116764
57	0xbd358c71	-0.04432339
58	0x3cbcf50b	0.023066064
59	0x3e1d6c91	0.15373446
60	0xbd0132a7	-0.031542446
61	0xbde82638	-0.11335415
62	0x3ec5d9e7	0.3864281
63	0x3db0d847	0.08635002
64	0xbd9f7d6a	-0.07787593
65	0x3e4142f2	0.18873194
66	0x3dcb444e	0.099251375
67	0x3e0253f8	0.12727344
68	0x3d3aa96a	0.045571722
69	0xbccf5759	-0.025310205
70	0x3e9de6a5	0.3084003
71	0x3e7fd3fb	0.24983208
72	0xbd8bf04c	-0.06832942
73	0x3ea41f8f	0.32055327
74	0x3e4dd6bc	0.20101446
75	0xbdf6759e	-0.120341524
76	0x3ea7f55c	0.32804382
77	0xbe0b0dad	-0.13579436
78	0xbdd994cc	-0.10624084
79	0x3da2dec8	0.079526484
80	0xbe0f9e68	-0.14025271
81	0x3d2e0fa3	0.04249538
82	0x3e85648b	0.2605327
83	0x3d50f03e	0.051010363
84	0xbda37a28	-0.07982284
85	0xbd3822d7	-0.0449551
86	0x3d0fc0b4	0.035095885
87	0xbda59647	-0.08085304
88	0x3c125181	0.008930565
89	0xbda150d6	-0.07876746
90	0xbd827427	-0.063698106
91	0xbe27d7ce	-0.16390917
92	0xbe8ffe95	-0.28123918
93	0x3e535b15	0.20640214
94	0xbeb09146	-0.34485835
95	0xbd0c61bb	-0.03427289
96	0x3e0664a8	0.13124335
97	0x3d9c35bb	0.07627436
98	0x3c92f39c	0.017938428
99	0x3d43c3b2	0.04779405
100	0x3ea45406	0.32095355
101	0xbe4ca3d5	-0.19984372
102	0xbe277236	-0.16352162
103	0xbdab1002	-0.083526626
104	0x3ed0278d	0.40655175
105	0x3e4ba57b	0.19887345
106	0xbd141aa0	-0.036158204
107	0xbeaa7c83	-0.3329812
108	0xbe7f0a3e	-0.24906251
109	0x3e352df7	0.17693315
110	0x3eb4f328	0.35341763
111	0xbe449fa4	-0.19201523
112	0x3e6a5f28	0.22887862
113	0xbe87f2d4	-0.2655245
114	0xbde45bd8	-0.1115033
115	0xbc8b20bd	-0.016983384
116	0x3d345a1b	0.044031244
117	0xbe1ab691	-0.15108706
118	0x3d278344	0.04089667
119	0x3de1da13	0.110279225
120	0x3e87ac9a	0.26498872
121	0x3d98de42	0.07464267
122	0xbe1b3d5e	-0.15160128
123	0x3db1726c	0.08664402
124	0x3d410171	0.047120515
125	0xbe5607fa	-0.2090148
126	0x3d5308c4	0.05152203
127	0xbe50a843	-0.20376687
128	0x3cb73110	0.022362262
129	0xbdc174ae	-0.09446083
130	0xbcf0d3f6	-0.029397946
131	0xbdd5df90	-0.10443032
132	0x3da83367	0.08212929
133	0x3c848207	0.016175283
134	0x3e0c8a7f	0.13724707
135	0xbe105760	-0.14095831
136	0xbe134f17	-0.14385639
137	0x3d284f28	0.041091114
138	0x3de4ed1b	0.11178037
139	0x3bc4945b	0.0059991307
140	0x3e423272	0.18964556
141	0x3b44e23b	0.003004207
142	0xbdb0e22a	-0.08636887
143	0xbe1a792d	-0.15085287
144	0xbd3cda3f	-0.046106573
145	0xbcc6d0c3	-0.024269467
146	0x3ebce63c	0.36894405
147	0x3c9a7513	0.018854653
148	0xbd589fcd	-0.052886773
149	0x3e1ec16a	0.15503469
150	0x3dd968b4	0.10615674
151	0x3de1f86e	0.11033712
152	0xbceb6c88	-0.028738275
153	0x3c6b5d75	0.014365544
154	0x3e914973	0.2837635
155	0xbda376f3	-0.07981672
156	0x3e4dee51	0.20110442
157	0xbe6f44ed	-0.23366137
158	0x3d7a9d98	0.06118545
159	0x3e264e98	0.16240919
160	0x3de44210	0.11145413
161	0x3e4078c8	0.18796074
162	0x3d299091	0.041397635
163	0xbd7f1ca7	-0.062283184
164	0x3d692ed9	0.056929443
165	0x3d3ce6f8	0.046118706
166	0xbd4cbfd6	-0.049987637
167	0xbdb95716	-0.090498134
168	0x3dfdf7c8	0.12400776
169	0x3ddf57ce	0.10905419
170	0x3da1fdd9	0.07909746
171	0xbbc0ae34	-0.0058801416
172	0xbc669a6e	-0.014074905
173	0x3db24467	0.08704453
174	0xbe468e5e	-0.19390246
175	0xbe9f180e	-0.3107304
176	0x3ddb447d	0.107064225
177	0x3d605203	0.054765712
178	0x3db2eafa	0.087362245
179	0xbd3dc063	-0.046326052
180	0xbe3a89cc	-0.18216628
181	0xbdf37a1b	-0.11888524
182	0x3c022be4	0.007945035
183	0xbd93134e	-0.071814165
184	0xbe218b0d	-0.157757
185	0xbd890201	-0.06689835
186	0xbda11ab2	-0.0786642
187	0x3c9e9eba	0.019362796
188	0xbde56649	-0.1120115
189	0xbc9f0923	-0.019413536
190	0x3e5a8d9c	0.21343082
191	0x3df7e1ff	0.12103652
192	0xbd42e54c	-0.047581956
193	0x3e398483	0.18116955
194	0xbdc21fd0	-0.09478724
195	0x3e369e81	0.17833902
196	0x3e43a205	0.19104774
197	0x3ea8ad4d	0.32944718
198	0xbd987776	-0.0744466
199	0xbe70a2a2	-0.2349954
200	0x3bcb0d8a	0.0061966823
201	0xbe18cd75	-0.14922126
202	0xbe1c4610	-0.15261102
203	0xbc026eae	-0.007960958
204	0x3db7df3d	0.08978126
205	0xbdf580bd	-0.119874455
206	0xbe249882	-0.16073802
207	0x3d2dbcec	0.042416498
208	0x3d2d6413	0.042331766
209	0x3d11682f	0.035499748
210	0x3e1d0d3d	0.15337081
211	0x3f1933e1	0.59844786
212	0x3e6a85f6	0.22902665
213	0x3e81537b	0.25259003
214	0x3d283d01	0.041073803
215	0x3d22b66e	0.03972476
216	0x3ee0557f	0.43815228
217	0xbe74dbe2	-0.23912004
218	0x3eabdb51	0.33565763
219	0xbe12dac5	-0.14341266
220	0x3e116578	0.14198864
221	0x3ea5c37f	0.32375714
222	0xbe3116e9	-0.17293896
223	0x3d885886	0.066575095
224	0x3e1a4f17	0.15069233
225	0x3e8beecf	0.27330634
226	0x3e298cf5	0.16557677
227	0xbe285e07	-0.16442119
228	0x3ed4c988	0.41560006
229	0x3c88f6f2	0.016719315
230	0xbe8c3e20	-0.27391148
231	0x3e1ca806	0.15298471
232	0x3d83c0e4	0.06433275
233	0x3e6686ee	0.22512409
234	0xbb408c36	-0.0029380447
235	0xbf425434	-0.75909734
236	0x3e91457d	0.28373328
237	0x3e0c6034	0.13708574
238	0xbeb32a2e	-0.34993118
239	0xbe3f55a5	-0.18685015
240	0x3e9f1c70	0.31076384
241	0xbe8f44bf	-0.27982137
242	0x3e8aff12	0.27147728
243	0x3ead8d93	0.33897075
244	0x3e0cdc15	0.1375583
245	0x3d14d911	0.036339823
246	0x3c843611	0.016139062
247	0xbe34bd9b	-0.17650454
248	0xbd1aada6	-0.03776326
249	0xbd4bd88a	-0.049767055
250	0x3c870521	0.016481938
251	0xbe2eae69	-0.1705872
252	0xbdff4016	-0.12463395
253	0x3d5000b4	0.05078192
254	0x3e8bde32	0.2731796
255	0x3e2e1393	0.16999654

mean_head.bias f4 [6]
0	0x3da0808b	0.078370176
1	0xbdc3d59d	-0.09562228
2	0xbdbd1801	-0.09233094
3	0xbd9ebe7d	-0.077511765
4	0xbe6dd9b9	-0.23227586
5	0xbcc20ace	-0.023686793

value_head.weight f4 [1, 64]
0	0x409c383b	4.881864
1	0xc0982b30	-4.755272
2	0x408f06e9	4.4695935
3	0xc0a059ff	-5.010986
4	0xc086d1a4	-4.213091
5	0x405a2d79	3.4090254
6	0xc08351da	-4.1037416
7	0x4090a4cd	4.5201173
8	0x40912979	4.5363126
9	0x4088a362	4.269944
10	0xc06c9d1c	-3.6970892
11	0x409f23b5	4.973109
12	0xc085865a	-4.1726503
13	0xc08f82fd	-4.48474
14	0xc08ed442	-4.4634104
15	0xc08e434b	-4.4457145
16	0xc07e63b1	-3.9748347
17	0xc05fcc3c	-3.4968405
18	0xc08fb6cd	-4.4910645
19	0xc0865cd5	-4.198832
20	0x40909ca2	4.51912
21	0xc0948113	-4.640756
22	0xc079bac4	-3.9020243
23	0xc08b7b2e	-4.3587866
24	0x4097b342	4.740632
25	0xc08d5862	-4.417039
26	0xc09e3619	-4.9441037
27	0xc0905365	-4.51018
28	0xc07fe63a	-3.998427
29	0x409139e2	4.538316
30	0x40968a44	4.704378
31	0x4093cae8	4.618519
32	0xc09f25e3	-4.973375
33	0x40a5546d	5.166556
34	0x409d2388	4.9105873
35	0x406f5a92	3.739903
36	0xc08e92e2	-4.45543
37	0x40916959	4.54411
38	0xc08f4845	-4.477572
39	0xc091f8b7	-4.5616107
40	0xc05fa5de	-3.4944987
41	0x4092c8c6	4.5870085
42	0x4090ee65	4.529101
43	0x40a03060	5.005905
44	0xc092a980	-4.583191
45	0xc090109f	-4.502029
46	0x4080fc67	4.030811
47	0x409878b1	4.764733
48	0xc08caedf	-4.3963466
49	0xc078f245	-3.889787
50	0x409b443a	4.8520784
51	0x4085851a	4.1724977
52	0xc09136dd	-4.537947
53	0xc09b8f3b	-4.861234
54	0x408bdcd6	4.3707075
55	0x409b2097	4.8477283
56	0xc09b5425	-4.8540215
57	0x4093432e	4.6019506
58	0x40a48ee2	5.1424417
59	0xc090015f	-4.5001674
60	0x409676a3	4.701982
61	0xc08c72d1	-4.3890157
62	0x40932013	4.5976653
63	0x408c8c93	4.39216
